checkpoints/all users/cnn3/20-12-2023_12-36-08/last_model.pth.tar (torch, 138518 bytes, 22 tensors)

conv1.weight f4 [16, 1, 5, 5]
000000 70 bb 66 3d 42 ad c3 bc db 1a 8e bd 8b ec cd bd
       0.056331098 -0.023886327 -0.06938716 -0.100548826
000010 04 69 3b 3e 75 04 90 bd 85 10 f2 3c 85 6c 1e 3c
       0.18301779 -0.070321 0.029548893 0.009669428
000020 d8 c3 bc 3d 1d be ca 3d 18 2b 10 be 15 4a d6 bd
       0.09217042 0.098995425 -0.14078939 -0.10463349
000030 b0 c0 43 be fa 68 6f bd 0f b8 44 3d f2 48 fe 3d
       -0.19116473 -0.058449723 0.048027094 0.12416257
000040 85 86 2a bd 65 21 3b 3e 9c e1 ba 3d 5c 8c 98 bd
       -0.041632194 0.18274458 0.09125063 -0.074486464
000050 93 3e 27 be 4b 95 ab bc b5 fb dd 3d 7b 19 0e 3e
       -0.16332464 -0.020945212 0.10839025 0.13876908
000060 60 f2 20 bd ec 3f ef bd 2c f0 1f bd 79 91 05 3c
       -0.039293647 -0.11682114 -0.039047405 0.008152359
000070 85 0b 9c 3d 81 ca 08 3e e8 9a fc 3c 63 2b 51 bd
       0.07619385 0.13358499 0.030835584 -0.051066767
000080 87 f3 72 bd 5b 99 46 3e fa 71 1e 3e cf 90 dd 3c
       -0.059314277 0.19394438 0.15473166 0.02704659
000090 73 c7 ab bd cd 11 25 be 5d 09 8a 3d 54 f1 80 bd
       -0.08387651 -0.16120072 0.06740067 -0.0629603
0000a0 d9 6f 4a 3e e5 1a d4 bd 15 ad 19 3e 8d 41 1a be
       0.19769229 -0.10356692 0.15007432 -0.15064068
0000b0 c9 ea 28 3e fb 81 9b bd 67 10 18 be 81 fe a3 3d
       0.16495813 -0.07593151 -0.14850007 0.08007527
0000c0 8a 26 49 bd ef 1b 44 3e 8f 5e e9 bd 10 6f e2 bd
       -0.04910902 0.19151281 -0.11394989 -0.1105634
0000d0 ab f8 c6 3d 05 78 16 3e 81 2f 4b bd b8 b9 c5 bd
       0.097153984 0.14694221 -0.04960585 -0.09654564
0000e0 f3 4a e9 bc 59 d8 f2 3d 6e 88 39 be 64 44 5e be
       -0.028478121 0.11857671 -0.1811845 -0.21705776
0000f0 45 d8 99 3b 27 66 ad bd 3c da 9e bd 52 70 36 3d
       0.004694971 -0.0846675 -0.07756469 0.04454071
000100 09 4a f9 3c 8e b6 6a 3d 5b ba 3d 3d 10 f9 49 3e
       0.03043081 0.057303004 0.0463203 0.19723916
000110 12 17 06 bd 4b 74 15 be 6d 12 bf 3c 65 95 0d 3e
       -0.032736845 -0.14595143 0.023324216 0.1382652
000120 f0 df f2 3d 17 f9 34 be a8 2d be 3d d6 8f a7 3d
       0.11859119 -0.17673145 0.09286052 0.081817314
000130 bd 72 1d bd 9c 03 4d 3d fe 2a 12 3e 08 b5 cd 3d
       -0.0384395 0.05005227 0.14274213 0.100442946
000140 4c 4c 3c bd 71 18 1b bd 45 18 e1 bd eb 53 2c 3e
       -0.0459712 -0.037865106 -0.10990957 0.16828887
000150 60 b3 e7 3d aa 3d d7 bd 52 54 6f bd b4 7e 54 be
       0.1131351 -0.10509808 -0.058430023 -0.20751458
000160 69 f2 e0 3d 76 89 1c bc ab 61 8e bd cd 0e 38 3e
       0.10983736 -0.009554258 -0.069522224 0.17974396
000170 05 5e 44 3c ae cb 3d 3c f3 aa 72 3d 51 31 37 bd
       0.011985307 0.011584206 0.05924506 -0.044724766
000180 3b 89 1a be 80 c3 d1 bd 48 f7 2b bd a1 49 a2 bd
       -0.15091412 -0.10242367 -0.041983873 -0.079242
000190 fd a4 cb 3d 3e 18 8d 3d 4c 2a 09 3e 59 f8 8f bd
       0.099435784 0.068893895 0.13395041 -0.070297904
0001a0 ad 60 fd 3c 24 20 35 3c 66 07 42 3e b9 b2 4e 3d
       0.030929888 0.011055026 0.18948135 0.050463412
0001b0 f9 8f 37 3c 24 88 1d be 5c b7 42 be 3b 55 2c 3e
       0.011203759 -0.15383965 -0.19015259 0.16829388
0001c0 b5 25 dc bc b7 bc 18 3c ab 4b 70 3d a4 45 c2 bb
       -0.026873449 0.009322337 0.058665913 -0.005928712
0001d0 d1 b2 87 3d ea 3b a2 bd d5 9e 30 3e c9 7e 03 3e
       0.066259034 -0.07921584 0.1724809 0.12841333
0001e0 88 ae 46 3d 3e 07 bd bd 93 c8 e0 bd 8f 82 01 bd
       0.04850629 -0.09229897 -0.109757565 -0.03161865
0001f0 fd 3e 7f bd 66 96 90 3d ea 63 37 3a ee 6d 61 bc
       -0.06231593 0.07059936 0.00069957844 -0.013759119
000200 fd 6d 1e bd fc 51 30 be 0e 06 34 3a e9 ec 93 3c
       -0.03867911 -0.17218775 0.00068673573 0.018057304
000210 68 19 25 be 13 f3 76 3d 27 7e 21 3e ab 87 31 bd
       -0.16122973 0.060290407 0.1577078 -0.043342274
000220 8f e0 ed 3c 74 af ce bd 28 f6 45 be e5 5a 0c 3e
       0.029037742 -0.10092059 -0.19332182 0.13706549
000230 16 ad 9d bd 01 58 09 3e 33 2d dc bd 0b 64 d7 3d
       -0.07699029 0.13412477 -0.107508086 0.105171286
000240 84 e6 a4 bd f2 14 43 3e 2b d7 9a bc 4c fc a9 bd
       -0.0805178 0.19050959 -0.018901428 -0.08300075
000250 bf 88 d2 3d 0a 2d fd bd 9a 14 89 3d 89 04 8d bd
       0.102799885 -0.12362106 0.066933826 -0.06885631
000260 13 8e b7 bc f3 4a 08 be 5b 95 a3 3d 4c e3 3b bc
       -0.022406613 -0.13309841 0.07987472 -0.011467766
000270 21 c4 cb 3d 38 ea 00 3e 54 c4 3c 3e 4c 78 b8 bd
       0.09949518 0.12589347 0.18434268 -0.0900732
000280 fb b0 a5 bd e7 d6 6d bd 72 14 27 be af b6 84 3d
       -0.08090397 -0.058066275 -0.16316393 0.06480157
000290 36 a5 47 3c 2f 4d 3f be 10 91 49 3e d4 1f 1c 3e
       0.012185385 -0.18681787 0.19684243 0.15246516
0002a0 0d af 30 3e 8b 29 38 3e 3d 5a eb bd eb 5d 4a 3e
       0.17254277 0.17984597 -0.11491821 0.1976239
0002b0 b0 dc b6 bd 3a 8c 81 bd 81 95 41 be 31 6d e7 3d
       -0.089288116 -0.06325574 -0.18904687 0.113001235
0002c0 5a 34 3e 3e 62 9b fd bd ad 74 e0 bd 73 03 46 be
       0.18574658 -0.123831525 -0.10959754 -0.19337253
0002d0 54 93 a4 3d 6d 25 01 be 95 6d 5e 3d 38 d1 4f 3e
       0.08035913 -0.12611933 0.054303724 0.20294654
0002e0 75 5a 18 be 94 91 38 3e 18 74 d1 bd 4a 92 08 be
       -0.14878257 0.18024284 -0.10227221 -0.13337055
0002f0 b5 1c eb bd 92 f5 9d 3d ac 4b 09 3c 68 ae 8c bd
       -0.11480085 0.077128544 0.008379858 -0.06869203
000300 e5 f5 a8 3c 5f c2 38 3e d8 dc da 3c a7 5f 1d be
       0.020625064 0.18042897 0.026716635 -0.1536852
000310 34 9c 39 be d1 f4 6e bd 3e 4d 18 be b4 a8 4b 3d
       -0.18125993 -0.058338944 -0.14873216 0.049721435
000320 94 22 f8 bd 5f a5 02 bd 70 68 95 bd 47 8d 1d 3d
       -0.1211597 -0.03189599 -0.072953105 0.03846481
000330 bf ad 2b 3e 15 ba c2 3d 2c 84 26 3e 3e 89 2e bd
       0.16765498 0.095081486 0.16261357 -0.042611353
000340 b6 62 1d bc fe 6d 1f 3e 02 a2 e8 bd a7 e0 67 bd
       -0.009606054 0.15569302 -0.113590255 -0.05661073
000350 a1 8c 24 3e bd a5 e9 bd 36 7f 1b 3e 92 a2 09 3d
       0.1606927 -0.11408565 0.15185246 0.033602305
000360 ff 42 10 3e 86 8e b4 bd 72 c9 77 3c d8 3a 6e 3d
       0.14088057 -0.08816247 0.015123712 0.058161587
000370 5c 68 4c be 2c 81 e9 bd bb b5 ba bd 08 89 47 be
       -0.19961685 -0.11401591 -0.091166936 -0.19485867
000380 6a 41 dd bb f6 a1 26 3e f1 6c 65 bd da 71 2a 3e
       -0.0067521827 0.1627272 -0.056012098 0.16644993
000390 b9 d7 33 be 6b 1e 14 be 8e f8 bb 3d d6 52 05 3d
       -0.1756276 -0.14464729 0.091782674 0.0325497
0003a0 0f a4 18 bd 09 bd 3c be b2 7a da 3d 69 3a c6 3d
       -0.037265833 -0.18431486 0.106679335 0.096791096
0003b0 9d 12 67 bd a5 dc cb 3d 2b f7 07 bc b2 2a 23 3e
       -0.056414235 0.09954194 -0.0082986755 0.15934256
0003c0 34 aa 18 3e e6 78 bf 3c 1e 5f 05 3e 66 ff 1c be
       0.14908677 0.023373079 0.13024566 -0.15331802
0003d0 66 a6 16 3e 85 06 64 bd d2 90 04 3e 55 42 5b 3d
       0.14711913 -0.05567028 0.1294587 0.053530056
0003e0 a4 60 c9 bd 75 fb e7 3c c8 d4 03 3e f1 48 47 3e
       -0.09832886 0.028318146 0.12874138 0.19461419
0003f0 34 a2 14 3e 6e 52 94 3d 76 25 9a 3d 7c 0c 99 bd
       0.14515 0.07242285 0.07526676 -0.07473084

conv1.bias f4 [16]
000000 79 bd 04 3e ed b2 4c 3d 14 83 cf bd 85 08 6c 3d
       0.12962903 0.049975324 -0.10132423 0.057625312
000010 4d 25 27 3e 35 f4 cf 3c a8 09 50 bb 38 3c f2 3d
       0.16322823 0.025385002 -0.0031744037 0.11827892
000020 a5 fb a1 3d 0a 3a aa 3d 10 1d 93 bc 90 37 ee bb
       0.079093255 0.08311851 -0.017958194 -0.007269807
000030 9d c5 c1 bd b9 ce 06 be e5 c4 fb bd 64 a0 94 3d
       -0.0946152 -0.13164796 -0.12293414 0.072571546

conv2.weight f4 [16, 16, 5, 5]
000000 c2 40 29 bd 75 ef 01 3d ef 42 ce bc 56 37 55 bd
       -0.041321523 0.031722505 -0.0251784 -0.052054726
000010 27 da 63 bd 9d 0a c7 bc 42 35 23 bd f5 24 f9 3c
       -0.05562797 -0.024297053 -0.039845712 0.03041313
000020 d9 99 1b bd 5a d7 7a bd fd b7 e1 bc fb 89 a1 bc
       -0.037988517 -0.06124053 -0.027553553 -0.019719115
000030 6b 39 89 3c eb 08 41 bc 43 f9 6d bd 40 d4 4e bd
       0.016751012 -0.011781911 -0.058099043 -0.050495386
000040 8d 4f 03 3d 78 c5 c6 bc e6 fb 42 bd 5e c1 ca bb
       0.032058287 -0.024264082 -0.04760351 -0.006187602
000050 24 58 9d 3b aa a1 fd bc 8a 2f 53 bd df db f6 bb
       0.004801767 -0.030960876 -0.05155901 -0.007533535
000060 d7 44 5b bc 1a cb 79 bd e1 de dc bb ac db 31 bd
       -0.013383112 -0.06098471 -0.0067404364 -0.043422386
000070 cb c2 50 3c 66 46 d8 bc 7b 77 90 bc 4f a1 23 bd
       0.012741755 -0.026400756 -0.017635098 -0.039948758
000080 2a 2a 87 bc 09 7b b3 3b 47 bf a1 bc ed f7 1c bd
       -0.016499598 0.0054773134 -0.019744528 -0.038322378
000090 5c 2a e9 bc f7 71 5e 3c c8 4c 40 bd dc d8 3a 3c
       -0.028462581 0.013576976 -0.046948224 0.011404242
0000a0 75 ac 88 3c 33 42 1c bd a6 ee b6 3c 64 b6 67 3c
       0.016683796 -0.03814907 0.022330593 0.014142606
0000b0 eb 60 9d bc 88 b3 5d ba ed 39 f8 3c 19 7d c9 3c
       -0.019211253 -0.0008457233 0.030301059 0.024595784
0000c0 8d 04 e7 3c a6 2d bc bc fb 19 32 3c 65 29 45 3d
       0.028200412 -0.022970986 0.010870452 0.04813518
0000d0 3e 9f dc 3c 4b bf 94 3c 21 31 04 3c 89 d1 00 bd
       0.026931401 0.018157622 0.008068354 -0.03144983
0000e0 b7 f9 ac 3c 30 62 62 bd 11 7d fa 3b 89 2c 3c ba
       0.021115167 -0.05526942 0.0076443036 -0.0007178267
0000f0 8c 0f 0c bd 03 36 84 3c f1 6b 8b 3c d8 21 70 3d
       -0.034194514 0.016139036 0.017019244 0.058626026
000100 1c 67 f0 3c cb 8e 2a bd 27 bc 54 bd 53 d2 94 bd
       0.029346041 -0.041640084 -0.05193725 -0.07266679
000110 26 58 5b 3d d9 85 d6 3c e3 3b a7 3c 8e 71 64 bd
       0.05355086 0.02618687 0.020414298 -0.055772357
000120 4b b4 82 bd 47 06 e6 bc 20 7b 30 bd f0 bf 63 bb
       -0.063820444 -0.028079165 -0.04308617 -0.0034751855
000130 91 64 73 bc 78 35 82 3c 5d 72 10 3d 3a 9c 08 bc
       -0.01485552 0.015894637 0.035265315 -0.008338029
000140 f1 19 f4 bc 67 75 69 bd cb 45 0c 3d 42 15 cc bc
       -0.029797526 -0.05699673 0.034246247 -0.02491248
000150 a8 ca 1c bc 3d 0e 56 bd c5 7a 36 bd 54 f7 43 3d
       -0.009569801 -0.052259672 -0.044550676 0.047843292
000160 07 76 4d 3b 15 13 8a 3b 35 a6 bd bc e2 c1 56 3d
       0.0031350867 0.0042137005 -0.023150543 0.052430995
000170 55 3f 9f 3c 6a 1b 57 3b 4d bf 12 3d 41 2e cd 3c
       0.019439379 0.0032822737 0.03582697 0.02504647
000180 1d f8 39 3d 5d d0 2d 3c ef a6 57 bb fc 9b 18 3c
       0.045402635 0.01060876 -0.0032905897 0.009314533
000190 a7 b8 40 3d a3 39 1d 3d c5 3e be 3c d2 f7 08 3c
       0.0470511 0.038385045 0.02322329 0.008359866
0001a0 26 dc 2c bb 00 2f 0b 3d 04 b1 a6 3c b4 c8 0b 3c
       -0.0026376336 0.03398037 0.02034808 0.008531738
0001b0 fc c5 28 3d 8f f4 21 3c 28 c6 24 bd 0d 5f 3f bd
       0.041204438 0.0098849675 -0.04022804 -0.046721507
0001c0 89 e7 db bc 30 47 c1 3c 46 70 7d bb b0 94 4e bc
       -0.026843803 0.023593515 -0.0038671657 -0.012608692
0001d0 25 be 22 3d 37 7c 1c 3d dd 5c 38 3d 1a 58 a4 bc
       0.039732117 0.038204398 0.045010436 -0.020061541
0001e0 4e 33 5f 3c 4a 1d b7 bc 26 08 44 bd 00 47 1c bd
       0.013623072 -0.022352833 -0.047859333 -0.03815365
0001f0 df d3 c4 3c 42 3f a8 3c 87 dd 8a bd a1 05 79 bb
       0.02402681 0.020537976 -0.06780534 -0.003799774
000200 b6 ea 40 bb a8 3b bd 3c d6 cf e5 bc 58 7a 1e bd
       -0.0029436774 0.023099735 -0.028053205 -0.038690895
000210 75 5a cc 3c 76 6d e5 bc de 15 5d 3d 05 95 ab 3c
       0.024945477 -0.028006297 0.053975932 0.020945081
000220 2f e2 ea bc 29 3d a9 bb da c1 10 3c 4c fa 0a 3d
       -0.028672306 -0.0051647616 0.00883528 0.033930108
000230 00 2b 92 3c 0f 60 4b bd 02 92 bd 3c 8b 59 46 bd
       0.01784277 -0.049652155 0.023140911 -0.04842524
000240 72 1b 86 3c 95 74 65 bc 69 f0 47 3c 36 81 77 bd
       0.016370509 -0.014004846 0.012203314 -0.06042596
000250 aa 21 11 bd d3 e7 dd 38 b5 8c 03 bd e4 3e 23 bc
       -0.035432495 0.00010581282 -0.03211661 -0.009963725
000260 9b b3 f8 3c 83 c0 1a bd a2 28 83 bc 0e 10 fa 3c
       0.03035908 -0.03778125 -0.016010586 0.030525234
000270 49 b4 82 3c 6e d3 7b bb f4 2a 3f bd 52 92 37 bc
       0.015955107 -0.0038425582 -0.046671823 -0.011204319
000280 56 92 bc bc 8a 30 3d 3d 33 6e 82 3c d5 7c 1c 3d
       -0.023018997 0.04618887 0.015921688 0.038204987
000290 be 51 2d bd 85 ba 02 3d ff 7f 3d bc 51 8e e6 bc
       -0.042314284 0.03191616 -0.011566161 -0.028144034
0002a0 19 95 8c 3d a4 76 80 bc 86 0e a6 3c 0a 07 71 3d
       0.068643756 -0.015681572 0.020270597 0.058844604
0002b0 fe 83 e8 3c 71 85 1e 3b 14 69 28 3d fc 08 06 3b
       0.028383251 0.0024188424 0.041115835 0.0020452132
0002c0 30 74 13 bd 62 b0 d8 bc 7e 40 3c bd 15 08 0c 3d
       -0.035999477 -0.026451293 -0.045959942 0.034187395
0002d0 d1 44 06 bd 77 e0 39 3d 2b f8 66 3d 9a 30 1a bd
       -0.032780472 0.045380082 0.056389015 -0.037644006
0002e0 a3 fb c2 bc de 89 25 bc 0f 7f 96 bc 47 60 47 3d
       -0.02380163 -0.010103671 -0.018371133 0.0486758
0002f0 d2 c3 14 bb 92 fa eb bc 48 cd 52 3d cf af 5a bb
       -0.0022699726 -0.028806005 0.051465303 -0.003336895
000300 c8 50 ca bc a7 d3 37 3d 7f aa ef 3c be 3a f8 bc
       -0.024696723 0.04487958 0.029256104 -0.030301448
000310 f2 7f f8 3c a4 6a 5d 3d a7 63 10 bd 05 8d 32 3c
       0.030334447 0.05405678 -0.035251286 0.0108978795
000320 59 46 53 3c 82 a1 88 bc 09 f9 c0 bb 4c 53 91 bc
       0.01289519 -0.016678575 -0.0058890623 -0.017739914
000330 8c bf b4 3c a6 86 43 bd 27 80 9b 3c 67 c8 5a bc
       0.022063993 -0.047735833 0.018982006 -0.013353444
000340 79 dd 31 bd 7e 53 3d 3d 70 a1 64 3d 65 54 d7 bb
       -0.043424103 0.046222202 0.05581802 -0.00657134
000350 d4 fa 16 3d 59 61 82 3c 8f 1f 0f 3c 59 88 43 bc
       0.036860302 0.01591556 0.0087355515 -0.011934363
000360 32 cf 48 3d 51 68 80 bb 15 5d 4e bc 2e 34 b9 3c
       0.04902572 -0.0039186855 -0.012595435 0.022607889
000370 52 48 97 3c 93 6d a6 3c a9 bb 45 bc ef da ca bc
       0.018467102 0.020315921 -0.012068667 -0.024762599
000380 1e b2 e1 bc 53 03 de bc 44 b4 1b 3c 3c 34 90 3c
       -0.027550753 -0.027101194 0.009503428 0.017603032
000390 77 fd 67 bc 90 fc 10 3d ee 76 f3 3c da 9a 3d 3b
       -0.014159552 0.035397112 0.029719796 0.002893141
0003a0 09 f5 78 ba f4 e1 c1 3c c2 33 f8 3c e3 a2 32 3d
       -0.00094969623 0.023667313 0.030298118 0.043612372
0003b0 b3 75 39 bc f9 81 02 bd 78 46 ba 3c 95 99 27 bd
       -0.011319566 -0.031862233 0.02273868 -0.04091795
0003c0 36 86 7b bc bc db 08 bd b5 ae dc bc 97 03 86 3d
       -0.015351823 -0.03341268 -0.026938776 0.065436535
0003d0 63 e4 a6 3b 46 43 43 bc 22 07 51 bc a7 36 18 bd
       0.005093144 -0.011917895 -0.012758048 -0.037161496
0003e0 c3 49 43 3d 83 2c 10 bd 5d 36 f7 3c 56 a0 74 3c
       0.047677767 -0.0351987 0.03017729 0.014930805
0003f0 65 69 58 bd f0 4e 03 3d 7d 3b f9 bc 4c 0f a7 3c
       -0.052834887 0.032057703 -0.030423874 0.020393036

conv2.bias f4 [16]
000000 55 f5 2e 3d 0d 58 d7 3c dc 3a fb 3b 79 e7 e5 3c
       0.042714436 0.026287103 0.0076669287 0.028064476
000010 77 d5 29 3d f5 ed 00 bd 21 bc 3d 3d 0a 0a fa 3a
       0.04146334 -0.031476934 0.04632199 0.0019076478
000020 fe bb 0e bb 0f 83 86 bc a8 3e a0 3c 44 72 fb 3c
       -0.0021779533 -0.016419915 0.019561127 0.030694135
000030 ba 64 31 bc 31 c6 dc bc 78 14 f0 3c 6c f8 06 bd
       -0.010827238 -0.026949974 0.029306635 -0.032951757

conv3.weight f4 [32, 16, 5, 5]
000000 2a 4a ae bb 8d f2 7f bc d1 3d c8 bc 33 be 31 bd
       -0.0053188996 -0.015621793 -0.024443539 -0.04339428
000010 eb 9b 1d 3d b7 00 4f bc 1f 0b 40 bd 8f 77 80 3c
       0.038478773 -0.012634448 -0.046885606 0.01568201
000020 0c 4f 90 3c e7 d8 42 3d e5 be 0d 3c 4e 9c 49 bd
       0.017615817 0.047570135 0.00865147 -0.04922133
000030 76 7b 7a 3d b2 00 28 3d 4b 39 ad bc 12 e8 23 3d
       0.061152898 0.041016288 -0.021145483 0.04001624
000040 2d 6b 75 3d 74 59 33 3d d0 0a 0d 3d 77 1e 09 bd
       0.059916664 0.04378648 0.03443414 -0.03347632
000050 8b fe da bc 8c 9c ff 3c b2 ed 1d 3d 94 58 58 bd
       -0.026732704 0.031202577 0.038556762 -0.05281885
000060 84 18 0a bd 50 b7 b2 3c 1b 17 f7 bc 56 f8 39 bd
       -0.033714786 0.021815926 -0.030162385 -0.045402847
000070 e6 41 15 bd 0a 04 4e 3d 28 85 51 bd 7c ed 2d bd
       -0.0364398 0.05029682 -0.05115238 -0.04246281
000080 f4 35 6d bc 1f a3 09 3d 22 1f 32 bd 27 37 f8 bc
       -0.014478195 0.03360283 -0.04348672 -0.030299736
000090 0e eb b5 3c 73 a0 b6 bc 10 a9 35 3d c0 ea a2 bc
       0.02220681 -0.022293305 0.044350684 -0.019887328
0000a0 32 1b 7b 3b 0a 10 94 ba 5e f0 9c bc 93 e8 35 bd
       0.003831577 -0.0011296284 -0.019157585 -0.044411253
0000b0 78 9e d6 bc fb a1 99 bb 51 47 8e bc e2 da 03 3b
       -0.02619861 -0.004688499 -0.01736799 0.0020119478
0000c0 9f cf 53 bd 56 53 e9 3c c6 3c 1a 3c e5 23 37 bd
       -0.051711675 0.02848212 0.009413904 -0.044711966
0000d0 72 ad 4d bd 88 b6 a9 3b fb 59 c9 bc 10 c9 07 3d
       -0.05021424 0.00517923 -0.024579039 0.033150733
0000e0 1d 38 59 bc 46 55 b6 3c 12 3b 2c 3d 0c 6f b4 bc
       -0.013258007 0.022257458 0.04204852 -0.022025608
0000f0 37 2e 91 bc 4f 39 93 3b 74 69 2c 3d b0 23 b5 bc
       -0.017722232 0.0044929157 0.042092755 -0.022111744
000100 46 bb f4 bc 11 6f 1a bd 51 9f 60 bd 74 32 3c 3d
       -0.029874455 -0.037703577 -0.054839436 0.045946553
000110 43 05 cb bc 73 13 c3 3c 60 7e b6 3b 9b 99 19 3d
       -0.024782782 0.023812985 0.0055692643 0.037500005
000120 d1 71 91 3c 62 f4 47 3d 00 ae bd bc c0 b6 a2 bc
       0.017754467 0.048817046 -0.023154259 -0.019862533
000130 99 f2 03 bc 23 24 28 3d 7b 25 e3 3c 5b 7d 15 3d
       -0.008053445 0.041050088 0.027727833 0.0364965
000140 89 df 5f bd 20 74 19 3c 39 65 1e 3c 3e 4f d1 3a
       -0.05465654 0.009366065 0.009667688 0.0015969051
000150 1b ff 0c bd 97 6d 82 3b 00 7a b0 b9 23 26 9a 3c
       -0.034422975 0.0039803493 -0.00033660233 0.018817013
000160 46 85 d4 bc 0c 3b 81 3d 4b 45 6b bc 63 8a 10 3d
       -0.025942456 0.063100904 -0.014359782 0.035288226
000170 0b b1 0b 3d df fc 7b 3c 49 de 49 3d 9c 41 56 3c
       0.03410439 0.015380113 0.049284253 0.013077166
000180 17 be 13 bd 9e b4 17 3c 4d b8 75 bc d5 fe 46 bd
       -0.036069956 0.009259371 -0.014997554 -0.04858287
000190 c9 02 0c bd c3 b7 3c 3c 29 5f 7d 3c 8e c6 4d bd
       -0.034182344 0.011518422 0.0154645825 -0.050238185
0001a0 d8 b0 e8 3c 4b 3f 9b bb 5a 9e 01 bd 64 1a 65 bc
       0.028404638 -0.0047377697 -0.031645156 -0.013983343
0001b0 38 a5 18 3d 76 3f 11 3c 03 49 19 3c 69 7d e1 3c
       0.03726694 0.008865228 0.009355786 0.02752562
0001c0 43 44 0e bd 3d c4 24 3d e8 ed fa bc 4f c4 3a bc
       -0.03473307 0.04022621 -0.03063102 -0.011399343
0001d0 c0 cf 45 3d 0f 15 2b 3d c4 95 fb bc e3 77 27 bc
       0.04829383 0.04176813 -0.030711062 -0.010221454
0001e0 cd 32 28 3c 4f 15 ca bc 5e ed 90 3c 6e 58 b3 bb
       0.010266018 -0.024668364 0.01769131 -0.005473188
0001f0 a7 63 1c bd 18 97 43 3b ff b6 92 3c 3a 47 fa 39
       -0.038180973 0.0029844698 0.017909525 0.00047736784
000200 a2 6a d1 3c 16 45 75 bd 83 17 38 3c b9 07 8b 3c
       0.025563542 -0.05988034 0.011236074 0.016971456
000210 84 97 77 3c 1a 7e 4d 3c ba 9a bf bc 37 46 4f ba
       0.015111808 0.012542272 -0.023389209 -0.0007906886
000220 1f 43 31 bd e3 e1 2d bb c7 d5 86 3c bb e9 fc bb
       -0.043276902 -0.0026532344 0.016459359 -0.0077182925
000230 5b 52 a5 bc 20 80 17 bd 51 6e 16 bd b0 c0 0c 3d
       -0.020180872 -0.036987424 -0.0367263 0.03436345
000240 e3 28 9b bc ac 57 3e 3d 8d 13 4e 3c 71 00 34 3d
       -0.018940395 0.04647033 0.012577903 0.043945733
000250 90 72 aa bc be 27 56 3d 5c a6 89 bb 12 d9 0f bd
       -0.02080658 0.052283995 -0.00420074 -0.035119124
000260 9d e9 33 3d 75 3d 3b 3c c5 6f 3c 3d 7f c6 73 3c
       0.043923963 0.011428227 0.04600503 0.014878868
000270 c0 a5 f6 3c 9f 95 c4 3c 98 50 03 3d f4 a8 1d bd
       0.030108333 0.023997126 0.032059282 -0.038491204
000280 4a ab d8 bb 8d e0 32 3d f2 12 99 3b 2a 0f 82 bd
       -0.006612216 0.04367118 0.004671448 -0.063505486
000290 73 3e 4a bd fc bc 0a 3d 89 d2 0b 3d dd 8e 14 bd
       -0.049375962 0.033871636 0.03413633 -0.036269058
0002a0 8f 11 07 bd 16 af c9 bc 89 1e 04 3d 4a 00 7f bc
       -0.03297573 -0.02461962 0.032255683 -0.015564034
0002b0 ca ae 56 3c 61 17 d0 3c 7f 3c 5a 3c dd 6c c1 3c
       0.013103196 0.025401773 0.013320087 0.02361148
0002c0 f1 67 5c bc f8 87 17 3d 9e 25 33 bd 43 3d ae bc
       -0.013452516 0.036994904 -0.043737046 -0.021269446
0002d0 67 c8 6a 3d b3 38 48 3d 96 56 e3 ba ba f0 f8 3b
       0.057320025 0.048882198 -0.001734453 0.007597056
0002e0 da e5 9f bb 03 74 f2 bc a3 6a e2 3c e7 98 a6 3c
       -0.0048796954 -0.029596334 0.027638739 0.020336581
0002f0 de 05 34 bc f8 a0 1a 3d 06 13 c2 3c d9 23 45 3d
       -0.010987727 0.037751168 0.023690712 0.04812989
000300 e0 ee 29 bd 6d 50 28 bc bc 49 04 bd 89 e1 8f bb
       -0.041487575 -0.010273081 -0.03229688 -0.0043908996
000310 86 b2 4a 3d dd f0 d8 bc 9c da d5 bb 4c 56 a6 bb
       0.04948666 -0.02648204 -0.0065263044 -0.0050762054
000320 6a a4 47 bc a1 58 f5 bc 1c 1b 26 3d a8 37 b9 3b
       -0.012185195 -0.029949488 0.040553197 0.0056523867
000330 af de 31 bd 2e 1f 8a bc aa 13 33 3d 7b 73 0a bb
       -0.04342526 -0.01686057 0.043719925 -0.002112596
000340 d4 9e 8c bc 96 8f 55 bc 06 be 41 3d 0b ba 2b 3c
       -0.017165579 -0.013034722 0.04730036 0.010481368
000350 71 ad 23 bc e8 31 2c bc 4a 2b 17 3d 73 87 7f bc
       -0.009990082 -0.010509945 0.036906518 -0.015596258
000360 20 b5 01 bd 36 c7 c5 bc 03 b6 53 3d bd 68 d4 3b
       -0.031666875 -0.024142843 0.05168725 0.0064822123
000370 9f 1e d6 3c 0a bb 6a 39 ad 6f 24 bd 2d e0 6f 3d
       0.026137648 0.00022385656 -0.040145565 0.0585634
000380 95 a5 f8 bc a7 02 02 bd 07 f5 1c 3d 6b c6 0d bd
       -0.030352393 -0.03174081 0.038319614 -0.034613054
000390 74 b2 4d 3d 9b 3c 2d 3c a6 60 bb bc 1f 6a 19 bd
       0.050219014 0.0105735315 -0.022873234 -0.03745472
0003a0 0f 2c c7 3b b7 76 04 3d b5 0e e2 bc b2 e1 83 bc
       0.0060782502 0.032339778 -0.027594903 -0.01609883
0003b0 db de 0f bc ec c1 d0 bc 91 fd 22 3b 00 9e 20 3d
       -0.00878116 -0.025483094 0.0024870376 0.03921318
0003c0 83 36 49 3c d9 86 67 bc be 59 5f 3c 30 62 16 ba
       0.012281063 -0.014131271 0.013632236 -0.0005736677
0003d0 3f 63 de bc 65 ef 82 bc 20 78 69 3d aa 61 a9 bc
       -0.027146934 -0.015983293 0.056999326 -0.020676453
0003e0 46 38 0c bd 23 67 c3 3c ac d4 63 3d 34 51 70 3d
       -0.034233354 0.02385289 0.05562274 0.05867119
0003f0 15 f8 98 bc f3 7e 11 bc a5 ab 85 3c 5c 9f 3b bc
       -0.018672982 -0.008880365 0.016317198 -0.011451568

conv3.bias f4 [32]
000000 12 c8 71 3c 2b 2c 41 3d ed 59 37 bd 05 6f 84 3c
       0.014757173 0.047161262 -0.044763494 0.01616622
000010 34 96 e4 3c 0a 65 8f bc 7d ce 02 bd ef 7e d6 3b
       0.027903654 -0.017504234 -0.031935204 0.0065458934
000020 c8 6b 2e 3d 3a b5 56 bc c0 0c 3e bd 4e a7 58 bd
       0.042583257 -0.013104731 -0.046398878 -0.05289393
000030 1b ae 6e bc cd e7 18 bd bf 6e 4b 3d ab 86 13 bd
       -0.014567877 -0.037330437 0.049666163 -0.0360171
000040 b8 0b 27 3d ca 12 a6 3c c2 b2 0e bd 85 eb f8 bc
       0.04078266 0.020272631 -0.034838445 -0.030385742
000050 c8 04 a3 3c ef 4d 09 3d 55 45 3a bd 39 79 af bc
       0.01989974 0.03352159 -0.045476276 -0.021420108
000060 6b 06 11 3d 5f 3e a7 ba 89 9e ff bc 53 f7 0f 3d
       0.03540651 -0.0012759677 -0.031203525 0.035147976
000070 b0 f4 12 bd ab 5f 08 bd e9 28 96 bb cf 0b f2 ba
       -0.035877883 -0.03329436 -0.0045825136 -0.0018466654

linear1.weight f4 [32, 288]
000000 e5 c7 e9 3c 95 88 fc bb f2 58 47 bd cb d8 09 bd
       0.0285377 -0.0077067115 -0.04866881 -0.033654016
000010 89 9c e0 bc 81 b5 4f bc 1b cc 31 bd 49 48 04 3d
       -0.027418392 -0.012677551 -0.04340754 0.0322955
000020 64 86 0f 3d 8d 60 ce bc 0f 99 67 3d 13 a0 11 3d
       0.035040274 -0.025192523 0.056542452 0.03555305
000030 18 08 96 3d f6 ab 53 3c 94 8c 5b 3d a6 4c 1c 3d
       0.073257625 0.012919417 0.053600863 0.038159035
000040 56 94 ef 3b 16 4a 43 bd 04 06 06 3d e6 74 60 3d
       0.007311384 -0.047678076 0.03272058 0.054798983
000050 21 ac 45 bc a0 b2 51 bd 13 eb 72 bb 1e 2f 5c 3d
       -0.0120649645 -0.05119574 -0.0037066385 0.053755872
000060 ae d7 a6 bc 18 46 11 bd f8 7c a1 3c af 0d 1e 3c
       -0.020366516 -0.035467237 0.01971291 0.009646817
000070 35 16 54 3d 97 c9 ec bc 45 9a 60 bb b0 21 87 bd
       0.05177899 -0.02890472 -0.003427164 -0.06598222
000080 31 73 91 3c ba 3e 4f 3c 50 c1 04 bd 91 88 80 bd
       0.017755123 0.0126492325 -0.03241092 -0.06276048
000090 80 b1 d6 3c 10 0d 30 bc 43 44 dd 3b 2a ef 7c bc
       0.026207685 -0.010745302 0.006752522 -0.0154378805
0000a0 fd 15 09 3d fe b1 32 bc a7 0b 53 3d dc 05 86 3c
       0.033468235 -0.010906694 0.051524784 0.016360216
0000b0 40 01 61 3d 53 ee ee bc 85 bf 52 bd 37 dc 0d 3d
       0.054932833 -0.029166376 -0.05145218 0.03463384
0000c0 29 aa c9 bc 75 90 d9 ba 4f 6d 3f bd 97 82 19 bd
       -0.024617271 -0.0016598838 -0.046735104 -0.037478056
0000d0 82 06 69 bc cc cc 91 3d 60 5f 84 3d 22 49 2f bc
       -0.014222743 0.0711914 0.06463504 -0.010698589
0000e0 45 af e0 bc ee dd 18 bd 8f f2 31 bd f1 db 1c bc
       -0.027427325 -0.037321024 -0.043444213 -0.0095739225
0000f0 2e b8 26 3b 6c fd 67 bd e2 d3 8d 3d 4e dc 15 bd
       0.002543937 -0.056638166 0.06925179 -0.036587052
000100 0c 32 8c b8 cb 18 d8 bc ac 84 1a 3d ab c1 cc 3c
       -6.685042e-05 -0.02637901 0.037724182 0.024994692
000110 a2 2f 00 bc cc e9 9f bc 24 c9 2f 3d 6b f3 03 3d
       -0.007823857 -0.019520663 0.042916432 0.032214563
000120 36 03 dd bb 69 64 ec bc c5 ad fe 3b 22 ef f9 3c
       -0.0067447675 -0.028856473 0.00777218 0.030509535
000130 26 5a 6d bd f3 73 10 3d 91 83 6d bd 7c 9a 0e bc
       -0.0579473 0.035266828 -0.0579868 -0.008703824
000140 16 f9 7f bd e3 96 f6 bc 3e 31 48 3d 7a 80 2a 3d
       -0.062493406 -0.030101245 0.048875086 0.04162643
000150 b5 7d a5 3b 5d c3 e6 bc 3b ab b6 3c 0b a9 e3 3c
       0.005050386 -0.028169328 0.022298446 0.027790567
000160 a0 12 09 bd 69 1e 82 3c c6 e1 ec 3b 78 4a 75 bd
       -0.033465028 0.015883641 0.0072290627 -0.059885472
000170 70 6d d3 38 0d 14 1a 3d 8a ab 1a bd fb 4a 04 bd
       0.00010081648 0.03761678 -0.03776125 -0.03229807
000180 9b 80 1a 3d 72 84 9a 3d 4a 12 2e bd 97 0e 80 3c
       0.037720304 0.07544793 -0.04249791 0.015631957
000190 22 bd d1 bc fc 4f 07 3d 3d dd 37 3c 9f 60 46 bb
       -0.02560288 0.033035263 0.011222181 -0.0030269993
0001a0 f3 d3 75 3b b3 de 20 bd 44 5d 40 3d a5 5f 2c bd
       0.0037510365 -0.039274883 0.046963945 -0.0420834
0001b0 70 cf 07 bc 69 8e ae bc 04 57 03 3d 04 78 02 bd
       -0.008289203 -0.02130814 0.032065406 -0.031852737
0001c0 15 89 f7 3c 72 31 46 bd a1 d1 26 3d b5 86 62 3d
       0.030216733 -0.048387 0.04072726 0.055304248
0001d0 2a 4d f7 bc ae e0 d1 3c 33 a7 db 3c 38 da 88 3b
       -0.030188162 0.025619831 0.026813125 0.0041764043
0001e0 48 f6 a3 bc eb fe 5a bd 6b ab 50 3d dd 0c 35 bd
       -0.020014897 -0.053465765 0.050944727 -0.04420172
0001f0 88 0e 63 3c 46 56 17 3b c8 e2 b2 3c 0f 67 f9 3c
       0.013858445 0.0023092194 0.021836653 0.03044465
000200 a2 5d 22 3c 63 e9 6b bd b9 f9 f0 39 32 3a eb 3c
       0.009910019 -0.05759562 0.00045962425 0.028714273
000210 45 1e ae bc 66 2c ee bc 5c b2 0e bc 69 b8 38 bb
       -0.021254668 -0.029073905 -0.008709516 -0.002818609
000220 50 6c 90 bb a5 8e 60 3a d4 b4 39 3b 16 b2 f5 3c
       -0.004407443 0.00085661776 0.0028336542 0.029992145
000230 ea ad 05 bc 9d 86 7f bd 9a 9d e0 3c a9 62 ca bc
       -0.00815914 -0.062384237 0.0274189 -0.024705248
000240 a4 71 16 bc 36 7a 74 3d 04 d7 2c bb 2e 81 88 3d
       -0.0091823675 0.059686862 -0.0026373276 0.06665264
000250 0f 5b c2 bc 5e a9 08 bd b2 c0 27 3a f0 b2 ec bc
       -0.02372506 -0.033364646 0.0006399258 -0.028893918
000260 4b ec 3c 3d 6a 0f 99 bc 36 85 1e 3d 97 bf bc 3b
       0.046123784 -0.018684108 0.03870126 0.005760144
000270 b3 01 89 3c 87 47 28 3d bf 08 c7 bc 43 0c ad bc
       0.016724443 0.04108384 -0.024296163 -0.02112401
000280 e0 6a c2 3c 08 5e 78 3d de 38 93 bc d7 59 07 3d
       0.023732603 0.06063655 -0.017971452 0.033044662
000290 9e 46 00 3d 2e 38 87 bc 58 83 02 3d d9 c7 7f 3c
       0.031317346 -0.01650628 0.03186354 0.015611612
0002a0 a1 79 96 3b ef e0 18 38 b1 b4 9a bd eb e5 5f 3d
       0.004592136 3.644911e-05 -0.075539954 0.054662626
0002b0 88 89 04 bd 88 da 9e 3c 3f 39 a3 bc 87 5e 19 bc
       -0.032357723 0.019391313 -0.019924758 -0.009360916
0002c0 0b bd bf bc 8e 1d f3 3c 37 a5 2e 3d db 3a c4 3c
       -0.023405572 0.029677179 0.04263803 0.023953846
0002d0 72 13 65 3c 65 5f fb bc bf 24 b5 3c a3 c1 43 3c
       0.013981687 -0.030685136 0.022112248 0.011948022
0002e0 c2 41 9c bb 82 a3 16 bd 7b 24 73 bd a9 e0 cd 3c
       -0.004768581 -0.036777027 -0.059360962 0.02513154
0002f0 f0 cc 60 bd db e6 8f 3c 61 ef 4d 3d fd 6b a1 3c
       -0.054882944 0.017566135 0.050277118 0.019704813
000300 ee 52 15 3d a3 4e 5e 3c e0 61 2c bd e3 df 36 bc
       0.03645604 0.013568553 -0.04208553 -0.011161777
000310 42 4b 3c bd 04 c9 55 bd ca 3e 68 bc ed 09 8a 3d
       -0.04597021 -0.052193657 -0.014175126 0.067401744
000320 ee 98 17 3a ce 62 ae 3b 82 83 a9 bc 04 d7 ca 3c
       0.0005782981 0.005321837 -0.02069259 0.02476073
000330 1b 08 ca bc 84 2f 06 3d c6 6e 94 bc 4d 04 98 3c
       -0.024662068 0.03276016 -0.018119227 0.018556738
000340 01 50 5c bd 9c b7 2e 3d 16 2e 80 3b 2a c5 61 bd
       -0.053787235 0.042655572 0.003911744 -0.05511967
000350 a6 18 39 3d 82 22 c7 bc 97 0a 18 bd 00 0c de bc
       0.045189522 -0.024308447 -0.037119474 -0.027105331
000360 b6 72 3b bc a5 12 62 bc e5 bc 32 bc 9f 38 7f 3c
       -0.011440923 -0.0137983905 -0.010909294 0.015577464
000370 87 da 4d bb 97 aa cb 3c c0 6a 3d 3c ac be 14 3b
       -0.003141077 0.024861617 0.011561096 0.0022696657
000380 d4 9c 91 3c c1 6a c1 bb e8 23 38 3d d5 c5 88 bc
       0.017774977 -0.0059026186 0.044956118 -0.016695896
000390 92 e1 4b bd f9 2a 59 bd fa 8c 8d 3d 4e 01 58 3d
       -0.049775667 -0.053019498 0.06911655 0.05273562
0003a0 f5 e5 43 bd d6 0b b5 3c dc d4 ca bc 11 91 3f 3d
       -0.047826726 0.02210037 -0.024759702 0.046769205
0003b0 cf fd 14 bd 7b 02 ed bc 9a 5a e6 3b 89 a0 2d 3c
       -0.036374863 -0.028931847 0.0070298435 0.010597357
0003c0 15 10 88 bd 46 8b 9e bc f5 87 39 bc c1 8d 52 3d
       -0.066436924 -0.01935352 -0.011323919 0.05140472
0003d0 8e 8e 56 bc 90 c0 82 bd 5a 29 61 bc 2e fc 0e 3c
       -0.013095511 -0.06384385 -0.013742769 0.0087271165
0003e0 fe 1d 1f bc f3 3d 58 bc 90 c2 b5 bc 58 97 47 3b
       -0.009711741 -0.013198364 -0.022187501 0.0030455198
0003f0 27 1b 84 bd ac e4 0c bd c6 1d ff 3c b1 bd 3f 3b
       -0.064504914 -0.034397766 0.031142127 0.0029257352

linear1.bias f4 [32]
000000 65 5f 18 bd 71 e3 86 bb db 7e 39 3d ba 61 c2 3b
       -0.03720035 -0.0041164686 0.045286994 0.00593206
000010 5f 36 2f 3d 1c 8a 8c 3c c0 68 0b 3d 9b 90 14 bd
       0.04277646 0.0171557 0.034035444 -0.03627072
000020 fb 34 ef 3c 20 0c 24 3d ee d8 a4 3b b1 11 00 3d
       0.029200068 0.040050626 0.005030743 0.03126687
000030 75 85 58 bd 20 94 23 bd 53 bc 7a bd 5f 41 80 3d
       -0.05286165 -0.039936185 -0.061214756 0.062624685
000040 77 81 19 3d e3 c6 3a 3d b9 d1 90 3c 66 eb 6b bd
       0.037476983 0.04559983 0.017678129 -0.05759754
000050 2b ab dd 3b a8 51 87 3d 18 30 5f 3c 20 28 bc bc
       0.0067647896 0.066073716 0.013622306 -0.022968352
000060 78 fa 85 3d 2c 07 5c ba 5f 0f 1f 3d 24 43 b4 3c
       0.06541914 -0.00083934027 0.03883302 0.022004671
000070 56 f7 12 bd 2a 01 48 bd 77 ff 11 3d 73 90 f2 3c
       -0.03588041 -0.048829235 0.03564402 0.029609894

linear2.weight f4 [10, 32]
000000 0d 74 6a be 88 17 1d bd bc 0f ad be 43 8f 53 be
       -0.22895832 -0.03835252 -0.33801067 -0.20660119
000010 08 66 ab 3e 5b 8f 9c 3e 10 e1 34 3e 7f 1e 76 bc
       0.3347628 0.30578122 0.1766398 -0.015021919
000020 ad 2e aa be e6 3a b8 bd 7b 25 0f be 3a 18 9b 3e
       -0.33238736 -0.08995609 -0.13979141 0.3029192
000030 f7 37 d3 3d 7e 08 c8 3e 14 49 00 3f 47 73 a9 be
       0.10313409 0.3906898 0.5011151 -0.33095762
000040 ac 00 82 3e c8 08 00 3e ea a3 48 be 90 f3 80 be
       0.25391138 0.1250335 -0.19593778 -0.25185823
000050 e4 50 5b be b0 8c e1 bd db 43 2a 3e 37 ae 16 3e
       -0.21417576 -0.11013162 0.16627447 0.14714895
000060 88 89 ca 3c 7b 35 a6 3e f0 ba 9e 3e d2 b7 1d be
       0.024723783 0.32462677 0.31001997 -0.15402153
000070 b9 38 15 be 4d 5c f6 3c c6 28 74 3d cd 3d 87 3d
       -0.14572419 0.03007331 0.059609197 0.066035844
000080 dd 87 e3 3e d2 55 20 3e 60 eb e9 3e 10 5d 64 3b
       0.44439593 0.15657738 0.4568739 0.0034845509
000090 de f6 8f 3e 68 23 70 3e 8c dd e1 bd 0e 9f bc bd
       0.28118032 0.23451006 -0.11028585 -0.09210025
0000a0 88 05 9d 3d 4b 5b b4 bd 3d dd 17 be 20 30 92 bd
       0.076670706 -0.08806475 -0.1483049 -0.07138085
0000b0 bb 72 28 bd e0 f5 c0 3d 05 fe 93 bd 8c 7a 39 be
       -0.04112504 0.09421897 -0.07226185 -0.18113154
0000c0 67 69 64 be 99 30 4c be 23 48 b7 bd 8c 3d f1 3e
       -0.22305833 -0.19940414 -0.08949306 0.4711727
0000d0 a6 b0 f5 bc 23 c4 fd 3d 05 a1 93 3d 97 cd 5a 3e
       -0.02999146 0.12390926 0.072084464 0.21367489
0000e0 53 d3 89 be 1a ee 66 3c 78 d3 80 be 27 53 0e be
       -0.2691904 0.014094854 -0.25161338 -0.13898908
0000f0 52 60 41 be da 2d d0 3d f5 b2 fc 3d 3d 40 58 3c
       -0.188844 0.101649955 0.12338821 0.013198909
000100 3b 0a 10 be ab 0e 79 be a8 8b ab 3d 42 44 08 3f
       -0.14066403 -0.24322002 0.08376247 0.53229153
000110 8a f1 3f 3e 15 1c bc bc 44 6d 83 be ee b7 61 3d
       0.18744484 -0.02296261 -0.256693 0.05510705
000120 e2 21 ee 3e 09 37 34 bd aa 80 d8 3d ad 98 bf 3e
       0.46510226 -0.043997798 0.10571416 0.3742117
000130 9d da 2b 3e 30 a7 98 be d1 6a 5e 3d 72 f9 52 3e
       0.16782613 -0.29815054 0.054301087 0.20602968
000140 11 2e 0a be a2 7c d0 bd a9 84 44 3e 7c 55 6a be
       -0.13494135 -0.10180022 0.19191231 -0.22884172
000150 08 16 bb 3e 13 19 88 be 35 be 86 bc d0 9e 8d be
       0.36540246 -0.2658163 -0.01644812 -0.27660227
000160 5c 73 7f be d1 f0 b4 bd 36 c8 a1 3e 7a f8 bb bd
       -0.2494635 -0.088349946 0.3159806 -0.091782525
000170 88 5e 3b be 1c 0c ed 3c f4 5f 8b 3d 40 a9 d2 be
       -0.1829778 0.028936438 0.06805411 -0.41144753
000180 4b 1e 99 be c9 50 ff 3e ac 33 7c be 30 64 39 be
       -0.29905924 0.49866322 -0.24629086 -0.18104625
000190 7f 41 65 3d 60 bc cc bc e8 24 6e be e9 90 32 bd
       0.055970665 -0.024992168 -0.23256266 -0.04359523
0001a0 e9 e5 9b be 4b c7 86 3d b1 be 39 3e 80 11 c6 3e
       -0.30448845 0.06580981 0.18139149 0.38685226
0001b0 ae 4c 22 be c3 08 9e be 01 87 24 be 08 76 5a 3e
       -0.15849563 -0.3086606 -0.16067125 0.21334088
0001c0 a3 2e 03 be e7 46 72 be ed 28 28 3e 20 6b e8 3e
       -0.12810759 -0.2365986 0.16421862 0.4539423
0001d0 0f 83 25 b9 4d 92 2e 3e 9c b1 09 be 73 dc 96 3e
       -0.0001578445 0.17047997 -0.13446659 0.29465064
0001e0 cb 85 be 3d 7d da 74 3e 1d a2 32 3e 79 e2 f4 3e
       0.09302863 0.23911472 0.17444654 0.47829035
0001f0 9b 7d b5 bd 32 d2 9b 3d 51 fe 4a bd d9 50 1d 3d
       -0.08861848 0.07608451 -0.04955894 0.03840718
000200 b1 88 93 be 1f 3a 20 be 9f ca 0d 3e 59 9e aa bd
       -0.28815225 -0.15647171 0.13846825 -0.08330984
000210 1f ae a2 3e b8 5a 02 be 0d aa 24 3e 62 10 19 be
       0.3177347 -0.12729919 0.16080494 -0.14947656
000220 e6 47 84 3e 1a 51 7e be 04 57 52 3e f9 4f d5 be
       0.25836104 -0.24835625 0.20541006 -0.41662577
000230 da c1 15 3e 87 3e 03 3e ad 7e b2 bd 24 b5 eb 3e
       0.1462473 0.12816821 -0.08715568 0.46036637
000240 7b df 86 be ba aa 86 3c 04 67 9f be 27 30 86 bc
       -0.26342377 0.01643883 -0.31133282 -0.016380383
000250 23 a8 e1 3b 7d 8a 66 be 29 3c 00 be 59 de d5 bd
       0.0068864985 -0.22513767 -0.1252295 -0.104428
000260 13 0e 2a 3d c2 ce 96 be 75 7a 31 be 19 33 91 3d
       0.04151733 -0.2945462 -0.1733187 0.07089824
000270 74 59 00 3e fe 83 f3 bd ad 97 5c be e1 69 08 3f
       0.12534124 -0.1189041 -0.21542235 0.5328656
000280 9c 5c 82 be 6e 75 0b 3e b0 d9 3c 3e 0b c9 21 bc
       -0.2546128 0.13619015 0.18442416 -0.009874593
000290 cf e0 e2 bd b4 8b 9f be a5 61 5c be 1b 12 70 bd
       -0.11078035 -0.31161273 -0.21521623 -0.058611017
0002a0 b3 45 38 be 1b 1a ba 3e b6 23 02 be a2 2c 82 be
       -0.17995338 0.36348042 -0.12708935 -0.25424677
0002b0 c1 23 db 3d db 78 59 3e a3 78 03 be 62 c6 82 be
       0.10700179 0.21237509 -0.12838988 -0.2554198
0002c0 d3 19 c9 3e 0c 1a 16 3e 3f 6e 83 be e1 6c 1d 3d
       0.39277515 0.14658374 -0.2567005 0.038433913
0002d0 74 4a dc 3e 22 36 9e 3e 05 b0 9a bb fd 1f 47 bd
       0.43025553 0.30900675 -0.00472069 -0.04861449
0002e0 9d 8b 3a be 63 b9 9b bd fa dc 89 be c9 5f 89 3e
       -0.1821732 -0.07603719 -0.26926404 0.2683089
0002f0 3d 75 8d 3e aa ee 98 bd 6d f4 b2 3e f1 34 15 3e
       0.27628508 -0.074673966 0.34952107 0.14570977
000300 de 77 1d 3d e0 7f 1e bf de e5 38 3e c1 76 9c be
       0.038444392 -0.6191387 0.18056437 -0.30559352
000310 28 b0 d6 be ef d6 c3 be 3d 19 91 3b bd 82 9e bc
       -0.41931272 -0.3824992 0.0044280575 -0.01934945
000320 09 6b cd be 92 ae 80 be c3 99 11 3d 4f ed 6f 3e
       -0.40120724 -0.25133187 0.03554703 0.2343037
000330 e7 9d fc bd 27 60 f7 be ce 18 c7 3d d4 e7 22 bd
       -0.12334805 -0.48315546 0.09721528 -0.03977187
000340 af c4 0d 3d ad 8c d5 bd 66 49 0c be 06 ab e1 bd
       0.0346114 -0.104272224 -0.13699874 -0.11018948
000350 ef df 6c bd 11 14 50 be 46 fd 1b be 9d 08 c9 3c
       -0.057830747 -0.20320155 -0.15233335 0.02454024
000360 1f 8d c9 3e de 5a da 3e 7a df 35 be 27 da 83 be
       0.3936548 0.4264745 -0.17761031 -0.25752375
000370 7b c9 e2 bd c3 d6 a9 bc 52 f9 14 be 0d 4f 3c 3e
       -0.110735856 -0.02073229 -0.14548233 0.1838953
000380 65 91 04 3f 39 1b 12 3d a4 98 40 be 04 cb 4e be
       0.51784354 0.035670493 -0.18808228 -0.20194632
000390 e3 b4 c6 be 25 e5 4d 3e 23 e0 4d be ef 37 f3 3d
       -0.3880988 0.20106943 -0.20105033 0.11875903
0003a0 e8 f6 ac bd e2 b5 78 3e 65 07 95 be 20 d7 cc 3d
       -0.08445531 0.24288133 -0.29107204 0.10001969
0003b0 4c ab da 3d a5 37 9e 3e ab 6d 24 bd b4 01 45 3e
       0.106772035 0.30901828 -0.04014365 0.19238931
0003c0 5e 6e 4c be 3e f6 b6 3e a9 b5 eb 3e cb e6 0a be
       -0.19963977 0.35734743 0.46037033 -0.13564603
0003d0 9f e2 b4 3d 39 81 5a 3e 9a 93 4e bd c9 0e 3e 3e
       0.08832287 0.21338357 -0.050433733 0.18560328
0003e0 85 07 93 be 86 69 86 be 79 b4 a3 3e 94 99 d2 3d
       -0.28716674 -0.26252383 0.31973627 0.10283199
0003f0 8a 73 97 3e 6a 5a 9e 3a 99 a9 d8 bc a6 93 7c 3e
       0.29580337 0.0012081389 -0.026448058 0.24665698

linear2.bias f4 [10]
000000 8a b4 05 be b9 2e f6 3b 6b 74 00 3e 8d f4 1b 3e
       -0.13057151 0.007512894 0.1254441 0.15230007
000010 d3 74 c3 bc 28 af d7 bc 08 c5 71 3e b4 98 63 bd
       -0.023859417 -0.026328638 0.23610318 -0.05556555
000020 54 ab fd bd c4 d7 23 be
       -0.12386194 -0.16000277

batch_norm_2d_1.weight f4 [16]
000000 45 6c 80 3f 73 2c 81 3f 56 06 81 3f 47 82 81 3f
       1.0033041 1.009169 1.0080059 1.0117882
000010 0b 03 7e 3f 30 44 81 3f d5 48 7f 3f f2 e2 7e 3f
       0.99223393 1.0098934 0.9972051 0.9956504
000020 aa 81 81 3f 67 0c 7e 3f bd b7 7c 3f b0 1d 7f 3f
       1.0117695 0.99237674 0.9871786 0.99654675
000030 23 23 80 3f 42 df 7e 3f b7 fe 7e 3f d4 8d 7e 3f
       1.0010723 0.99559414 0.99607414 0.9943516

batch_norm_2d_1.bias f4 [16]
000000 4f 14 2f 3c a9 64 00 3c a0 38 74 bb 42 1f a5 3a
       0.010685994 0.007836499 -0.0037265196 0.0012597817
000010 a9 36 8c 3b 6d eb 20 bb 5b 08 a8 b9 54 66 ab bb
       0.004278977 -0.0024554387 -0.00032049682 -0.0052307043
000020 8a 63 0b bc 3c 3a 5b 3b 88 03 77 3b dd 6b e7 3a
       -0.008507619 0.0033451458 0.0037691314 0.0017656047
000030 dc 3e a1 3b a8 ac 13 3c 5f 0f 03 bb b7 97 16 3c
       0.0049208235 0.009013332 -0.0019998176 0.009191445

batch_norm_2d_1.running_mean f4 [16]
000000 60 8c 1b 3e 62 3e fa 3d c6 db a0 3d 1b 9c 19 3e
       0.15190268 0.1221893 0.078544185 0.15000956
000010 7b cd 18 3e be 0c 10 3e 03 06 9f 3d 02 f3 a5 3e
       0.14922135 0.14067361 0.077648185 0.32411963
000020 12 0e 32 3e 25 49 0b 3e 98 31 29 3e 22 35 14 3e
       0.1738818 0.13602121 0.16522825 0.14473394
000030 f7 cf 4f 3d a1 05 13 3e bb f7 a9 3e 70 c9 11 3e
       0.05073544 0.14357616 0.33196816 0.14236999

batch_norm_2d_1.running_var f4 [16]
000000 fa 72 fa 3c 6c 7d 27 3d 54 b1 77 3c f6 47 28 3d
       0.030572403 0.040891096 0.015117962 0.041084252
000010 e2 fc 20 3d 38 55 aa 3c b7 41 a6 3c ee ae 92 3d
       0.039303668 0.020792589 0.020295007 0.071622714
000020 be 6a 3a 3d 1f 62 40 3d 9e 29 c0 3d 2b e3 8c 3d
       0.045511954 0.046968576 0.09382938 0.06879266
000030 22 fd 61 3c 3e 2e 1d 3d 42 b8 dc 3d 4a 82 67 3d
       0.013793262 0.038374178 0.10777332 0.056520738

batch_norm_2d_2.weight f4 [16]
000000 09 53 81 3f 0f 26 80 3f 7d c4 7d 3f b3 12 7e 3f
       1.0103465 1.0011615 0.9912794 0.9924728
000010 01 9e 7d 3f e7 91 7d 3f 57 7d 7f 3f 95 19 7c 3f
       0.9906922 0.99050754 0.9980063 0.98476535
000020 47 1d 80 3f 36 17 81 3f 7c a0 81 3f ab 2c 80 3f
       1.0008935 1.0085208 1.0127101 1.0013632
000030 74 36 81 3f 64 ac 81 3f 8b 3e 80 3f b5 8e 7c 3f
       1.0094743 1.0130734 1.0019087 0.98655254

batch_norm_2d_2.bias f4 [16]
000000 91 72 8b ba 0a da 3a 3c 6a 67 ad bb 06 b0 54 3c
       -0.0010639002 0.011404524 -0.005291869 0.01298142
000010 9b 05 71 3b 20 90 b4 3b 34 d2 a8 3b 8d 4d 1a 3c
       0.0036777023 0.005510345 0.0051520113 0.009417904
000020 eb 80 7d bb b2 56 03 ba f7 e2 1f 3c 34 ba aa 39
       -0.0038681577 -0.0005010172 0.0097587025 0.0003256366
000030 10 ab 4e 3b e8 2c 1e ba 3a 08 00 3c 71 91 ea 3b
       0.0031535067 -0.0006033913 0.007814461 0.0071584512

batch_norm_2d_2.running_mean f4 [16]
000000 66 f9 f3 3e e8 9e fa 3e 3a ed ef 3e 45 d9 be 3e
       0.47651213 0.4894936 0.46860677 0.37275138
000010 b7 a5 00 3f 02 43 b5 3e c0 06 f2 3e 64 be f0 3e
       0.5025286 0.35402685 0.47270775 0.47020257
000020 3d 80 d7 3e 76 59 d0 3e 31 1f f1 3e a1 27 e4 3e
       0.42090026 0.40693253 0.4709411 0.44561484
000030 51 40 cb 3e e8 8e e0 3e 1a 8f d7 3e b9 96 dc 3e
       0.39697507 0.4385903 0.42101365 0.43083742

batch_norm_2d_2.running_var f4 [16]
000000 8d b7 81 3e 0f d5 b4 3e a5 76 d0 3e 90 af 5f 3e
       0.2533535 0.353188 0.4071552 0.21844316
000010 d7 43 aa 3e 52 04 25 3e 2a 23 80 3e 51 b7 e0 3e
       0.33254883 0.1611493 0.25026828 0.4388986
000020 a8 14 8a 3e 33 fa 35 3e fd aa 88 3e 56 7d 39 3e
       0.26968884 0.17771225 0.26692954 0.18114218
000030 8f 48 29 3e 49 1d 44 3e 06 7d 9b 3e 91 04 8d 3e
       0.16531585 0.19151796 0.30368823 0.27542546

batch_norm_1d.weight f4 [32]
000000 f7 13 a6 3f f3 a1 a9 3f 92 ad 9c 3f 0b 8b 9b 3f
       1.2974843 1.3252548 1.224047 1.2151808
000010 2b 82 a6 3f c3 38 99 3f a2 a5 97 3f 08 04 80 3f
       1.3008474 1.1970447 1.1847422 1.000123
000020 8c 2c a5 3f 09 ca 94 3f 93 71 99 3f 84 6b ab 3f
       1.290422 1.1624156 1.1987785 1.3392186
000030 85 a1 7f 3f 94 bc ab 3f 2b 7c 91 3f 0c 26 9d 3f
       0.99855834 1.3416924 1.1366018 1.2277236
000040 30 f4 96 3f a5 9b 8e 3f 85 66 a2 3f 8c f2 9b 3f
       1.179327 1.1141249 1.2687536 1.2183394
000050 34 12 91 3f b3 49 93 3f 75 13 80 3f 19 40 93 3f
       1.133368 1.1506866 1.0005938 1.1503936
000060 e5 1c 9f 3f 1e 99 9d 3f 6e d8 a4 3f 23 ff 99 3f
       1.2430693 1.2312353 1.2878549 1.2030987
000070 2f 6f 91 3f ee 60 7f 3f f8 88 89 3f c6 20 a6 3f
       1.1362056 0.9975728 1.0744925 1.2978752

batch_norm_1d.bias f4 [32]
000000 f2 26 af bc 46 ab 11 bd 4b e9 01 bd e7 55 19 bc
       -0.021380875 -0.03556373 -0.031716626 -0.00935886
000010 6f b4 91 bc 35 c5 26 bc 80 0d b5 3c 5f ca 41 3c
       -0.017786233 -0.010178854 0.022101164 0.011828034
000020 a2 16 89 bc 9d d3 55 bc 99 db 96 3b c4 66 85 3c
       -0.016734425 -0.013050941 0.004603815 0.016284354
000030 b1 a3 dd bb 58 7d 86 bc fc 5c 90 3c 4f 8d 87 3c
       -0.0067638983 -0.01641719 0.017622463 0.016546873
000040 66 2c 94 3b 05 95 70 3c d2 b2 c2 3b c2 41 3a bd
       0.0045218943 0.0146839665 0.005941727 -0.045472868
000050 e3 28 33 bc b8 bf b5 bc 86 13 80 bc 71 d0 0f bc
       -0.010935041 -0.022186145 -0.01563431 -0.008777724
000060 9a f1 0b 3d 46 47 21 3c 75 c6 62 3c 94 7f a6 bc
       0.034165956 0.009843653 0.013841261 -0.020324506
000070 84 3a 07 3a 66 06 a3 bb bc 6e f4 bc 56 65 e5 bb
       0.0005158561 -0.004975128 -0.029837959 -0.0070006056

batch_norm_1d.running_mean f4 [32]
000000 b0 01 4d 3e 93 ad d7 3e ee eb 5c 3e 96 3b 06 3e
       0.20020175 0.42124614 0.21574375 0.13108668
000010 87 58 6b 3e d6 95 8b 3e 69 44 27 3e 04 00 00 00
       0.22982989 0.27262753 0.1633469 6e-45
000020 d8 7f 3d 3e 87 4e a8 3e 87 65 5f 3e 2f 7b 8f 3e
       0.185058 0.32872412 0.21816073 0.2802367
000030 55 42 0d 3a 4f 83 43 3e 39 4e 0b 3e b9 2b 51 3e
       0.00053886074 0.19093059 0.13604058 0.20426835
000040 3e 81 2a 3e b0 c2 02 3e 42 b6 63 3e 60 5d 9c 3d
       0.16650864 0.1276958 0.22237495 0.07634997
000050 ae 45 04 3e 4e 73 c7 3f 04 00 00 00 2a 9b a5 3e
       0.12917206 1.5582063 6e-45 0.32344943
000060 58 3c 0d 3e 29 79 62 3e 15 1a 89 3e 2f f6 3a 3e
       0.1379255 0.22116531 0.26777712 0.18257974
000070 d3 ad b6 3d 04 00 00 00 3d 24 81 3d 69 78 89 3e
       0.08919873 6e-45 0.0630574 0.26849678

batch_norm_1d.running_var f4 [32]
000000 8f e6 8b 3d 9f 36 6f 3d 92 de 27 3d a9 d5 22 3d
       0.06831085 0.0584017 0.040983744 0.039754543
000010 84 67 2a 3d 7c 53 25 3d bc 6e 5e 3d 04 00 00 00
       0.041602626 0.04036282 0.054304823 6e-45
000020 80 72 20 3d a3 cb 8d 3d 99 95 42 3d a6 a4 3f 3d
       0.039171696 0.06923606 0.04750595 0.04678788
000030 49 7e 58 38 1f 64 00 3d d4 5d 7e 3d 3b 98 00 3d
       5.1616025e-05 0.031345483 0.0621012 0.03139518
000040 c2 bc 30 3d da d6 35 3d 61 c4 31 3d ca 40 f0 3c
       0.043148763 0.04439435 0.043400172 0.029327769
000050 2d 76 f3 3c b6 e4 69 3f 04 00 00 00 0a 6b bb 3d
       0.029719437 0.9136461 6e-45 0.091512755
000060 84 ab ce 3c d4 aa 19 3d d2 a2 18 3d 2d 31 65 3d
       0.02522827 0.03751643 0.037264653 0.0559551
000070 c3 32 be 3c 04 00 00 00 c9 2e 09 3d 8d d3 09 3d
       0.023217564 6e-45 0.033491883 0.033649016
