checkpoints/all users/cnn2/19-12-2023_17-25-12/best_model.pth.tar (torch, 33684 bytes, 8 tensors)

conv1.weight f4 [6, 1, 5, 5]
0	0xbe2da318	-0.16956747
1	0xbb86e034	-0.0041160826
2	0x3da9c8c3	0.082902454
3	0x3dda1df2	0.10650243
4	0x3d2ad7ef	0.041709837
5	0xbeb94f21	-0.36193183
6	0xbe91d3c4	-0.28481877
7	0xbe64666f	-0.223047
8	0xbdebbf0e	-0.1151105
9	0xbc19da11	-0.00939037
10	0x3e23d1b9	0.15997972
11	0xbeb6a2ae	-0.3567099
12	0xbf397d83	-0.7245714
13	0xbee74185	-0.45167175
14	0xbd8eb795	-0.06968609
15	0x3db74ff0	0.08950794
16	0xbdca442e	-0.098762855
17	0xbea8cdcf	-0.3296952
18	0xbedcd2b4	-0.43129504
19	0xbe3ae0c4	-0.18249804
20	0xbd31fab6	-0.043451987
21	0xbe4f99db	-0.20273535
22	0xbe44a828	-0.19204772
23	0xbd8336b7	-0.064069204
24	0xbd6b863e	-0.05750107
25	0xbdc79709	-0.097456045
26	0x3e693a60	0.22776175
27	0x3f1341e9	0.57522446
28	0x3b1fc4a9	0.0024378693
29	0xbf2aa6f8	-0.66661024
30	0xbe0a9cf7	-0.1353644
31	0x3e018033	0.1264656
32	0xbe6c4dc5	-0.23076542
33	0x3eeb9f77	0.460201
34	0x3e378710	0.17922616
35	0x3da5fb1c	0.08104536
36	0x3ebc322a	0.36757022
37	0xbd96f0ba	-0.07370134
38	0x3d9a8399	0.075446315
39	0x3ec2a2cd	0.38014832
40	0xbdb48beb	-0.0881575
41	0x3eae8c4f	0.34091422
42	0xbe02f95e	-0.12790439
43	0xbeffdba0	-0.49972248
44	0xbea46776	-0.32110184
45	0xbdef57cb	-0.11686667
46	0xbd87ef1e	-0.06637405
47	0x3c424d64	0.011859272
48	0xbe418547	-0.18898498
49	0x3b567f30	0.0032729618
50	0x3e138a52	0.14408234
51	0x3e558f62	0.20855477
52	0x3dd7d6e0	0.10539031
53	0xbe4a2a57	-0.19742714
54	0xbea315ab	-0.3185247
55	0x3cd3fc11	0.02587703
56	0x3eb57e97	0.35448143
57	0xbcb012bf	-0.021493314
58	0x3d7389ae	0.059457473
59	0xbe87d8de	-0.26532644
60	0xbc8f209f	-0.01747161
61	0x3e1a13ab	0.15046565
62	0x3e4c145e	0.19929644
63	0xbe246e76	-0.16057763
64	0xbeaceef2	-0.3377605
65	0x3db8344d	0.089943506
66	0x3d3849f4	0.044992402
67	0x3ebe9330	0.3722167
68	0x3e28125a	0.1641325
69	0xbf383e79	-0.71970326
70	0xbe838ac3	-0.25691804
71	0x3e57833f	0.2104616
72	0x3f05e9c5	0.5230983
73	0x3d351982	0.04421378
74	0xbf018729	-0.50596863
75	0xbefc6428	-0.49295163
76	0xbebf1bb3	-0.3732582
77	0xbe140e9e	-0.14458701
78	0xbe9e0024	-0.30859482
79	0x3e693530	0.22774196
80	0x3d09b157	0.03361639
81	0xbe402bea	-0.18766752
82	0x3db19939	0.08671803
83	0xbd91c4ce	-0.07117616
84	0x3e961f59	0.2932079
85	0x3e39dbc0	0.18150234
86	0x3d5ce100	0.053925514
87	0xbd731a3a	-0.059351183
88	0x3e3fb44a	0.18721119
89	0x3e25f396	0.16206202
90	0x3deffae4	0.117177755
91	0x3e558f2b	0.20855395
92	0x3d8d8881	0.06910802
93	0x3e11e9ef	0.14249395
94	0x3db80870	0.08985984
95	0xbd793ccc	-0.060848996
96	0x3dc9fe79	0.0986299
97	0x3ddd95b6	0.10819571
98	0xbde169f6	-0.110065386
99	0x3e34380f	0.1759951
100	0x3e75862b	0.23976962
101	0x3ea40503	0.32035074
102	0xbcf7c5bb	-0.030245652
103	0x3ef382ae	0.47560638
104	0x3ddaeb58	0.106894195
105	0xbe0910fe	-0.13385388
106	0x3e73ef6b	0.238218
107	0xbce4678f	-0.027881412
108	0x3eb67f0e	0.3564381
109	0x3e23db77	0.16001688
110	0x3d840a00	0.0644722
111	0xbd292fa0	-0.041305184
112	0xbecb3c37	-0.39694378
113	0x3cfdd20d	0.03098395
114	0x3eb5d6e5	0.35515514
115	0xbde2fcb5	-0.11083356
116	0x3d8f4f31	0.069975264
117	0xbf25caa9	-0.6476236
118	0xbea27b50	-0.31734705
119	0x3e5992a5	0.21247347
120	0xbd66dba4	-0.05636181
121	0xbdb11ca7	-0.08648043
122	0xbf4a176d	-0.78941995
123	0xbec75fb7	-0.38940212
124	0x3e8a4ae5	0.27010265
125	0x3e7fcc7b	0.24980347
126	0x3da51793	0.08061137
127	0x3e3cebfe	0.18449399
128	0x3ee53a97	0.44771263
129	0x3e17da76	0.1482943
130	0x3e1fdf32	0.15612486
131	0x3dd70ae9	0.10500128
132	0x3de5aa2c	0.11214098
133	0x3b885fb4	0.0041617993
134	0x3da10986	0.078631446
135	0x3e471991	0.19443347
136	0xbb2b832a	-0.002617071
137	0x3ea9641b	0.33084187
138	0x3e4aaf3b	0.19793408
139	0xbacae888	-0.0015480677
140	0x3dab24b8	0.08356613
141	0xbe4eeb81	-0.20207025
142	0x3eaee82a	0.34161502
143	0x3dfe4622	0.124157205
144	0x3c567b98	0.0130909905
145	0x3e85a86d	0.2610506
146	0xbe89961d	-0.2687234
147	0x3e00dcd5	0.1258424
148	0xbd533f7a	-0.051574208
149	0xbe86f3e9	-0.26357964

conv1.bias f4 [6]
0	0xbf83b2ca	-1.0288937
1	0x3f12e96a	0.5738741
2	0xbc00ce3d	-0.007861671
3	0xbc9cf626	-0.019160341
4	0x3e02cb08	0.12772763
5	0xbe2cd62c	-0.16878575

conv2.weight f4 [6, 6, 5, 5]
0	0xbdac954b	-0.08426913
1	0x3d49eab7	0.049296107
2	0xbe02a520	-0.12758303
3	0x3d423e19	0.047422502
4	0x3b853822	0.0040655294
5	0xbe5b9fae	-0.21447632
6	0x3e8926bf	0.26787373
7	0xbdaf580b	-0.08561715
8	0xbd0163a7	-0.031589177
9	0x3e169958	0.14706933
10	0x3d050bac	0.032481834
11	0x3d7bf495	0.06151255
12	0xbe958cf7	-0.2920911
13	0xbe0930b6	-0.13397488
14	0x3eaebfd1	0.3413072
15	0x3e7740a0	0.24145746
16	0x3dbf2a16	0.09334199
17	0xbe7471eb	-0.23871581
18	0x3ce015b3	0.027354097
19	0x3f017e1c	0.5058305
20	0x3e09f0ba	0.13470736
21	0xbdda084e	-0.10646115
22	0xbeaca7fd	-0.33721915
23	0xbead0f38	-0.33800673
24	0x3e06ba8d	0.13157101
25	0x3d8514c6	0.06498103
26	0xbe1b0609	-0.15139021
27	0xbd8d5641	-0.06901217
28	0xbde4c908	-0.11171156
29	0xbd35836c	-0.044314787
30	0x3d9976b8	0.07493347
31	0xbdc4f728	-0.09617454
32	0xbda576cd	-0.080793
33	0xbd5a9f88	-0.053374797
34	0x3ca67e69	0.020323949
35	0x3d4e95cf	0.050435837
36	0xbd861577	-0.06547063
37	0x3d1de5a5	0.038549084
38	0x3db8a38e	0.090155706
39	0x3c88c2f2	0.01669452
40	0x3d249ed2	0.040190525
41	0xbe2dbb25	-0.16965921
42	0xbd987914	-0.07444969
43	0x3e2e39e2	0.17014268
44	0xbc09dd68	-0.008414604
45	0x3c726690	0.014794961
46	0xbe14fa12	-0.14548519
47	0xbcedeccf	-0.029043583
48	0xbd2e412b	-0.042542618
49	0xbe2a9230	-0.16657329
50	0xbe072fb9	-0.13201798
51	0xbd7715ea	-0.060323633
52	0xbe1361db	-0.14392798
53	0xbdc62511	-0.096750386
54	0xbded7348	-0.11594254
55	0xbc95e4b2	-0.018297527
56	0xbd77a25f	-0.060457584
57	0xbe2fa9b2	-0.17154577
58	0xbdf6f803	-0.12059023
59	0xbd5d7319	-0.054064844
60	0xbd8b01b6	-0.06787436
61	0xbcb1b53d	-0.021692866
62	0xbd0efa36	-0.03490659
63	0x3e3241eb	0.17407958
64	0x3d535934	0.051598743
65	0x3cc89d08	0.02448894
66	0x3e8f163c	0.2794665
67	0x3df5f181	0.12008954
68	0x3e49eba7	0.197188
69	0xbca36fae	-0.019950714
70	0x3d01f505	0.03172781
71	0x3e62178c	0.22079295
72	0xbc83ecbd	-0.016104097
73	0x3f18bb51	0.5966082
74	0xbd5256b0	-0.051352203
75	0x3dcc3854	0.09971681
76	0xbd8312a5	-0.064000405
77	0xbdeacf04	-0.11465266
78	0xbc2c6b41	-0.010523618
79	0x3ccb2da6	0.02480204
80	0x3e0e5800	0.13900757
81	0x3d24fd8b	0.04028086
82	0xbd14efb5	-0.036361415
83	0x3d39c3aa	0.045352615
84	0xbcddb871	-0.027065488
85	0xbd1140e3	-0.03546227
86	0x3d894042	0.06701709
87	0x3cc739b7	0.024319513
88	0x3d00dbdd	0.031459678
89	0xbdc9f46f	-0.09861075
90	0x3d299b7e	0.041408055
91	0x3d5eaf8c	0.054366633
92	0x3d07cb8b	0.033153098
93	0x3cf1be17	0.029509587
94	0xbc80f786	-0.015743028
95	0x3e1b2945	0.15152462
96	0x3b661aff	0.0035111306
97	0xbc12e5c9	-0.008965918
98	0xbd0a5269	-0.03377
99	0xbd43c60a	-0.047796287
100	0xbd9d3217	-0.076755695
101	0xbbcba3aa	-0.0062145786
102	0xbe434999	-0.19071044
103	0x3d39eb1e	0.04539024
104	0x3e398979	0.18118848
105	0xbe003ad0	-0.12522435
106	0x3d1ee61f	0.03879368
107	0xbdc0685b	-0.09394904
108	0x3dca8bde	0.09889959
109	0x3e4d2bc7	0.20036231
110	0x3cdc5478	0.026895747
111	0x3d95423f	0.07288026
112	0xbdb33dfd	-0.08752058
113	0x3db761e0	0.08954215
114	0x3d3cb190	0.046067774
115	0x3dd72e68	0.10506898
116	0xbc8c8c10	-0.01715663
117	0x3a992662	0.0011684413
118	0xbdb31d75	-0.08745853
119	0x3e9cbe43	0.30613908
120	0x3e040e14	0.12895995
121	0x3e6a8d5b	0.22905485
122	0xbd082be3	-0.03324498
123	0xbe440773	-0.19143467
124	0x3eb327ef	0.34991404
125	0xbdd24d58	-0.102686584
126	0x3dd43934	0.10362473
127	0xbd7b7e3a	-0.061399676
128	0xbb7e22ea	-0.0038778135
129	0x3e4bcd14	0.1990245
130	0xbc83bfdc	-0.016082697
131	0xbcc38722	-0.023868147
132	0xbbfd5160	-0.007730648
133	0xbdfe97d6	-0.12431304
134	0x3db886ae	0.09010063
135	0x3d4172f9	0.047228787
136	0x3cc81894	0.024425782
137	0xbdad4e26	-0.08462171
138	0xbe02be8a	-0.12767997
139	0x3d7a8e32	0.061170764
140	0x3ce5b2b2	0.02803931
141	0xbc443ec5	-0.011977856
142	0xbda1928d	-0.078892805
143	0xbcb68da0	-0.022284329
144	0x3de52aab	0.11189779
145	0xbd2c0094	-0.04199274
146	0xbe1a43fe	-0.15065
147	0x3ccd9a41	0.025097968
148	0xbdb1a75e	-0.08674501
149	0x3e7f2d01	0.24919511
150	0x3ed06a50	0.4070611
151	0x3f0111fb	0.5041806
152	0x3eabb979	0.33539942
153	0x3e4406f0	0.19143271
154	0x3ecb34c2	0.3968869
155	0x3e47fc9f	0.19529961
156	0xbd5fbad6	-0.05462154
157	0xbe046611	-0.1292956
158	0x3e9740be	0.29541582
159	0x3e980602	0.29692084
160	0xbd1b47eb	-0.037910383
161	0xbe63cb0a	-0.22245422
162	0xbe228d16	-0.15874133
163	0x3dd34975	0.10316745
164	0x3b055a06	0.0020347848
165	0xbdbfed57	-0.09371441
166	0xbe4416ef	-0.19149373
167	0xbe5650ea	-0.20929304
168	0x3a43635e	0.00074534665
169	0xbe23f0ff	-0.16009901
170	0xbdadb9c0	-0.084826946
171	0xbeb5e861	-0.35528854
172	0xbea44dc4	-0.3209058
173	0xbe405695	-0.18783028
174	0xbe82ba6d	-0.25532857
175	0x3dd15bf4	0.10222617
176	0xbef50596	-0.47855824
177	0xbe5367e2	-0.20645097
178	0x3e074260	0.13208914
179	0xbd8c3683	-0.06846335
180	0xbdb20e8f	-0.08694183
181	0x3e1a646a	0.15077367
182	0x3ea0a7a7	0.3137791
183	0x3e3b4836	0.18289265
184	0xbc989985	-0.018627891
185	0xbe1b5653	-0.15169649
186	0xbdda152c	-0.106485695
187	0x3ce79a1a	0.028271724
188	0x3c88bd1a	0.016691733
189	0x3bb047fe	0.005379676
190	0xbc58e70e	-0.0132386815
191	0x3d3d673e	0.046241038
192	0x3dfc551a	0.12320919
193	0xbd71d8a7	-0.059044506
194	0x3e2f91d6	0.17145476
195	0x3dd5d60d	0.104412176
196	0x3c63d568	0.0139058605
197	0x3d5b88d3	0.053597283
198	0xbd88b805	-0.06675724
199	0x3dd2616e	0.102724895
200	0xbe775f27	-0.24157391
201	0xbef6635a	-0.48122674
202	0xbdead6f6	-0.11466782
203	0xbd19a3db	-0.03750978
204	0x3d9d5915	0.07683007
205	0xbe069947	-0.13144408
206	0xbda846ee	-0.08216654
207	0x3e27047c	0.16310304
208	0x3de542d0	0.11194384
209	0x3c532c89	0.012889036
210	0xbdf6ddeb	-0.12054046
211	0xbe453875	-0.19259818
212	0x3c80e99b	0.015736392
213	0xbdf8275c	-0.12116882
214	0x3c967fbf	0.018371461
215	0xbe2e063f	-0.1699457
216	0xbddc7ce8	-0.107660115
217	0x3da5e972	0.08101167
218	0xbdd824a1	-0.105538614
219	0x3c11a961	0.008890481
220	0xbe433445	-0.19062908
221	0xbe4e1646	-0.20125684
222	0x3d3ddaec	0.04635136
223	0x3d40bf49	0.047057424
224	0x3da96b38	0.082724035
225	0x3e157afb	0.14597695
226	0x3e9e5e35	0.3093125
227	0x3e5b60d0	0.2142365
228	0xbd8b7af7	-0.06810563
229	0xbe3310ba	-0.1748685
230	0x3af91fc6	0.0019006662
231	0xbdbad07d	-0.09121797
232	0x3d81d6c0	0.063397884
233	0x3c977592	0.01848868
234	0x3d2ea230	0.042635143
235	0x3cca95d9	0.024729656
236	0x3d3c068a	0.045904674
237	0x3d2b6458	0.041843742
238	0xbbd8c708	-0.0066155232
239	0xbd8625d5	-0.06550185
240	0x3aa8fba5	0.0012892379
241	0x3c2e2d70	0.01063095
242	0x3d936532	0.07197036
243	0xbd289bc3	-0.04116417
244	0xbd92d8b1	-0.07170237
245	0x3e0f5d77	0.14000498
246	0x3d913002	0.07089235
247	0x3c841edd	0.016127998
248	0x3cc74415	0.024324456
249	0xbd78ff59	-0.060790394
250	0xbe8a10bc	-0.26965892
251	0xbeb360d7	-0.3503482
252	0xbe3022ec	-0.17200822
253	0x3dc41756	0.095747635
254	0x3d5d569a	0.054037668
255	0x3de37707	0.11106687

conv2.bias f4 [6]
0	0x3c8cbcec	0.017179929
1	0x3e1a00ba	0.1503934
2	0x3dac6850	0.084183335
3	0x3e3f8316	0.18702349
4	0xbdc3dcb2	-0.09563579
5	0x3da98942	0.08278133

fc1.weight f4 [50, 96]
0	0x3d039d6f	0.032132562
1	0x3bbf5638	0.0058391355
2	0xbe2d8ef6	-0.16949067
3	0x3d98df4e	0.07464467
4	0x3e503177	0.2033137
5	0xbd2f8211	-0.04284865
6	0xbc80902e	-0.01569375
7	0x3d11f859	0.035637233
8	0x3db230ca	0.08700712
9	0x3e17115a	0.14752713
10	0x3d31df2b	0.04342572
11	0xbd6533cc	-0.0559576
12	0x3db4bc1f	0.08824944
13	0x3df0fe93	0.11767306
14	0xbdefe6d9	-0.117139526
15	0xbdac0fcd	-0.08401451
16	0x3d22a922	0.03971208
17	0xbdd1a47b	-0.1023645
18	0x3de0fbfa	0.10985561
19	0x3e5f8aea	0.21830335
20	0xbe12fc19	-0.1435398
21	0xbd5c25ee	-0.05374711
22	0xbc943c35	-0.018095115
23	0xbbfbd698	-0.0076854937
24	0xbe35b34a	-0.17744175
25	0xbd20dff1	-0.039276067
26	0xbd909497	-0.07059591
27	0x3cf4d383	0.029886013
28	0x3e11a96a	0.14224783
29	0x3cf81afa	0.0302863
30	0x3d12377d	0.03569745
31	0x3e28b7cd	0.16476364
32	0x3e2342a9	0.15943398
33	0x3dd60ef8	0.10452074
34	0xbe562f75	-0.20916541
35	0xbd8a2ec6	-0.067472026
36	0x3d911d32	0.07085647
37	0x3e2785bd	0.16359611
38	0xbe05a179	-0.13049878
39	0xbcdbb7c1	-0.02682102
40	0x3e0d8b70	0.13822722
41	0xbb954acf	-0.004556037
42	0xbe0e5903	-0.13901143
43	0x3e042741	0.12905599
44	0xbce9be0e	-0.028533008
45	0xbd286be5	-0.04111852
46	0x3d449cd5	0.04800113
47	0x3d7f10ff	0.062272068
48	0x3dd46784	0.103713065
49	0x3d758755	0.059943516
50	0xbb9e3479	-0.0048280326
51	0xbdafd452	-0.08585419
52	0xbca75eb2	-0.020430896
53	0x3dcea359	0.1008975
54	0xbd04fd15	-0.03246792
55	0xbd844511	-0.06458486
56	0x3e2e91f1	0.1704786
57	0x3e289862	0.1646438
58	0x3d1549ff	0.03644752
59	0xbd00aa85	-0.03141262
60	0x3e0b84c6	0.13624868
61	0x3e0868bb	0.13321202
62	0xbbc8c3e4	-0.0061268676
63	0x3d106d06	0.035260223
64	0xbe9daf75	-0.30797926
65	0xbdb280cb	-0.087159716
66	0xbd32d150	-0.043656647
67	0xbd177751	-0.036979023
68	0x3cc46244	0.023972638
69	0xbd9a7246	-0.07541327
70	0x3bd729fc	0.006566284
71	0x3d0b392a	0.033990063
72	0x3dd350c4	0.10318139
73	0x3e2ffcb8	0.17186248
74	0x3d20936a	0.039203085
75	0x3d245685	0.040121574
76	0xbe00eccd	-0.12590332
77	0x3d137a4b	0.0360053
78	0x3c6d3950	0.014478996
79	0x3e4154f7	0.18880068
80	0x3d831441	0.064003475
81	0x3d29de66	0.04147186
82	0x3d0930d7	0.033493843
83	0x3e0abe5a	0.13549176
84	0xbd5cea57	-0.05393442
85	0x3e4aa2db	0.19788687
86	0xbe02ccbe	-0.12773415
87	0xbe315221	-0.17316486
88	0xbd3077e3	-0.043083083
89	0x3e4f1060	0.2022109
90	0xbdb872ed	-0.09006295
91	0x3e2bd3b1	0.16779973
92	0xbda728c8	-0.08162075
93	0x3dace448	0.08441979
94	0x3d0212df	0.031756278
95	0x3e06921e	0.13141677
96	0xbddf45e4	-0.109020025
97	0xbe260c1c	-0.16215557
98	0xbe2413e8	-0.16023219
99	0x3dc49c35	0.096001066
100	0xbd32c54a	-0.04364518
101	0x3da8c2ba	0.08240266
102	0xbd64e739	-0.055884574
103	0xbd9e8578	-0.07740301
104	0x3dc70dd4	0.097194344
105	0x3ce24981	0.02762294
106	0xbe29557d	-0.16536517
107	0xbd34fb51	-0.044184987
108	0x3df4be11	0.11950315
109	0x3d6a83a0	0.057254434
110	0x3e3ca414	0.18421966
111	0x3e5b32ce	0.21406099
112	0x3e48381c	0.19552654
113	0xbd64cb88	-0.055858165
114	0xbe3be8cc	-0.18350524
115	0xbe60e436	-0.21962056
116	0x3d9b250f	0.07575428
117	0xbdd6e80c	-0.10493478
118	0xbdb9542a	-0.09049256
119	0x3d63d21d	0.0556203
120	0x3e0f0dc3	0.13970093
121	0xbdfa0fcf	-0.122100465
122	0xbd80d3ab	-0.062903725
123	0xbd889e9c	-0.06670877
124	0xbe6ba42a	-0.23011842
125	0xbe2d5dad	-0.16930266
126	0xbc70306c	-0.014659982
127	0x3cb5569b	0.022136023
128	0xbdd32245	-0.10309271
129	0x3e5ef60a	0.21773544
130	0x3e4a1590	0.19734788
131	0x3eb0ee28	0.345567
132	0xbe19e5e3	-0.15029101
133	0xbdca6eed	-0.09884439
134	0xbd7a6ce0	-0.061138988
135	0x3e09613a	0.13415995
136	0xbdf6eabf	-0.12056493
137	0xbbecb2dc	-0.00722347
138	0x3d9e1586	0.07718949
139	0x3b426a90	0.0029665567
140	0x3cbdde8d	0.02317741
141	0x3dfa6e30	0.12228048
142	0xbaa3c5a4	-0.0012494815
143	0xbd5bcf29	-0.05366436
144	0x3dc3ebfd	0.095664956
145	0x3db58326	0.08862905
146	0xbd87f418	-0.06638354
147	0x3e2e3f3a	0.17016307
148	0xbbe30df8	-0.0069291554
149	0x3d0644a5	0.03278031
150	0x3cca587f	0.024700401
151	0xbd576d57	-0.05259451
152	0x3ce834a1	0.028345408
153	0x3b949e87	0.0045354995
154	0xbdadde92	-0.084897175
155	0x3d9982ab	0.07495626
156	0x3db3c94c	0.08778629
157	0x3e1bddd1	0.15221335
158	0xbd42b8db	-0.047539573
159	0xbda99014	-0.08279434
160	0x3e8c5bff	0.27413937
161	0xbe3f3578	-0.1867274
162	0xbd4addf3	-0.049528074
163	0x3ee83054	0.4534937
164	0xbe61e7a5	-0.22061022
165	0xbd9f24d6	-0.07770698
166	0xbd5a05f3	-0.05322833
167	0x3d85495e	0.06508134
168	0xbdc47811	-0.09593213
169	0x3ca2003f	0.019775508
170	0x3bd4326c	0.0064757373
171	0x3d9522fa	0.07282062
172	0xbc672eb1	-0.014110253
173	0x3e07248e	0.13197538
174	0x3b9854c0	0.004648775
175	0xbe0dd78f	-0.1385176
176	0xbd9a5297	-0.07535284
177	0x3c9319f6	0.017956715
178	0xbd940de5	-0.07229213
179	0xbe549dd5	-0.20763333
180	0xbd1d6a96	-0.038431726
181	0xbdb51df5	-0.088436045
182	0x3dc59f97	0.0964958
183	0x3d99fc67	0.07518845
184	0x3d0d8616	0.034551702
185	0xbe394b8d	-0.18095227
186	0x3dcefbbd	0.10106609
187	0xbcb5b91f	-0.022183
188	0x3d9d379f	0.076766245
189	0x3d59301d	0.0530244
190	0x3da2b440	0.07944536
191	0xbde8c60f	-0.11365902
192	0xbd2cd15b	-0.042191844
193	0xbcacf8ae	-0.021114673
194	0xbdefc06f	-0.11706626
195	0xbdcd164c	-0.100140184
196	0xbdce2e35	-0.10067407
197	0x3dd6fbd4	0.10497251
198	0x3c83eb04	0.016103275
199	0xbd274e81	-0.04084635
200	0xbd6ebf33	-0.05828781
201	0x3cb030dc	0.021507673
202	0xbd320fdf	-0.043472167
203	0xbdbc6ca9	-0.09200413
204	0x3dafbde6	0.08581142
205	0x3c8dc63e	0.017306443
206	0xbd8b3f6d	-0.06799207
207	0x3d5c053c	0.05371593
208	0x3da1d67a	0.07902236
209	0xbd8f983c	-0.07011458
210	0x3c093e15	0.008376618
211	0x3e988ed1	0.2979646
212	0x3c98f805	0.018672952
213	0xbdd4c4b7	-0.10389083
214	0x3d9cf8f6	0.07664673
215	0x3d469a20	0.04848683
216	0xbe0df815	-0.13864167
217	0xbe091397	-0.13386379
218	0x3d9d844d	0.0769125
219	0xbcb62fcb	-0.022239586
220	0xbd9d3237	-0.07675593
221	0x3dc12f76	0.094328806
222	0xbd9edfb2	-0.0775751
223	0x3d8053f2	0.06266011
224	0x3dc52701	0.0962658
225	0x3d7fe89e	0.0624777
226	0x3e1b1007	0.15142833
227	0xbdae04ac	-0.08496985
228	0xbca25689	-0.019816654
229	0x3daab785	0.08335785
230	0xbe1478c3	-0.14499192
231	0x3d0d16ba	0.034445502
232	0x3d751ad4	0.05984004
233	0x3d2a3811	0.041557375
234	0xbd67c881	-0.0565877
235	0x3da98733	0.0827774
236	0x3df6b3ab	0.12045988
237	0x3d879a55	0.066212334
238	0x3d789e22	0.060697682
239	0xbd7d5ad7	-0.06185421
240	0xbb9f03ab	-0.004852732
241	0x3da31929	0.07963783
242	0x3c0a1637	0.008428148
243	0x3d2c7929	0.042107735
244	0x3ca141dc	0.019684725
245	0xbd7db4b1	-0.0619399
246	0xbc1bc567	-0.009507514
247	0xbd6b23ea	-0.057407297
248	0x3d6f72fe	0.058459274
249	0xbc8bfe8e	-0.017089155
250	0x3da4c796	0.080458805
251	0xbe20d13d	-0.15704818
252	0x3e0f72a3	0.14008574
253	0x3d966064	0.07342604
254	0xbc83854e	-0.016054776
255	0x3c4fb9fd	0.01267862

fc1.bias f4 [50]
0	0x3e506dd0	0.2035439
1	0x3daaf3c5	0.083472766
2	0xba8a1b6f	-0.001053674
3	0xbdcceb39	-0.10005803
4	0xbd2af6fc	-0.04173945
5	0x3d92035b	0.07129546
6	0xbd9d4224	-0.07678631
7	0x3d85588a	0.06511028
8	0x3d36481c	0.044502363
9	0x3dc23e4e	0.0948454
10	0xbcda2d6d	-0.026632989
11	0x3d4d0501	0.0500536
12	0xbd3e7022	-0.046493657
13	0xbd5b3875	-0.05352064
14	0x3d26f687	0.04076245
15	0xbdaaaf70	-0.08334243
16	0x3d9890f5	0.07449523
17	0x3e01e1d5	0.12683804
18	0x3da4bd6f	0.08043944
19	0xbdc84d36	-0.09780352
20	0xbb3ddad5	-0.0028969545
21	0xbd9011a0	-0.07034612
22	0x3c2c7c1b	0.010527636
23	0x3d870101	0.06591988
24	0x3d682772	0.056678243
25	0x3daad27e	0.083409294
26	0xbd95b1ae	-0.0730928
27	0x3d9003f9	0.07032008
28	0x3d06b966	0.032891653
29	0x3d1433b5	0.036182124
30	0xbd6e335f	-0.05815446
31	0xbb09b74e	-0.00210138
32	0xbcbf008e	-0.023315694
33	0xbe009d1b	-0.12559931
34	0xbdcbe348	-0.0995546
35	0x3bf35c98	0.0074268095
36	0x3de93c22	0.113884225
37	0xbd169100	-0.036759377
38	0x3d92970e	0.07157718
39	0xbd9225e6	-0.07136135
40	0x3da86d3b	0.08223959
41	0xbd239bf2	-0.039943643
42	0x3d5c1bbe	0.053737395
43	0xbd925c19	-0.071464725
44	0x3db52da7	0.08846598
45	0xbdc29137	-0.09500354
46	0xbca2606f	-0.019821374
47	0x3d9f1415	0.07767502
48	0x3c2a2030	0.010383651
49	0x3c123302	0.008923294

fc2.weight f4 [10, 50]
0	0x3e246c53	0.16056947
1	0xbdf2ab64	-0.118490964
2	0x3dc5d38d	0.09659491
3	0x3dddfebe	0.10839604
4	0xbc619a7b	-0.013769741
5	0xbd6919f8	-0.05690953
6	0x3e5a1087	0.21295367
7	0x3d8d1959	0.068896
8	0xbe842214	-0.2580725
9	0x3e2333aa	0.15937677
10	0xbc814c30	-0.0157834
11	0xbd8595f6	-0.065227434
12	0x3bc62a94	0.006047556
13	0xbde338f7	-0.110948496
14	0xbe752c52	-0.23942688
15	0xbd41258e	-0.047154956
16	0x3ce98e13	0.02851013
17	0x3ebdfb55	0.37105814
18	0x3e152116	0.14563403
19	0xbe335fef	-0.17517065
20	0x3c6fb157	0.014629683
21	0x3dfb49ea	0.12269957
22	0xbe5e95d9	-0.2173685
23	0x3e3cfd2c	0.18455952
24	0x3de836d7	0.11338585
25	0xbe7af488	-0.24507344
26	0xbe502ffe	-0.20330808
27	0xbdb2c9b8	-0.08729881
28	0x3e1be9ad	0.15225859
29	0x3e1d5f35	0.1536835
30	0xbe05ab3e	-0.13053605
31	0x3e9493f0	0.29019117
32	0xbe06747b	-0.13130371
33	0xbbda4531	-0.0066610803
34	0xbe7f58d7	-0.24936233
35	0x3e40f072	0.18841723
36	0x3e36068f	0.1777594
37	0x3c172ed8	0.009227477
38	0x3ea31d12	0.31858116
39	0xbd8201bd	-0.06347988
40	0x3ea337f2	0.3187862
41	0x3eb1db17	0.34737465
42	0x3e244395	0.16041405
43	0x3d96aaf7	0.07356828
44	0x3e2392f8	0.15974033
45	0x3d85b692	0.06528963
46	0x3d07040f	0.032962855
47	0x3e884da2	0.2662173
48	0xbe913778	-0.28362632
49	0x3e1db566	0.1540123
50	0x3e232173	0.15930729
51	0x3eab2e2d	0.33433667
52	0x3c67ffae	0.01416008
53	0xbda20b84	-0.07912353
54	0x3d9f1e71	0.07769478
55	0x3e93552f	0.28775927
56	0xbe2a900f	-0.16656516
57	0x3d891449	0.06693322
58	0x3e1c47fc	0.15261835
59	0x3e03cbd0	0.12870717
60	0xbcf1616b	-0.029465398
61	0xbd980a65	-0.074238576
62	0xbe88e150	-0.267344
63	0x3de000fc	0.10937688
64	0xbe6c02d8	-0.2304796
65	0xbe8c0c3b	-0.2735308
66	0x3e59fed8	0.21288621
67	0xbe7e5eed	-0.24840899
68	0xbf0ba48e	-0.54547966
69	0x3e533fab	0.20629756
70	0x3dc0afcd	0.09408531
71	0x3dacc67c	0.084362954
72	0x3e212f3c	0.15740675
73	0xbe8bebac	-0.2732824
74	0xbe5a90d6	-0.21344313
75	0xbeaa0fb7	-0.33215114
76	0x3e38d248	0.18048966
77	0xbed4be7e	-0.41551584
78	0xbde713fd	-0.11283109
79	0x3cb0e6d5	0.021594444
80	0xbdf0c1bc	-0.11755702
81	0x3e8c1919	0.27362898
82	0x3de3d815	0.11125199
83	0x3d8c0629	0.068371125
84	0xbe2023ac	-0.15638608
85	0x3dbeff84	0.093260795
86	0xbe3b824f	-0.18311428
87	0x3ecee52b	0.40409216
88	0xbeace14d	-0.3376564
89	0x3d2939f9	0.041315053
90	0x3df08e79	0.117459245
91	0x3e88d33a	0.26723653
92	0x3e70e64c	0.23525351
93	0x3e69e8ea	0.22842756
94	0xbd1d0048	-0.038330346
95	0x3e3fab27	0.18717633
96	0x3ccf2ca6	0.025289845
97	0xbe480347	-0.195325
98	0xbe1cc7e5	-0.15310629
99	0xbeb4a3a3	-0.35281095
100	0x3dc01bed	0.093803264
101	0x3ee1a532	0.44071347
102	0x3d17258b	0.03690104
103	0x3dad6ff8	0.08468622
104	0x3d852720	0.06501603
105	0xbda6589d	-0.081223704
106	0xbde70f2b	-0.1128219
107	0x3de469ec	0.111530155
108	0xbe984729	-0.2974179
109	0xbe63fa0a	-0.22263351
110	0xbe9312d5	-0.28725305
111	0x3c037d10	0.008025423
112	0x3e602c05	0.21891792
113	0xbd9b1bda	-0.07573672
114	0xbe75fb29	-0.24021591
115	0x3e9c314c	0.3050636
116	0xbe60dcfa	-0.21959296
117	0x3ebc82df	0.36818597
118	0x3ea16a31	0.3152633
119	0xbe928a67	-0.28621218
120	0xbe41b10b	-0.18915193
121	0x3c9a818e	0.018860605
122	0xbec46608	-0.38359094
123	0x3e22d19d	0.15900274
124	0x3e911112	0.28333336
125	0x3e01a687	0.12661181
126	0x3d432447	0.04764202
127	0xbe3787e1	-0.17922927
128	0xbe072510	-0.13197732
129	0x3dfd7fbc	0.12377879
130	0xbd91fa19	-0.071277805
131	0xbf0eaa72	-0.5572883
132	0x3c47dd3c	0.0121987425
133	0xbc350f7e	-0.011051057
134	0x3d44cc5f	0.048046466
135	0xbcdf5631	-0.027262779
136	0x3ea28cf6	0.3174817
137	0xbe31287a	-0.17300597
138	0x3ea71c55	0.32638803
139	0x3e035b84	0.12827879
140	0x3ed338ea	0.4125436
141	0x3b6b8106	0.0035935058
142	0x3de52fb8	0.11190742
143	0x3dea1530	0.114298224
144	0xbbcb90bc	-0.006212322
145	0xbda8d523	-0.082437776
146	0xbdfe2532	-0.12409438
147	0xbe853323	-0.26015577
148	0xbd841837	-0.06449931
149	0xbd5a7873	-0.053337526
150	0x3bd7a6da	0.0065811696
151	0x3e857d30	0.26072073
152	0x3dc0c224	0.094120294
153	0x3d80d165	0.06289939
154	0xbdeaa67f	-0.11457538
155	0x3e76a681	0.24086954
156	0x3cc7e8a0	0.024402916
157	0x3da4c99a	0.08046265
158	0xbe35ede0	-0.17766523
159	0x3e34f459	0.17671336
160	0xbe04ae33	-0.12957077
161	0x3cd3f944	0.025875695
162	0xbec5ad0f	-0.38608596
163	0xbbb79384	-0.005602302
164	0x3d632438	0.055454463
165	0x3d9d7e46	0.076901
166	0x3b3dbb9c	0.0028950935
167	0x3e3da9ff	0.1852188
168	0x3ecbea88	0.3982737
169	0x3e8508e6	0.2598335
170	0xbe1d02f2	-0.15333155
171	0xbc1dd077	-0.009632221
172	0xbe696906	-0.2279397
173	0x3e08b8df	0.13351773
174	0xbe3346ca	-0.17507473
175	0x3de3da35	0.11125604
176	0x3e8899dd	0.26679888
177	0xbe84d267	-0.25941774
178	0xbb947f43	-0.0045317723
179	0x3d9c85d6	0.07642715
180	0xbd1291dd	-0.035783637
181	0x3e4abbdd	0.19798227
182	0x3c298f47	0.010349101
183	0xbd77e384	-0.06051971
184	0xbe8bacea	-0.2728036
185	0xbeabf126	-0.3358242
186	0x3ebe7e47	0.37205717
187	0x3e5ae3ee	0.21376011
188	0x3d712ad4	0.058878735
189	0xbe000c1d	-0.12504621
190	0x3cf086a5	0.029361079
191	0xbe11a6cb	-0.14223783
192	0xbec8cbe6	-0.39218062
193	0xbe9ec3b0	-0.31008673
194	0x3db2ad78	0.08724493
195	0x3d918b1b	0.071066104
196	0xbe33b46e	-0.17549297
197	0x3e3e88e7	0.18606912
198	0xbcba6d07	-0.022757066
199	0xbd87a9ca	-0.066241816
200	0xbe505ebb	-0.20348637
201	0x3ede40f0	0.43408918
202	0xbcbfac7c	-0.023397677
203	0x3d0935ea	0.033498682
204	0xbc574c27	-0.013140715
205	0x3dfcae92	0.12337984
206	0x3d990a87	0.07472711
207	0x3caa2689	0.020770328
208	0x3c316962	0.010828348
209	0xbe275250	-0.16339993
210	0xbe374bef	-0.1790006
211	0xbd7f8d6b	-0.062390726
212	0x3e83140c	0.25601232
213	0x3ee0ba9c	0.43892372
214	0xbec70880	-0.38873672
215	0xbd8606ba	-0.06544252
216	0x3d313abf	0.043268915
217	0xbe68a2b0	-0.2271831
218	0x3ea6895e	0.32526678
219	0x3e4a7fe9	0.19775356
220	0x3ec946d5	0.39311853
221	0xbddc0d46	-0.10744719
222	0x3e354c5a	0.17704907
223	0x3ddd4129	0.10803444
224	0x3e51e56f	0.20497678
225	0x3dd6b4bc	0.10483691
226	0xbe5c35c3	-0.21504883
227	0xbee64f9a	-0.44982606
228	0xbd0740dc	-0.03302084
229	0x3e19e337	0.15028082
230	0x3dec548e	0.11539565
231	0x3d8fc4f1	0.070199855
232	0xbe06334b	-0.13105504
233	0x3d00e622	0.03146947
234	0x3e366c2c	0.17814702
235	0x3de5c25d	0.112187125
236	0xbd7bd4c3	-0.061482202
237	0xbd8a54ed	-0.067544796
238	0xbd33419d	-0.043763746
239	0xbdf93cd0	-0.12169802
240	0x3ead2305	0.3381578
241	0xbc552e7d	-0.013011572
242	0xbe317dc4	-0.17333132
243	0x3e2979e9	0.16550411
244	0xbe0c25a3	-0.13686232
245	0xbe6152f1	-0.22004296
246	0x3d577995	0.052606184
247	0xbe47d3a0	-0.19514322
248	0xbd5a57fb	-0.05330656
249	0x3deedab7	0.1166281
250	0xbd8dd828	-0.06925994
251	0xbf21118d	-0.62917405
252	0xbe5f2003	-0.21789555
253	0xbd5dac29	-0.054119263
254	0x3d67c3fc	0.05658339
255	0x3e4ced80	0.20012474

fc2.bias f4 [10]
0	0xbe1130da	-0.14178792
1	0xbe09863a	-0.1343011
2	0x3e0a0420	0.13478136
3	0xbc3d15b0	-0.011540815
4	0xbe109503	-0.14119343
5	0xbe90c7bc	-0.28277385
6	0x3e7f0de9	0.2490765
7	0x3b9553dc	0.004557116
8	0x3e5c198f	0.21494125
9	0x3c5b0744	0.0133684315
