checkpoints/all users/cnn2/19-12-2023_16-46-42/last_model.pth.tar (torch, 35092 bytes, 8 tensors)

conv1.weight f4 [6, 1, 5, 5]
000000 09 87 81 be 59 74 b7 3e 1a 09 98 3e 76 a7 a2 3e
       -0.25298336 0.35830954 0.29694444 0.31768388
000010 fc cd d3 3e 66 25 ca bc 38 be 8a 3e 13 13 a9 3e
       0.4136809 -0.024676036 0.2709825 0.33022365
000020 c3 53 69 3e 09 16 cd 3b 1d 46 e1 3d 15 07 22 3e
       0.22785859 0.0062587303 0.10999701 0.15823014
000030 3b 3b be 3e 11 82 d9 3e 8e b7 29 3e b8 39 d4 3e
       0.37154564 0.42482045 0.16573927 0.41450286
000040 35 c8 75 3e f1 f9 bc 3c 73 b6 ad 3e c8 1b e8 3e
       0.24002154 0.0230684 0.3392826 0.45333695
000050 4d 84 47 3e 87 a6 47 bd 17 95 7a be b1 7d bc be
       0.19484062 -0.048742797 -0.24470936 -0.36814645
000060 59 8d 84 be 7a 53 21 3f 3b 00 3b be e1 cf 02 3e
       -0.2588909 0.63018 -0.18261807 0.12774612
000070 de 50 d1 bd e4 35 54 3e 16 32 11 3f 11 83 20 bf
       -0.10220502 0.20723683 0.5671705 -0.6269999
000080 1e 9c b9 bd 7f 77 67 be e0 06 4e be 3b 84 fd 3e
       -0.0906298 -0.22604178 -0.2011981 0.49514946
000090 f4 71 3c bf bc ee 0d be 28 58 8a be 67 6d 29 be
       -0.7361138 -0.13860601 -0.27020383 -0.1654564
0000a0 4f 30 09 3f e1 07 13 bf 8d a2 d3 3d 32 20 8a 3e
       0.5358934 -0.574339 0.103337385 0.26977688
0000b0 00 18 83 3e e0 e2 08 3f 8a f3 b0 be 76 da a3 3d
       0.25604248 0.53471184 -0.34560806 0.080006525
0000c0 04 32 e0 3e b6 70 d1 3d ec 38 20 be 68 52 70 be
       0.4378816 0.10226576 -0.15646714 -0.23468935
0000d0 4a 4a 9d bd 05 19 63 3d 53 9b 0f 3f 89 ae 19 3e
       -0.07680185 0.055443782 0.5609638 0.15007986
0000e0 0e cb 43 bd de 40 01 3e 10 7a dd be 46 a1 9e 3e
       -0.04780107 0.12622401 -0.4325719 0.30982417
0000f0 8e 80 bd 3e e5 30 f8 3e 5a ae 38 be 55 6f 50 bf
       0.37012142 0.48474804 -0.1803526 -0.8141988
000100 a8 14 8a be cb ba 11 3f 96 ff e1 3e f6 35 95 3c
       -0.26968884 0.5692565 0.4414031 0.018214207
000110 f5 c6 29 bf 1d 41 05 bf ad 41 00 3f 59 ba cf 3e
       -0.6631921 -0.5205248 0.50100213 0.4057186
000120 e8 6a 97 3e eb e5 bd be 70 2d d3 be 79 da 13 bf
       0.2957375 -0.37089476 -0.41245604 -0.5775524
000130 14 af b3 be 8b cb f1 3e 93 cf c5 3e 21 a3 4e 3c
       -0.35094512 0.47225603 0.3863493 0.012612135
000140 0c 0a 1d bf c0 c5 ee bd 3d 63 eb 3e 53 8a 60 3e
       -0.61343455 -0.116588116 0.4597415 0.21927767
000150 2a 75 43 3e 29 3f 99 be 77 9b 8c be ee bc c6 3e
       0.19087663 -0.29931 -0.2746236 0.38816017
000160 5b 52 92 3e 66 2d 5c 3d 75 0e 39 bf d0 85 90 bd
       0.28578457 0.053754233 -0.72287685 -0.07056773
000170 54 0f c9 3e 11 54 97 3e 5e 93 2b bc ac cc 14 bf
       0.39269507 0.29556325 -0.010472147 -0.58124804
000180 30 2f 60 3d 7b 4c c8 3e d8 95 8f 3e 34 64 a2 be
       0.0547325 0.3912085 0.2804401 -0.31717074
000190 8a c5 2f 3f c8 d2 0a 3d fb b3 95 be d7 42 c9 3c
       0.68660796 0.033892423 -0.29238877 0.024568005
0001a0 69 ca 9a bc b0 ce 80 3d 93 de 01 3e 21 00 c7 be
       -0.018895345 0.062894225 0.12682562 -0.38867286
0001b0 0e 18 f7 bc cf dc 89 bd 4e 10 84 3c c0 e5 27 be
       -0.030162837 -0.06731569 0.016121056 -0.16396236
0001c0 71 d6 a3 be 2d 4a ef be 7d 9a a6 bb 90 4d c6 be
       -0.31999543 -0.4673628 -0.0050843344 -0.3873105
0001d0 7b 06 e3 be 71 00 18 bf 75 b1 ee be 69 75 04 3e
       -0.44340882 -0.59375674 -0.46619764 0.12935413
0001e0 21 5c a5 be ad e2 39 bf ff 8a 70 be 96 dc 57 be
       -0.3229685 -0.72611505 -0.23490523 -0.2108024
0001f0 47 bf 27 3e 98 7b 0b bf 55 46 90 be a9 5d 63 be
       0.1638156 -0.54485464 -0.2817866 -0.22203697
000200 6e 6f bb be c0 ce 22 be 2b cc 1f bf f9 e8 5f bf
       -0.36608452 -0.15899181 -0.6242091 -0.87464863
000210 a9 aa 80 bf be dc fd be 95 ff e9 be 97 1e ac 3d
       -1.0052081 -0.49582475 -0.45702806 0.08404272
000220 75 8c eb be 05 30 93 be d4 5c 65 be 6a dc 0b be
       -0.46005598 -0.28747573 -0.22398692 -0.136583
000230 73 65 4c 3e c1 b5 c5 3c 21 00 87 3d 03 02 26 3e
       0.19960575 0.024134519 0.065918215 0.16211705
000240 78 fd 39 3e d2 16 91 3a 00 95 76 3e 32 44 51 3e
       0.18163097 0.0011069423 0.24080276 0.2043617
000250 35 ca 99 3e 1b b8 04 3f
       0.30037084 0.5184342

conv1.bias f4 [6]
000000 74 c9 54 be cd 39 0e 3e 45 a7 4b 3d f7 6f 73 3c
       -0.20779973 0.13889237 0.049720068 0.0148582375
000010 7d 8b 9f be b2 ec 9d bf
       -0.3116111 -1.2337859

conv2.weight f4 [6, 6, 5, 5]
000000 1a 92 d4 bd f4 00 33 bc 61 90 9f 3d fd fa 2f 3d
       -0.10379429 -0.01092552 0.0779121 0.04296397
000010 9b ba f9 3d 8d a6 32 3d 8c 14 a4 bd 99 d3 ed bc
       0.12193795 0.043615866 -0.080117315 -0.029031562
000020 fb bc db 3b c0 84 05 bd e5 d6 b1 bd a8 65 91 bd
       0.006705878 -0.032597303 -0.08683566 -0.070994675
000030 64 e8 93 3d bb 55 a7 bd 3f c5 38 bb c7 24 cf bd
       0.07222059 -0.08170649 -0.002819374 -0.101144366
000040 16 fa a6 bd ad b0 15 bd 2e 8a bd be af e0 86 be
       -0.08153169 -0.036545444 -0.37019485 -0.26343295
000050 ee fb 14 3e 3b 77 ac bc 5b c1 37 3e 26 34 18 bd
       0.14549229 -0.021052947 0.17944853 -0.037159108
000060 c2 1f 01 be 91 be 59 bd 08 9c 41 be 4e ee 29 bd
       -0.12609771 -0.053160254 -0.18907177 -0.04148703
000070 5c d9 28 be 87 e5 f2 3d 8e 76 9b be 7f a5 84 bd
       -0.16489166 0.11860185 -0.30363888 -0.064768784
000080 5c 13 2f be 0e 8c 49 be 06 bb 8c 3e 48 72 b0 bd
       -0.17097229 -0.19682333 0.27486438 -0.086155474
000090 32 cf 91 3c b7 19 41 bd cf 07 1f be 01 5d 6d 3e
       0.017798994 -0.047143664 -0.15530322 0.2318001
0000a0 dc 1b eb 3c bf c0 a5 bd 8e cd d3 bd 82 fc 8a be
       0.028699808 -0.08093404 -0.10341941 -0.27145773
0000b0 70 d9 65 3e f9 1f 00 be c8 f9 ed bd da ef c4 be
       0.22446227 -0.12512197 -0.116199076 -0.38464242
0000c0 c8 67 11 be ff 9e 3b 3e 3f 11 23 bc 5b ea 1e bd
       -0.14199746 0.18322371 -0.009952842 -0.038797718
0000d0 c5 21 5a be 12 fa 29 3d 34 89 3b be 43 a0 b3 3d
       -0.21301945 0.04149825 -0.18314058 0.08770802
0000e0 d2 14 80 3d 3a e0 b3 3c f9 d6 4d 3e 1c 2d 56 bd
       0.06253971 0.021957505 0.20101537 -0.052289113
0000f0 8e 1c a7 bd d6 45 b6 3d 2b a6 95 3d 2b 18 8c 3e
       -0.08159743 0.08900039 0.07307085 0.2736219
000100 27 16 2e bd 9c c7 7e 3e 00 99 8d 3d f4 15 16 3e
       -0.042501595 0.24880832 0.06913948 0.14656812
000110 99 8b 17 bd 56 5c 12 3e 46 e4 77 3e 94 37 09 3e
       -0.036998365 0.14293036 0.24208173 0.13400108
000120 17 fc d9 bc 9b d8 d6 bd c1 be 58 3d 8d de 16 be
       -0.026609464 -0.10490533 0.052916292 -0.14733334
000130 6a 01 34 be ec 05 18 be 06 33 b9 3e 4a 2a cb 3b
       -0.17578664 -0.14846009 0.3617174 0.0062001096
000140 50 52 30 be 09 fa a8 bd 00 33 f8 3d 13 e1 78 3e
       -0.172189 -0.082508154 0.121191025 0.24304609
000150 e8 f3 8f bd 4c cf 90 bc 3a a3 8d bd 25 65 d6 3c
       -0.07028943 -0.017676972 -0.069158986 0.026171276
000160 80 17 2e 3e 13 14 a1 3d f6 61 8e bc 80 e7 8c 3c
       0.17001152 0.07865157 -0.017380696 0.017200232
000170 28 d2 be 3c 54 28 0b 3e 69 50 6a 3d 50 ae 96 3d
       0.02329357 0.13589603 0.05720559 0.07357466
000180 03 65 b1 bd 1f 10 5b 3e 53 f3 20 3e 88 67 ed 3e
       -0.086618446 0.21392868 0.15717821 0.4636805
000190 97 d9 06 3e 94 4e a4 bd d2 78 89 bd e7 ad ac be
       0.13168941 -0.080228 -0.06712498 -0.33726427
0001a0 a4 e6 ae be d6 5d b9 be 6d dc a8 bd ec 5a ab ba
       -0.3416034 -0.36204404 -0.08245168 -0.0013073361
0001b0 98 3a 21 be 29 ee e3 3d 95 3c af be db 06 71 bd
       -0.15745008 0.1112941 -0.34225908 -0.05884443
0001c0 24 05 7b be bc 51 a1 3c fe 23 d7 bb b6 e1 cc be
       -0.2451368 0.019692294 -0.00656557 -0.40015954
0001d0 98 80 68 bd 4b a2 66 3e 35 5c ff bd 5f 41 88 be
       -0.05676326 0.22522847 -0.12468759 -0.26612374
0001e0 79 ea a3 3e e1 d5 23 3f 34 4d ff 3e 10 31 c1 3d
       0.32014826 0.6399823 0.4986359 0.09433186
0001f0 01 3a 02 bf b3 62 4e 3e 98 ee 06 3f 12 92 93 3e
       -0.50869757 0.20154838 0.52707815 0.2882238
000200 2f 09 17 be 7c e4 74 be e0 a4 d4 3b 6a 26 94 bc
       -0.14749597 -0.23915285 0.006489381 -0.018084724
000210 77 03 00 bd 85 f6 eb bd a3 8d 85 be 09 fc 40 be
       -0.031253304 -0.11521629 -0.26084623 -0.18846144
000220 c1 99 8b 3d 4a a7 4f 3e 83 72 36 3e b5 a4 ce 3e
       0.068164356 0.2027866 0.1781712 0.40360036
000230 c4 f8 17 be 2a 3a 89 be 25 b2 36 3c 08 8d 93 3e
       -0.1484099 -0.26802188 0.011150871 0.28818536
000240 f0 9a a5 3e f0 39 c6 bd a8 b0 5d bd b3 73 33 3e
       0.3234477 -0.096790195 -0.05412355 0.17524604
000250 69 8d a5 3d e0 e9 33 bb b5 93 80 be e1 d5 e2 bd
       0.080836125 -0.0027452633 -0.25112692 -0.110759504
000260 bb 3e 14 3e 52 75 02 3e dd 77 40 be 3f 90 dc bd
       0.14477055 0.12740067 -0.18795724 -0.107697
000270 ce 24 3a bd fa 7a d0 3c 33 9c 25 bc 4a c0 3b bd
       -0.045445256 0.025449265 -0.010108042 -0.045837678
000280 b7 b5 8c be 2e 66 b2 bd fc f6 41 bd 49 c5 4e bd
       -0.27482387 -0.087108955 -0.047354683 -0.050481115
000290 eb 7f 92 3d 03 d1 c3 be d6 1c 06 be 16 d0 09 3d
       0.07153305 -0.382454 -0.13096938 0.03364571
0002a0 24 c6 f2 3d 57 aa 5b 3e b5 23 a4 bd 0b 62 14 3e
       0.118541986 0.21451698 -0.08014623 0.14490525
0002b0 a6 7d 14 3e 74 cb bf 3c 5f 89 35 3c 63 09 a7 3d
       0.14501056 0.023412444 0.011080115 0.08156087
0002c0 74 ac 28 be ec ab 89 be 0f 19 27 be 9b 3d a7 3e
       -0.16472036 -0.26888978 -0.16318153 0.3266419
0002d0 85 99 f9 3d 3d 46 9f bc 1d ee c1 bd 80 cc dd 3d
       0.12187485 -0.019442672 -0.09469245 0.10830021
0002e0 cc 4c 72 3b 66 0e 0f bd c9 00 21 3d 4e 41 71 3d
       0.0036972044 -0.03492584 0.03930739 0.05890017
0002f0 48 2d 0b 3e 26 db be bd c2 7a 5a bc e5 3d 6c be
       0.13591492 -0.09319143 -0.013334932 -0.23070486
000300 6f c9 c7 bd c4 5d 20 be d4 fc 9d 3d 2e 95 60 bd
       -0.09755217 -0.15660769 0.07714239 -0.05482977
000310 b0 5b 2d be 7f 16 d6 bd 5b 74 fb 3c bc d7 26 3e
       -0.16929507 -0.104535095 0.030695131 0.16293234
000320 be e1 aa bd d1 91 d3 bd 8e d0 a5 3d 95 7f 0c 3e
       -0.08343838 -0.10330547 0.08096419 0.13720544
000330 36 0a 3b 3e 15 5f 8c be 70 a2 d0 be bf a5 5f 3e
       0.18265614 -0.27416292 -0.4074893 0.21840571
000340 60 eb 2e 3d 5a d0 34 be ad 5f 9d be b3 58 9c be
       0.04270494 -0.17657605 -0.30737057 -0.30536422
000350 c7 55 66 bd a6 7d 08 3e 95 70 69 bc b1 73 af bd
       -0.056234147 0.13329181 -0.014248033 -0.08566988
000360 40 52 06 be 66 90 db bd 73 2b 35 bd 7c dc 0f be
       -0.13117313 -0.10720901 -0.04423089 -0.14048952
000370 13 6c 92 be 63 88 7f be fa 8a 10 be 25 c1 83 be
       -0.2859808 -0.24954371 -0.14115515 -0.25733295
000380 78 42 f2 bd 75 9e 94 bb 01 c7 e8 3c 86 6b aa 3d
       -0.11829084 -0.004535491 0.028415205 0.0832129
000390 94 f7 bb 3e d2 ec 30 be de 49 3d be 95 c3 3f bd
       0.36712325 -0.1727784 -0.1848521 -0.04681738
0003a0 63 b8 0d bd 04 ce 3d bd 14 c8 ff 3c ae 2c 16 be
       -0.034599673 -0.04633905 0.031223334 -0.14665481
0003b0 a1 fd 20 be 9e 61 eb bc 3f e7 29 3e fb c8 0f 3e
       -0.15721752 -0.028733071 0.1659212 0.14041512
0003c0 59 4e dd bd 6f 83 7f be b0 70 4d bd 5a a1 f1 bc
       -0.10805959 -0.24952482 -0.050156295 -0.029495884
0003d0 a7 c1 c7 bd 98 77 85 bd ac 30 5f bc 3b 14 3a be
       -0.09753733 -0.06516951 -0.013622444 -0.1817178
0003e0 d5 f0 1b be d7 b6 65 be a2 71 db 3e 04 6d d4 3e
       -0.15228589 -0.22433029 0.42860132 0.41489422
0003f0 81 71 8e be 1a 0d b4 be e7 26 ee 3e f1 13 83 3e
       -0.27820972 -0.35166246 0.46514055 0.25601152

conv2.bias f4 [6]
000000 50 4d 61 be 12 d4 44 3d 38 74 90 be 45 67 54 be
       -0.22002149 0.04805381 -0.28213668 -0.20742519
000010 ae 4e 18 bd af cb c9 bc
       -0.03718441 -0.024633257

fc1.weight f4 [50, 96]
000000 14 f4 04 3d 9f 27 09 3d b4 6c 06 bc 74 0a 57 bd
       0.032459334 0.03348505 -0.008204628 -0.052500203
000010 b5 52 00 be 7e 9f bf 3d 52 aa 2b 3d a5 4f 4a 3d
       -0.1253155 0.093565926 0.041910477 0.04939236
000020 cc d1 22 3b c3 ad 74 3e d6 3b ea 3c ac 72 ca 3d
       0.0024844287 0.2389441 0.028592985 0.09885153
000030 22 e0 02 bd e8 3c 90 bc 1b e1 10 3e 08 93 69 3d
       -0.03195203 -0.017607167 0.14148371 0.057024986
000040 f1 df 18 be 0b 47 a1 be 87 18 d2 bd 66 69 6b 3d
       -0.14929177 -0.31499514 -0.102585845 0.057473563
000050 2e ea 28 be 22 40 16 be d1 26 0f 3e 75 f7 f3 3d
       -0.16495582 -0.14672902 0.13979651 0.11912433
000060 e9 e8 67 3d 04 ab 06 bc 66 a3 b9 3d 82 2e 1f 3d
       0.056618605 -0.008219484 0.09064369 0.038862713
000070 2f a1 3f 3c fc 79 a9 3d 9a a5 61 3b 68 8c 56 39
       0.011696144 0.0827522 0.0034430982 0.00020460936
000080 28 d8 5f bd ce b2 30 bc f3 06 fc bd fb 27 bb bd
       -0.054649502 -0.010784818 -0.12306013 -0.09138485
000090 0e 39 16 3e f2 e8 9c 3d dd e4 23 bd 70 51 71 3c
       0.14670202 0.07661618 -0.040013183 0.014728889
0000a0 bd fd fd 3d 0c 61 d7 3d 04 f6 6d bc 9d e3 bb bd
       0.12401912 0.10516557 -0.014523987 -0.09174273
0000b0 b7 1d a3 3d 25 6e 7d 3d da e6 e1 3b e5 5e 71 bc
       0.07964652 0.06187262 0.0068939747 -0.014732097
0000c0 a5 22 2a 3d 6c 63 0c be 61 31 0f be f6 a3 c2 bc
       0.041536946 -0.13709801 -0.1398368 -0.023759823
0000d0 2f 1f cd bd 4c e1 94 be 55 14 96 3c dc f4 a6 bd
       -0.100157134 -0.29078138 0.018320242 -0.08152172
0000e0 75 0e 10 be bc e0 8e bc 0b aa 4b 3e cf a0 b6 3d
       -0.14068015 -0.017441146 0.19889085 0.089173906
0000f0 b4 37 62 bd a9 e6 d8 bd 91 50 3b 3e 13 3f 92 bd
       -0.055228904 -0.1059087 0.18292452 -0.07140937
000100 66 04 ae bd 88 e4 b1 3c e2 be b7 3d e3 f3 1b 3e
       -0.08496933 0.021715418 0.08971955 0.15229754
000110 08 87 08 3e 03 9a 72 ba 54 dd 09 3e c6 d3 ce bd
       0.1333276 -0.0009254517 0.13463336 -0.10098986
000120 10 e0 07 bd cf e0 ab bd 0f 4c 2a 3e ba 68 4a bb
       -0.033172667 -0.08392488 0.16630577 -0.0030885176
000130 1b ce 82 3d 64 2e c3 bd 12 23 77 bc 16 1c f7 3c
       0.06386968 -0.09530333 -0.015084045 0.03016476
000140 92 f2 ed bc ff 26 fc bd 1b 80 63 bd 01 99 3e 3e
       -0.02904633 -0.123121254 -0.055542093 0.18613054
000150 3d da 8b bd 8a 24 1a bd 41 e1 42 3e cd af 69 3d
       -0.06828735 -0.037632503 0.1903124 0.057052422
000160 6c 64 b0 bd 3d bf 49 bd 00 48 bb 3d 07 2e 86 3d
       -0.08612904 -0.049254645 0.09144592 0.06551748
000170 23 e2 b6 bd 95 f3 90 3d 19 62 ca 3d 57 44 c4 3d
       -0.08929851 0.070777096 0.09881992 0.09583347
000180 ff 99 c6 bd ce e7 75 3d ce 0b 4a 3d 96 1d bd 3d
       -0.09697341 0.06003552 0.049327664 0.09234159
000190 4d 67 b5 bd 94 5a 45 3d 5b ea 65 3e bb f4 68 3e
       -0.08857594 0.048182085 0.22452681 0.22749607
0001a0 03 71 2c be d2 66 8a bd 3e 3b 68 bd 64 28 82 3d
       -0.16839986 -0.06757893 -0.056697123 0.0635536
0001b0 83 04 27 be 7b f2 1f be 19 8a 2a bd 5a 5d 1f 3d
       -0.16310315 -0.15619843 -0.041635606 0.038907386
0001c0 4c eb 9f bc cd 8f 06 3e b3 8c 4b bd 7a dd ef bc
       -0.019521378 0.13140793 -0.049694728 -0.029280413
0001d0 fc 44 65 3c c5 88 2a 3e b3 df 4e bd 49 15 be 3c
       0.013993498 0.16653736 -0.050506305 0.023203509
0001e0 72 40 bc 3d ab e9 10 bd 2c c0 bb bd b6 88 84 3e
       0.091919795 -0.035379093 -0.09167513 0.25885552
0001f0 20 1f 6b 3e b9 2d 07 be bc 67 5c 3d b2 8f 4e 3c
       0.22961092 -0.13201036 0.053809866 0.012607502
000200 9d cd 41 bd e4 99 0d 3e 6b 87 9f 3d d6 1f d9 bc
       -0.04731523 0.13828236 0.07789501 -0.026504438
000210 1e 03 45 bd e5 37 d4 3d af 31 10 bd 89 cf 1c bc
       -0.048098676 0.103622235 -0.035203632 -0.009570965
000220 4c 36 b8 bd 76 71 7d 3d 18 ed 1c 3e 29 29 ba 3e
       -0.08994731 0.061875783 0.15324819 0.36359528
000230 5a e8 f3 bd 73 73 05 bb 08 9f 91 bd f6 2c ca bd
       -0.11909552 -0.0020363003 -0.07110411 -0.09871857
000240 dc b1 94 bc 3a 13 c6 bc 62 45 34 bd 99 37 ae 3d
       -0.018151216 -0.02417909 -0.04401148 0.08506698
000250 e0 7d 0e 3d 76 70 71 bd cf 8a 8d be 88 65 a8 3d
       0.034788013 -0.05894514 -0.27644965 0.082224905
000260 11 1c 0f 3e 3d 83 ba bc 93 40 fe bd c3 c3 36 3c
       0.1397555 -0.022767657 -0.1241466 0.011155072
000270 11 bb 61 3e e8 04 67 bb ba 31 d4 bb 58 b4 ab bd
       0.22044016 -0.0035250727 -0.0064756544 -0.08384007
000280 d6 ec d1 3d 31 47 87 3d 1b a2 cb bd 4e 78 87 bd
       0.10250251 0.066053756 -0.099430285 -0.06614743
000290 61 6a 09 3e 2e 1b 45 3c 9c 53 b5 bd 3d fd a7 3d
       0.13419487 0.012030406 -0.08853838 0.08202598
0002a0 aa 5a 54 bd cf bb 4e bd 7b ff e8 bc 39 09 f0 3d
       -0.051844276 -0.050472077 -0.028442135 0.11720509
0002b0 0c 5b b1 3d d4 82 60 bc ee 7b 10 bd 43 8a b0 bc
       0.08659944 -0.013703067 -0.03527444 -0.021550303
0002c0 7c c6 0f be 50 54 b7 3c db ef a9 bd 3f 92 19 bd
       -0.1404056 0.02237907 -0.08297702 -0.037492987
0002d0 f4 32 10 3e 94 15 57 3e ae 0b 00 be 15 e5 27 3e
       0.14081937 0.21004325 -0.12504455 0.16395982
0002e0 53 7a 9e 3e 7c b3 16 3c fa 45 6c bd 1b 69 57 bd
       0.309527 0.009198066 -0.057683922 -0.05259047
0002f0 16 37 1f bd 2c 23 aa bd 13 8d 51 bc fe a7 7e bd
       -0.038870893 -0.0830749 -0.012789982 -0.06217193
000300 79 fe e0 bd 19 2f e8 3d 05 7f 21 3c e6 9e c7 3d
       -0.10986037 0.11337108 0.009856944 0.09747104
000310 fe 45 b2 bc 0b da 6a 3c 09 70 1b bd 06 38 81 3d
       -0.02176189 0.014334212 -0.037948642 0.06309514
000320 df b1 ea bd 00 59 a0 bd 15 6b b2 bd e6 6e ac 3d
       -0.114597075 -0.078294754 -0.087118305 0.0841959
000330 6f 7d 0e be 7a d6 10 bb c7 4e 21 bd bb 09 2f 3e
       -0.13915037 -0.0022100494 -0.03938177 0.17093556
000340 45 3d 7b 3d 79 fd 08 3e 34 df 9d 3d 4e 69 a3 3c
       0.061337728 0.13377942 0.07708588 0.019947674
000350 ec cc 64 3e 59 10 1e bd 53 ed fe bd 83 0d 21 bd
       0.22343796 -0.03858981 -0.1244761 -0.039319526
000360 e5 46 3c 3e 37 25 2c be b2 74 0d be 69 4b 65 3b
       0.18386419 -0.16811071 -0.13814047 0.0034987575
000370 46 71 0c 3e 8f 3e 6b be 55 cf 74 bd 04 17 f2 bd
       0.13715085 -0.22973083 -0.05976804 -0.11820796
000380 0e d7 38 3c be 69 4d 3e 1a 78 de 3d bb 6e c2 3d
       0.011281742 0.20059869 0.10862751 0.094937764
000390 53 99 c5 bd 61 ed 41 bd ac 10 24 be 99 b8 1a 3d
       -0.09648385 -0.047345523 -0.16021985 0.037773702
0003a0 2e a2 b4 bd 6e d7 a9 bd 1f 11 ec bd 0d 86 8f 3b
       -0.08819996 -0.08293043 -0.11526703 0.004379994
0003b0 44 a9 6f bd f1 75 19 bd 9f 0d 14 3e 34 05 df bd
       -0.058511034 -0.037465993 0.14458321 -0.10889664
0003c0 ca 44 90 3d 47 e9 33 3e af 39 41 3e ca 61 98 bd
       0.070443705 0.17569457 0.18869661 -0.07440527
0003d0 a6 81 b8 3d 67 3e 95 3d 15 ea 06 bd 80 f4 2a 3c
       0.090091035 0.07287293 -0.03293808 0.01043427
0003e0 48 13 93 3c c0 0f 89 3d 72 ef 1a be c3 fc 21 be
       0.01795353 0.06692457 -0.15130404 -0.15819077
0003f0 e6 aa 85 3e 65 94 48 3e b3 85 07 bd 91 57 ae bd
       0.26106948 0.19587858 -0.03308649 -0.08512796

fc1.bias f4 [50]
000000 92 86 8c bb 4e a3 14 bc e2 d7 25 3e 52 1b b9 bd
       -0.004288503 -0.009072138 0.16195634 -0.09038414
000010 6a 59 07 3e ff ee 3e 3e 57 b1 91 3d f9 5e 0e bc
       0.13217703 0.18645857 0.07113903 -0.008689635
000020 6f 40 da bb 69 a6 c6 3d 19 cd 51 3d be 2c 04 bb
       -0.006660513 0.09699709 0.051220987 -0.002016827
000030 36 25 fa bc 9b fb c6 bd d3 20 87 3e 10 ae e3 3d
       -0.030535322 -0.09715959 0.2639223 0.11117184
000040 79 2c 35 3e 96 5a 3e 3d c4 14 d9 bd ca 8f ea 3c
       0.17692746 0.04647311 -0.10599664 0.028633017
000050 e8 44 4c bd 2a 6d 2b 3d b8 1a a8 3d aa fe af 3d
       -0.0498704 0.041852154 0.08208221 0.08593495
000060 4b 8c 1d 3e 66 2d 3d bd bf f5 eb 3d 83 7c 1c 3e
       0.15385549 -0.046185873 0.11521482 0.15281872
000070 ca f5 3e 3e 22 3e 6d 3d 9a de 86 bd 22 85 97 bd
       0.18648449 0.057920583 -0.06585427 -0.0739844
000080 6f ad 46 3e 83 42 53 3c 46 85 df 3c cf bc f5 bd
       0.19402097 0.012894276 0.02728523 -0.11998903
000090 69 88 5d bd c5 61 31 bd c8 60 d5 bd 78 37 5b bd
       -0.05408517 -0.04330613 -0.1041885 -0.053519696
0000a0 3f 38 e9 bc ae f7 87 3d d9 8d c2 3d 4a f2 73 3c
       -0.028469203 0.06639038 0.094997115 0.014889309
0000b0 8e e2 16 3c 10 50 6d 3e 8d 2d 18 be 64 a6 14 3e
       0.009209288 0.23175073 -0.14861126 0.14516598
0000c0 0d 9e 8c 3c 2d a2 4b 3d
       0.017165208 0.04971521

fc2.weight f4 [10, 50]
000000 16 b2 98 3d 51 f7 8c 3e 1f 19 6f be 26 87 b3 3d
       0.07455842 0.27532437 -0.23349427 0.08766012
000010 c7 2d 13 3e 32 7e d5 be 18 26 d5 bd 40 dc 89 be
       0.14372931 -0.41697842 -0.104076564 -0.2692585
000020 50 59 03 be ae 73 8a 3e ce c9 49 3e c0 b5 0e be
       -0.12827039 0.27041382 0.19705889 -0.1393652
000030 9c ca a3 be 88 ac dd 3a 91 cb 91 3e b6 a2 9f be
       -0.31990516 0.001691238 0.2847562 -0.31178826
000040 36 1e 46 be d1 d4 c2 3e 01 f5 69 be 31 76 e4 3e
       -0.19347462 0.3805299 -0.22847368 0.44621423
000050 f8 8e 01 bd 85 03 74 3e b0 8a 1e be 61 5a 48 3e
       -0.031630486 0.23829468 -0.15482593 0.19565727
000060 5a 04 af 3e bd ac 9c 3e 36 2b fa be d0 49 bc 3e
       0.34183007 0.3060054 -0.48861092 0.36775064
000070 cc 60 03 3e 8d f6 75 3e 92 f1 95 be 29 62 fc 3b
       0.12829894 0.24019833 -0.29285866 0.0077021313
000080 a7 96 bb 3e 95 65 69 3d ff ad 53 be c3 a2 3e 3e
       0.36638376 0.05698164 -0.20671843 0.18616776
000090 50 e1 bc 3c 68 7f 77 be 57 75 1e 3e d7 73 be 3e
       0.023056656 -0.24169695 0.15474449 0.37197754
0000a0 ac 79 ae bd 8c c3 87 bc 13 01 8f 3e df d6 86 3e
       -0.08519301 -0.016572736 0.27930507 0.2633581
0000b0 57 37 ea bc a6 e4 ad 3e a2 79 38 3b 0c cb 29 be
       -0.028590841 0.33963507 0.002814867 -0.16581362
0000c0 f0 d5 2a be 80 09 70 3e 23 f5 36 3e e9 f1 37 be
       -0.16683173 0.23441124 0.1786695 -0.17963375
0000d0 95 08 8e be 4a fc ac 3e 6c 97 43 bd f1 68 b5 be
       -0.27740923 0.3378623 -0.04775183 -0.35431626
0000e0 37 e0 83 bc 16 2e 98 be 48 ca 06 be a1 e4 82 be
       -0.016098125 -0.2972266 -0.13163102 -0.25565055
0000f0 8d 78 95 3e 59 fd 99 3c 4e 58 e2 3c eb 91 f3 3e
       0.29193535 0.018797563 0.027629998 0.47572264
000100 01 52 ad bd 34 f8 14 be c2 91 2c 3e bf 71 ca bc
       -0.08462907 -0.14547807 0.16852477 -0.024712441
000110 dd 6a 0a 3f 8e f8 88 be d1 37 3f 3d 98 8a b3 be
       0.5406931 -0.26752132 0.04668409 -0.35066676
000120 2f 85 bb bd c8 af 0a be 13 50 45 3e 45 73 d0 3e
       -0.09156262 -0.13543618 0.19268827 0.40712944
000130 95 e8 3e be db 6c 06 be 4f 83 66 be 6e 8e 9d 3e
       -0.1864341 -0.13127463 -0.22511028 0.30772728
000140 cf 6f 7e be 70 02 37 3d f8 c3 4f be 32 45 97 be
       -0.24847339 0.04468006 -0.202896 -0.2954498
000150 c4 13 35 be 4c 97 a5 be 31 68 88 3c a9 6d 7c be
       -0.17683321 -0.32341993 0.016651245 -0.24651207
000160 b4 23 ff 3c 8e b5 ba be 01 9d fe 3d a4 a8 25 be
       0.031144954 -0.3646664 0.1243229 -0.16177613
000170 c4 af 71 be 95 af 8c 3e 8f 81 41 be 56 cd 98 be
       -0.23602206 0.27477708 -0.18897079 -0.2984416
000180 dc a6 1d 3f 88 cc 47 bd 66 0c 72 3e 7a cf 5a 3e
       0.6158273 -0.04877904 0.23637542 0.21368209
000190 48 d6 a8 be 0f 9c 65 3e bd 46 a8 3e 4d e9 73 3e
       -0.32975984 0.22422813 0.3286647 0.23819466
0001a0 e2 ad e7 3e 02 ad d6 3e a3 c5 50 be db d4 12 3e
       0.4524985 0.4192887 -0.20387892 0.1433901
0001b0 27 cc 8e be 49 7e 5b bd 5d 7b bf 3d b0 40 b8 bd
       -0.2789013 -0.05358723 0.093497016 -0.08996713
0001c0 15 f1 34 be 5a 9b eb be 48 a9 31 bd 74 42 56 be
       -0.1767009 -0.4601696 -0.04337433 -0.20923787
0001d0 96 62 fc bd 8e 59 9d 3e c4 b1 b3 3d 03 40 8e 3d
       -0.12323491 0.30732387 0.087741405 0.06945803
0001e0 b4 ef c2 3e 98 82 50 3e b7 b0 65 bc 08 94 86 3e
       0.38073504 0.20362318 -0.014019183 0.26284814
0001f0 d0 5f a2 3e 47 98 80 3e f1 a6 93 3e c3 ec c8 be
       0.31713724 0.25116178 0.28838304 -0.39243135
000200 88 b1 f6 be b5 80 17 bf b6 4e a1 3e b5 12 27 3d
       -0.4818232 -0.59180766 0.31505364 0.040789325
000210 88 0e 34 3d da 84 42 be 04 08 7d 3e c8 ed d1 3d
       0.04395917 -0.18995991 0.24710089 0.10250431
000220 95 b6 54 be f9 fe 56 3e 1b f9 08 be 17 69 ae be
       -0.20772775 0.20995702 -0.13376276 -0.34064552
000230 c9 ac 72 bd 7b 0a e9 3d 84 c1 f2 bb 2d 78 9f be
       -0.059246812 0.11378952 -0.0074083228 -0.31146374
000240 e6 33 ad be ce ae 1c be 52 be 91 bd 47 75 87 3e
       -0.33828658 -0.15301058 -0.07116379 0.26456663
000250 45 73 cb 3e 15 cf 16 be 7a 33 57 bd 27 c6 14 be
       0.3973638 -0.14727433 -0.052539326 -0.14528714
000260 64 c9 02 bf b0 59 83 3e ef 2e 0b be 75 f8 00 bf
       -0.5108855 0.25654364 -0.13592122 -0.50379115
000270 35 2d a0 bd db 5f 00 3e cb 05 9b 3e 99 2d 26 be
       -0.078211226 0.12536566 0.30277857 -0.16228332
000280 44 44 24 3e 3f 3d 04 be 03 9b b8 3e 2f b5 96 be
       0.16041666 -0.12913989 0.36055765 -0.29435107
000290 3d 75 02 be 29 80 c0 3e 95 e0 c0 3c 2c 24 2c be
       -0.12740035 0.37597778 0.023544589 -0.16810673
0002a0 72 2e 2d be 28 4a f5 be 7b ed 83 be c1 05 94 3e
       -0.16912249 -0.4790814 -0.2576712 0.2891064
0002b0 de 22 29 3f f9 24 35 3e de d0 2c bc 28 e5 a6 be
       0.6606883 0.17689885 -0.010547845 -0.32596707
0002c0 fd 05 46 3e 2d 1d 0c bd 70 db e0 be 5d 33 98 3e
       0.19338222 -0.03420751 -0.43917418 0.29726687
0002d0 a7 60 5f be 15 cd 96 3e b8 f4 0b be d7 63 d3 be
       -0.21814214 0.2945334 -0.13667572 -0.4128711
0002e0 d6 a8 ac bd bf 99 c3 be 86 a5 aa 3d 8b 7a ca 3e
       -0.084306404 -0.38203236 0.08332352 0.39546618
0002f0 d4 6d 16 3d 1d 1f ac 3e de 40 a9 3d 76 7f ea 3d
       0.036725834 0.33617488 0.082643256 0.114500925
000300 d6 07 6c be c0 43 ca 3e d8 fb 08 bc a1 c5 9c 3e
       -0.23049864 0.39504814 -0.0083608255 0.3061953
000310 a9 e2 f5 bd b6 94 34 be d3 38 9b 3e 48 06 80 3e
       -0.120061226 -0.17634854 0.3031679 0.25004792
000320 0c 28 f1 bd a1 57 8f 3e 97 46 c2 3e 2d c6 90 3e
       -0.117752165 0.27996543 0.3794448 0.28276196
000330 6b 30 01 bf e0 cb ec 3e 56 52 b7 bd e5 0e b8 bc
       -0.50464505 0.46249294 -0.08951251 -0.02246804
000340 9c 23 c2 be 2f 51 ac 3d d3 5d 19 bf 53 9a 01 bc
       -0.37917793 0.08413922 -0.5990879 -0.007910329
000350 d9 9b 94 be d5 fe 8c 3e 78 07 c7 bc fe 95 09 3e
       -0.29025152 0.2753817 -0.024295554 0.13436124
000360 d8 38 e8 be d2 ed ee bd df 22 f3 3e c8 9f 23 3e
       -0.45355868 -0.116664544 0.47487542 0.1597892
000370 14 aa 44 3e 9d 0f 67 3e c7 5d 0e bd e3 5d 21 bd
       0.19205505 0.2256455 -0.0347574 -0.039396178
000380 fb da 9d be 71 2e 02 3e 0e 09 93 3e 40 8a 11 3e
       -0.3083113 0.12713028 0.28717846 0.14212894
000390 30 46 63 3e d2 19 52 3e 5e 05 d1 3e 42 6c 9c be
       0.22194743 0.20517662 0.40824407 -0.30551344
0003a0 5e e1 af be 79 48 83 be 19 53 81 be 51 76 a8 bd
       -0.3435163 -0.2564123 -0.2525871 -0.08225692
0003b0 f9 eb c9 be 1a 7a bb 3e db 27 b2 3c 45 ad ae be
       -0.39437845 0.36616594 0.02174752 -0.3411657
0003c0 05 59 97 bd c8 18 a9 be bf f3 86 be 25 8d f3 3e
       -0.07390026 -0.3302672 -0.2635784 0.47568622
0003d0 8c ae a5 be 31 f3 e2 be ee 25 19 3d 75 a7 9f 3e
       -0.3235973 -0.44326165 0.03738969 0.31182447
0003e0 0f 23 8c 3e 33 49 7d 3e 03 43 6f 3e 29 29 56 3e
       0.27370498 0.24734955 0.23365407 0.20914139
0003f0 66 df 91 be 51 8a e4 be 95 fe 50 be e5 cf 54 3d
       -0.28490752 -0.44636777 -0.20409615 0.051956076

fc2.bias f4 [10]
000000 ac cc 26 be 9e e9 cc be 53 24 aa 3e 7b ca 1f bd
       -0.16289014 -0.40021986 0.33230838 -0.03901146
000010 7c 4e 13 be 8d 6c 00 bf 82 5b 93 3e 63 48 5e bd
       -0.14385408 -0.50165635 0.28780752 -0.054268252
000020 de 17 e9 3e d1 81 ac be
       0.45526022 -0.33692792
