checkpoints/all users/cnn2/19-12-2023_18-00-58/best_model.pth.tar (torch, 34106 bytes, 16 tensors)

conv1.weight f4 [6, 1, 5, 5]
0	0xbd8b970f	-0.068159215
1	0xbe0618b4	-0.13095361
2	0xbe1c1b78	-0.15244853
3	0x3dc6764a	0.096905306
4	0xbca66cba	-0.020315517
5	0x3e43d3f4	0.19123822
6	0x3d19407b	0.03741501
7	0xbe096696	-0.1341804
8	0x3e3dbfa3	0.18530135
9	0x3e241340	0.16022968
10	0x3dd05363	0.10172155
11	0x3d549b1e	0.051905744
12	0x3d46ba5e	0.048517577
13	0x3a1a1064	0.0005877076
14	0xbce0cd54	-0.027441658
15	0x3d8d3b97	0.068961315
16	0xbd1d3f78	-0.038390607
17	0xbe1f5304	-0.15559012
18	0xbcde3c2b	-0.0271283
19	0xbd9ada2d	-0.07561145
20	0x3e394308	0.18091977
21	0xbcb28835	-0.021793464
22	0xbe2a872e	-0.1665313
23	0xbe28b86f	-0.16476606
24	0xbd5c4ebf	-0.053786036
25	0x3d14d9ad	0.036340404
26	0x3e3b3666	0.1828247
27	0x3e616f35	0.22015078
28	0x3b33d05e	0.002743743
29	0xbdf7ee99	-0.12106056
30	0xbe1a2689	-0.15053762
31	0x3d1acb4d	0.03779154
32	0x3dbdc7eb	0.09266647
33	0x3dbd4b6a	0.092429
34	0x3ca233a8	0.019800022
35	0xbdb9d4c2	-0.090737835
36	0x3e288adb	0.16459219
37	0x3db3d311	0.08780492
38	0xbe67cd75	-0.2263697
39	0xbd33209e	-0.043732278
40	0xbc86a218	-0.016434714
41	0xbe153fb1	-0.14575078
42	0x3e1dbb36	0.15403447
43	0x3c1b6ecd	0.009486866
44	0x3dfc96e3	0.12333467
45	0x3db841ee	0.0899695
46	0x3ccfc716	0.025363486
47	0x3e4dddd3	0.2010415
48	0x3cfdfdb5	0.031004766
49	0x3d042f91	0.032271925
50	0x3df2e6b7	0.118604116
51	0x3bd843c1	0.006599874
52	0xbe42771c	-0.18990749
53	0x3d88c440	0.06678057
54	0xbe6dce15	-0.23223145
55	0xbdf75619	-0.12076969
56	0x3e1f64de	0.15565822
57	0xbe1df0df	-0.15423916
58	0xbd2d8d53	-0.042371105
59	0xbdbf93bd	-0.09354351
60	0xbd7e6382	-0.062106617
61	0x3c8da3d8	0.01729004
62	0x3e64c6c4	0.22341448
63	0xbd5eacc3	-0.054363977
64	0x3ccfe357	0.025376959
65	0x3db96145	0.09051756
66	0xbce605d0	-0.028078943
67	0x3e129525	0.14314707
68	0xbd2f32c8	-0.04277304
69	0x3e41747d	0.18892093
70	0xbdec3e39	-0.115353055
71	0x3e015720	0.12630892
72	0xbe00af31	-0.1256683
73	0x3d5fe6e3	0.05466355
74	0xbe1e1da2	-0.15440992
75	0x3d4e3eac	0.050352737
76	0x3e28977e	0.1646404
77	0xbc28fe53	-0.010314542
78	0xbde87ec6	-0.11352305
79	0x3d465a5c	0.048426017
80	0xbdb1bbb3	-0.08678379
81	0x3d4ee792	0.05051381
82	0xbe3e2ee3	-0.18572573
83	0x3e5d67c5	0.21621616
84	0x3dc83cf9	0.097772546
85	0x3df9ec23	0.12203243
86	0x3d53cf2e	0.051711254
87	0x3d8ec552	0.069712296
88	0xbd6600e3	-0.05615319
89	0xbdaa03ca	-0.08301504
90	0xbc4b79e7	-0.0124192005
91	0xbd4d6b53	-0.05015118
92	0x3d3fbe89	0.046812568
93	0x3dccb610	0.09995663
94	0xbd86f7a8	-0.065902054
95	0x3c04bdd0	0.008101895
96	0xbe58a515	-0.21156724
97	0xbe4d0812	-0.2002261
98	0xbc14da70	-0.009085283
99	0xbe0c733f	-0.13715838
100	0xbe1d9fbc	-0.15392965
101	0x3e0ede38	0.13951957
102	0xbe11d6be	-0.14242074
103	0x3a914c62	0.0011085386
104	0x3e389d88	0.18028843
105	0x3ce6239f	0.028093157
106	0xbd5a4369	-0.053286944
107	0x3e0df847	0.13864242
108	0xbe2947c8	-0.16531289
109	0xbc685d0d	-0.014182341
110	0x3c7a1df5	0.015265931
111	0xbe3b89bb	-0.18314259
112	0xbd94679d	-0.07246325
113	0xbe1edf3c	-0.15514845
114	0xbd61b26f	-0.05510181
115	0xbd8bbe4c	-0.068234056
116	0x3de4d4d1	0.11173404
117	0xbe07d1c2	-0.1326361
118	0x3dd3235b	0.10309478
119	0x3e00a067	0.12561189
120	0x3df4d169	0.11954004
121	0x3e594ff7	0.2122191
122	0xbe14a0c4	-0.14514452
123	0x3d56a45b	0.052402835
124	0x3def42b8	0.116826475
125	0x3e3d3b00	0.18479538
126	0x3defa6b1	0.11701716
127	0x3ddfb13e	0.10922478
128	0x3e371406	0.17878732
129	0xbd3f5fe8	-0.046722323
130	0xbd1fd52b	-0.039021652
131	0x3ce05bcf	0.027387528
132	0xbdc1ae85	-0.09457115
133	0xbe3c4b1e	-0.1838803
134	0x3beb663a	0.007183817
135	0xbe747e69	-0.23876347
136	0x3de3388c	0.1109477
137	0x3dee7122	0.11642672
138	0x3e033a30	0.12815166
139	0xbda61598	-0.081095874
140	0x3d40d050	0.047073662
141	0xbd9476b3	-0.072492026
142	0xbcd1cbd4	-0.025609888
143	0x3d98e6ae	0.07465874
144	0x3d8844d1	0.06653751
145	0xbd3cc80b	-0.046089213
146	0xbd1d8e95	-0.038466055
147	0xbd2bf52e	-0.04198187
148	0xbdc30e79	-0.09524245
149	0x3e4df495	0.20112832

conv1.bias f4 [6]
0	0xbd24b832	-0.040214725
1	0xbcc3d645	-0.023905883
2	0x3d2d9103	0.042374622
3	0xbd77d753	-0.060508084
4	0xbddfd774	-0.10929766
5	0xbd4055e9	-0.04695693

conv2.weight f4 [6, 6, 5, 5]
0	0xbdb46121	-0.08807588
1	0xbc42d869	-0.0118924165
2	0x3d6e6205	0.058198947
3	0xbb324f1e	-0.0027207802
4	0xbc34478a	-0.011003384
5	0x3e080278	0.13282192
6	0xbcf96eb4	-0.030448295
7	0xbc877703	-0.016536241
8	0xbc5d7623	-0.0135169355
9	0xbcd0e434	-0.02549944
10	0xbd928927	-0.07155066
11	0xbd46e915	-0.048562128
12	0xbdb69e29	-0.089168854
13	0xbd752eb2	-0.059858985
14	0xbd8133a5	-0.063086785
15	0xbb4421b2	-0.002992731
16	0x3cb199e5	0.021679828
17	0xbdac5804	-0.08415225
18	0xbcc69da9	-0.0242451
19	0xbd9018ea	-0.07036002
20	0xbdc2e62b	-0.09516557
21	0x3d9b8cc1	0.07595206
22	0x3d5d7be2	0.054073222
23	0xbb8e8d5c	-0.0043503474
24	0x3c912493	0.017717635
25	0xbd811ed6	-0.063047096
26	0xbc7fbf9d	-0.015609649
27	0x3cc9ce9c	0.024634652
28	0x3c7acc08	0.015307434
29	0xbd3a7c76	-0.04552885
30	0x3d4da563	0.050206553
31	0xbc2c1f1a	-0.010505462
32	0x3cd1393b	0.025539985
33	0xbd064bec	-0.03278725
34	0xb9234998	-0.00015572307
35	0x3dbc7b9f	0.09203266
36	0xbc4bb3b3	-0.01243298
37	0x3c2e8b1c	0.010653283
38	0x3d37b765	0.044852633
39	0xbc9b8d57	-0.018988295
40	0xbd8bc397	-0.06824415
41	0xbb6f8822	-0.0036549647
42	0xbcbf8344	-0.023378022
43	0xbd81c2e4	-0.063360006
44	0xbd0b3cbb	-0.033993464
45	0x3c457308	0.012051351
46	0x3c9e64b6	0.019335132
47	0x3d631f8b	0.055450004
48	0xbd2190be	-0.039444678
49	0x3d0e1a2f	0.03469294
50	0x38d73bf0	0.00010263163
51	0x3db5a72b	0.088697754
52	0xbd236325	-0.039889473
53	0x3d878445	0.06617025
54	0x3d91eb9d	0.07125018
55	0x3d9a9fbd	0.07549999
56	0x3c18fbef	0.009337409
57	0xbb475fe2	-0.003042214
58	0xbd1bdf9d	-0.03805505
59	0xbcb9ff9a	-0.022704888
60	0xbc0d2314	-0.00861432
61	0x3d8594cf	0.065225236
62	0x3da19a6c	0.07890782
63	0xbda6eaf4	-0.081502825
64	0x3b069d55	0.0020540555
65	0x3d1526cf	0.036413964
66	0x3d72901e	0.059219472
67	0x3d17c74a	0.03705529
68	0xbbd86c05	-0.006604674
69	0xbc0fd08b	-0.008777748
70	0xbd9188d2	-0.071061745
71	0xbc6cc126	-0.014450347
72	0xbd0af5d8	-0.03392586
73	0x3d12a3bd	0.035800684
74	0x3d4b1de6	0.04958906
75	0xbd9f6bce	-0.07784234
76	0xbc62f14f	-0.013851478
77	0x3c01c6c7	0.007920927
78	0xbd2271ff	-0.039659496
79	0x3d8ff4eb	0.07029136
80	0x3cedd62d	0.029032791
81	0x3b67741d	0.0035317012
82	0xbd905a2a	-0.070484474
83	0xbc12056d	-0.008912426
84	0xbd22e19d	-0.039765943
85	0xbcf319f4	-0.029675461
86	0x3ce59d32	0.028029058
87	0xbbb1b5dd	-0.005423291
88	0xbd237352	-0.0399049
89	0xbc9ae30e	-0.018907096
90	0xbdb8c752	-0.09022392
91	0x3ce35c9f	0.027754126
92	0xbcd7b875	-0.026333073
93	0xbc813e5e	-0.01577681
94	0xbda4af01	-0.08041192
95	0x3d836ad3	0.064168595
96	0xbc96e803	-0.018421179
97	0x3d11cef3	0.035597753
98	0x3c4c2095	0.01245894
99	0xbde0203b	-0.109436475
100	0xbcee54d8	-0.029093191
101	0xbd3ad683	-0.04561473
102	0xbd7c08cc	-0.061531827
103	0x3d2a16b6	0.041525565
104	0x3d2a3973	0.041558694
105	0xbd44ff89	-0.04809526
106	0xbda211c8	-0.07913548
107	0x3de11d9f	0.10991978
108	0xbd577728	-0.05260387
109	0xbb35c27b	-0.0027734328
110	0xbd297a15	-0.041376192
111	0xbd953d44	-0.07287076
112	0x3d633618	0.05547151
113	0xbc81e229	-0.015854912
114	0xba932008	-0.0011224756
115	0xbdb9d8b9	-0.0907454
116	0xbc20db99	-0.009817981
117	0xbc8a11c3	-0.016854173
118	0x3d68a0f5	0.056794126
119	0xbd173c79	-0.036922906
120	0xbd5f8409	-0.054569278
121	0x3c3fb253	0.011700231
122	0xbd318170	-0.04333633
123	0x3d1f8063	0.0389408
124	0xbb76bd61	-0.00376495
125	0xbddb8ead	-0.107205726
126	0xbc0d428d	-0.008621824
127	0xbe04f71d	-0.12984891
128	0x3dd391c5	0.10330538
129	0x3bc54828	0.0060205646
130	0x3d194662	0.037420638
131	0x3c62ba3f	0.01383835
132	0xbd58bff8	-0.05291745
133	0xbd65f0f3	-0.05613799
134	0xbd03f5e7	-0.032216933
135	0x3be17195	0.006879995
136	0x3d3d6e1a	0.04624758
137	0xbda47c78	-0.08031553
138	0xbd2671bc	-0.04063581
139	0xbcb60b56	-0.022222202
140	0xbd0a4144	-0.03375365
141	0x3aaa6a8e	0.0013001726
142	0xbc99a1fe	-0.018754002
143	0x3d2f9050	0.042862236
144	0xbd1cfd80	-0.038327694
145	0x3d8bfde0	0.06835532
146	0x3d1625fe	0.036657326
147	0xbdc0ff41	-0.09423686
148	0xbd8beaf2	-0.06831922
149	0xbda940fe	-0.082643494
150	0xbd2221bb	-0.03958295
151	0xbd37e076	-0.044891797
152	0xbd8a4898	-0.067521274
153	0xbcecce10	-0.028906852
154	0xbdb60dc6	-0.08889346
155	0xbcaa0956	-0.020756405
156	0x3a7753f9	0.0009434815
157	0xbd684671	-0.056707803
158	0x3d66547b	0.05623291
159	0xbd0aeb57	-0.033915844
160	0xbcee85ef	-0.029116599
161	0xbc9a11c2	-0.018807296
162	0x3d5e01d5	0.054200966
163	0x3d00143c	0.031269297
164	0xbda7e2f9	-0.081975885
165	0xbd032042	-0.032013185
166	0xbd7ce636	-0.061742984
167	0x3aeb80ac	0.0017967424
168	0xbd5e5a36	-0.05428525
169	0xbc2dedf3	-0.010615814
170	0x3d9bab67	0.07601052
171	0xbdba2992	-0.0908996
172	0xbd47a96c	-0.048745558
173	0x3d3276f8	0.04357049
174	0xbd7f286f	-0.06229442
175	0x3d1956c9	0.03743628
176	0xbcc77588	-0.024348035
177	0xbcc49bcb	-0.02400007
178	0xbd246b65	-0.040141482
179	0x3d78e110	0.06076151
180	0x3d7ec705	0.06220152
181	0xbbf54396	-0.0074848635
182	0x3d8a4b1d	0.06752608
183	0xbd315c00	-0.04330063
184	0x3d7366d3	0.059424233
185	0xbd2e3c1b	-0.04253779
186	0xbcf5d8bb	-0.030010572
187	0xbc63bed6	-0.013900479
188	0x3b78804b	0.0037918265
189	0xbda65129	-0.08120949
190	0xbd46531e	-0.04841911
191	0xbb1bbe68	-0.0023764614
192	0xbd1d9d31	-0.038479988
193	0x3bc0e78e	0.0058869785
194	0xbd89e0d1	-0.067323335
195	0x3c77996e	0.015112264
196	0x3d14520f	0.03621107
197	0x3d03bd30	0.032162845
198	0x3d449376	0.047992192
199	0x3c47ea3f	0.012201845
200	0xbd96e26c	-0.07367405
201	0xbb1c45d6	-0.0023845336
202	0x3c7d340c	0.0154543035
203	0x3db28d22	0.08718325
204	0xbdc5960b	-0.09647759
205	0x3c8e973b	0.017406097
206	0xbc6c4a2b	-0.01442198
207	0xbd57c916	-0.052682005
208	0xbd17c801	-0.037055973
209	0x3d86961d	0.065716006
210	0xbc768aca	-0.015047738
211	0x3d0e1183	0.03468467
212	0xbd41246e	-0.047153883
213	0xbca01205	-0.019539842
214	0xbd3acec0	-0.04560733
215	0x3d2873a9	0.041125927
216	0x3d438631	0.047735397
217	0x3a56fbd2	0.00082009763
218	0x3d63c076	0.055603467
219	0x3d23c9d6	0.039987408
220	0x3ca8d349	0.020608561
221	0x3d19d658	0.03755793
222	0x3cefbfb5	0.029266218
223	0x3d25d0a0	0.040482163
224	0xbc87ef35	-0.016593555
225	0x3cff60ed	0.031174148
226	0xbd0b78c2	-0.03405071
227	0x3ca9fc87	0.020750297
228	0x3d17ad93	0.037030768
229	0xbd7902ab	-0.06079356
230	0xbcfda2f9	-0.0309615
231	0xbbfd161b	-0.0077235824
232	0xbd7e1ce0	-0.062039256
233	0xbcc1fe9b	-0.023680976
234	0x3ce779fa	0.028256405
235	0x3d834967	0.06410485
236	0x3d274f3f	0.04084706
237	0xbd5920a7	-0.053009655
238	0xbd1914a6	-0.037373208
239	0xbca3cfda	-0.019996572
240	0x3c57d86c	0.013174158
241	0x3cee3207	0.02907659
242	0x3d338d9b	0.043836217
243	0x3d7bbe4c	0.061460778
244	0x3d03a633	0.03214092
245	0xbd347805	-0.044059772
246	0x3d849423	0.06473567
247	0xbcb67860	-0.022274196
248	0xbd8c1ae2	-0.06841065
249	0xbbd2f133	-0.0064374446
250	0xbd85dd5c	-0.065363616
251	0x3c84b27a	0.016198386
252	0xbd24c82d	-0.040229965
253	0x3bf6cad1	0.007531502
254	0x3c30bc74	0.010787118
255	0x3d134d21	0.035962228

conv2.bias f4 [6]
0	0xbc8d7d5d	-0.017271692
1	0xbe065bcf	-0.1312096
2	0xbd4cab5e	-0.049968116
3	0x3d8c64f0	0.0685519
4	0x3d14e009	0.03634647
5	0xbbd5830c	-0.006515866

fc1.weight f4 [50, 96]
0	0xbdbd6cd9	-0.09249277
1	0xbd196038	-0.037445277
2	0xbd800a65	-0.062519826
3	0xbd5381b2	-0.05163736
4	0xbda12ce1	-0.07869888
5	0xbd225de5	-0.039640326
6	0x3b28efe3	0.002577775
7	0x3cbaf08e	0.022819784
8	0x3c42b9b8	0.011885099
9	0xbbc0adbd	-0.005880086
10	0x3bacee0a	0.0052774
11	0x3deafaa6	0.11473589
12	0x3de8cc01	0.11367036
13	0x3da40994	0.080096394
14	0x3dca8406	0.09888463
15	0xbd352def	-0.04423326
16	0xbd1f853c	-0.03894542
17	0xbc93fa2a	-0.018063623
18	0x3d9aa882	0.075516716
19	0x3c832b6e	0.01601192
20	0x3d51c647	0.051214483
21	0xbd945766	-0.072432324
22	0x3c94f334	0.018182375
23	0xbda85857	-0.082199745
24	0x3cb754bd	0.022379274
25	0xbd9cd264	-0.07657316
26	0xbd29f3cf	-0.04149228
27	0xbdc6ece8	-0.09713155
28	0x3b0ac244	0.002117292
29	0xbda0c6cb	-0.07850417
30	0xbc88b646	-0.016688477
31	0x3d6edcf1	0.058316175
32	0xbd953de5	-0.07287196
33	0xbc226858	-0.009912573
34	0x3cbc1d98	0.02296333
35	0xbd3fe093	-0.04684503
36	0xbd8d0079	-0.06884856
37	0x3d62f8ee	0.05541318
38	0x3dc9d44b	0.09854945
39	0xbd1e87a2	-0.03870357
40	0x3db8659b	0.09003755
41	0x3d058aec	0.03260319
42	0xbd6774ae	-0.05650776
43	0x3d6bf514	0.05760677
44	0xbc66cceb	-0.014086942
45	0x3c254982	0.010088326
46	0xba3e8959	-0.0007268391
47	0x3cb2b1d6	0.021813314
48	0xbd32740c	-0.043567702
49	0x3dd300e6	0.10302906
50	0xbd9eab72	-0.07747544
51	0x3cc69594	0.024241246
52	0xbd0374c0	-0.032093763
53	0x3d888dcd	0.06667671
54	0xbd13d3bb	-0.036090594
55	0xbc134d31	-0.008990572
56	0x3dbed967	0.0931881
57	0x3db3a596	0.087718174
58	0x3d83bd94	0.064326435
59	0xbdd7cb31	-0.105368026
60	0x3c85a5ca	0.016314406
61	0xbd485426	-0.048908375
62	0xbd60500f	-0.05476385
63	0xbdce9b8b	-0.10088261
64	0x3d795566	0.060872458
65	0xbd923914	-0.07139793
66	0x3dfdbb15	0.12389199
67	0x3da4c1e9	0.08044798
68	0x3cb64334	0.022248842
69	0xbcb140b8	-0.021637306
70	0x3d173d8c	0.03692393
71	0xbc8f95c6	-0.017527472
72	0xbcad981b	-0.021190694
73	0x3d8c85f7	0.06861489
74	0xbdd1839f	-0.10230183
75	0x3d1e8177	0.038697686
76	0xbc8b4afb	-0.017003527
77	0x3cc7b2db	0.024377277
78	0xbd92c6d6	-0.07166831
79	0x3db02ec7	0.08602672
80	0xbc7150cd	-0.014728737
81	0x3d83a02b	0.06427034
82	0xbd713967	-0.058892634
83	0xbc8ea926	-0.01741464
84	0x3cd1a458	0.02559106
85	0x3c7ce944	0.015436474
86	0xbbc503a7	-0.0060123983
87	0x3d3f8176	0.046754323
88	0xbd7e406f	-0.062073167
89	0xbc3e3cfe	-0.011611221
90	0xbddd52fc	-0.10806844
91	0x3d0e0c81	0.034679893
92	0x3bf3e744	0.0074433405
93	0xbdc588a4	-0.09645203
94	0x3c97d4b6	0.018534046
95	0xbd65b66a	-0.056082167
96	0x3da5e776	0.08100788
97	0x3da097ec	0.07841477
98	0x3bcd210a	0.006260042
99	0xbd9c3bc5	-0.07628588
100	0xbdc51f2d	-0.09625087
101	0xbdcdd858	-0.1005103
102	0x3cf60b47	0.030034674
103	0xbd235982	-0.039880283
104	0x3c99fa4b	0.018796107
105	0x3db0b796	0.08628766
106	0x3ca43377	0.020044072
107	0x3dd0e773	0.102003954
108	0xbdb25721	-0.08708025
109	0x3db8ad5e	0.09017442
110	0xbcecfec7	-0.028930081
111	0x3d0f0378	0.034915417
112	0x3bda1ba3	0.0066561266
113	0xbd02aa25	-0.031900544
114	0x3cdd906f	0.02704641
115	0x3cc80efe	0.024421211
116	0xbcc92fb4	-0.02455888
117	0xbc8164ef	-0.0157952
118	0xbddf62e7	-0.10907536
119	0x3dc7ea5f	0.097614996
120	0xbd73fe23	-0.059568536
121	0x3d10f475	0.035389382
122	0xbcfd62c2	-0.03093088
123	0x3d8a9f86	0.06768708
124	0x3d816002	0.0631714
125	0x3db4ed53	0.088343285
126	0x3dcdbf0f	0.10046207
127	0x3d885eea	0.066587284
128	0xbd670aaa	-0.056406654
129	0xbdce687d	-0.10078523
130	0xbcd39d7c	-0.02583193
131	0xbd9954e2	-0.07486893
132	0x3d470e32	0.048597522
133	0x3cff71bb	0.03118216
134	0x3c3b34fd	0.011426208
135	0xbd7ede34	-0.06222363
136	0xbda565ef	-0.08076083
137	0xbd79b16e	-0.060960226
138	0x3d2b9161	0.04188669
139	0x3c34af45	0.011028116
140	0xbda79bf7	-0.08184045
141	0xbda56fbf	-0.080779545
142	0xbd70f36a	-0.058825888
143	0xbd15d067	-0.0365757
144	0x3db9fd0c	0.09081468
145	0x3affd71a	0.0019519061
146	0xbd2727dc	-0.040809497
147	0xbda84a57	-0.08217304
148	0x3dca547d	0.09879396
149	0xbd610cbd	-0.05494379
150	0x3baf0735	0.0053414353
151	0x3a339e71	0.0006851918
152	0x3d661928	0.056176335
153	0xbd2bb8af	-0.041924175
154	0xbd0c8940	-0.03431058
155	0x3a48f9d0	0.00076666195
156	0x3db12894	0.08650318
157	0x3d281802	0.04103852
158	0x3d7d6226	0.06186118
159	0x3d8b0692	0.067883626
160	0xbd89b8d7	-0.067247085
161	0xbd0b7ab9	-0.034052584
162	0x3d437da3	0.04772724
163	0xbd2bbc4d	-0.041927624
164	0xbcda20ca	-0.026626963
165	0x3c4bc72a	0.012437621
166	0xbd36ceaf	-0.044630703
167	0xbd82718d	-0.06369314
168	0x3d1ab6b1	0.037771884
169	0x3d9001d3	0.07031598
170	0x3d5ad559	0.05342612
171	0x3d519add	0.05117308
172	0x3caddd4d	0.021223688
173	0xbd8238e0	-0.06358504
174	0xbcea3ab9	-0.028592454
175	0xbcc66b53	-0.024221098
176	0xbd74a5c7	-0.05972841
177	0xbd767575	-0.06017061
178	0xbcfe87f4	-0.031070687
179	0xbcbc360c	-0.02297499
180	0xbd88fd51	-0.06688941
181	0x3da025dd	0.07819722
182	0x3c3aa88b	0.011392723
183	0xbdc97d27	-0.09838324
184	0x3d83283f	0.06404161
185	0xbd4bbb22	-0.04973901
186	0x3e045e7b	0.12926666
187	0xbb979431	-0.00462582
188	0x3d998440	0.07495928
189	0x3d84e3e1	0.06488777
190	0x3cd57c54	0.02606026
191	0xbda67790	-0.081282735
192	0x3d14b771	0.036307756
193	0x3c79ed2e	0.015254302
194	0xbc20937f	-0.009800791
195	0xbad2b825	-0.0016076608
196	0x3d063bbc	0.03277181
197	0xbd221a52	-0.039575882
198	0x3cc7d355	0.024392763
199	0x3dcc4b93	0.09975352
200	0xbda4ee8c	-0.08053312
201	0x3d066ab2	0.032816596
202	0xbca737f8	-0.02041243
203	0xbd82aa2c	-0.06380114
204	0xbcfc077d	-0.03076529
205	0x3dac7551	0.08420814
206	0x39a0dcb0	0.00030682003
207	0x3d5f4231	0.054506484
208	0x3d24e45c	0.040256843
209	0x3cfd2da1	0.030905547
210	0xbd0245d9	-0.031804893
211	0x3d5f452f	0.054509338
212	0x3cc9a37f	0.024614094
213	0x3d9772aa	0.07394917
214	0x3d577de2	0.052610286
215	0x3db4d581	0.08829785
216	0x3d17faa4	0.037104264
217	0xbd38e2bb	-0.045138102
218	0x3cdac654	0.026705898
219	0xbcf05d40	-0.02934134
220	0xbd0aca64	-0.03388442
221	0xbd0d30a4	-0.034470215
222	0xbcfa8e25	-0.030585358
223	0xbdad8edd	-0.08474515
224	0xbd82a1a3	-0.06378486
225	0x3d796fa2	0.060897477
226	0xbc853410	-0.016260177
227	0x3dc1ed17	0.094690494
228	0xbd8a126e	-0.067417964
229	0xbd7cbfb1	-0.06170625
230	0x3d89571f	0.0670607
231	0x3dc14f1c	0.09438917
232	0x3d904763	0.07044866
233	0xbd204bb0	-0.03913468
234	0x3c65a185	0.01401556
235	0x3d17ce45	0.03706195
236	0xbcbfec53	-0.023428118
237	0xbd72a0fb	-0.059235554
238	0x3d0c54cc	0.034260556
239	0xbd886a97	-0.066609554
240	0xbc6dc870	-0.01451312
241	0xbdb23411	-0.08701337
242	0x3d781e09	0.06057552
243	0x3d10743f	0.03526711
244	0xbc3f1df7	-0.011664859
245	0xbd135738	-0.03597185
246	0x3ccffbee	0.025388684
247	0x3d9bdd6d	0.07610593
248	0xbd28d537	-0.041218963
249	0x3dd0add1	0.10189403
250	0x3e0c488d	0.13699551
251	0x3d7cda7b	0.061731797
252	0x3d468af1	0.04847235
253	0x3dce4620	0.10071969
254	0xbd6c4647	-0.05768421
255	0xbd37fae6	-0.04491701

fc1.bias f4 [50]
0	0xbd2c99e6	-0.042138956
1	0x3d5409e0	0.05176723
2	0xbd5d52f0	-0.054034173
3	0x3d8f1909	0.06987197
4	0xbcb8a439	-0.022539245
5	0x3db15d43	0.086603664
6	0xbd653954	-0.055962875
7	0x3c0489f7	0.008089534
8	0xbc918178	-0.01776193
9	0xbd56c1c9	-0.0524309
10	0xbd8d27ca	-0.06892355
11	0xbd691af3	-0.056910466
12	0x3d80d177	0.06289952
13	0x3df5b57e	0.119975075
14	0x3d14e18a	0.036347903
15	0xbd1be577	-0.03806063
16	0x3bc46c8c	0.005994385
17	0x3da50db7	0.080592565
18	0xbc043302	-0.008068802
19	0x3cafa5f6	0.021441441
20	0x3d42e556	0.047581993
21	0x3db815ed	0.08988557
22	0x3da46327	0.08026724
23	0xbde9b622	-0.11411692
24	0xbcf0cf5d	-0.029395754
25	0x3d858ba2	0.065207735
26	0x3d0646bd	0.032782305
27	0xbd882a0e	-0.06648646
28	0xbc2dd98e	-0.010610951
29	0xbd62b162	-0.055344947
30	0x3c12cdc3	0.00896019
31	0x3d2ba233	0.041902732
32	0xbd166a88	-0.03672269
33	0xbcd34c3a	-0.025793184
34	0xbd64da0e	-0.055872016
35	0xbbdff52f	-0.006834648
36	0x3d637c7a	0.055538632
37	0xbd387681	-0.04503489
38	0x3d5d6f39	0.05406115
39	0x3da180ac	0.0788587
40	0x3c9301ca	0.017945189
41	0x3c0bc12e	0.008529944
42	0x3c1b18fd	0.009466407
43	0xbda8b94a	-0.08238466
44	0x3d899b54	0.067190796
45	0xbc32e61f	-0.010919123
46	0x3d527f87	0.05139115
47	0x3d95af5e	0.07308839
48	0xbd830512	-0.063974515
49	0x3d229718	0.039694875

fc2.weight f4 [10, 50]
0	0xbe2ce646	-0.16884717
1	0xbd91133f	-0.07083749
2	0x3d3df91c	0.046380147
3	0x3e50b649	0.20382036
4	0xbdbbec1a	-0.09175892
5	0x3e096419	0.1341709
6	0x3db204a8	0.08692294
7	0x3e2f18a8	0.1709925
8	0x3ca79759	0.02045791
9	0x3e668558	0.22511804
10	0xbd67ab1b	-0.056559663
11	0xbe0eca71	-0.13944413
12	0xbc6881c3	-0.014191094
13	0xbe40fe92	-0.18847111
14	0xbd976332	-0.07391967
15	0x3e7c52a3	0.24640898
16	0x3e65013b	0.2236375
17	0xbdc0a89c	-0.0940716
18	0x3c43a563	0.011941287
19	0xbe205df8	-0.15660846
20	0x3d3a4dbb	0.045484286
21	0xbe527392	-0.20551899
22	0xbd0e088e	-0.034676127
23	0x3da4f530	0.08054578
24	0xbe5f10df	-0.2178378
25	0xbe0f8894	-0.14016944
26	0xbd8881a6	-0.066653535
27	0xbdc955ea	-0.0983084
28	0x3cb1244b	0.021623751
29	0xbe122da8	-0.14275229
30	0x3dbe04b6	0.09278242
31	0xbd653353	-0.05595715
32	0x3bd4a65d	0.0064895586
33	0x3dcb3d9d	0.09923861
34	0x3e9b0beb	0.3028253
35	0xbe32eac3	-0.17472367
36	0x3d5e8828	0.054329067
37	0xbda639c4	-0.08116487
38	0x3c9be5a4	0.0190304
39	0x3b0f54a0	0.0021870509
40	0xbd79887c	-0.060921177
41	0xbdbe03a7	-0.092780404
42	0x3e78893f	0.24271105
43	0xbe655766	-0.22396621
44	0xbcbbdef3	-0.022933459
45	0x3ddd786e	0.10813986
46	0x3e883e72	0.26610142
47	0xbc8925ec	-0.016741715
48	0x3c929b45	0.017896304
49	0xbb209fa1	-0.0024509209
50	0x3e501a76	0.20322594
51	0xbe217cd5	-0.15770276
52	0xbd92d742	-0.071699634
53	0xbcba9d38	-0.022780046
54	0x3e113896	0.14181742
55	0x3ebda868	0.37042546
56	0xbe8bf672	-0.2733646
57	0x3e32dbab	0.17466609
58	0xbd6722ef	-0.0564298
59	0xba75a4f8	-0.00093705906
60	0xbe87082f	-0.2637343
61	0x3dd154e7	0.10221272
62	0x3cb9e221	0.022690834
63	0x3e056f4d	0.13030739
64	0x3e67552c	0.22591084
65	0xbdcc56e2	-0.09977509
66	0xbd999c3d	-0.07500503
67	0x3d7388d7	0.059456673
68	0xbd011682	-0.031515606
69	0xbd507ea2	-0.050902016
70	0xbdae653e	-0.08515404
71	0x3de4832a	0.1115783
72	0xbe107fb9	-0.14111222
73	0x3d183377	0.037158456
74	0xbe6a19ae	-0.22861359
75	0xbd06fa66	-0.032953642
76	0x3df806a2	0.1211064
77	0xbe13f479	-0.14448728
78	0x3d2da46e	0.04239314
79	0xbdd7b5b7	-0.10532706
80	0xbdaa8284	-0.08325675
81	0xbe15b51d	-0.1461987
82	0xbe179d1a	-0.14806023
83	0xbe947b3d	-0.29000273
84	0x3cd0d466	0.025491904
85	0xbe08fd8f	-0.13377975
86	0xbd642f51	-0.055709187
87	0xbe0c87de	-0.13723704
88	0xbd98d9aa	-0.07463391
89	0x3c0c917f	0.008579611
90	0xbe0c2aaf	-0.13688157
91	0xbdd4a9b0	-0.10383928
92	0xbe2f6c0d	-0.17131062
93	0x3ded69cd	0.115924455
94	0xbe2414e0	-0.16023588
95	0xbdbdb1ed	-0.09262452
96	0xbd9a076a	-0.07520945
97	0x3c8a8145	0.016907344
98	0x3c817e65	0.01580734
99	0xbc963352	-0.018335018
100	0xbb107ccf	-0.0022047048
101	0xbd05b9fc	-0.03264807
102	0x3d049981	0.032372955
103	0xbde22327	-0.11041861
104	0x3e4adcfc	0.19810861
105	0xbe31a397	-0.17347561
106	0xbdb18ccd	-0.08669434
107	0xbddb8a29	-0.10719711
108	0xbd1071f3	-0.03526492
109	0x3e0e7c83	0.13914685
110	0x3d94868f	0.072522275
111	0xbe0df830	-0.13864207
112	0x3e959da5	0.29221836
113	0x3dfa3485	0.122170486
114	0x3d97d52a	0.07413705
115	0xbd4dff86	-0.050292514
116	0x3ea6b358	0.32558703
117	0x3e1db858	0.15402353
118	0x3db480a0	0.08813596
119	0xbe073221	-0.13202716
120	0xbdbc4c51	-0.09194244
121	0x3e163276	0.14667687
122	0x3dcb203a	0.09918256
123	0xbdfe09a1	-0.1240418
124	0x3e51e58a	0.20497718
125	0x3d5de22d	0.054170776
126	0x38bd5228	9.027525e-05
127	0x3db92e99	0.09042091
128	0xbdad86aa	-0.08472951
129	0xbe3f9c70	-0.1871202
130	0xbd1a2b6c	-0.037639067
131	0xbdf86dd2	-0.121303216
132	0xbdf80409	-0.12110145
133	0x3d001740	0.031272173
134	0x3e137b48	0.14402497
135	0x3e16f7ea	0.14743009
136	0x3e9e5723	0.30925855
137	0xbcf4bf72	-0.029876444
138	0xbdbf1780	-0.09330654
139	0x3dc71422	0.09720637
140	0x3dfa3c6e	0.12218557
141	0x3e005198	0.12531126
142	0xbe36d215	-0.17853577
143	0x3d859b38	0.06523746
144	0x3e8431d1	0.25819257
145	0xbe0d7b96	-0.13816676
146	0xbe1632a5	-0.14667757
147	0xba9742fa	-0.0011540346
148	0xbdbb3162	-0.091402784
149	0xbe6efcce	-0.23338625
150	0xbe6ad106	-0.22931299
151	0xbdecea35	-0.11568109
152	0x3be98287	0.007126156
153	0xbca72989	-0.020405548
154	0xbd97eb7d	-0.07417963
155	0x3cc246ae	0.023715343
156	0x3ec81b19	0.39083174
157	0x3bfe404e	0.0077591306
158	0x3e274735	0.16335757
159	0xbe2b037d	-0.1670055
160	0x3db367fb	0.08760067
161	0x3cdfb9a4	0.0273102
162	0xbd35ab3b	-0.04435275
163	0x3e4fab16	0.20280108
164	0xbe08c158	-0.13355005
165	0xbe218d30	-0.15776515
166	0xbe1f6bcc	-0.15568465
167	0xbe46810c	-0.19385165
168	0xbe5252a7	-0.20539342
169	0xbb57657d	-0.0032866888
170	0x3e876b55	0.26449075
171	0xbe49d8c0	-0.1971159
172	0xbe6dd092	-0.23224095
173	0x3c5d1c96	0.013495585
174	0x3d05e9fe	0.032693855
175	0xbdb0b666	-0.0862854
176	0xbc88764f	-0.016657976
177	0x3e4de036	0.20105061
178	0xbdb24257	-0.087040596
179	0xbda94b38	-0.082663
180	0xbe5dd425	-0.21662958
181	0xbe155e3d	-0.1458673
182	0xbe58ea96	-0.21183237
183	0xbdd2e4c8	-0.10297543
184	0x3d915d21	0.07097841
185	0xbe64efa6	-0.22357044
186	0x3c54e339	0.012993627
187	0x3cdd725b	0.027032068
188	0x3d8bd047	0.06826835
189	0x3cae1151	0.021248491
190	0xbd9c968e	-0.076459035
191	0x3e40fd3f	0.18846606
192	0xbe2f3cf8	-0.17113101
193	0x3d1c8dd6	0.038221203
194	0xbd9e495e	-0.077288374
195	0x3aa9997d	0.001293942
196	0xbc1906ec	-0.009340029
197	0x3e2954bc	0.1653623
198	0x3dcc2779	0.09968466
199	0xbe4c8cb8	-0.19975555
200	0xbde11597	-0.10990446
201	0xbdde43ee	-0.108528
202	0x3e1f37ef	0.1554868
203	0x3e5cc467	0.21559297
204	0x3e108b0b	0.1411554
205	0x3e0c8588	0.13722813
206	0xbd5f6609	-0.054540668
207	0xbe22e36b	-0.15907066
208	0xbe53c832	-0.20681837
209	0x3d9b447f	0.07581424
210	0x3e5b83e4	0.21437031
211	0x3deef62b	0.116680466
212	0xbd2977bd	-0.041373957
213	0x3d9cfd3d	0.07665489
214	0x3dc4b20d	0.09604273
215	0xbdac4b22	-0.08412768
216	0xbc4c08e7	-0.012453294
217	0x3daaec33	0.08345833
218	0xbe1f3c2d	-0.15550299
219	0xbdd4b391	-0.10385812
220	0x3deb0d69	0.11477167
221	0x3e1757a4	0.14779526
222	0x3d8270c3	0.06369164
223	0x3dfe0d53	0.12404885
224	0x3da4e7ca	0.08052023
225	0xbd4e1c4a	-0.050319947
226	0x3d7a9a93	0.06118257
227	0xbd2c1ed1	-0.042021576
228	0x3d17f6c1	0.037100557
229	0x3e05f49a	0.1308159
230	0x3e38e4ee	0.1805608
231	0xbe1c7b80	-0.15281487
232	0x3da66ed2	0.08126606
233	0x3d8b8353	0.068121575
234	0xbe3e6769	-0.18594135
235	0x3e6a96fe	0.22909161
236	0xbe48d540	-0.19612598
237	0x3de52b4e	0.111899
238	0xbdf3b2eb	-0.1189936
239	0xbe0772c5	-0.13227375
240	0x3db42073	0.08795252
241	0xbe5c8d08	-0.21538174
242	0x3d9ff40e	0.078102216
243	0xbd80ab11	-0.06282628
244	0x3d76a48f	0.06021553
245	0xbde7b850	-0.11314452
246	0xbdf221e0	-0.118228674
247	0xbd91d5ac	-0.07120833
248	0xbe4d18d6	-0.20029005
249	0x3d96397b	0.07335182
250	0x3de278b4	0.110581785
251	0x3e62c108	0.22143948
252	0xbe476830	-0.19473338
253	0xbd9cdd37	-0.07659381
254	0xbd8cbe04	-0.0687218
255	0xbc8ce109	-0.017197149

fc2.bias f4 [10]
0	0x3d464371	0.04840416
1	0xbd371a6a	-0.044702925
2	0x3ca03a7a	0.019559134
3	0xbd255699	-0.04036579
4	0xbdee593b	-0.11638113
5	0xbe06fc0d	-0.13182087
6	0xbce037bc	-0.027370326
7	0xbc71db64	-0.014761779
8	0x3e0f4c25	0.1399389
9	0xbdbd2684	-0.09235862

batch_norm_2d.weight f4 [6]
0	0x3f827f85	1.0195166
1	0x3f7914bb	0.9729726
2	0x3f7ec09c	0.9951265
3	0x3f7e4e6b	0.99338406
4	0x3f8017ab	1.0007223
5	0x3f81af5f	1.0131644

batch_norm_2d.bias f4 [6]
0	0x3d1ade4d	0.03780966
1	0x3c6e67a3	0.014551076
2	0x3bfcbd0d	0.0077129663
3	0xb8f17610	-0.000115137664
4	0x3cc64126	0.024200987
5	0x3be5ad56	0.0070091886

batch_norm_2d.running_mean f4 [6]
0	0x3e7c4de0	0.24639082
1	0x3dcc6a03	0.09981158
2	0x3eaa8ad0	0.3330903
3	0x3e733129	0.23749222
4	0x3dee175c	0.11625549
5	0x3d9db63f	0.07700776

batch_norm_2d.running_var f4 [6]
0	0x3db99a24	0.09062603
1	0x3d6f6261	0.05844343
2	0x3d2d32f4	0.04228492
3	0x3d2b266b	0.041784685
4	0x3d284fbc	0.041091666
5	0x3d0412c4	0.03224446

batch_norm.weight f4 [50]
0	0x3f895d3e	1.073158
1	0x3f8da43f	1.1065749
2	0x3f8c526b	1.0962652
3	0x3f88fed9	1.0702773
4	0x3f87589a	1.0573914
5	0x3f8a428e	1.0801561
6	0x3f8f2993	1.1184562
7	0x3f887067	1.0659302
8	0x3f8bcbe7	1.0921601
9	0x3f89cba9	1.0765277
10	0x3f84e8b1	1.0383512
11	0x3f8811a9	1.063039
12	0x3f86d3a8	1.0533342
13	0x3f89097f	1.0706023
14	0x3f882dba	1.0638955
15	0x3f87ae27	1.0600022
16	0x3f8b0e11	1.0863668
17	0x3f8a52e5	1.0806547
18	0x3f851b45	1.0398947
19	0x3f843cea	1.033109
20	0x3f8c5263	1.0962642
21	0x3f88cdde	1.0687826
22	0x3f8c68e5	1.0969511
23	0x3f7fac14	0.99871945
24	0x3f8d9457	1.1060895
25	0x3f800000	1.0
26	0x3f833dcf	1.0253237
27	0x3f837c76	1.0272357
28	0x3f7fa681	0.9986344
29	0x3f8e07ff	1.109619
30	0x3f89c120	1.0762062
31	0x3f87e918	1.061801
32	0x3f8cbf8a	1.0995953
33	0x3f87b997	1.0603513
34	0x3f876d8c	1.0580306
35	0x3f8cb752	1.0993445
36	0x3f8972d7	1.0738171
37	0x3f7ffac2	0.99992
38	0x3f7fe9ec	0.9996631
39	0x3f831c60	1.0243034
40	0x3f83fb24	1.0311017
41	0x3f8c25b4	1.0949006
42	0x3f874fc4	1.0571218
43	0x3f875486	1.057267
44	0x3f85c3d3	1.0450386
45	0x3f899ae0	1.0750389
46	0x3f86a742	1.0519793
47	0x3f83ac11	1.0286885
48	0x3f86a5d0	1.0519352
49	0x3f8e8f93	1.1137565

batch_norm.bias f4 [50]
0	0x3c2a4e9f	0.010394721
1	0xbc1ed084	-0.009693269
2	0xbd162382	-0.036654957
3	0xbcdf33d0	-0.027246386
4	0xbce21b04	-0.027600773
5	0xbbf6e9ca	-0.007535194
6	0x3bf26b70	0.0073980615
7	0x3ca65d6b	0.020308217
8	0x3d0c90b5	0.03431769
9	0x3bd7a6fd	0.006581186
10	0x3afbe76a	0.0019218747
11	0x3c5e6484	0.0135737695
12	0xbc9d7eac	-0.01922544
13	0xb90b7b58	-0.00013302022
14	0xbc9dd8fb	-0.019268503
15	0xbb8c3419	-0.0042786715
16	0xbc97c084	-0.018524416
17	0x3bf29dfb	0.0074040866
18	0xbca0cc69	-0.01962872
19	0x3c91e65d	0.017810041
20	0xbc9ced6d	-0.019156182
21	0x386dd866	5.670674e-05
22	0x3c946bbc	0.018117778
23	0xbd03d266	-0.032183073
24	0x3cbce8a0	0.023060143
25	0xbbb72072	-0.0055885846
26	0x3a1e7f7c	0.00060462183
27	0x3bc9c7aa	0.006157835
28	0xbc3f7771	-0.011686192
29	0xbb2e2d56	-0.0026577315
30	0xbcbb471d	-0.022861058
31	0xbb0d2b47	-0.0021540688
32	0x3c946c9e	0.018118199
33	0x3c29ce14	0.010364074
34	0x3c211d6d	0.009833676
35	0xbc6f0b17	-0.014590046
36	0x3c2d305d	0.010570613
37	0xbc3f2f89	-0.011669048
38	0xbb3029be	-0.002688035
39	0xbc0a2415	-0.008431454
40	0xbc52a6f9	-0.012857192
41	0x3c88455e	0.01663464
42	0xbc3e52bf	-0.011616408
43	0x3bd8e6c2	0.0066193053
44	0x3b1b0eab	0.0023659866
45	0x3b874140	0.0041276515
46	0x3c06471c	0.008195665
47	0x3bb09f2d	0.005390069
48	0x3c22cbdd	0.0099363
49	0x3c1f9394	0.009739775

batch_norm.running_mean f4 [50]
0	0x3e3ee33f	0.18641375
1	0x3d07feb4	0.03320189
2	0x3ee149b4	0.44001544
3	0x3e1ff9da	0.15622655
4	0x3e3b1299	0.18268813
5	0x3da81ec3	0.08208992
6	0x3e053682	0.13009074
7	0x3ed8c424	0.42337143
8	0x3ec563b0	0.38552618
9	0x3ea36510	0.31913042
10	0x3f43cde3	0.76486033
11	0x3e7cd68b	0.24691217
12	0x3d93a4b9	0.07209153
13	0x3ece5612	0.4030004
14	0x3e73bc5e	0.23802325
15	0x3d3d1890	0.046166003
16	0x3d87da94	0.06633487
17	0x3efe39c1	0.49653438
18	0x3ea90f09	0.33019283
19	0x3e5fd7a5	0.21859606
20	0x3e1b3dd5	0.15160306
21	0x3ea993c7	0.33120558
22	0x3f6aa594	0.916589
23	0x23fa3644	2.7128037e-17
24	0x3e8284ae	0.25491852
25	0x00000000	0.0
26	0x3e25ea0f	0.16202568
27	0x3e7cebed	0.24699374
28	0x23a718ac	1.8116625e-17
29	0x3db57aa9	0.08861286
30	0x3da773d0	0.08176386
31	0x3cd665a5	0.026171515
32	0x3ebd92a0	0.37025928
33	0x3f811f86	1.0087745
34	0x3f0fb3a7	0.561335
35	0x3e3fff4e	0.18749735
36	0x3ea117e7	0.3146355
37	0x21e79ed0	1.5695206e-18
38	0x221ae20b	2.0990558e-18
39	0x3e17f04e	0.14837763
40	0x3f32bbc0	0.69817734
41	0x3e80d0f9	0.25159433
42	0x3eba419e	0.36378187
43	0x3e809d5f	0.25120065
44	0x3d7c5614	0.061605528
45	0x3f286d7a	0.6579205
46	0x3e433431	0.19062878
47	0x3ce6d71a	0.02817874
48	0x3ec6dd6c	0.38840806
49	0x3eac9516	0.33707494

batch_norm.running_var f4 [50]
0	0x3d2dd6eb	0.04244129
1	0x3c013f4d	0.007888627
2	0x3dbade08	0.0912438
3	0x3d64cd44	0.05585982
4	0x3d7a49ae	0.061105423
5	0x3ca6fbfd	0.02038383
6	0x3d0f6f0d	0.035018016
7	0x3da86b60	0.08223605
8	0x3dacd7fe	0.08439635
9	0x3d8995d9	0.06718034
10	0x3ddfcbbe	0.109275326
11	0x3db34794	0.08753887
12	0x3cafb875	0.02145026
13	0x3d8cbb4f	0.06871664
14	0x3da8bda8	0.08239299
15	0x3c575caa	0.013144651
16	0x3c667df2	0.014068114
17	0x3dfbbde7	0.122920804
18	0x3d97ddb9	0.07415337
19	0x3dc09c29	0.09404785
20	0x3d19c7d8	0.0375441
21	0x3dc85c05	0.09783176
22	0x3dedf4ab	0.11618932
23	0x268dec4e	9.847891e-16
24	0x3d296fb2	0.041366287
25	0x268d55b4	9.80707e-16
26	0x3d345527	0.04402652
27	0x3dcf95b1	0.10135973
28	0x268da55a	9.828659e-16
29	0x3cde7ba5	0.027158568
30	0x3cee4b2b	0.029088577
31	0x3bde2dec	0.0067803767
32	0x3da2b61c	0.07944891
33	0x3e28a3f6	0.16468796
34	0x3dce0260	0.10059047
35	0x3d6ae04b	0.05734281
36	0x3da3458f	0.079722516
37	0x268d5cee	9.809029e-16
38	0x268d5b55	9.808596e-16
39	0x3d2798d7	0.040917244
40	0x3e26d646	0.16292676
41	0x3da8e833	0.082474135
42	0x3e1b6b48	0.15177643
43	0x3d6819b7	0.05666515
44	0x3c53c57e	0.012925504
45	0x3dce34c9	0.10068662
46	0x3d8b7682	0.06809713
47	0x3be28ea0	0.006913975
48	0x3db9190f	0.09037983
49	0x3d6c3150	0.057664216
