checkpoints/all users/cnn2/17-12-2023_15-18-12/best_model.pth.tar (torch, 70068 bytes, 8 tensors)

conv1.weight f4 [6, 3, 5, 5]
000000 64 3e c2 3e 75 4a 9d 3e 37 2b 65 3e d2 eb 61 3e
       0.37938225 0.3072087 0.22379766 0.22062615
000010 93 bd 5e 3e af fe 5a 3e 73 2a 79 3e 24 c1 c7 3e
       0.21752004 0.21386217 0.243326 0.39014542
000020 6c dc 9b 3e 4c 31 c1 3d 1f 7e 53 bd 07 71 4d bd
       0.30441606 0.09433231 -0.05163395 -0.05015662
000030 c7 f3 a8 3c 0b 7b 4e be e5 a2 38 bd ae 18 46 be
       0.020624055 -0.20164125 -0.045077223 -0.19345352
000040 64 0f 22 be b5 9a 52 be 70 64 80 bd 1e ff 4a bd
       -0.15826184 -0.20566829 -0.06269157 -0.049559705
000050 90 26 7b be a2 82 7b be bd 6e 24 be b8 0a 05 bd
       -0.24526429 -0.24561551 -0.16057868 -0.032480925
000060 15 a0 89 be 3a 2f 04 3d 88 fc 81 3d 61 8e 84 3e
       -0.26879945 0.0322716 0.06346995 0.25889876
000070 28 f6 fa 3d a4 f3 fb bd 47 ba 2c be b7 4d b8 bd
       0.12253982 -0.1230233 -0.16867934 -0.08999198
000080 b0 3b 0c 3e 80 2a f1 3c fa bb a0 bc f0 0b 37 be
       0.13694644 0.02943921 -0.019620884 -0.17875648
000090 24 61 bb be b9 63 ac be b9 ed 2f be 8c a4 31 be
       -0.3659755 -0.33669832 -0.17180528 -0.17347926
0000a0 1e d2 26 be 3f 74 6d be 61 93 2a 3c b0 e0 f4 bd
       -0.16291091 -0.23188876 0.010411114 -0.11956918
0000b0 cc e7 a1 bd 88 51 ed 3d 94 fd 45 3e 86 f1 b8 3d
       -0.0790554 0.115878165 0.19335014 0.09030442
0000c0 5a 6f 88 bc 5e 82 24 be 96 21 ac 3d 60 db 74 3d
       -0.016654659 -0.16065356 0.084048435 0.059779525
0000d0 47 75 32 3e f7 98 33 3d dd 3e 18 be fe 62 28 bd
       0.1742755 0.04384705 -0.1486773 -0.04111003
0000e0 36 bc ce bd 0f 42 ca bc 69 af 99 3d 26 fa 27 3c
       -0.10094492 -0.024689702 0.0750416 0.010252511
0000f0 0e 1d 26 be be ad 8f be 11 55 94 be cd 54 10 bd
       -0.16222021 -0.28062242 -0.2897115 -0.035237122
000100 64 ba 08 be 91 34 8e bc 23 2e c7 3d 5e 1f c6 3d
       -0.13352352 -0.01735905 0.09725597 0.096739516
000110 30 63 14 3e a0 f5 09 3b 77 96 bf 3e bd b8 79 3e
       0.14490962 0.0021050945 0.37419483 0.24386878
000120 e1 9f 5f 3e 13 f8 0c 3e 7c e4 3f 3e 02 a4 db bd
       0.21838333 0.13766508 0.18739504 -0.107246414
000130 5f 9e 7f 3e 24 68 51 3e 7e 03 69 be a1 64 3b be
       0.24962758 0.20449883 -0.22755238 -0.18300106
000140 4e a1 8c 3e f7 0c b2 3d ba 30 3a be 99 74 de bd
       0.27466816 0.08693879 -0.1818265 -0.10862083
000150 27 ac 91 bd bd 0a 63 3d 20 f1 89 be 9d 44 c7 be
       -0.071129136 0.055430163 -0.26941776 -0.38919535
000160 dd 6e 6e 3d 15 dc 87 3e 63 17 5f be 75 21 6a be
       0.058211196 0.26535097 -0.21786265 -0.22864325
000170 aa f8 4f 3c 1e 13 92 3d e5 ef ed 3c 1a 4a 20 bd
       0.0126935635 0.071325526 0.029045055 -0.03913317
000180 69 20 5a bd d3 fb 34 be d5 d1 80 bd 5c f7 19 3c
       -0.053253565 -0.17674188 -0.06290022 0.009397354
000190 c7 9a e6 3c e2 53 2b 3e 3a a4 74 3e 41 f7 fc bd
       0.028149975 0.16731218 0.23890772 -0.123518474
0001a0 27 e3 99 be 38 85 a4 3e e5 d9 96 3d f0 aa 42 be
       -0.30056116 0.32132888 0.07365779 -0.1901052
0001b0 b8 60 38 be 7f f5 2d 3d 13 ff 97 3d 8f 19 70 3b
       -0.18005645 0.04247045 0.074216984 0.0036636328
0001c0 57 b5 9f be 1e af de 3d a3 b3 0d 3e 8c cf 13 bd
       -0.3119304 0.10873245 0.13838057 -0.036086604
0001d0 3f 08 b5 bc da 4d 9f bc 40 61 96 3e a6 fb 57 3e
       -0.022098659 -0.019446302 0.2937107 0.2109209
0001e0 8c ee 1c 3d 41 16 c4 3d ad 88 d9 3d 15 e4 53 bd
       0.038313434 0.09574557 0.10621772 -0.051731188
0001f0 13 7a ef 3d 69 72 2f be c2 db 25 3d ea 2d 1c 3d
       0.11693206 -0.17133488 0.04049278 0.038129725
000200 89 ac 62 be e2 de 3c be e1 18 81 3e e8 9e e4 bc
       -0.2213613 -0.18444398 0.25214294 -0.027907804
000210 eb c5 79 be 27 01 2d be 20 7c b7 3d 33 64 e4 bb
       -0.24391906 -0.16894971 0.08959222 -0.0069699525
000220 d6 4c f0 bd e9 0c 61 be 52 52 41 3e 8c 8a 77 3e
       -0.11733405 -0.21977581 0.18879059 0.24173945
000230 d9 a4 00 be 29 de 95 bd 7e a7 d5 3d 55 7d 7f 3e
       -0.12562884 -0.07317764 0.10432337 0.24950154
000240 2e b1 04 3e 05 d5 5e bd df 46 fe 3c c1 a8 59 bd
       0.12958214 -0.05440237 0.031039653 -0.053139452
000250 b5 c7 93 bd f6 c9 96 bc 2c ed db 3b 1a cc b8 3c
       -0.072158255 -0.01840685 0.0067116227 0.02255826
000260 42 02 04 be 84 28 3d be 4a 9a 50 be 3f 14 3b be
       -0.12891486 -0.18472487 -0.20371357 -0.18269442
000270 4a 42 51 be 41 5a 43 be c0 cc 64 be dc 1e 00 be
       -0.20435444 -0.19077398 -0.22343731 -0.12511772
000280 88 d3 11 bc fd 9b a5 bd c9 cc b3 bb 3d 3c 7b bb
       -0.008900531 -0.08086393 -0.005487059 -0.0038335465
000290 30 e2 64 bd 20 c8 ca 3d 63 d3 5e 3e 11 74 1f 3e
       -0.05587977 0.09901452 0.21760325 0.1557162
0002a0 da 94 5f 3d 06 3d 01 3e 0f 95 12 3e c0 35 14 3e
       0.054585315 0.12620935 0.14314674 0.14473629
0002b0 4d 01 6b 3e e6 33 d0 3d a4 81 4c 3e ba e2 9b bc
       0.22949715 0.10166149 0.19971329 -0.01902901
0002c0 8a fb ff bd 8d 34 1c 3d 73 f8 df bd 7c b3 fd bd
       -0.12499149 0.038136054 -0.1093606 -0.123877496
0002d0 57 b3 21 be 94 d9 34 be 7d 79 8a be 10 fd 14 be
       -0.15791069 -0.17661124 -0.27045813 -0.1454966
0002e0 24 cd d0 bc 68 07 9c bd 64 9d d4 bd dc cc 53 3c
       -0.025488444 -0.076186 -0.103815824 0.01292726
0002f0 25 c9 4f 3c 78 32 84 bb 8a 2e 9d 3a 87 e7 27 3e
       0.012682234 -0.0040343367 0.0011992019 0.16396914
000300 36 97 56 3e 8d ee 5a bd bd a0 8e bd 4b 32 17 3e
       0.2095612 -0.053450156 -0.06964252 0.14765279
000310 2d 6d e8 3d c3 a0 13 3d 66 7a c7 3d 77 2a f1 bb
       0.11348949 0.036041986 0.097401425 -0.0073597985
000320 f8 cb 3c bd 76 7e 92 3c 85 c1 c1 bc 79 54 c9 3d
       -0.046092957 0.017882567 -0.023651848 0.09830565
000330 c9 34 96 bd e3 4d a1 bd 5e 4a 33 be 54 1a 4f be
       -0.07334287 -0.07876184 -0.17508838 -0.20224887
000340 e5 6c 35 bd 22 19 25 bd ac fe 43 3c e7 ec e3 3c
       -0.044293303 -0.04030717 0.011962574 0.027822925
000350 e8 82 78 bd eb 90 2b 3d a0 61 be 3d 98 2c 6b 3d
       -0.060671717 0.04188625 0.09295964 0.057415575
000360 89 cb 10 3e 8b ab 0a 3e c9 07 54 3e 66 10 54 bd
       0.14140143 0.13542001 0.20706095 -0.05177345
000370 61 63 09 3e eb af 19 3e fa a7 32 3d 13 c4 09 3e
       0.13416816 0.15008514 0.043617226 0.13453703
000380 58 fd 52 bd 56 fc ed 3d 14 4d 11 3e 7c ee 9f 3d
       -0.05151114 0.11620395 0.14189559 0.07809159
000390 94 b5 38 3d 11 09 3a 3e 11 ed d8 3d fb 31 85 3e
       0.04509504 0.18167521 0.10592092 0.26014695
0003a0 e8 23 16 3e bc e0 03 bc d9 bd dc 3d 17 21 07 3e
       0.14662135 -0.008049186 0.10778398 0.13196217
0003b0 a4 48 13 3e 9b 10 e7 bd 70 0a c2 ba c2 3c ec 3d
       0.14383179 -0.11282464 -0.0014804136 0.11535026
0003c0 4d c5 c8 3d 30 44 32 be df 41 85 be ad 01 69 3c
       0.09803257 -0.17408824 -0.26026818 0.014221591
0003d0 f9 5f 0d 3e 18 c2 0a be a5 32 9c be cb 6a ac be
       0.13806142 -0.13550603 -0.3050739 -0.33675227
0003e0 29 af 0c 3d 60 a9 16 3b b9 f3 a5 be f5 f0 f5 bd
       0.034346733 0.002298914 -0.32412508 -0.120088495
0003f0 fd 72 57 be b6 0e 93 bd 16 23 32 be 55 3e 21 be
       -0.21039958 -0.0718054 -0.17396197 -0.15746434

conv1.bias f4 [6]
000000 b3 9e 8f be a1 38 0d 3e 4c 14 c9 be 99 e0 60 be
       -0.28050765 0.13791133 -0.39273298 -0.21960677
000010 ae 97 c5 ba 9b 93 a0 3e
       -0.0015075111 0.31362614

conv2.weight f4 [6, 6, 5, 5]
000000 1b ab 51 bd de b5 da bc 5d 9a 8e 3c 78 29 7d 3d
       -0.05118857 -0.02669805 0.01740759 0.061807126
000010 81 70 d8 3c 78 4d ac bd fe 19 88 bd 86 e7 07 3d
       0.026420834 -0.084132135 -0.066455826 0.033179782
000020 9c a9 0f bd 7d e9 63 bc 98 60 d1 bd 1f aa 19 bd
       -0.03507386 -0.013910648 -0.10223502 -0.037515756
000030 a2 28 07 3a e8 2a fd 3c 62 ab 84 bc 05 d9 c1 bd
       0.0005155896 0.030904248 -0.016195003 -0.09465221
000040 17 c0 97 3c 5f cd 30 bd 5a a4 f1 3c 3b 63 1e bc
       0.018524213 -0.043164607 0.029497314 -0.009667213
000050 d6 a7 f0 bd a5 93 c4 3c ef 56 c4 3c 51 a2 7c bd
       -0.11750762 0.023996184 0.023967234 -0.061678234
000060 59 0b 4b bc 5c 4e a8 3c ab 94 e7 bc 47 3d 67 3d
       -0.012392842 0.020545177 -0.028269133 0.056454923
000070 cc f7 24 3b ad 3b 69 3e a3 82 5e 3d 58 4d 0c 3e
       0.0025172113 0.22776671 0.054323804 0.1370138
000080 54 84 b7 3c c5 d5 9f 3b 05 bc 09 3e 86 14 97 3d
       0.022401966 0.0048777782 0.1345063 0.073769614
000090 04 0b 5f 3d f4 6a 8c bc 61 f0 fd 3d cc bf c1 3c
       0.054453865 -0.017140843 0.12399364 0.023651026
0000a0 73 c1 06 3c b5 16 d1 bd f9 41 1b be f5 19 a2 3d
       0.008224833 -0.10209409 -0.15161885 0.07915107
0000b0 7e d5 8a bd fa 28 c6 bd 2b d9 62 be 3d 4c a2 bd
       -0.06779002 -0.096757844 -0.22153156 -0.079246975
0000c0 6d f5 38 be 80 bf c2 bd 3c 0e 81 bc 18 b7 61 bc
       -0.18062373 -0.09509182 -0.015753858 -0.013776563
0000d0 27 47 9f bd b2 2d 32 bd 0a 1e cf bc 2a 1e 40 3c
       -0.07777243 -0.04350061 -0.025282878 0.011725942
0000e0 a7 4d 39 bd e3 3b 34 bd 4c b8 5d bd d2 c2 1b bc
       -0.04524007 -0.044002425 -0.054130837 -0.009506898
0000f0 9d 62 17 3d ae 16 6f bc f2 a5 11 3d 0d eb 9f 3d
       0.03695928 -0.01459281 0.03555865 0.07808504
000100 54 51 86 3d 1a ea 6e 3c 59 bc bb 3d 36 61 c7 3d
       0.06558481 0.014582181 0.09166784 0.097353384
000110 42 6f 13 3e 8f da 37 3d 91 0b 21 3e 8c 70 53 3e
       0.1439791 0.044886168 0.15727068 0.20648402
000120 62 e0 13 3e 0c 1b 16 3e 70 cd 43 3e 27 75 a5 bc
       0.14441064 0.14658755 0.19121337 -0.020197464
000130 de 7b fd 3d 71 e9 36 bc 05 92 f6 3d 44 2c a3 3d
       0.123771414 -0.011164055 0.1203957 0.079674274
000140 e8 a7 63 3c 42 2f 9f 3d 4e fd 39 3c 16 82 2f 3d
       0.013895012 0.077726856 0.011351896 0.04284867
000150 c3 5b 4b 3e 88 64 7b 3d 95 b0 00 3d 35 fc 0e 3c
       0.19859223 0.06137517 0.0314184 0.008727123
000160 a9 f7 14 3e 54 eb 2a 3e 63 d5 38 3b 44 8d d4 ba
       0.145476 0.16691333 0.002820336 -0.0016216417
000170 f4 05 33 bd 84 dd 24 3e ae ea 63 3d ee d3 0d be
       -0.04370685 0.16100127 0.05564373 -0.13850376
000180 1a 7e 0d be bc 8e fa bd 7d 80 90 bd de 5a 71 bd
       -0.13817635 -0.12234256 -0.07055757 -0.05892455
000190 12 fa 19 bc ca 38 e3 3d 98 43 c7 bc 78 ea 20 3e
       -0.009398 0.11094816 -0.024324223 0.15714443
0001a0 d9 83 67 3e 18 82 05 3e cc 44 a7 bc b9 d1 da 3c
       0.2260889 0.13037908 -0.020418547 0.026711332
0001b0 a2 fb fc 3d b2 8f 14 3e 72 61 49 3e 8d a9 2a bc
       0.12352683 0.1450794 0.19666079 -0.010416401
0001c0 a8 e1 04 3e 92 4e ee 3d 05 be 8d 3b 27 2b eb bc
       0.12976706 0.1163608 0.0043256306 -0.0287071
0001d0 61 06 6b bd ce 3f d4 3d 27 a4 b6 bd d6 c2 03 bc
       -0.05737913 0.10363732 -0.08918028 -0.008042058
0001e0 a4 2c 0e be 96 9d 4a bd 03 be 19 be 74 83 11 be
       -0.13884217 -0.049466692 -0.1501389 -0.14210302
0001f0 d3 95 41 be e4 55 e0 bd c2 97 3e bb dd b9 5f 3d
       -0.1890481 -0.10953882 -0.0029082154 0.054620612
000200 ec f9 05 3e 97 ca af 3d 9a 2a 0e be b1 f8 c7 3d
       0.13083619 0.08583563 -0.13883439 0.09764231
000210 15 e9 41 3d af ea 94 3d 95 4f 7e bc 82 47 82 bd
       0.047341425 0.07271325 -0.0155219035 -0.06361295
000220 62 9b 86 b9 6b bb 47 3c 9d 96 bb 3d ba c6 96 bd
       -0.0002567424 0.01219068 0.091595866 -0.07362123
000230 51 c5 6b bd 3b ff 9d bc 25 bc 21 3d 13 a5 42 bc
       -0.057561222 -0.019286742 0.03948607 -0.011880177
000240 a5 e5 cf bd e1 28 06 be 14 72 bf bd 5f 73 bc bc
       -0.10151223 -0.13101532 -0.093479306 -0.023004232
000250 4f 75 bc bd d6 1d 44 be b0 3a ef bd 3a ea 66 bd
       -0.09202062 -0.19152007 -0.116811156 -0.05637572
000260 20 7c a2 3d 09 b3 d6 3d 36 57 91 bd 3b ec 8e bd
       0.07933831 0.10483367 -0.07096712 -0.06978651
000270 7c f3 ce 3c 29 55 1d bd 09 33 7f 3d ec d1 d3 3d
       0.025262587 -0.038411293 0.06230453 0.10342774
000280 f7 2c b4 bd 8f 47 01 be 80 e4 8d bd d4 ba ca bd
       -0.08797639 -0.12624954 -0.069283485 -0.09898916
000290 58 87 6e 3d d4 09 6b bc c9 e7 ce bd 8e 22 a8 bd
       0.058234543 -0.014345605 -0.10102803 -0.08209716
0002a0 65 c8 98 bd 2a b4 62 bd 9b e9 79 bc 70 e1 a4 bd
       -0.07460097 -0.0553476 -0.01525345 -0.08050811
0002b0 6f 5b e8 bd 8b 46 8c bc 55 cc 26 3c 2c 47 be bc
       -0.113455646 -0.017123481 0.0101805525 -0.023227297
0002c0 92 af 80 3c 2a 16 b8 3d bb 56 80 3e 38 e2 85 3d
       0.015708718 0.089886025 0.2506617 0.065372884
0002d0 ee 6b 06 bd 86 b1 22 3e c3 04 6b 3d 45 1c 3f bc
       -0.032817774 0.15888032 0.057377588 -0.011664455
0002e0 58 d3 0e bd e8 67 af 3d 48 0a 05 bd bb c0 f1 3d
       -0.03486952 0.085647404 -0.032480508 0.118043385
0002f0 5c 97 04 3e 4b d6 b3 3d 50 09 3c 3d 5f 39 3e 3e
       0.12948364 0.087811075 0.04590732 0.18576573
000300 74 e7 46 3e 43 81 42 3d a4 86 2c bd 7c 23 4d 3e
       0.1942423 0.047486555 -0.04212059 0.20033067
000310 71 8c 49 3e e5 04 fd 3d d3 22 63 bd 24 c6 b2 3d
       0.1968248 0.12354449 -0.055453133 0.087291986
000320 0b 1f d1 3d 09 c3 bb 3d 4a a3 10 3e fa 34 10 3e
       0.10210999 0.091680594 0.1412479 0.14082709
000330 d4 50 b8 3d a7 4e e6 bc c4 0a 22 bd 6f 51 c4 3c
       0.08999792 -0.028113676 -0.03956105 0.023964612
000340 a0 3f 85 3d 45 35 76 3d 92 de c8 bc d7 5e d9 bc
       0.06506276 0.060109396 -0.024520192 -0.026534481
000350 7b 35 b8 bd 2f 07 97 bd 9a 16 c1 3c 98 4d 19 be
       -0.089945756 -0.07374417 0.023570348 -0.14971006
000360 1c eb ca bd de 80 74 3b bf 4d 27 bd 9b 04 bb bc
       -0.09908125 0.0037308256 -0.04084563 -0.022829344
000370 e9 15 89 bd 29 17 9c bb 82 e2 1e bd 53 59 be 3c
       -0.06693632 -0.004763503 -0.038790233 0.023235952
000380 55 dd ae bd 74 3b b0 bd 8f 4f bb 3c b1 71 d9 3c
       -0.085383095 -0.0860509 0.022865085 0.02654347
000390 13 88 b9 3d 82 5f 2e 3e fd 2e 05 be 8e c7 e0 bd
       0.09059157 0.17028621 -0.13006206 -0.10975562
0003a0 a4 59 c0 bd 1c c3 07 3d 45 54 89 3d 40 21 3d be
       -0.093920976 0.033145055 0.06705526 -0.18469715
0003b0 8b b6 b0 bd bb 8b 92 3c e2 ea 94 3d d1 dd b9 bd
       -0.08628567 0.017888894 0.07271363 -0.09075511
0003c0 c0 8c 51 bd ae 1d 90 bd 0c 74 03 bd fa c5 e3 bd
       -0.05115962 -0.07036911 -0.032093093 -0.111217454
0003d0 ab 89 a3 bc 50 5a b6 bd 62 2d 54 bd ef 31 08 be
       -0.019963106 -0.089039445 -0.051801093 -0.13300298
0003e0 3c d6 16 be 2c 4a 36 bd e0 4a 58 bd b8 aa 00 3e
       -0.14730161 -0.04450433 -0.05280578 0.12565124
0003f0 08 69 b7 3d 66 dc 88 3c 8d 77 88 3d e1 3f a0 3d
       0.0895558 0.016706657 0.066634275 0.07824684

conv2.bias f4 [6]
000000 f0 32 eb be 2f 9b 1c 3f f2 02 9c bc bd 16 2c bf
       -0.459373 0.6117429 -0.019044373 -0.67222196
000010 da 05 0a 3e f7 fa 5d bd
       0.13478795 -0.054194417

fc1.weight f4 [50, 150]
000000 b6 95 92 3c 4c 51 15 bd f5 28 3e 3b a4 29 90 3d
       0.017893653 -0.036454484 0.0029016112 0.07039192
000010 54 04 9e bc f0 68 18 bd 39 40 04 3c 61 b1 65 3d
       -0.019289173 -0.03720945 0.0080719525 0.056077365
000020 e2 4e 0a 3d 16 55 b1 bc ef 75 7f 3d 39 d7 c5 3d
       0.033766635 -0.021647017 0.06236833 0.09660191
000030 e0 24 fe 3d d4 bd 88 3c f6 c0 a2 3d e5 e4 82 3d
       0.12409377 0.01669208 0.07946961 0.063913144
000040 f4 4a 1f 3d ee 61 63 3d e6 29 83 3d 14 a7 6d 3d
       0.03888984 0.055513315 0.06404476 0.058020666
000050 fb a4 0f bd 7e 0a 93 bc c6 d5 02 bd 48 23 2a bd
       -0.035069447 -0.017949339 -0.03194215 -0.041537553
000060 59 95 e8 3c ab 80 ae bd ea 14 42 bc 3a 13 38 bd
       0.028391527 -0.08520635 -0.011845807 -0.04494021
000070 94 2d 89 bd 25 06 e0 bd dd 2c cf bc 39 81 ee 3c
       -0.066981465 -0.10938672 -0.025289947 0.029114353
000080 f4 37 2f 3c ab 22 26 bd db 61 21 bd c6 15 9b 3c
       0.010694493 -0.040560406 -0.039399963 0.01893128
000090 7a 8f 05 3d 5c 0b 5d bd a3 45 a0 bc 34 f2 c7 ba
       0.032607533 -0.05396591 -0.019564455 -0.0015254677
0000a0 3e e6 19 bd 4f 65 4f 3d f0 42 ab bd 4f 19 6c bd
       -0.03757309 0.050633725 -0.08362377 -0.057641324
0000b0 44 58 34 bd 52 ac 2f bd 8d 41 0e bd 84 b5 58 bd
       -0.04402949 -0.042888947 -0.034730483 -0.05290748
0000c0 49 68 ef 3c 12 48 e1 3b a7 55 97 3d 75 02 60 bd
       0.029224532 0.0068750465 0.07389384 -0.054689843
0000d0 c3 b5 c3 3d 03 22 9f 3d 3c 3a 90 b9 4a 84 61 bb
       0.09556153 0.07770159 -0.00027509208 -0.0034411126
0000e0 b2 2d 6f 3d ef 1a ce 3d e3 97 b8 3d 82 ee 65 3d
       0.058393188 0.10063731 0.09013345 0.056135662
0000f0 bd 2a 96 3d fa 47 18 3d d1 a3 d3 3d aa 59 96 3d
       0.073323704 0.037178017 0.1033398 0.07341321
000100 b4 f5 cc 3d 10 ca b1 bc a0 99 d6 3c 5e 1c f7 3a
       0.10007802 -0.021702796 0.026196301 0.0018853059
000110 a4 ee 7f 3d 0e c4 e0 3b 55 04 12 bd fb 43 cf 3c
       0.062483445 0.006859309 -0.035648663 0.02530097
000120 f8 2c 9b bc a0 98 08 bd 3c df 14 3d 7f 5e 8c 3d
       -0.018942341 -0.03334868 0.036345705 0.06853961
000130 ce 98 d0 3c 9e eb d5 bc 21 91 c1 ba d3 cc 42 bd
       0.025463488 -0.026113328 -0.0014767983 -0.047558617
000140 5f 29 c9 bc 16 05 47 3d 5f fc fa bc 5b 57 b6 3c
       -0.02455586 0.048588835 -0.030637918 0.022258451
000150 4a 8c 49 bb c8 24 a7 3a 46 e6 04 3b 61 85 d4 bc
       -0.0030753785 0.001275205 0.0020278855 -0.025942506
000160 d0 3e 7f 3d 0f 1d cf bb 52 3f 38 3d 2e 98 74 bd
       0.062315762 -0.0063206027 0.044982262 -0.059715442
000170 88 a9 2e bd 54 3f 90 bd 9d 39 05 bd 24 34 73 3c
       -0.042642146 -0.07043329 -0.032525647 0.014843974
000180 07 17 77 bd ef a2 8a bd 61 7f 19 bd b6 a0 7e bc
       -0.060324695 -0.06769358 -0.037474994 -0.015541246
000190 08 da 2e 3d ed 70 80 3c cf 74 c2 3d ef d3 98 3d
       0.0426884 0.015678847 0.09494936 0.07462298
0001a0 c0 98 08 3e 37 e7 0f bd 39 66 ac 3d 56 38 16 bc
       0.1333952 -0.035132613 0.08417935 -0.009168705
0001b0 dc 2d 50 3c 7a 62 05 3d 48 53 61 bd ef 97 64 3d
       0.012706246 0.032564618 -0.055011064 0.055808958
0001c0 bf ed 18 3c 29 61 13 3e 1f e7 c9 3c 1d 6d 77 3c
       0.009334027 0.14392532 0.02464634 0.015101698
0001d0 7a d9 d3 bc 13 0e ff 3c 3e d9 0e 3e 50 70 e8 bc
       -0.025860537 0.03113464 0.13950059 -0.028373867
0001e0 cd 1d ad bd 80 2a 33 bd 87 aa 44 3d 1c 06 37 3a
       -0.0845295 -0.043741703 0.04801419 0.00069818064
0001f0 58 9d f4 bc aa 4e 90 3d 26 67 fa bc 34 05 74 3b
       -0.029860184 0.07046254 -0.030566763 0.0037234547
000200 7b 4b 80 3d 9a 14 3b 3d fd 2c 23 3d ce 3a 38 3d
       0.06264397 0.045673944 0.039837826 0.044977956
000210 51 9c 0a bd 12 7b 80 bd 63 43 34 3d e2 80 9f bb
       -0.03384048 -0.06273474 0.044009577 -0.004867659
000220 fe fb bb bd fa af 6d 3d 2a 6a 75 bb 3d 23 b1 bc
       -0.09178923 0.058029152 -0.0037447312 -0.021623248
000230 7e 14 34 bd 05 b0 6b 3c 75 3d ff bb db af 12 3d
       -0.043964855 0.014385228 -0.0077893087 0.03581224
000240 11 81 bb bc a7 7f 94 bd 88 bb cf 3c 4c 54 cc 3c
       -0.022888692 -0.0725091 0.025357977 0.02494254
000250 7d 10 44 3d 0d 13 a3 bd e3 e6 a3 bd 40 d3 e0 bd
       0.047867287 -0.07962618 -0.080030225 -0.10977793
000260 58 99 c1 bd e1 e4 4a bc cc 54 78 ba 9f 77 6a bd
       -0.09453076 -0.012383671 -0.0009473085 -0.057242986
000270 c5 34 d2 bd b2 10 84 bd 6b d1 e4 bb 05 88 3a bc
       -0.10263971 -0.06448497 -0.0069829724 -0.011384969
000280 29 33 47 3d 6e 1b 63 bc c2 4a c2 bd cd db 74 bd
       0.048632775 -0.01386152 -0.09486915 -0.05977993
000290 ab 43 b5 bb 38 78 b9 bc 77 f6 c3 bd 1b d5 ec 3c
       -0.0055317483 -0.022640333 -0.09568494 0.02891021
0002a0 16 90 cd 3d 23 7d 0e 3d cc eb 6e bc 95 30 11 bc
       0.10037248 0.03478731 -0.014582586 -0.0088616805
0002b0 e7 c3 1f 3c b7 0f 2e 3d 44 30 6b 3d c4 b7 84 bd
       0.009751297 0.042495456 0.057419077 -0.06480363
0002c0 af 43 05 3c 68 29 5d bd 01 d5 51 ba a4 48 2a bd
       0.008133813 -0.053994566 -0.00080044573 -0.04157318
0002d0 24 d0 39 bc 6c ce 48 bc 00 4c 03 3c 81 e8 f5 3d
       -0.0113411285 -0.012256246 0.008013725 0.12007237
0002e0 4e 37 27 3d 2f e4 7e bd 87 89 cf 3c b6 76 d4 3d
       0.040824227 -0.06222933 0.025334133 0.10374205
0002f0 af 84 2a 3e e7 bf 6b 3d 2a f9 22 bd 77 c7 82 bd
       0.16652177 0.05755606 -0.039788403 -0.06385701
000300 0e 80 bd 3a 8e 69 b7 3c 83 cc b0 3d 1d 65 8a bd
       0.0014457719 0.0223892 0.086327575 -0.06757567
000310 93 52 4f bd 55 db 6f bb cf 69 8d bc 85 52 14 3c
       -0.05061586 -0.0036599238 -0.017262368 0.009052877
000320 16 f8 34 3b d4 a3 c5 3d dc 89 34 3b 49 c5 8a bd
       0.002761369 0.09650388 0.002754799 -0.067759104
000330 8e 43 35 bd a2 ca a4 3c 4b 27 51 3d fb 15 81 bb
       -0.04425388 0.020116154 0.051062863 -0.003939388
000340 34 b0 9c bc b9 46 00 3d 52 b4 dc 3d 96 ea a1 3d
       -0.019126989 0.031317446 0.10776581 0.07906072
000350 04 76 c4 bb b6 5b 55 3d cd 73 fa 3c 2f 66 a8 3d
       -0.005995514 0.052089415 0.030572796 0.08222615
000360 fd ae 15 3d a7 52 2f bd 7a af 9c 3b 6f f9 e0 bc
       0.036543835 -0.042803433 0.0047816606 -0.02746269
000370 98 c4 98 3c ec 94 1b 3d 7d 19 62 bd fe 47 b3 bc
       0.01864843 0.03798382 -0.05520009 -0.021884914
000380 2e 49 7d bc 43 e2 5a 3d b2 00 6b bb c8 5d a9 bc
       -0.015459342 0.053438436 -0.0035858569 -0.020674601
000390 7e 97 78 bd 17 74 53 3d 76 a1 c4 3d 71 01 84 bd
       -0.06069135 0.051624384 0.09601109 -0.064455874
0003a0 06 2b 12 be 9c 72 14 be 51 02 0d 3a 71 d7 18 3c
       -0.14274225 -0.14496845 0.00053790683 0.009328709
0003b0 7d 6c 87 bc 28 c4 23 be b1 cf 04 be e1 f5 c1 bc
       -0.016531223 -0.15992796 -0.12969853 -0.023676815
0003c0 11 0b 91 3d fe cd 4c 3c 0d 9a 25 bd 87 8d 48 3d
       0.07082189 0.012500284 -0.040430117 0.048963096
0003d0 2b db 05 3d ce 57 b8 3d 8e 61 c8 3d 2e b5 f8 3c
       0.032679718 0.090011224 0.09784232 0.03035983
0003e0 08 41 9a 3d b7 8d db 3d 25 2a 11 3d 40 05 31 bd
       0.07531935 0.10720389 0.035440583 -0.043217897
0003f0 63 6c a9 3c d0 cf bd ba 2b 6b 04 3e 09 82 07 3d
       0.020681566 -0.0014481489 0.12931506 0.033082996

fc1.bias f4 [50]
000000 25 cd 96 bd 08 2d 81 3e 2c c7 5d bd 81 5f 41 be
       -0.07363347 0.2522967 -0.054145023 -0.18884088
000010 0c 51 84 ba a0 39 15 3e ae a0 24 be cb 1e ec 3d
       -0.0010094955 0.14572763 -0.1607692 0.11529311
000020 fe 57 79 ba 78 30 c0 bd 5d 10 0b be 95 7f 22 bd
       -0.0009511708 -0.09384245 -0.13580461 -0.039672453
000030 9a 6b 53 3e e2 46 91 bd 69 e3 bc 3c c6 2b dc 3b
       0.20646515 -0.07093598 0.023057656 0.0067190854
000040 1b b9 3d 3c 17 16 21 3e c9 ac 34 3e 38 44 4a 3d
       0.011579777 0.15731083 0.17644037 0.049381465
000050 8b 98 a4 bd 85 52 e9 3c f2 46 84 3d ce d7 8e 3d
       -0.08036908 0.028481731 0.06458844 0.06974755
000060 5a 6d 7d 3b 16 d6 3d bb 3f 2e 94 3d 79 a8 c6 bb
       0.0038669915 -0.0028966716 0.07235383 -0.006062564
000070 ed e3 0a 3d 3c 98 c2 3d 35 3d 15 3b 30 e8 fd bd
       0.033908773 0.09501693 0.0022772078 -0.12397802
000080 c3 da 9a 3e f8 da 4b 3d 4f f5 03 bc 08 dd a9 bd
       0.30245027 0.04976937 -0.008054092 -0.082941115
000090 51 0b d1 3e b9 ef 84 3d 32 0c 2a 3d 04 7e 1c bd
       0.40828946 0.06491036 0.041515537 -0.038206115
0000a0 3e d0 96 bd 48 70 da 3d e8 9e 59 bd aa 40 97 bd
       -0.07363938 0.10665947 -0.05313006 -0.073853806
0000b0 f8 b0 85 3d 3e 4a 2b 3e dd b2 70 3d cb b0 02 3e
       0.06527895 0.1672754 0.058764327 0.12762754
0000c0 42 18 72 be 7b b0 70 3d
       -0.23642066 0.058762055

fc2.weight f4 [10, 50]
000000 39 55 8b 3c 26 57 c5 bd 54 71 1d 3e 9c 82 0d be
       0.01700841 -0.09635763 0.15375262 -0.13819355
000010 1f 8c 2d bb 63 ba 0e 3e 1c 47 c0 3d de 14 42 3e
       -0.0026481224 0.13938288 0.09388563 0.18953273
000020 43 12 19 bd e3 29 44 bd 42 59 c2 3d a2 3e 6e 39
       -0.03737093 -0.04789151 0.09489681 0.00022720781
000030 d3 6e c6 3d b8 f7 55 bd c8 cf 42 be 93 d7 31 3c
       0.09689107 -0.052238196 -0.19024575 0.01085462
000040 21 32 86 bd e0 e5 36 be 68 89 6d 3e bd a2 9e 3d
       -0.0655253 -0.17861128 0.23196948 0.077458836
000050 9c 0a c0 3d 22 ed 33 bd d8 b0 9d bd 06 3c 5f 3c
       0.093770236 -0.04392732 -0.07699746 0.013625151
000060 24 2a 1c 3e 50 52 6d bd 78 91 61 be 97 a8 20 be
       0.1525045 -0.057939827 -0.22028148 -0.15689312
000070 59 ca 87 bc 93 db e4 3c a6 21 a2 3e 0b cd 98 bd
       -0.01657598 0.027936732 0.31666297 -0.07460984
000080 ab 8a 83 3e 77 cd 0b 3e af 3e 8f ba 8c cd e7 3c
       0.25691733 0.13652597 -0.0010928715 0.028296255
000090 ca 92 8c 3e cc 4f 8c bd 09 a7 db 3d 96 f6 bb bd
       0.2745574 -0.068511575 0.10725219 -0.09177892
0000a0 8e 04 b9 3c 31 0b 0e bd d3 d6 3e be 95 43 ed bd
       0.02258518 -0.03467864 -0.18636636 -0.11585156
0000b0 dc 2c 4c 3e ae 6f 4f 3e 11 07 2d bd 7c 1b 0c be
       0.19938987 0.20257446 -0.042243067 -0.1368236
0000c0 fe 5f a1 bd 4b ab e2 3d e5 2d 4c bd b0 a8 94 be
       -0.07879637 0.11067828 -0.049848456 -0.29034948
0000d0 41 8b 4b 3e 5a 2d 36 3e 65 06 1e 3e 28 af 79 3e
       0.1987734 0.17790738 0.15432127 0.24383223
0000e0 97 77 f5 3c b8 78 92 bb 00 fa 6a be 1c 52 a7 bd
       0.029964251 -0.004469957 -0.2294693 -0.08169958
0000f0 a9 16 13 3e 33 15 58 bd c5 27 3d be 78 56 fb bc
       0.14364113 -0.052754592 -0.18472202 -0.03068088
000100 ac c3 25 be ed f4 c2 3d a2 64 89 3d f7 7c 87 3d
       -0.16187924 0.09519372 0.06708647 0.06615632
000110 79 2d 68 be 05 fc 66 bc 1c e4 90 bd 0a ef fa bd
       -0.22673596 -0.014098172 -0.070747584 -0.12252624
000120 ca 27 78 be 39 13 09 bb 5a 27 4a 3e cb c5 e9 3d
       -0.24233928 -0.0020915999 0.19741574 0.11414679
000130 b8 a3 b8 bd a6 07 0a be 14 b2 34 3e 30 b1 84 be
       -0.09015602 -0.1347948 0.17646056 -0.25916433
000140 da 1a 3f 3b ba 0e 5a be 97 eb 42 bd 0f 2e 72 be
       0.0029160292 -0.2129468 -0.047587957 -0.23650382
000150 21 28 92 be 82 80 8a 3e b3 e5 ab be 8c 7e 6d be
       -0.2854624 0.2705117 -0.33573684 -0.23192805
000160 4d a9 8e 3e 86 e1 7e 3d f9 6f 5e 3e 2f 04 15 be
       0.2786354 0.062226795 0.21722402 -0.14552377
000170 52 80 22 3e 42 c9 ee 3d 6d 00 56 3e 28 31 df 3d
       0.15869263 0.11659481 0.208986 0.10898048
000180 47 cf e1 3d 99 c0 4f be f3 03 f9 3d b7 b0 f8 bd
       0.11025863 -0.20288314 0.121589564 -0.12143081
000190 7d e1 9f bd 35 3f a3 ba 30 a0 a0 bd d8 d7 30 3d
       -0.0780668 -0.001245475 -0.07843053 0.043174595
0001a0 f8 05 04 3d 2a 65 ce bd e3 61 36 3d 4f 08 c9 3d
       0.032232255 -0.10077889 0.044526946 0.09816038
0001b0 ef 88 1f 3e 0c 84 94 3d f3 69 c4 bb 2a d9 9a bd
       0.1557958 0.072517484 -0.0059940754 -0.07560952
0001c0 f4 b0 31 3e de 1f a8 bc 83 8a b0 3d 18 3b 5d bd
       0.17352659 -0.020523008 0.08620169 -0.054011434
0001d0 fa 54 91 bd 52 61 a7 bb d9 e9 9e 3e 6d ce e0 3c
       -0.07096286 -0.005108037 0.31037787 0.027442181
0001e0 8b 44 07 be d6 1d 86 3d f3 d6 0f 3d 21 38 ad 3d
       -0.13209741 0.065486595 0.0351171 0.08457971
0001f0 ad 28 c2 bd 49 ac fe bd d7 db 99 3d 18 54 3d 3d
       -0.094804145 -0.124352045 0.07512634 0.046222776
000200 e2 d0 27 3b 3f 6b 38 3e d6 f7 51 3d 18 f0 c1 bd
       0.0025606682 0.18009661 0.051261745 -0.094696224
000210 cc 6c 1b 3d 42 5c 1e 3e 94 60 37 3d af 4d e3 bd
       0.037945554 0.15464881 0.04476984 -0.11098801
000220 de ec 76 3e d9 27 1c 3e 02 d5 3e bd 48 5c 8b 3c
       0.24113795 0.15249576 -0.04658986 0.017011777
000230 58 7e b5 bd 75 e1 ec bd 1f 6d e4 bd 8d 8d 23 3d
       -0.08861989 -0.1156644 -0.11153626 0.039929915
000240 09 47 0e 3d aa 9f 79 3d 5c c4 aa bd 0c 7e 44 3e
       0.034735713 0.060943283 -0.08338234 0.19188708
000250 02 18 68 bd ec 50 8a 3e b5 4a 85 3b f0 1c 39 3e
       -0.05666352 0.27014863 0.0040677437 0.18077445
000260 5f ab b2 bd e5 8c 0d 3e 50 1d 44 bd d9 e6 d0 bd
       -0.08724093 0.13823278 -0.047879517 -0.10200281
000270 68 fb 70 3d a5 b9 32 3d ee 85 10 3e 41 9e 8f bd
       0.05883351 0.043634076 0.1411359 -0.070126064
000280 1c a9 5c bd a5 c4 b3 3d aa c1 12 3e 35 53 c7 3d
       -0.053872213 0.08777741 0.1433169 0.09732667
000290 9e 7b f6 3d bc ae 92 bd 32 f7 fa bc 70 16 78 3e
       0.12035297 -0.07162234 -0.03063545 0.24227309
0002a0 56 12 23 3e 5d 33 58 3d 55 9c 2d 3d 29 91 50 be
       0.15924963 0.05278336 0.042385418 -0.20367874
0002b0 a8 a5 37 3e 22 7b 6b bd a1 77 f0 bd f4 5d 9f 3c
       0.17934287 -0.057490475 -0.117415674 0.01945398
0002c0 e9 0b 93 3d 00 83 ce 3c 3d 8f d8 bd a1 9d b5 3d
       0.07180006 0.02520895 -0.105741955 0.08867956
0002d0 b8 24 9f bd 85 09 05 3e b9 56 35 be 0b a4 90 bd
       -0.077706754 0.12991913 -0.17708863 -0.07062539
0002e0 0c 4c e6 3d a0 f7 06 bc ed 61 15 be 89 73 05 be
       0.112449735 -0.008237749 -0.14588137 -0.13032354
0002f0 6b a6 98 bd df 9a eb 3d 44 9b 0a be 61 7b 16 be
       -0.07453617 0.11504149 -0.13535792 -0.14695503
000300 88 18 24 bd 0a 3d 03 3e e4 1f d4 bd 0b 1e ad bd
       -0.040062457 0.12816253 -0.10357645 -0.08452996
000310 6b b2 24 3e ca 0e 91 3d 11 35 80 3d e3 16 d3 bc
       0.16083686 0.07082899 0.062601216 -0.02576775
000320 e3 45 14 be bd ca 2f be 13 15 42 3e 6f 41 31 bd
       -0.14479785 -0.17167182 0.18953352 -0.043275293
000330 1b d8 23 3e 8b 2a 15 bd cf b8 20 3d 07 a1 d9 bd
       0.16000406 -0.036417525 0.039238747 -0.10626417
000340 c8 ef b0 bd ac 76 0a be 13 57 0f 3e e5 eb 68 be
       -0.08639485 -0.13521832 0.1399806 -0.22746237
000350 76 6b 53 3e 47 7a 46 bd 87 4d fc 3d cb d8 b0 bd
       0.20646462 -0.048456457 0.12319475 -0.086351
000360 12 58 b9 3d dd 9d 37 3e 13 f5 5e 3c 11 f4 4f be
       0.09050001 0.17931314 0.013608235 -0.20307948
000370 4e 8e e1 bc 56 b8 e8 3d 77 ed 8a 3d bd 69 cd 3d
       -0.027533676 0.11363284 0.06783574 0.100299336
000380 52 81 27 3d 39 8a 87 bd ce 00 13 3e 2e b2 07 3e
       0.040894814 -0.06618161 0.14355776 0.13251564
000390 ec d8 f0 bd 80 32 26 bd 4d 60 0b 3e a2 aa 84 bd
       -0.117601246 -0.040575504 0.13610955 -0.06477858
0003a0 77 e5 25 bd 01 c2 00 3e ee 8b e8 3d e9 cd 1e bd
       -0.040502038 0.12574007 0.113548145 -0.03877059
0003b0 0d 55 41 3e 39 b0 6c 3e 92 ca 45 be 43 2e d7 3d
       0.188801 0.23114099 -0.19315556 0.105068706
0003c0 09 7b 2a be 90 ae 70 3c d6 c6 7a bc 58 fa 4c bd
       -0.16648497 0.014690056 -0.015306195 -0.050043434
0003d0 94 fb de bb 15 14 a1 bd 5a 1c 16 be a9 cb 1d 3e
       -0.006804893 -0.078651585 -0.14659253 0.15409721
0003e0 48 b3 1b be 42 c7 e3 3d 7a 8b 24 3d 7d 3d 0a 3e
       -0.15205109 0.1112199 0.040172078 0.13500018
0003f0 69 0a f4 bd 92 c1 fa 3d dc c6 90 3d e3 12 63 be
       -0.11916048 0.12243952 0.070691794 -0.22175173

fc2.bias f4 [10]
000000 c5 06 8b 3e 69 af 9d be b4 4d b2 3e 06 da ad 3d
       0.27153602 -0.3079789 0.34824908 0.0848885
000010 3c 34 bd 3e 12 d5 5f be c8 90 41 3d eb 3d ce be
       0.36953914 -0.21858624 0.047257215 -0.40281615
000020 33 21 11 3f 35 f2 79 be
       0.56691283 -0.24408801
