checkpoints/random/cnn2/25-12-2023_11-19-59/last_model.pth.tar (torch, 33338 bytes, 16 tensors)

conv1.weight f4 [6, 1, 5, 5]
00000000: a222 93bd 4450 353e 276d 5a3d cf0b e8bc
00000010: aeb3 d6bc 847b b63d db23 0fbe 58db 3e3e
00000020: 9428 103c a4f2 4dbe fe61 b23b 1f70 843d
00000030: 0c09 0bbe cd1a fcbd de2e 24be 1979 263e
00000040: 2926 bebd 8b71 2dbd 88c6 263e 5da7 863d
00000050: 56a6 9f3c 1116 3abe f1f5 303e 10b0 3b3e
00000060: 58c4 c6bc 0e86 72bd 139d d439 2560 113e
00000070: 8852 c9bd d04c 2e3e 4833 ecbc 72de ecbc
00000080: 2e6e 04be 6111 a2bd ede8 11be 8a79 ab3d
00000090: 599a 433e 2fa0 08be 3b0c ea3d 7e12 8e3d
000000a0: a4c6 79bd 7231 04be d249 033d 11b0 223d
000000b0: 7c2b 453e 1a94 39be 7839 e5bd abe6 40bd
000000c0: f5e4 de3b 3109 f0bd bf2d 26be 45b4 9abd
000000d0: 9824 733d 078a 153e ddb0 45bd bcad 7d3d
000000e0: 9ffb 00bc 94ae 2d3e 3af9 3b3d c3c2 c4bd
000000f0: f6e0 013e 23fb 0abe 00cb 25be fd5a 263c
00000100: b8d0 69bc 78fd 00b9 cfb7 1fbe cf5b c3ba
00000110: c466 cbbd e2be 053e 7df1 46be 4380 48be
00000120: bd51 18be 9466 fe3d 8a27 44be d8aa 373e
00000130: 0f76 ed3d ac70 903d 9dcf 19bd 7e75 493a
00000140: 9691 0cbe 60f1 5d3d 95c2 28be b4d9 aebd
00000150: e9cf 8bbb 966b 0e3e 75e6 813d 85dc 6abd
00000160: 1be2 073e 5e93 fabd 1663 c33c 9eea de3d
00000170: c1f6 50bd 8eb1 0bbe 088a a83d 41d5 3ebe
00000180: 58a3 89bd c09f 05be 3c68 bb3d ba16 e3bd
00000190: 624c 37be eee3 973d 9b58 aebd d119 8e3d
000001a0: 6e4e 0fbd 8ffe 6fbc 9d55 c4bd fe72 f63d
000001b0: fc5c 563c 0b26 80bd c40f 383e 0aa1 0dbc
000001c0: eb94 acbd c9f7 1bbe d46c 213e 0136 3cbe
000001d0: 6678 793b f9bd 51bd 77c7 493e e679 dc3d
000001e0: 9e3b be3d 3735 5e3b 4b08 cd3d a7c5 143e
000001f0: 4920 4abd 308c 223e b83f 9bb9 f8f1 81bc
00000200: 1fc5 223e 76c9 e0bd 4a17 01be ccd3 a33d
00000210: 1b7a c4bd e962 223d 5440 213e b715 28bc
00000220: 402b ed3d 9f75 9a3d 9515 bb3c 716e b93d
00000230: 64df c83d 434e c8bd 7046 21be 680e 03be
00000240: 4e13 30be 84fd 173d 5674 8b3d 30f7 15be
00000250: cadc 24be dd7e e53d
-0.0718434 0.177064 0.053326752 -0.028325943 -0.026208725 0.089102775 -0.13978522 0.1863836
0.008798737 -0.20112091 0.0054438105 0.06466698 -0.1357767 -0.12309799 -0.16033503 0.16257133
-0.09284622 -0.04234461 0.16286671 0.06574891 0.019488495 -0.1817248 0.17281319 0.18328881
-0.024263546 -0.059209876 0.0004055282 0.14196832 -0.09830195 0.17021489 -0.028833047 -0.028914664
-0.12932655 -0.07913471 -0.1424901 0.08372791 0.19101848 -0.13342355 0.11428114 0.06937121
-0.060980454 -0.12909487 0.032052822 0.03971869 0.19254869 -0.18122903 -0.11192602 -0.047094982
0.006802196 -0.11720503 -0.16228388 -0.07553915 0.05936107 0.14603435 -0.048264373 0.061933264
-0.007872491 0.16961128 0.045891978 -0.0960746 0.12683472 -0.13572364 -0.1619072 0.010153529
-0.014270954 -0.00012301456 -0.15597461 -0.001490468 -0.0993171 0.13061097 -0.19428058 -0.19580178
-0.1487493 0.12421909 -0.19155708 0.17936265 0.115947835 0.070527405 -0.03755151 0.0007685049
-0.13727412 0.05418527 -0.16480477 -0.08537617 -0.004266728 0.13908228 0.06342784 -0.05733921
0.13269846 -0.12235139 0.023850959 0.108845934 -0.051016573 -0.1364195 0.08229452 -0.18636037
-0.067206085 -0.13049221 0.091507405 -0.11088319 -0.17900231 0.07416521 -0.08512994 0.06938518
-0.034986906 -0.014648094 -0.09586642 0.12033652 0.013083693 -0.06257256 0.17974764 -0.008644352
-0.08426841 -0.15231241 0.15764171 -0.18379976 0.0038066148 -0.051206563 0.19704996 0.10765438
0.09288715 0.003390623 0.100113474 0.14528523 -0.049347196 0.1587379 -0.00029611378 -0.01586245
0.15895508 -0.109759256 -0.1260654 0.079993814 -0.09593602 0.03964511 0.15747195 -0.0102590835
0.11580515 0.07541966 0.02283744 0.09054268 0.098082334 -0.09780552 -0.15749526 -0.12798464
-0.17194864 0.037107006 0.06809299 -0.14645076 -0.1609985 0.11205838

conv1.bias f4 [6]
00000000: f8d7 8abd 401f 953d 260a 19be 5c7c ba3d
00000010: d887 013c 6533 95bb
-0.06779474 0.07281351 -0.14945278 0.09105751 0.007905923 -0.004553246

conv2.weight f4 [6, 6, 5, 5]
00000000: 0a22 8ebd 2524 e63c fc48 f8bc 5c6e 503b
00000010: c1fe 9fbd f931 9cbd f12f b1bc 3f15 26bb
00000020: ff15 84bb aaa2 133a fb8f 95bd 516e fabb
00000030: 5dc0 713d aedb a33c 1331 013d d7f2 93bd
00000040: 9ee7 90bd 7759 9fbd cdb3 8abd 9307 413d
00000050: a4f7 41bd 22bb 373d fcb4 523c 0cc9 1bbd
00000060: cfe0 933d 2bc4 4fbd ff6c 883c 0903 8abc
00000070: c70e 003b d6ea 87bd d49b 76bd a406 653d
00000080: d8e2 083d c828 9cbc 5db1 81bd 0401 0dbc
00000090: 8964 843d 0286 85bd 6b48 9f3d 87de 4d3c
000000a0: 42bd a53d 3925 363d 2509 99bd dfc2 97bc
000000b0: fbd0 6dbd ef9d 923d 6a8e 3cbd 6e7a 823d
000000c0: 803d a53d 7274 c13c dba7 11bd e301 edbc
000000d0: 6a4e 3cbd e2e1 a0bd 6472 94bd 304b 9bbd
000000e0: 8eea 5bbd 6c10 2bbd 4f02 8d3d ea69 49bc
000000f0: 533c a0bd 8ee3 453d 5767 743d 73db 233d
00000100: 34c4 af3c d4e7 7bbd 39d5 013d b5e2 753b
00000110: 31e3 513d 15e5 c43c b63f 533c 9562 4abc
00000120: 476a ac3c 539f 7abc 3d32 4f3a 4a21 3a3d
00000130: a3df 5dbc f194 083d f2ae 043c 44d2 203d
00000140: 9802 853c 7387 043d 8b88 903b 1186 9a3d
00000150: 74ba 903d b4a7 203d c0c7 123d 6854 50bb
00000160: 299f ec3c cbf8 9d3d 6c31 933c 1010 a7b9
00000170: eaa5 853d 3281 ebba eabc 783b 5939 11bd
00000180: 6e56 acbc 3814 2b3d d6b2 80bd 44a9 963d
00000190: 10d7 853d ae41 50bc 9c85 0b3c 46c2 b03d
000001a0: cd25 85bd 9241 47bd 8d4a 72bd e7ea edbc
000001b0: 5249 e3bc 0cf6 963d b46c 103d a46e 21bd
000001c0: 562b f73c 80dd 7e3b 28ee 77b9 9dd8 683d
000001d0: 5ea0 71bc 03e4 a73b 97f2 cd3c b104 87bd
000001e0: fb74 013d 7e0a a1bd ae1f fc3c f451 88bd
000001f0: c3c6 0c3c 982e efbc 43a2 173d 7775 10bc
00000200: bff8 d1bc 4c3a 7a3d 1c52 1d3d fa94 71bd
00000210: 4813 6d3b e58b c13c 3195 ac3d 261d aabc
00000220: 8342 00bd eb67 803d 65b8 4a3d a413 18bc
00000230: e543 c03c b29d de3c fc0c 07bd 9311 44bd
00000240: 81d3 25bd 8b03 c5bc cb98 243d 8560 523d
00000250: 4658 313d 4b89 4dbd e14d 533d 7f54 083d
00000260: fffe 3e3c fb51 bb3c 3e76 9fbd 6c22 d7b8
00000270: 2a9c 94bc 23e0 353d 8c97 83bc 553a 8f3d
00000280: 62e1 183a 512e a3bc b02f 04bd 6ec6 89bb
00000290: 76dc 21bd 0108 0f3d e2b5 603d e2b9 3cbd
000002a0: 434a 873b 3597 3d3b db65 a4bd 2a36 06bd
000002b0: 1878 083d ae1f 90bd f74a 673d 932f a2bd
000002c0: a29a 4f3d 0b31 3c3b f5e7 d03c 03af d33c
000002d0: 2dcc 093d 5e0c 9bbd e074 4b3d c449 85bd
000002e0: d876 3d3d f074 9ebd aaff c93c 8b35 893d
000002f0: b520 5dbd a296 60bd dbb0 8cbd b354 86bd
00000300: 26e6 36bd ed6c 5cbd 2647 02bd 6da6 36bd
00000310: 6830 863b 8c53 a23d ba71 f53c 24c8 d43c
00000320: 083f 563d 5c37 3e3d 89ad 91bd 0641 f53c
00000330: ec76 193d 1215 a9bc acc4 ec3c 5ba3 ffbc
00000340: 03eb 083d 3655 a9bc cb70 883d db0f f13c
00000350: 886a 0a3d 2f60 a33b ad09 42bb 8801 053d
00000360: 28d3 5a3d a737 4ebd 5a3f b43c c271 953d
00000370: 0b07 6ebd 6ae8 7bbb f607 dd3c 605f 2b3d
00000380: a715 533d 6960 643d 7964 78bd e021 e6ba
00000390: 534c 713c 3328 823d 434a 253c 5e01 6e3d
000003a0: 19d9 7bbd 4ead 0ebd d245 47bd 2ca3 3f3d
000003b0: 865b d1bb 4f88 12bd f00d 693d c8ce 713d
000003c0: 789c edbc 3f39 1c3c 6a09 9d3d 85f8 81bd
000003d0: 0f37 773d 23d1 ec3c c6e5 553d b6e8 c73c
000003e0: 6654 1a3d e0d3 7bbb c48d 37bc caf8 823d
000003f0: d5ff eb3b d403 f6bc 3789 54bd 2982 be3b
-0.06940086 0.028093407 -0.03030824 0.003180406 -0.07812262 -0.07626719 -0.021629306 -0.0025342254
-0.0040309425 0.0005631844 -0.07302853 -0.0076425453 0.059021343 0.020002212 0.03154094 -0.072240524
-0.070754275 -0.07780736 -0.067725755 0.047126364 -0.04735531 0.044856198 0.012860533 -0.03803353
0.07220613 -0.05072419 0.016653536 -0.01684715 0.0019540058 -0.06636588 -0.060207203 0.055914536
0.03341946 -0.019062415 -0.063326575 -0.008606199 0.06464488 -0.065197006 0.077774845 0.012565262
0.08092739 0.044469092 -0.07472447 -0.018525539 -0.058060627 0.0715903 -0.046034254 0.06371008
0.08068371 0.023615096 -0.03556047 -0.028931564 -0.04597322 -0.07855584 -0.07248381 -0.075827
-0.053690486 -0.041763708 0.06885206 -0.012293318 -0.07824006 0.048312716 0.059668865 0.040004205
0.021455862 -0.061500385 0.031697486 0.003751916 0.051242057 0.024035016 0.012893608 -0.012352605
0.02104677 -0.015296775 0.00079039094 0.045441903 -0.013542089 0.033345167 0.008098351 0.039263025
0.016236588 0.032355737 0.0044108084 0.075451024 0.07066813 0.039222434 0.035835028 -0.0031788591
0.028884487 0.07713469 0.017967902 -0.0003186469 0.06525786 -0.001796758 0.0037954398 -0.03545508
-0.021037307 0.04176733 -0.0628411 0.073565036 0.065351605 -0.012710972 0.008515742 0.08630805
-0.065013506 -0.048646517 -0.05915313 -0.029042674 -0.027744923 0.073711485 0.035259917 -0.039412156
0.030172031 0.0038889349 -0.00023644476 0.056847204 -0.014747707 0.0051236167 0.02514009 -0.06592692
0.031605702 -0.07863329 0.030776825 -0.06656256 0.00859231 -0.029197022 0.03701998 -0.008817068
-0.025631307 0.061090752 0.038408384 -0.058979966 0.0036174823 0.023626277 0.084268935 -0.020765852
-0.03131343 0.06269821 0.04949226 -0.009282026 0.023469875 0.027174804 -0.032971367 -0.047868323
-0.04048491 -0.024049541 0.040184777 0.05136158 0.043297075 -0.05017976 0.051587943 0.033283707
0.0116574755 0.02286624 -0.07786225 -0.000102584105 -0.018140871 0.044403207 -0.016063474 0.06993548
0.00058319245 -0.019919546 -0.03227204 -0.004204563 -0.03951689 0.034919742 0.054860957 -0.04607571
0.0041287257 0.0028929238 -0.0802724 -0.0327665 0.033317655 -0.070372924 0.056467976 -0.0791923
0.05068458 0.0028715755 0.02550123 0.025840288 0.033641983 -0.07570718 0.049672008 -0.0650821
0.046255916 -0.07737148 0.024658043 0.06699666 -0.05398627 -0.054831155 -0.0686967 -0.06559124
-0.04465308 -0.053814817 -0.031806134 -0.04459231 0.004095126 0.079260916 0.029961456 0.02597434
0.052306205 0.046439514 -0.07113177 0.029938232 0.03746693 -0.02063993 0.028902374 -0.031205824
0.03342725 -0.020670515 0.066621386 0.029426506 0.033793002 0.004985831 -0.0029607818 0.032472163
0.05342403 -0.050346043 0.022002865 0.07297088 -0.058112185 -0.003843809 0.026981335 0.041839004
0.05153432 0.055756006 -0.060642693 -0.0017557703 0.01472767 0.06355324 0.010088506 0.058106773
-0.061486337 -0.034833245 -0.04865057 0.046786472 -0.0063890843 -0.035774525 0.056898057 0.059035093
-0.029005274 0.009535133 0.07667811 -0.063462295 0.060355242 0.028908318 0.052221082 0.024402957
0.037678145 -0.0038425848 -0.011203233 0.06395109 0.0072021284 -0.030031122 -0.05188867 0.005813856

conv2.bias f4 [6]
00000000: 79ca 763d 5a35 8f3d c549 e23c 8b24 283d
00000010: a1f4 4b3d e2f7 9abc
0.060251687 0.06992598 0.027623067 0.041050475 0.049793843 -0.018917028

fc1.weight f4 [50, 96]
00000000: 78c5 b1bc e342 f7bc 0187 a03d 979f 7fbd
00000010: ff8e 523d 2bb1 723d da78 adbc 3e58 e8bc
00000020: d355 cfbd 7b4b 103a 7314 543d cc73 623c
00000030: 98bc 213d d1c7 3c3d 7f30 b33d e29c 7ebd
00000040: ae4c f4bc 75cd 98bd 527a 5a38 5a3a a5bc
00000050: 2586 81bd 2067 573d 471f a2ba bd3d ae3b
00000060: 45f1 b33c 304e a53d f969 a03d 856e c8bd
00000070: 16b6 a0bd a55e 16bd b604 c23d eb0a b9bd
00000080: afd2 cb3b 2639 8cbd a060 0abd 4a1b c5bd
00000090: 3bf7 213d 1eb2 3f3c 2d5d 0f3c 9469 c83c
000000a0: 0c88 c6bc 7051 8d3d 42be b73d 4bfb b0bd
000000b0: bef4 b13c d38c 983d 51cf 793d 2cfc c9bb
000000c0: 9088 b5bd caa1 c4bd 1c77 c03d 693c 05bc
000000d0: 9e44 33bd d193 94bd bb6c c73d bc5b 2ebd
000000e0: 9c1a 4c3c 402a 13bd c821 bebd 0495 193c
000000f0: 2079 a6bc c676 f4bc e909 aa3d fe70 b7bd
00000100: 4883 e8bc 5cd0 a53d c8d5 5b3d d4c3 f6bb
00000110: 5143 cabd b6a1 923b e072 cebd c18f cf3d
00000120: 0a4b a1bc 288f 823d 8ce5 5f3d 787e 6a3d
00000130: 1a09 e23b a633 4bbd 8c3c b53c 489e aebc
00000140: 3b55 8abd 1baa 4ebd 3432 243d 8fb3 0c3d
00000150: 8549 103c 582d 843d 46e5 60bd a850 acbc
00000160: f62c 553d 359b c4bd 53c8 60bd 8c06 5b3d
00000170: fe24 743d 07fb 57bd d711 843c 4654 32bd
00000180: cd49 a9bd e723 b73d c156 743d b8ea 63bd
00000190: d2a8 e6bc 28e2 94bd 2f44 733d 0410 9f3c
000001a0: dcd2 123d fac2 963c 275a 12bc a19f c7bd
000001b0: 0277 813d 1e61 af3c 56e7 86bb 8f6a a2bd
000001c0: 0431 b63d 1213 6fbd 1069 81bd e007 963c
000001d0: 57ba cbbd cea5 c13d b5ac b33c bacc ce3b
000001e0: 7440 903a cf58 a83c e3f7 b7bd 0ae0 d73c
000001f0: ce67 9a3c fdd1 3abc e755 76bd 3233 783d
00000200: f4d1 9f3d 2184 a1bd 7b11 223d e67f 5e3d
00000210: e1bf a93d 2a40 373c 6c4a 943d d85a b93d
00000220: 5843 4fbc 203d bcbc 2202 253d 8ad9 c8bd
00000230: 0235 133d 9983 55bd 3781 9f3d de25 5e3d
00000240: d412 0e3c 43e8 0a3d 800c d4bc 5a6b fabc
00000250: 72d9 7b3d 3f77 e23b 858b a63d 186a a13d
00000260: 7ced a5bd f8ec acbd cdaf df3c c368 f3ba
00000270: cfbf c1bd 20ca bd3d de9e 9fbd 34a5 b03d
00000280: 0544 babd 20ea a23d e893 3939 4542 5bbd
00000290: 8486 7abd 2035 073b fcce a03d 49b7 8e3d
000002a0: bd16 bbbd a5e6 1e3d 6da1 b0bb ac73 b4bc
000002b0: 274d c8bd b56b 18bd 60fe 0a3d c1ca 3bbd
000002c0: a6c9 4a3d bf17 7bbd 63f2 953d f7d3 a13d
000002d0: cb3d c3bd 8bb6 393d bab1 92bd fdca 9a3d
000002e0: 5cc0 003b 333e 77bc 023e 053c 5bfd 073d
000002f0: 5c1a c7bd 23e7 f4ba e692 923d e4c4 6fbc
00000300: b561 85bd 7f54 8ebd e9cc 3e3c e780 adbb
00000310: b2af 10bd 095e 9e3d d388 e6bc 1a67 26bd
00000320: 1535 cdbd d211 46bd d67c 8e3c c410 313d
00000330: e12f be3c 3987 60bd c0d7 8dbc 8e93 5cbc
00000340: 91b7 823d 145d 23bd 17dc 853d e661 a53c
00000350: 5a38 c43d b31a 7fbd 3a4c 27bd 9e67 793c
00000360: 892b 8f3d 3adb 853d 919d fcbc f866 88bd
00000370: d66e 77bc 1070 fa3b 348b c23d 4f2c 9f3d
00000380: 85ce 27bd 780d 9b3b 912d a2bd 38b7 543d
00000390: 108b b3bc d8b0 193d 10cb 5f3c 1a53 bebd
000003a0: 46e0 c3bd a105 82bd 5c98 bdbd d7a0 acbd
000003b0: 2b1a 63bd ef72 cb3d f469 6cbd cd5f dd3c
000003c0: f027 a13d 112b 87bd 547f b1bd 3332 793c
000003d0: 2adf 2bbd cf19 143d daac 54bd 978e c6bd
000003e0: a92d 29bd ba9d 5c3d b05b 62bd af3d 8dbd
000003f0: 9550 9a3d 4f47 d0bd 1284 4a3c fc04 a1bd
-0.021700606 -0.030183261 0.0783825 -0.062408056 0.051405903 0.05925099 -0.02117579 -0.02836239
-0.101237915 0.00055044115 0.051777314 0.013821553 0.039486498 0.046088997 0.08749484 -0.062161334
-0.02982172 -0.07461063 5.208917e-05 -0.020169426 -0.06324414 0.052588582 -0.001236894 0.0053174184
0.021965632 0.08071554 0.07832713 -0.09786705 -0.0784723 -0.036711354 0.09473555 -0.090352856
0.006220184 -0.06846838 -0.033783555 -0.096243456 0.039542418 0.011700181 0.008750242 0.024464406
-0.024234794 0.069002986 0.08971836 -0.0864168 0.021723147 0.07448735 0.060988728 -0.0061640944
-0.08863938 -0.09601171 0.09397718 -0.008132079 -0.04376661 -0.07254756 0.097375356 -0.042567953
0.012457516 -0.035928965 -0.09283787 0.009373907 -0.020321429 -0.029841792 0.083026715 -0.089570984
-0.028382912 0.08096382 0.053670675 -0.0075306688 -0.09876121 0.004474844 -0.100805044 0.10134841
-0.019689102 0.06374961 0.054662272 0.057249516 0.0068980576 -0.049609803 0.022123598 -0.021315709
-0.06754538 -0.050455194 0.04008694 0.034350928 0.008806591 0.06453961 -0.054906152 -0.021034554
0.05204483 -0.09599916 -0.054878544 0.05347304 0.05960559 -0.052729633 0.016121788 -0.0435374
-0.082660295 0.08942395 0.059653047 -0.055643767 -0.028156672 -0.072696984 0.059391197 0.019416817
0.035845622 0.018403519 -0.008932627 -0.09747244 0.06321527 0.021408614 -0.004116933 -0.07930481
0.08896068 -0.058367796 -0.06318867 0.018314302 -0.09947651 0.09455453 0.021932939 0.0063110264
0.0011005537 0.02055016 -0.089828275 0.026351947 0.018848326 -0.011402604 -0.060140517 0.0605957
0.07803717 -0.0788653 0.039567452 0.054321192 0.08288551 0.0111847315 0.07240757 0.0905053
-0.012650333 -0.022978365 0.040285237 -0.09807117 0.035939224 -0.052127454 0.07788318 0.05423533
0.008671481 0.03391291 -0.025884867 -0.030568767 0.06148667 0.006911188 0.0813208 0.07881564
-0.08101937 -0.08443636 0.027305508 -0.001857065 -0.09460413 0.09267068 -0.077939734 0.0862526
-0.09095005 0.07954812 0.00017698074 -0.053529996 -0.06116344 0.002063103 0.07851979 0.069685526
-0.09135196 0.03879418 -0.005390337 -0.022027813 -0.09780341 -0.037212092 0.033933997 -0.045847658
0.049508713 -0.061301943 0.07321622 0.07901757 -0.095332704 0.045340102 -0.07162805 0.07558248
0.0019645905 -0.015090513 0.00813246 0.033200603 -0.097218245 -0.0018684607 0.07156925 -0.014634345
-0.06512777 -0.0694971 0.011645534 -0.0052949074 -0.035323806 0.077327795 -0.028141415 -0.04062567
-0.1001989 -0.04835684 0.01739351 0.04322888 0.02321619 -0.05481646 -0.017314792 -0.013462914
0.06382669 -0.039883688 0.065361194 0.020188283 0.09581061 -0.06228132 -0.04084418 0.015222458
0.069907255 0.06535955 -0.030836852 -0.06660265 -0.015102109 0.0076427534 0.09499207 0.07772123
-0.040968437 0.00473183 -0.07918847 0.051932544 -0.021916896 0.037522167 0.013659254 -0.09293194
-0.09564261 -0.0634873 -0.09257576 -0.08429115 -0.055444878 0.09934031 -0.057718232 0.02702322
0.078689456 -0.06600011 -0.08666864 0.015209722 -0.041960873 0.036157425 -0.051922657 -0.096951656
-0.04130331 0.053861357 -0.05526322 -0.06896531 0.07534901 -0.10169851 0.01236059 -0.07862279

fc1.bias f4 [50]
00000000: 1c8a 473c 1b8c c3bd 8476 b4bd 0c40 55bd
00000010: bacb cfbd 43b7 3ebd 8925 52bd 0370 aabc
00000020: 9aea 4e3d 0703 923d 5175 ae3d 50df 25bd
00000030: b38a 373d bbe3 5a3d 1c83 903d e619 31bd
00000040: e3ac 3dbd e5fb b03c 7b5e 9b3d e60e 9a3d
00000050: 9094 3cbd d572 aabd d4fa c5bd 139f 443d
00000060: 35ca 593d b676 c1bd b2bd bd3d 475b 9fbd
00000070: 8540 7cbd eace 9b3d 9c5f ca3c 1ccf b2bd
00000080: 2501 af3c 920e 10bd aeb4 c93d ac5b 94bd
00000090: e880 b73d e5c4 a8bc 3acf af3d bdf1 903d
000000a0: 8209 2abd 1612 823d 1737 1ebc 3288 20bd
000000b0: 04d1 6f3d f706 ca3d 9920 88bc 1180 e5bc
000000c0: 4f34 ee3b 0cec 3cbd
0.012178924 -0.09548207 -0.088116676 -0.052063033 -0.1014628 -0.04656149 -0.051305328 -0.020805364
0.050516702 0.07129484 0.0851847 -0.04049617 0.04481001 0.053439837 0.07056257 -0.04323759
-0.046307456 0.021604488 0.0758638 0.07522373 -0.046040118 -0.08322684 -0.09666982 0.048003267
0.053171355 -0.094464704 0.09264697 -0.07781082 -0.061584968 0.07607825 0.024703793 -0.08730909
0.02136285 -0.035170145 0.09848915 -0.072440475 0.08960134 -0.0206017 0.08584447 0.07077358
-0.041512974 0.06351106 -0.009656689 -0.039192386 0.058548942 0.0986461 -0.016617106 -0.028015168
0.0072694193 -0.04612355

fc2.weight f4 [10, 50]
00000000: afe2 bc3d c37c 1c3d cbff abbd 6588 acbd
00000010: 0a89 8bbb e95a 2abd 4ee0 f23d 0814 d13d
00000020: e1bd 033e 6df2 c9b9 19e9 0b3e afd1 06be
00000030: 92d0 0dbd a422 a1bd 1f97 ac3d 6131 72bd
00000040: 162a 103e c3b3 30bd a7d3 9a3c 4359 013e
00000050: 7a4b 33bd 93d8 8f3d 0c80 673d 2a04 27bd
00000060: 9284 d23d e8a7 14bd e735 593d 5ed1 943d
00000070: 4e4e 02bc 09a5 053d 1743 a23d c5fe 033d
00000080: 789a 993d e291 5b3d 3751 d33d 2e94 09be
00000090: b079 7bbd 2baa 96bd 69e5 29bd dea9 4b3d
000000a0: 89d8 d3bd d0f5 353d 2996 b83d f4e4 863d
000000b0: d60a ac3d 8414 13bc f68f 88bc fff8 fc3d
000000c0: c0e9 743d 65e5 5c3d 6999 31bd ab16 3b3d
000000d0: bbc9 8b3d 2bf6 d73d 9ce2 003e 103f 0fbe
000000e0: af4b 19bd 5141 01be 223f 04bd 496a 923d
000000f0: 5c5a 7e3d 72af fcbd 6a41 f1bc 10b0 93bd
00000100: d55d 063e 7d94 063e 98bb 8fbd e36e 1dbd
00000110: 7a42 e03d e9d8 bf3c e056 d3bd e7b9 f23d
00000120: 4421 513d 891d 9cbd 9dc2 d33d 03da 713d
00000130: 7122 14bd afab c3bd a63d f23d d8e6 06be
00000140: fcb0 2ebd 6860 bfbd aa88 063e 68e9 84bb
00000150: 8068 ddbd 5e21 d13c 3a16 9f3d 0501 a6bd
00000160: eb1c 99bd 6d7e 783d 7941 ce3d f55e 0cbd
00000170: 1b96 803c 4eae b93b 54a5 c9bd 5e57 07be
00000180: 53ad afbd eaad 673d bd62 9bbd 05a0 a7bd
00000190: d0f7 bc3d 5bb1 c8bd bd7f 00bd dc2d f2bd
000001a0: ef01 273d 9857 87bd e8d8 053d cefc b4bc
000001b0: ba12 0bbe 6a3d 803c 07b5 e7bd 6551 d33d
000001c0: e0c4 ac3d adc1 b43d 7d05 073e 8a70 c3bd
000001d0: 0e1f 873d 8c8c 923d 1c9c e83c 482f 86bd
000001e0: 2054 ad3d ae9d 0bbe c846 5fbd 471f 67bd
000001f0: fe0b 95bd f210 7cbd e50f 9fbd f12f 583c
00000200: 41ff 8cbd 2555 e73b a041 e2bd 5a67 c33c
00000210: 42f2 f73d 9d91 aa3d 9083 c43d 6501 5d3d
00000220: 372f 103e 1042 f4bd f4a4 f93d ba60 d33d
00000230: f86b d73d 0aa2 1dbd 18c7 37bd 4ea5 0fbd
00000240: 8770 97bd 635f e03d 10fd db3d 6b87 ba3c
00000250: cb27 e53d 9b10 eb3d 0819 c13b a5fe a43d
00000260: baf2 773d d8c7 16bc 39ea 1bbb bf6a 6f3d
00000270: 73c9 493d 19d3 ab3d e4f5 863d 6949 07bc
00000280: 343e 843d e126 033d f001 01be 3371 0fbe
00000290: 5a61 6d3d 3df1 e9bc dcb0 b8bd cc3b 26bd
000002a0: 6f3a c83d b53e 4a3a 2343 da3d 7308 093e
000002b0: b056 4cbd e168 5ebd d188 fbbd 822d 0dbc
000002c0: 1680 be3d d709 8cbd 6f58 9cbd 4323 583d
000002d0: 79fa a3bd bf43 72bd b7dc d8bd 7720 2f3d
000002e0: 1884 ad3d 839e e6bd ee8e 0d3e 26aa 0fbe
000002f0: 7ae7 143d cb92 923d 2ceb 6d3c f335 c93d
00000300: aa66 f93c 2cbf d7bd f07e b7bd 3f83 a6bd
00000310: c0ff 61bd e194 44bd 0234 983d 9e9b 263d
00000320: e723 3bbd adf9 0fbe b06d 0bbe 9077 fb3d
00000330: b13a bb3c 813e 98bb 53f7 a43d c674 03be
00000340: c2e4 8ebd ec90 0dbc 88c4 293d df5d b43d
00000350: 7de9 7cbd 2714 06be 07fe 0ebd 4f19 1d3d
00000360: ffe8 d83d 6b1a d5bd 4ae1 613d 8367 ff3b
00000370: 5eb3 9dbc 1a38 aa3d c8e5 533d 88a2 ab3d
00000380: aef6 fbbd 6e28 1dbd c52f 0a3e acf5 6b3d
00000390: 13d9 c8bd 4285 bd3d f26e 103e 53e3 613c
000003a0: fce8 77bd 1933 5c3d cbb9 803d a4df 9f3d
000003b0: 5563 b1bc d90f cdbd 9bef e2bd fe84 ee3d
000003c0: d17b ea3d 116e 523c e7d2 8cbd 374d edbd
000003d0: 2bcf 26bd 3270 92bd 37f2 44bc 0c7c 4c3d
000003e0: dd70 9a3d 3c0c 913d 24cd d2bd d334 f6bd
000003f0: 0de5 803d 5128 ee3c d102 75bd b9f9 183d
0.09222924 0.03820492 -0.08398398 -0.08424453 -0.0042582797 -0.041590605 0.11859189 0.10208899
0.12865402 -0.0003851833 0.13663138 -0.13165925 -0.034622736 -0.07867935 0.084272616 -0.059129123
0.14078555 -0.043140184 0.018899752 0.12631707 -0.043773152 0.0702373 0.0565186 -0.040775456
0.10279192 -0.03629294 0.05302992 0.07266496 -0.00795324 0.032628093 0.079229526 0.03222539
0.07500166 0.05360592 0.10318225 -0.13435432 -0.061395347 -0.07356676 -0.04147855 0.049722545
-0.10344035 0.04442388 0.09013016 0.06586638 0.08400504 -0.008977059 -0.016670208 0.1235218
0.059793234 0.053929705 -0.043359194 0.045675915 0.068255864 0.10545 0.12586445 -0.139889
-0.037425693 -0.12622572 -0.03228677 0.071491785 0.062097892 -0.12338151 -0.029450137 -0.07211316
0.13121732 0.13142581 -0.070182025 -0.038435828 0.109501794 0.02341886 -0.103193045 0.11851864
0.051057115 -0.07622821 0.10339854 0.059045803 -0.03616566 -0.095542304 0.11828165 -0.13173997
-0.042649254 -0.0934456 0.1313807 -0.0040561445 -0.108109474 0.025528606 0.07767911 -0.08105663
-0.07476219 0.060667444 0.10071082 -0.034270246 0.015696576 0.0056665307 -0.09845987 -0.13216922
-0.08577981 0.05656234 -0.07587192 -0.08184818 0.09226954 -0.09799453 -0.03137182 -0.11825153
0.04077333 -0.06608504 0.03267756 -0.022093203 -0.13581362 0.015654285 -0.11313825 0.10318259
0.084359884 0.08826003 0.13185687 -0.095429495 0.0659772 0.071557134 0.028394751 -0.06551987
0.08463311 -0.13634369 -0.05451086 -0.056426313 -0.07277678 -0.061539598 -0.077667035 0.013195024
-0.06884623 0.0070597106 -0.11047673 0.023852993 0.12106754 0.08328555 0.09595406 0.053956408
0.14080511 -0.11926663 0.121896654 0.103211835 0.1051864 -0.03848461 -0.044867605 -0.035069756
-0.0739451 0.109556936 0.10741627 0.02276965 0.111892305 0.114777766 0.0058928765 0.08056382
0.060534216 -0.00920292 -0.002379073 0.05845141 0.049264383 0.08389873 0.06589869 -0.008257248
0.06457177 0.0320195 -0.12598395 -0.14008026 0.05795417 -0.028557414 -0.09018108 -0.04058437
0.0977677 0.00077150326 0.106573366 0.1338213 -0.04988736 -0.05429924 -0.12281955 -0.008616807
0.09301774 -0.06837814 -0.07634055 0.052768003 -0.08006758 -0.05914664 -0.10588973 0.04275557
0.084724605 -0.112607025 0.13824055 -0.1402975 0.036353566 0.07156905 0.014521401 0.09824743
0.030444462 -0.1053451 -0.08959758 -0.08130502 -0.055175543 -0.047993544 0.07431795 0.040675752
-0.045688536 -0.14060088 -0.13616061 0.12278664 0.022855135 -0.004646123 0.08054986 -0.12837514
-0.06977226 -0.008640509 0.041447192 0.08806967 -0.06174611 -0.13093625 -0.034910228 0.038354214
0.105913155 -0.104054295 0.055146493 0.007794322 -0.019250568 0.08311482 0.05173281 0.0838061
-0.1230291 -0.038368635 0.13494785 0.057607338 -0.098070286 0.092539325 0.14104822 0.0137871085
-0.060524926 0.053759668 0.06285437 0.07806328 -0.02165381 -0.10012788 -0.11080857 0.1164646
0.11449397 0.012843625 -0.06876164 -0.11586993 -0.040724915 -0.07150306 -0.012020639 0.049922988
0.07541058 0.07082412 -0.10293034 -0.12021794 0.06293688 0.029071959 -0.05981714 0.03734753

fc2.bias f4 [10]
00000000: 07b0 0ebe b0fa 8f3b fe69 0a3c 61cc 9c3d
00000010: 5e7f c83d 6935 20bd 521c bc3c 83f2 b8bd
00000020: 86c4 a23d 873b 7b3d
-0.13934337 0.004393898 0.008448122 0.0765617 0.09789918 -0.039113436 0.022962723 -0.090306304
0.0794764 0.061336067

batch_norm_2d.weight f4 [6]
00000000: 821d 803f 6115 803f 2b92 7f3f 34b9 7f3f
00000010: 6d3b 7f3f 9336 803f
1.0009005 1.0006524 0.9983241 0.9989197 0.9970005 1.0016655

batch_norm_2d.bias f4 [6]
00000000: 030d 89b8 0109 78b9 9ef8 38b9 4249 e6b9
00000010: b9e7 d139 b690 ebb9
-6.535093e-05 -0.00023654477 -0.00017640225 -0.000439236 0.00040036233 -0.0004493051

batch_norm_2d.running_mean f4 [6]
00000000: 9ae2 ad3d 57d5 8f3e be3e d83e a05b 873e
00000010: 3479 bb3d 8af8 053e
0.084904864 0.28092453 0.42235368 0.26437092 0.09153977 0.13083091

batch_norm_2d.running_var f4 [6]
00000000: 7c80 a03e 16eb 9e3e 383d ab3e 2cf9 a43e
00000010: d63e a53e c43f a43e
0.31348026 0.3103873 0.33445144 0.32221353 0.32274503 0.320799

batch_norm.weight f4 [50]
00000000: 0000 803f 0000 803f 0000 803f 0000 803f
00000010: 0000 803f 0000 803f 0000 803f 0000 803f
00000020: 0000 803f 0000 803f 0000 803f 0000 803f
00000030: 0000 803f 0000 803f 0000 803f 0000 803f
00000040: 0000 803f 0000 803f 0000 803f 0000 803f
00000050: 0000 803f 0000 803f 0000 803f 0000 803f
00000060: 0000 803f 0000 803f 0000 803f 0000 803f
00000070: 0000 803f 0000 803f 0000 803f 0000 803f
00000080: 0000 803f 0000 803f 0000 803f 0000 803f
00000090: 0000 803f 0000 803f 0000 803f 0000 803f
000000a0: 0000 803f 0000 803f 0000 803f 0000 803f
000000b0: 0000 803f 0000 803f 0000 803f 0000 803f
000000c0: 0000 803f 0000 803f
1.0 1.0 1.0 1.0 1.0 1.0 1.0 1.0
1.0 1.0 1.0 1.0 1.0 1.0 1.0 1.0
1.0 1.0 1.0 1.0 1.0 1.0 1.0 1.0
1.0 1.0 1.0 1.0 1.0 1.0 1.0 1.0
1.0 1.0 1.0 1.0 1.0 1.0 1.0 1.0
1.0 1.0 1.0 1.0 1.0 1.0 1.0 1.0
1.0 1.0

batch_norm.bias f4 [50]
00000000: 0000 0000 0000 0000 0000 0000 0000 0000
00000010: 0000 0000 0000 0000 0000 0000 0000 0000
00000020: 0000 0000 0000 0000 0000 0000 0000 0000
00000030: 0000 0000 0000 0000 0000 0000 0000 0000
00000040: 0000 0000 0000 0000 0000 0000 0000 0000
00000050: 0000 0000 0000 0000 0000 0000 0000 0000
00000060: 0000 0000 0000 0000 0000 0000 0000 0000
00000070: 0000 0000 0000 0000 0000 0000 0000 0000
00000080: 0000 0000 0000 0000 0000 0000 0000 0000
00000090: 0000 0000 0000 0000 0000 0000 0000 0000
000000a0: 0000 0000 0000 0000 0000 0000 0000 0000
000000b0: 0000 0000 0000 0000 0000 0000 0000 0000
000000c0: 0000 0000 0000 0000
0.0 0.0 0.0 0.0 0.0 0.0 0.0 0.0
0.0 0.0 0.0 0.0 0.0 0.0 0.0 0.0
0.0 0.0 0.0 0.0 0.0 0.0 0.0 0.0
0.0 0.0 0.0 0.0 0.0 0.0 0.0 0.0
0.0 0.0 0.0 0.0 0.0 0.0 0.0 0.0
0.0 0.0 0.0 0.0 0.0 0.0 0.0 0.0
0.0 0.0

batch_norm.running_mean f4 [50]
00000000: 0000 0000 0000 0000 0000 0000 0000 0000
00000010: 0000 0000 0000 0000 0000 0000 0000 0000
00000020: 0000 0000 0000 0000 0000 0000 0000 0000
00000030: 0000 0000 0000 0000 0000 0000 0000 0000
00000040: 0000 0000 0000 0000 0000 0000 0000 0000
00000050: 0000 0000 0000 0000 0000 0000 0000 0000
00000060: 0000 0000 0000 0000 0000 0000 0000 0000
00000070: 0000 0000 0000 0000 0000 0000 0000 0000
00000080: 0000 0000 0000 0000 0000 0000 0000 0000
00000090: 0000 0000 0000 0000 0000 0000 0000 0000
000000a0: 0000 0000 0000 0000 0000 0000 0000 0000
000000b0: 0000 0000 0000 0000 0000 0000 0000 0000
000000c0: 0000 0000 0000 0000
0.0 0.0 0.0 0.0 0.0 0.0 0.0 0.0
0.0 0.0 0.0 0.0 0.0 0.0 0.0 0.0
0.0 0.0 0.0 0.0 0.0 0.0 0.0 0.0
0.0 0.0 0.0 0.0 0.0 0.0 0.0 0.0
0.0 0.0 0.0 0.0 0.0 0.0 0.0 0.0
0.0 0.0 0.0 0.0 0.0 0.0 0.0 0.0
0.0 0.0

batch_norm.running_var f4 [50]
00000000: 0000 803f 0000 803f 0000 803f 0000 803f
00000010: 0000 803f 0000 803f 0000 803f 0000 803f
00000020: 0000 803f 0000 803f 0000 803f 0000 803f
00000030: 0000 803f 0000 803f 0000 803f 0000 803f
00000040: 0000 803f 0000 803f 0000 803f 0000 803f
00000050: 0000 803f 0000 803f 0000 803f 0000 803f
00000060: 0000 803f 0000 803f 0000 803f 0000 803f
00000070: 0000 803f 0000 803f 0000 803f 0000 803f
00000080: 0000 803f 0000 803f 0000 803f 0000 803f
00000090: 0000 803f 0000 803f 0000 803f 0000 803f
000000a0: 0000 803f 0000 803f 0000 803f 0000 803f
000000b0: 0000 803f 0000 803f 0000 803f 0000 803f
000000c0: 0000 803f 0000 803f
1.0 1.0 1.0 1.0 1.0 1.0 1.0 1.0
1.0 1.0 1.0 1.0 1.0 1.0 1.0 1.0
1.0 1.0 1.0 1.0 1.0 1.0 1.0 1.0
1.0 1.0 1.0 1.0 1.0 1.0 1.0 1.0
1.0 1.0 1.0 1.0 1.0 1.0 1.0 1.0
1.0 1.0 1.0 1.0 1.0 1.0 1.0 1.0
1.0 1.0
