checkpoints/all users/cnn2/19-12-2023_17-04-25/best_model.pth.tar (torch, 33684 bytes, 8 tensors)

conv1.weight f4 [6, 1, 5, 5]
0	0x3e937d90	0.28806734
1	0x3e0715c5	0.13191898
2	0x3dcdd9ac	0.10051283
3	0x3f376ba2	0.7164861
4	0x3ef4f573	0.47843513
5	0xbe2bcb7f	-0.16776846
6	0x3d32dc62	0.043667205
7	0x3e867ed6	0.26268643
8	0x3e87973c	0.2648257
9	0x3d9d6b28	0.07686454
10	0x3e407ad2	0.18796852
11	0xbe4bd178	-0.19904125
12	0xbeb89ee5	-0.36058727
13	0xbde2aa8f	-0.11067688
14	0xbf0bc7e2	-0.5460187
15	0x3ec04e8d	0.3755993
16	0xbe218d5c	-0.1577658
17	0xbbc7fdf3	-0.006103271
18	0x3af2c534	0.0018521906
19	0xbf071cc9	-0.527783
20	0x3ea2d2d3	0.3180147
21	0xbe21c52d	-0.15797873
22	0xbebe9b03	-0.3722764
23	0xbeb0ccf5	-0.3453137
24	0xbeac5643	-0.33659562
25	0x3d1506b8	0.03638336
26	0xbd31a480	-0.04336977
27	0xbedafb19	-0.42769697
28	0xbe9574b8	-0.29190612
29	0xbd8d11ec	-0.06888184
30	0x3ce427d2	0.027851019
31	0xbe3332a9	-0.17499794
32	0xbf0cdcb9	-0.55024296
33	0xbf134436	-0.57525957
34	0xbeb3b759	-0.3510082
35	0x3e6390ad	0.22223158
36	0xbd16f4c9	-0.03685454
37	0xbec7ded0	-0.3903718
38	0xbe71f90b	-0.23630159
39	0xbe88fc0d	-0.267548
40	0x3dcb5604	0.099285156
41	0x3d7267df	0.05918109
42	0xbe52c771	-0.20583893
43	0x3e0b9d76	0.13634285
44	0x3e6466ac	0.22304791
45	0x3d45b3f8	0.048267335
46	0xbcd0dbc3	-0.025495416
47	0xbe031e59	-0.12804545
48	0xbd60b3da	-0.05485902
49	0xba8ba8ff	-0.0010655223
50	0xbeedaccb	-0.46420893
51	0xbf03f732	-0.51549065
52	0xbf0da3c5	-0.5532802
53	0xbe4a332e	-0.19746086
54	0xbd581296	-0.0527521
55	0xbe991ff0	-0.2990718
56	0xbf4a1106	-0.78932226
57	0xbf602fa8	-0.8757272
58	0xbec85d21	-0.39133552
59	0x3e3f1854	0.18661624
60	0x3e1349dc	0.14383644
61	0xbeaaeb5f	-0.333827
62	0xbec26fc8	-0.37975907
63	0x3e4035a5	0.18770464
64	0x3e3338a0	0.1750207
65	0x3d90a663	0.07062986
66	0x3e0237d8	0.12716615
67	0xbdadc057	-0.084839515
68	0x3e5d3cb3	0.21605186
69	0x3ce67a8c	0.028134607
70	0x3db007fc	0.08595273
71	0x3d75d529	0.06001774
72	0xbe525bc8	-0.20542824
73	0x3c804ec1	0.015662553
74	0x3e8cb33a	0.2748049
75	0x3ea8ee45	0.32994285
76	0xbc627877	-0.013822666
77	0xbedf4939	-0.43610552
78	0x3eecc99b	0.46247563
79	0x3e16ce02	0.14727023
80	0xbc90ea6f	-0.017689912
81	0x3e8a3c4d	0.2699913
82	0xbebbab96	-0.36654347
83	0x3eb5273e	0.35381502
84	0x3e6ad9fc	0.22934717
85	0x3e2f57bd	0.17123313
86	0xbe83f6b2	-0.2577415
87	0xbf3d4c44	-0.739445
88	0x3ee91c0f	0.4552922
89	0x3d8128fd	0.06306646
90	0x3e5f033f	0.21778582
91	0xbec43d23	-0.38327894
92	0xbf807001	-1.0034181
93	0x3efc797c	0.49311435
94	0x3ef13119	0.4710777
95	0xbe0ca44e	-0.13734552
96	0xbd77ebbe	-0.060527556
97	0xbf4af1bf	-0.79275125
98	0x3e07911a	0.13238946
99	0x3eccee22	0.4002543
100	0x3d0fa914	0.035073355
101	0xbe36283a	-0.17788783
102	0xbf3846a3	-0.71982783
103	0xbe973bb6	-0.29537743
104	0xbe149394	-0.14509422
105	0x3e0908c8	0.13382256
106	0xbc4190db	-0.011814321
107	0xbf03bdd6	-0.5146154
108	0x3e136621	0.14394428
109	0x3e1efab7	0.15525328
110	0x3ec83b5a	0.39107782
111	0x3edbe1eb	0.429458
112	0xbdd0c678	-0.10194105
113	0x3e812e98	0.2523086
114	0x3e25835b	0.1616339
115	0x3ef0314e	0.46912616
116	0x3e2df3b4	0.16987497
117	0xbed6f292	-0.4198194
118	0xbdc037fd	-0.09385679
119	0x3c0d7c37	0.008635572
120	0x3f196f86	0.59935796
121	0x3dd37ca7	0.1032651
122	0xbe546c52	-0.20744446
123	0xbe1f4300	-0.15552902
124	0xbe3e9a51	-0.18613555
125	0xba9a38c8	-0.001176619
126	0x3dd8d222	0.10586955
127	0x3e97a0ec	0.2961496
128	0x3d5503bf	0.052005526
129	0x3e9c1fed	0.30493107
130	0x3e52e7af	0.20596193
131	0xbe2f3949	-0.17111696
132	0xbd64fc5e	-0.05590474
133	0x3e2ab3cf	0.16670154
134	0x3e93c5cf	0.28861853
135	0x3dc73c41	0.097282894
136	0x3e9ab5cb	0.30216822
137	0x3d8c21cc	0.06842384
138	0x3d26c56a	0.040715612
139	0x3e6d2a37	0.23160635
140	0x3eb4fbad	0.35348263
141	0x3ec41e35	0.38304296
142	0x3ecec35e	0.40383428
143	0x3e9695a1	0.29411033
144	0x3e4b829f	0.19874047
145	0x3ab9787e	0.0014150289
146	0xbd8455a2	-0.06461646
147	0x3d929a65	0.07158355
148	0xbd302bf4	-0.043010667
149	0xbe0c0b6a	-0.13676229

conv1.bias f4 [6]
0	0x3ea2030d	0.31642953
1	0xbf6664b6	-0.8999742
2	0xbf3c963c	-0.7366674
3	0xbbd14864	-0.0063868035
4	0xbcfcbf72	-0.030853007
5	0x3d258c8c	0.04041724

conv2.weight f4 [6, 6, 5, 5]
0	0x3e0382a1	0.128428
1	0x3cc37d7c	0.023863547
2	0xbdbccbc1	-0.092185505
3	0xbe056d7b	-0.13030045
4	0xbdc19be1	-0.0945356
5	0xbcc336eb	-0.023829898
6	0x3b80c26d	0.0039294274
7	0xbd9d9a8e	-0.076954946
8	0xbd483375	-0.0488772
9	0xbdbbe18c	-0.09173879
10	0xbdf32434	-0.118721396
11	0xbe1fd052	-0.15606812
12	0xbcfb579d	-0.030681426
13	0x3c141b65	0.0090397345
14	0x3ca2cfa2	0.019874398
15	0xbe684cf9	-0.22685613
16	0xbe11518e	-0.14191267
17	0xbdb276ff	-0.08714103
18	0xbdcb5249	-0.09927804
19	0xbc805a27	-0.015667988
20	0xbe8400da	-0.257819
21	0xbdbe9b82	-0.093070045
22	0x3a163082	0.0005729274
23	0xbd672b22	-0.05643762
24	0xbcca0ed8	-0.024665281
25	0xbe196863	-0.14981227
26	0x3e22b144	0.15887934
27	0xbd9435f1	-0.07236851
28	0x3d71425a	0.05890117
29	0xbe00bdd0	-0.12572408
30	0x3e48e005	0.19616707
31	0x3e2ee9d2	0.17081383
32	0xbc261068	-0.0101357475
33	0xbda34547	-0.07972198
34	0xbe064be8	-0.13114893
35	0x3e183efa	0.14867774
36	0x3e1f2cfb	0.15544502
37	0xbb67cd37	-0.003537012
38	0xbdf6d3bc	-0.12052104
39	0xbe62c7cd	-0.2214653
40	0x3e136f5c	0.14397949
41	0x3e4e4bb4	0.20146066
42	0xbc953a3f	-0.01821625
43	0xbdd577a8	-0.10423213
44	0x3a0e461c	0.0005427317
45	0xbce225d6	-0.027605932
46	0xbcd1d6d1	-0.025615128
47	0xbd2016bf	-0.039084192
48	0xbe36bd68	-0.1784569
49	0xbcd6b575	-0.026209572
50	0xbe897860	-0.2684965
51	0x3cc570c1	0.024101617
52	0x3e27c3fa	0.16383353
53	0xbe50a316	-0.20374712
54	0xbe8947e4	-0.2681266
55	0x3d6ce1fb	0.0578327
56	0x3e67b468	0.22627413
57	0x3e810520	0.25199223
58	0x3ba99667	0.0051754
59	0xbe0dc918	-0.13846242
60	0x3eb5982b	0.35467657
61	0x3dfedae1	0.124440916
62	0x3dded039	0.10879559
63	0xbd614118	-0.05499372
64	0xbe999111	-0.2999349
65	0x3eb86c4c	0.36020124
66	0x3dd3ff7e	0.10351466
67	0x3e4b005b	0.19824354
68	0x3d26cbe9	0.040721808
69	0xbe6e2b9e	-0.23258826
70	0x3ee833ab	0.4535192
71	0xbcdcbc18	-0.026945159
72	0xbd38a260	-0.045076728
73	0xbe15d860	-0.14633322
74	0xbe96a48f	-0.29422423
75	0xbe542a18	-0.20719182
76	0x3e88b2f1	0.2669902
77	0x3d79035f	0.06079423
78	0xbe61e8db	-0.22061484
79	0xbe3441d8	-0.17603242
80	0x3ca50baa	0.020147163
81	0x3cd17454	0.025568165
82	0x3d666d44	0.056256548
83	0xbd0c7e39	-0.034300063
84	0xbe2343a3	-0.1594377
85	0xbcb1b08c	-0.02169063
86	0xbdb64a41	-0.089008816
87	0xbddb86bc	-0.10719058
88	0x3d45c5b6	0.048284255
89	0xbe5e41a0	-0.21704721
90	0xbe018043	-0.12646584
91	0xbec963d3	-0.39333972
92	0xbe396394	-0.18104392
93	0xbda668f6	-0.081254885
94	0xbe826178	-0.25464988
95	0xbca2e183	-0.019882923
96	0xbe5d855c	-0.21632904
97	0xbe69c1e1	-0.22827865
98	0xbe862b4b	-0.26204905
99	0xbed29e0b	-0.41136202
100	0x3d895350	0.06705344
101	0x3c175705	0.009237056
102	0xbd25275b	-0.040320735
103	0xbe449a76	-0.19199547
104	0xbd918a4d	-0.07106457
105	0x3d50ca2f	0.050974067
106	0xbc7a3fa9	-0.015273967
107	0xbdf515e9	-0.1196707
108	0xbe608c6f	-0.21928571
109	0xbe38a464	-0.1803146
110	0x3c1dd307	0.009632832
111	0xbe25ed99	-0.16203918
112	0xbcecc889	-0.028904216
113	0xbc94183a	-0.018077958
114	0xbcf22363	-0.02955789
115	0xbdc8be90	-0.09801972
116	0xbe06b56f	-0.13155149
117	0xbd002070	-0.031280935
118	0xbe60261c	-0.21889538
119	0xbe5833f3	-0.21113567
120	0xbde417c0	-0.111373425
121	0xbc1aaa67	-0.009440041
122	0xbe6db7ae	-0.232146
123	0xbec0cc37	-0.37655804
124	0xbdd45fd5	-0.10369841
125	0xbdbb1a61	-0.09135891
126	0xbd38a41a	-0.045078374
127	0x3dd060de	0.10174726
128	0x3e6ffefe	0.23437116
129	0x3e217124	0.15765816
130	0xbe07adda	-0.13249913
131	0xbcc18324	-0.023622103
132	0x3d2702f5	0.040774304
133	0x3e2c4d8c	0.16826457
134	0x3dcc5be3	0.099784635
135	0xba5821b0	-0.0008244766
136	0x3d508e69	0.050917063
137	0x3ca4bec3	0.020110494
138	0x3d696a1b	0.056985956
139	0xbe085f6b	-0.13317649
140	0xbd0bab8d	-0.03409915
141	0x3d9eb907	0.07750135
142	0xbdce720d	-0.10080347
143	0xbe388844	-0.18020731
144	0xbe2674d6	-0.16255507
145	0xbe08f1df	-0.13373516
146	0x3cfaff50	0.03063932
147	0x3de52aa1	0.111897714
148	0x3def1e74	0.1167573
149	0x3d8dd520	0.06925416
150	0xbe90eb11	-0.2830434
151	0xbe3e226b	-0.18567817
152	0xbd893a8d	-0.06700621
153	0xbd8c5201	-0.068515785
154	0xbe91efed	-0.2850336
155	0xbc025f1a	-0.007957244
156	0xbc1a69b4	-0.009424616
157	0x3bbc775c	0.0057515334
158	0x3e411da9	0.1885897
159	0x3ccff6b3	0.02538619
160	0xbe1b3064	-0.15155178
161	0xbe42741f	-0.18989609
162	0xbd18e471	-0.037327234
163	0xbc5b22c7	-0.013374991
164	0x3d4cef46	0.050032876
165	0x3dcd7758	0.10032529
166	0xbdb96a08	-0.09053427
167	0xbded6ace	-0.11592637
168	0xbe0e659b	-0.13905947
169	0xbd9f226e	-0.07770239
170	0x3d253c41	0.040340666
171	0xbe374ea1	-0.17901088
172	0xbe644463	-0.22291712
173	0xbda4353f	-0.080179684
174	0x3e6dcf1f	0.23223542
175	0x3e357c7c	0.17723268
176	0x3e9b235a	0.3030041
177	0x3e2c07bb	0.16799824
178	0xbe7ba63d	-0.24575134
179	0xbda5746b	-0.080788456
180	0xbcc6e14e	-0.024277356
181	0x3e6ce3c7	0.23133765
182	0x3d4ff03f	0.050766226
183	0x3df773ba	0.1208262
184	0xbdf3d512	-0.11905874
185	0xbd3f804a	-0.046753205
186	0x3d9efa26	0.07762556
187	0x3d158859	0.036506984
188	0x3ead1176	0.33802384
189	0x3dfe9fad	0.124327995
190	0xbe917fb3	-0.2841774
191	0xbddb7770	-0.1071614
192	0xbdc3b388	-0.09555727
193	0x3ed7c3c5	0.42141548
194	0x3cae16d0	0.021251112
195	0xbd3cb890	-0.04607445
196	0xbb382275	-0.002809671
197	0xbdb6b591	-0.0892135
198	0x3d6a3aba	0.057184912
199	0xbc2133f2	-0.009839045
200	0xbee07e7d	-0.43846503
201	0x3f09728a	0.536904
202	0x3f4cb369	0.7996126
203	0xbe59f45b	-0.2128462
204	0xbf0e7db2	-0.55660546
205	0xbe6ff0f7	-0.23431765
206	0xbd0c2081	-0.034210686
207	0x3e825643	0.25456437
208	0x3cab30c7	0.020897282
209	0xbec5430e	-0.3852772
210	0xbe820a1d	-0.2539834
211	0xbb13d878	-0.0022559445
212	0x3d255150	0.04036075
213	0x3ead2a40	0.33821297
214	0x3e83c2df	0.25734612
215	0xbea85826	-0.32879752
216	0xbe911570	-0.28336668
217	0xbe8d6dbe	-0.2762279
218	0x3e3a9484	0.18220717
219	0x3ef56211	0.4792638
220	0xbe7294be	-0.23689553
221	0xbdaa15d6	-0.08304946
222	0xbdcd67fd	-0.100296
223	0x3e295bd9	0.16538943
224	0x3e0eb43a	0.13935938
225	0xbe93db2c	-0.28878152
226	0xbeab2afb	-0.3343123
227	0x3e8d31cc	0.27577055
228	0x3e810c15	0.2520453
229	0xbe0493de	-0.12947032
230	0xbdec01c4	-0.11523774
231	0xbdca4c15	-0.09877793
232	0x3e3aed8b	0.18254678
233	0x3e3de72a	0.18545213
234	0x3d37cdbc	0.044873938
235	0x3d69644c	0.056980416
236	0xbd7ca326	-0.061679028
237	0xbe067907	-0.13132106
238	0x3da79a78	0.081837595
239	0x3e639a55	0.22226842
240	0x3e4318e4	0.19052464
241	0xbda4f5b1	-0.080546744
242	0xbb59d560	-0.0033238754
243	0xbe1a1750	-0.15047956
244	0xbc6654a7	-0.014058269
245	0xbd9e811f	-0.07739472
246	0xbeaa563b	-0.33268914
247	0xbe8359c2	-0.25654417
248	0xbceda33e	-0.029008504
249	0x3dc6118f	0.09671318
250	0x3e9d09e9	0.30671623
251	0x3eb1c626	0.34721488
252	0x3c7f372a	0.015577117
253	0xbdacb996	-0.08433835
254	0x3aaddd2c	0.0013264767
255	0x3ca2e6cf	0.019885449

conv2.bias f4 [6]
0	0xbbc4150f	-0.0059839557
1	0xbe64847e	-0.22316167
2	0x3e27e599	0.16396178
3	0xbe610200	-0.21973419
4	0xbe65d587	-0.22444735
5	0xbe79b1cc	-0.2438423

fc1.weight f4 [50, 96]
0	0x3c81684c	0.015796803
1	0xbe1a0e47	-0.15044509
2	0x3cabdff0	0.020980805
3	0xbd2a055b	-0.041509014
4	0xbcc801e1	-0.024414958
5	0xbdc620d1	-0.09674228
6	0xbddac8cc	-0.1068283
7	0xbd0692a2	-0.032854684
8	0xbc1cb594	-0.009564776
9	0xbde289e3	-0.11061456
10	0xbd832568	-0.06403619
11	0xbe32a318	-0.17445028
12	0x3daba0e1	0.083802946
13	0x3e19555c	0.14973968
14	0xbd4ef9a7	-0.050531056
15	0xbe3f22fc	-0.18665689
16	0xbd9f0ba6	-0.07765894
17	0xbe70beb0	-0.23510242
18	0x3e17b48a	0.14814964
19	0x3c0c2f73	0.008556235
20	0x3d8639e5	0.06554011
21	0xbe22de32	-0.15905073
22	0x3e51e95b	0.20499174
23	0xbe8b4369	-0.27199867
24	0xbdc03768	-0.09385568
25	0xbe9e7072	-0.30945164
26	0x3dc06231	0.093937285
27	0xbe014d19	-0.12627067
28	0x3e253b73	0.1613596
29	0xbe5b276e	-0.2140176
30	0xbe27ef70	-0.16399932
31	0xbdbec42b	-0.0931476
32	0xbdc1b9da	-0.094592765
33	0xbd8d8091	-0.06909288
34	0xbd09c082	-0.033630855
35	0xbe15ea00	-0.14640045
36	0xbd97cfa6	-0.07412653
37	0x3daf3a9e	0.08556102
38	0x3e8f0f5f	0.27941415
39	0x3e214f5c	0.1575293
40	0xbccb0093	-0.024780547
41	0xbcf1734d	-0.029473925
42	0x3da73f19	0.08166332
43	0x3e46f001	0.19427492
44	0x3bd5a176	0.006519492
45	0xbdb26df5	-0.08712379
46	0xbc70720f	-0.014675631
47	0x3e421a87	0.18955432
48	0x3e2ddf13	0.16979627
49	0x3e867d87	0.26267645
50	0x3de02e3e	0.1094632
51	0x3d2a1d0d	0.04153161
52	0x3d5c3b67	0.053767588
53	0x3d881045	0.06643728
54	0xbdf69052	-0.12039246
55	0x3d387169	0.04503003
56	0xbca5bc09	-0.020231264
57	0xbcf9ff88	-0.030517355
58	0xbe2575dd	-0.16158243
59	0xbd1af5e9	-0.037832174
60	0x3d105964	0.0352415
61	0x3d704722	0.058661588
62	0x3dd8d781	0.10587979
63	0xbd9ee597	-0.077586345
64	0xbd1bf042	-0.038070925
65	0xbdff466f	-0.12464606
66	0x3db21413	0.08695235
67	0xbe77dec6	-0.24206075
68	0x3ceb7a02	0.028744701
69	0xbb9201ea	-0.0044557946
70	0x3ba92325	0.0051616603
71	0xbe0efe91	-0.13964297
72	0xba8f6fb4	-0.0010943324
73	0x3de24c08	0.11049658
74	0x3d9d2bd2	0.07674374
75	0xbe1de7c9	-0.1542045
76	0x3c6f537c	0.014607307
77	0x3db36daf	0.08761155
78	0xbd04663b	-0.032324057
79	0xbe73270f	-0.23745368
80	0x3e51467c	0.20437044
81	0x3dbb0f23	0.091337465
82	0xbe11abaa	-0.14225641
83	0x3d3c092f	0.045907196
84	0x3cfa4198	0.030548856
85	0xbdb2905c	-0.087189406
86	0xbd03fba7	-0.032222416
87	0xbcef3777	-0.029201252
88	0x3d09ed9e	0.033673875
89	0xbd59da02	-0.053186424
90	0xbbc4699f	-0.0059940363
91	0x3ccc2bf2	0.024923299
92	0xbdc588dc	-0.096452445
93	0xbd950f94	-0.07278362
94	0xbd0be7c9	-0.034156594
95	0xbcc67575	-0.02422593
96	0xbcfd6315	-0.030931035
97	0xbdd538ca	-0.10411222
98	0x3e4cf671	0.20015885
99	0x3dd2eb93	0.102988385
100	0xbcbacb9b	-0.022802165
101	0x3d872b1a	0.06600018
102	0x3e7bd394	0.2459243
103	0xbca52023	-0.020156926
104	0x3dd02618	0.10163516
105	0x3d78bf8c	0.06072955
106	0xbd57b1f4	-0.052659944
107	0xbdc7f9f3	-0.09764471
108	0xba18340c	-0.00058060954
109	0x3e4f0011	0.20214869
110	0xbcfdab68	-0.030965522
111	0xbd7484d6	-0.059696995
112	0x3e4cd009	0.20001234
113	0x3b5db128	0.0033827517
114	0x3a97de7e	0.0011586694
115	0x3d391646	0.045187257
116	0x3db2d0db	0.08731242
117	0xbdb5056b	-0.08838924
118	0x3b97560d	0.0046184123
119	0xbdc68f3c	-0.096952885
120	0xbdc35a90	-0.09538758
121	0xbd54a626	-0.051916264
122	0x3c8bebde	0.017080244
123	0xbde745f5	-0.1129264
124	0x3ddf41f7	0.10901254
125	0xbd2f81d8	-0.042848438
126	0xbd02af21	-0.031905297
127	0x3b64c9f2	0.0034910408
128	0xbe245a12	-0.16049984
129	0xbe4bd9ad	-0.19907255
130	0xbdfe675a	-0.124220565
131	0xbd7040b8	-0.05865547
132	0xbe5bfdb9	-0.21483506
133	0xbd075618	-0.03304109
134	0x3dae8c88	0.08522898
135	0xbd98c6e6	-0.07459812
136	0x3d371999	0.044702146
137	0xbd3e1dde	-0.046415202
138	0x3dd8e2ad	0.1059011
139	0x3cc5febb	0.024169317
140	0x3cf13c8e	0.02944782
141	0xbb098025	-0.002098092
142	0xbbf20419	-0.0073857424
143	0xbe2ccb9f	-0.1687455
144	0xbd5f920f	-0.05458265
145	0x3c20b590	0.009808913
146	0x3d959c75	0.073052324
147	0x3d34579d	0.044028867
148	0xbdb80e1b	-0.089870654
149	0xbe2857f8	-0.16439807
150	0x3ce7f5cf	0.028315453
151	0x3d92424d	0.07141552
152	0x3d148661	0.036260966
153	0xbe282bce	-0.1642296
154	0xbcf4d898	-0.029888436
155	0x3915ff80	0.00014304928
156	0x3de57d4d	0.1120554
157	0xbe110479	-0.14161862
158	0x3d29c4e7	0.041447546
159	0xbd24c5da	-0.04022775
160	0xbb4b6c94	-0.003104006
161	0xbe271b99	-0.16319121
162	0x3db36e33	0.08761253
163	0xbd3e85f0	-0.04651445
164	0x3bdd3607	0.0067508253
165	0x3d9cae9a	0.0765049
166	0x3dc1828c	0.09448728
167	0xbc0782ca	-0.008270929
168	0xbc37a0b7	-0.011207751
169	0x3de12035	0.10992471
170	0xbd17666c	-0.03696291
171	0xbe0378ea	-0.12839094
172	0x3d8eedd7	0.06978958
173	0x3e4815f8	0.1953963
174	0xbe5ad02a	-0.21368471
175	0xbe26891d	-0.16263242
176	0x3dbc3b29	0.091909714
177	0xbd935033	-0.07193031
178	0xbce46289	-0.027879016
179	0xbcc2a6da	-0.023761202
180	0x3d5982c8	0.05310324
181	0xbde04ed1	-0.10952533
182	0x3e5e52df	0.217113
183	0xbd8b35e0	-0.06797385
184	0xbc227ee7	-0.009917951
185	0xbdadf3ec	-0.0849379
186	0x3e212f39	0.1574067
187	0x3dcb576a	0.09928782
188	0xbe145f6a	-0.14489523
189	0xbdc6d9cb	-0.097095095
190	0xbd7fd7d0	-0.062461674
191	0x3dbaeb5a	0.09126921
192	0xbe516c41	-0.20451452
193	0xbe429451	-0.1900189
194	0xbe84b6b5	-0.25920644
195	0x3d36060c	0.04443936
196	0xbe8e7d48	-0.27829957
197	0xbe50b95a	-0.20383206
198	0xbdbd79fc	-0.09251782
199	0xbe0e73e7	-0.139114
200	0x3b8a64fe	0.004223465
201	0xbe114899	-0.1418785
202	0xbdfff31c	-0.12497541
203	0xbc95d906	-0.018291961
204	0x3e16e998	0.14737546
205	0xbd3a6893	-0.045509886
206	0xbd1e4b55	-0.03864606
207	0x3c4d0b37	0.012514881
208	0x3d533dd4	0.051572636
209	0x3e5779ee	0.21042606
210	0xbe53ba06	-0.20676431
211	0x3d82a11e	0.06378387
212	0xbd026bbb	-0.03184102
213	0x3e66eff9	0.2255248
214	0xbe0ac049	-0.13549913
215	0x3d9edeca	0.077573374
216	0xbe3c757f	-0.18404196
217	0x3ddf5799	0.1090538
218	0xbc6bb536	-0.014386466
219	0x3e0bb4c2	0.13643172
220	0xbe0095a8	-0.1255709
221	0x3d87a59c	0.06623384
222	0x3d828ac8	0.06374127
223	0x3cec4d68	0.028845504
224	0x3e68e4f2	0.22743586
225	0x3e40afe0	0.18817091
226	0xbdce45c5	-0.10071901
227	0x3dc7e39f	0.09760212
228	0x3cd60ee1	0.026130142
229	0x3c59daef	0.013296827
230	0xbdb1f9b9	-0.08690209
231	0x3bfc9db1	0.007709228
232	0x3d534b85	0.051585693
233	0x3d88557a	0.06656928
234	0xbc80f756	-0.015742939
235	0x3daf166f	0.08549201
236	0x3df0d302	0.117589965
237	0xbbb5add6	-0.0055444045
238	0x3bd639bb	0.0065376437
239	0x3e150660	0.14553213
240	0x3d7616ad	0.06008022
241	0x3ddcfe61	0.107907064
242	0xbb3e7c54	-0.0029065805
243	0xbdda367d	-0.10654924
244	0x3e960407	0.29299948
245	0x3db3e0fd	0.087831475
246	0xbd079316	-0.033099256
247	0xbdefac06	-0.11702733
248	0x3e45c7c0	0.1931448
249	0x3e1704c0	0.14747906
250	0x3afb923f	0.0019193365
251	0xbd6e5a40	-0.058191538
252	0xbcc6a2c9	-0.024247544
253	0xbc0d2ac8	-0.008616157
254	0xbd74ea17	-0.059793558
255	0xbd24d9c4	-0.04024674

fc1.bias f4 [50]
0	0x3d96667d	0.07343767
1	0xbc54b692	-0.012982981
2	0xbb08d911	-0.0020881335
3	0xbdc10994	-0.09425655
4	0xbd6c3e5b	-0.057676654
5	0x3e8aa6bd	0.27080336
6	0xbd1aca11	-0.03779036
7	0x3e8c92e5	0.27455822
8	0xbd9e2bf1	-0.07723225
9	0xbc2846fa	-0.010270828
10	0xbd853159	-0.06503553
11	0xbd92b786	-0.071639106
12	0x3da6f03a	0.08151288
13	0x3d4deb15	0.05027302
14	0xbb80a945	-0.0039264285
15	0x3d805239	0.06265683
16	0x3cec5504	0.028849132
17	0x3cfb2063	0.030655092
18	0x3d3071b5	0.04307719
19	0xbdb4b965	-0.08824424
20	0x3d38654b	0.045018476
21	0x3d809239	0.0627789
22	0xbddc1f8a	-0.10748203
23	0x3b751e64	0.0037402147
24	0xbe2708f7	-0.16312014
25	0x3de23875	0.110459246
26	0xbd527a7d	-0.051386345
27	0x3dafeb3d	0.0858979
28	0x3dad17ba	0.08451791
29	0x3d1db2cd	0.038500596
30	0xbde98261	-0.11401821
31	0xbd3b671c	-0.04575263
32	0xbe11478f	-0.14187454
33	0x3d5274a1	0.051380757
34	0x3e691b0c	0.22764224
35	0xbc62ae38	-0.013835482
36	0x3ded844d	0.115975
37	0x3ca3a8fb	0.019978037
38	0x3ca8ae17	0.020590825
39	0xbd52ec85	-0.051495094
40	0xbd679b6d	-0.05654471
41	0x3da032ed	0.07822213
42	0x3d4e31f5	0.05034061
43	0x3d854702	0.06507684
44	0x3cb1d6f7	0.021708949
45	0xbd6dc3f4	-0.058048204
46	0x3d26e5b6	0.040746413
47	0xbdb66b13	-0.089071415
48	0x3d732076	0.05935713
49	0x3d77c1e7	0.060487654

fc2.weight f4 [10, 50]
0	0xbe0b7e58	-0.13622415
1	0x3d769230	0.06019801
2	0x3e8c6347	0.27419493
3	0xbd31452c	-0.043278858
4	0x3e8a902d	0.27063122
5	0xbe7a860d	-0.24465199
6	0xbe45d131	-0.19318081
7	0x3e9c28e7	0.30499956
8	0xbca2e789	-0.019885795
9	0xbd7a9cba	-0.061184622
10	0xbe970019	-0.29492262
11	0xbc293edc	-0.010329928
12	0xbe97772f	-0.29583117
13	0x3e3c2cb1	0.18376423
14	0x3e9f7707	0.31145498
15	0xbe053014	-0.13006622
16	0xbe0cf46a	-0.13765112
17	0xbd233afe	-0.03985118
18	0x3e920d8e	0.28525966
19	0x3d206ba3	0.03916515
20	0xbe3ccc23	-0.18437247
21	0xbef1fdc9	-0.47263935
22	0xbe3b4582	-0.18288234
23	0x3e87ba4e	0.26509327
24	0x3c756bc7	0.014979309
25	0x3ea291e5	0.31751934
26	0xbe2ecbc1	-0.17069913
27	0xbe244a03	-0.16043858
28	0x39cb5030	0.00038778922
29	0x3e972d13	0.29526576
30	0x3e81541b	0.2525948
31	0x3e2acd3c	0.16679853
32	0xbe2539e0	-0.16135359
33	0xbbffd700	-0.0078076124
34	0x3e85c630	0.26127768
35	0xbe3240cf	-0.17407535
36	0xbdc9734e	-0.09836446
37	0xbe1b91a1	-0.15192272
38	0x3eac24c5	0.33621803
39	0xbe0590f0	-0.1304357
40	0xbe70a9cf	-0.23502277
41	0xbbc6fae8	-0.006072391
42	0x3e30679e	0.17227027
43	0x3ec112cb	0.3770965
44	0x3dafc30d	0.08582125
45	0xbe0de197	-0.13855587
46	0xbef060de	-0.46948904
47	0xbb0f6cde	-0.0021884958
48	0xbdc95b04	-0.09831813
49	0x3e273ee4	0.16332585
50	0xbe148bd5	-0.14506467
51	0x3dc02881	0.093827255
52	0xbdb9e275	-0.090763964
53	0x3d79948b	0.060932677
54	0x3e6b7d7e	0.2299709
55	0xbe888ab0	-0.2666831
56	0xbe7e8c31	-0.24858166
57	0xbede7f4b	-0.43456492
58	0x3e635786	0.22201356
59	0x3ed4a737	0.41533825
60	0x3e4e70a9	0.20160164
61	0x3e061651	0.1309445
62	0xbe8b708d	-0.27234307
63	0xbecf28a9	-0.4046071
64	0xbe8110a3	-0.25208005
65	0x3edd7a04	0.43257153
66	0x3e42363a	0.18965998
67	0xbdae8e92	-0.08523287
68	0x3e4979b4	0.19675332
69	0xbdcced41	-0.1000619
70	0xbea2699f	-0.31721207
71	0x3da37bf0	0.079826236
72	0x3e62a357	0.22132622
73	0xbdb0c6f5	-0.08631698
74	0x3d08dd87	0.03341439
75	0x3b033759	0.0020022003
76	0x3e7b9187	0.24567233
77	0x3d692458	0.056919426
78	0x3e26be03	0.16283421
79	0x3e25784d	0.16159172
80	0x3e9014ed	0.28140965
81	0xbe65865f	-0.2241454
82	0x3e773f27	0.24145184
83	0xbde4774b	-0.11155566
84	0xbef03107	-0.46912405
85	0xbdf8cc62	-0.12148358
86	0xbe9bc784	-0.30425656
87	0x3d2c74a9	0.042103443
88	0x3e895ca4	0.26828492
89	0xbe1cb57d	-0.15303607
90	0x3f237ce5	0.6386245
91	0xbed62693	-0.41826305
92	0xbc488999	-0.012239837
93	0xbe9882d5	-0.29787317
94	0xbb0d2132	-0.0021534679
95	0x3e942555	0.28934732
96	0xbe822386	-0.25417727
97	0x3e1ec9cb	0.15506665
98	0xbeece233	-0.46266326
99	0x3cf90662	0.030398551
100	0x3db032fd	0.08603475
101	0xbebfec07	-0.37484762
102	0x3e00e3d0	0.12586904
103	0xbd825890	-0.06364548
104	0xbeaf756b	-0.3426927
105	0x3ed3a297	0.41334984
106	0x3ea191f7	0.31556675
107	0x3e81de03	0.25364694
108	0xbeb50b69	-0.35360268
109	0xbe17043e	-0.14747712
110	0x3ebfce0e	0.37461895
111	0xbe303e44	-0.17211252
112	0x3e6fd9b8	0.23422897
113	0x3d0b6cfd	0.034039486
114	0x3e9e007b	0.30859742
115	0xbe2a0964	-0.16605145
116	0xbd82a9c1	-0.06380034
117	0xbdb4e687	-0.08833032
118	0xbe123e31	-0.14281537
119	0xbdba104d	-0.090851404
120	0xbe7ca9da	-0.24674168
121	0x3d1f2ac8	0.03885916
122	0xbe1bcc92	-0.15214756
123	0x3cf244be	0.029573794
124	0x3cce49e3	0.025181716
125	0x3ea27f26	0.31737632
126	0xbea8a2f1	-0.32936814
127	0xbe060659	-0.13088359
128	0xbd563f37	-0.05230638
129	0x3e978690	0.2959485
130	0x3e88e060	0.26733685
131	0xbe8759f2	-0.2643581
132	0x3e8c349b	0.27383885
133	0x3d9ffb22	0.07811572
134	0x3ea3809f	0.31934068
135	0xbe39439f	-0.18092202
136	0xbe5bdda7	-0.21471272
137	0x3ef32e1e	0.47496122
138	0xbe9abdf4	-0.30223048
139	0x3e74c098	0.23901594
140	0x3c23b3e7	0.0099916225
141	0x3e470ce0	0.19438505
142	0xbd9e73cd	-0.07736931
143	0xbdd8e4f9	-0.10590548
144	0x3de3d7da	0.11125155
145	0x3d92d6bd	0.07169864
146	0x3c436f84	0.011928443
147	0xbd87891f	-0.06617951
148	0xbe3a7baf	-0.18211244
149	0x3bf7d742	0.0075635025
150	0x3ec9c3a0	0.39407063
151	0x3e9656b2	0.29363018
152	0xbeae1d42	-0.34006697
153	0x3db6cde8	0.08925992
154	0x3e852b88	0.26009774
155	0xbe61d0f8	-0.22052372
156	0x3eb42cb5	0.3519036
157	0xbe594082	-0.21216014
158	0x3e2b7115	0.16742356
159	0xbe2b0eb5	-0.16704829
160	0xbe81799f	-0.25288102
161	0x3eab9f8c	0.33520162
162	0xbe7dd0d3	-0.24786691
163	0x3e9931ec	0.299209
164	0x3eaec7fe	0.34136957
165	0x3d53c2d7	0.051699486
166	0x3eb409d5	0.3516375
167	0x3dd82d59	0.105555244
168	0x3e573466	0.21016082
169	0xbdf0da49	-0.117603846
170	0x3e7b8b67	0.24564897
171	0x3e7f84c2	0.24952987
172	0x3e66950d	0.22517796
173	0xbea6e81a	-0.32598954
174	0x3ce3f20c	0.027825378
175	0xbe6bd3f3	-0.23030071
176	0x3cd219de	0.0256471
177	0xbcaf7dcf	-0.021422295
178	0x3ddfc0af	0.10925423
179	0x3ead0523	0.33792982
180	0xbec1de4e	-0.37864918
181	0xbe08f252	-0.13373688
182	0x3df1c0f4	0.11804381
183	0xbdb3792b	-0.08763345
184	0x3e023c82	0.12718394
185	0xbe766757	-0.24062859
186	0xbeb01ccc	-0.3439697
187	0xbe170cd0	-0.14750981
188	0x3e92a064	0.28637993
189	0xbe24e09d	-0.16101308
190	0xbe8c0cf1	-0.27353624
191	0xbe7aa88d	-0.2447836
192	0xbdf0a2a8	-0.11749774
193	0xbe05abf2	-0.13053873
194	0xbd996d17	-0.0749151
195	0xbdf95426	-0.12174253
196	0xbed20435	-0.41018835
197	0x3dda1197	0.10647886
198	0x3dd7fe6c	0.10546574
199	0xbdfe6c23	-0.12422969
200	0x3ddd2c52	0.10799469
201	0x3e4e87eb	0.20169036
202	0x3ea1f318	0.31630778
203	0xbdcc2abb	-0.09969088
204	0x3e0e95ce	0.13924333
205	0x3edc3b40	0.43013954
206	0x3ec14fcb	0.3775619
207	0xbe7d84ea	-0.24757734
208	0x3e579991	0.21054675
209	0xbd9a8937	-0.07545703
210	0x3e9b2ba0	0.3030672
211	0x3d4d55cc	0.05013065
212	0x3d8d1f35	0.06890718
213	0x3ca3f62e	0.020014849
214	0x3ea18d10	0.31552935
215	0xbe23f239	-0.1601037
216	0xbe871e14	-0.26390135
217	0xbd263b06	-0.040583633
218	0xbe55711e	-0.20843932
219	0xbd1da384	-0.03848602
220	0xbec7cbcc	-0.39022672
221	0x3e8ddeac	0.27708948
222	0xbe7aba9b	-0.24485247
223	0x3c3bc804	0.011461262
224	0xbbc63294	-0.00604851
225	0xbea99bc9	-0.33126667
226	0x3e55e85a	0.20889416
227	0xbe0eb1a7	-0.13934956
228	0xbcc55f84	-0.024093397
229	0xbe2be855	-0.16787846
230	0x3e439cf0	0.19102836
231	0x3e14babc	0.14524359
232	0x3e928abf	0.2862148
233	0xbdd9a81e	-0.10627769
234	0x3e9664a5	0.2937366
235	0xbe5234f7	-0.20528017
236	0xbe8d1736	-0.2755677
237	0xbdb8e5dc	-0.09028217
238	0xbec5db09	-0.38643673
239	0x3e82fa4f	0.25581595
240	0xbe86c40c	-0.26321447
241	0xbcee1ca8	-0.029066399
242	0xbc429433	-0.011876154
243	0xbe2a091f	-0.16605042
244	0xbd507e08	-0.050901443
245	0x3ec65e78	0.3874395
246	0x3e8bab64	0.27279198
247	0xbcdbd586	-0.026835214
248	0xbe92dfa2	-0.28686243
249	0x3db43c2f	0.088005416
250	0xbe939518	-0.28824687
251	0xbd0db32d	-0.034594703
252	0x3e07d6cd	0.13265534
253	0xbdaf7686	-0.085675284
254	0xbdfb3097	-0.12265127
255	0xbdf44518	-0.11927241

fc2.bias f4 [10]
0	0x3dccb3d5	0.09995238
1	0xbee47d4d	-0.44626847
2	0x3eee8428	0.46585202
3	0xbd31f473	-0.043446016
4	0xbdc7f2be	-0.09763096
5	0xbea717ce	-0.3263535
6	0x3f1723ed	0.59039193
7	0xbd4322b6	-0.047640525
8	0x3e8bae5e	0.2728147
9	0xbe7eb175	-0.24872382
