checkpoints/archive/MNIST with FC2/300 choose 15/fastest ones/last_model.pth.tar (torch, 123662 bytes, 6 tensors)

fc1.weight f4 [32, 784]
2.0453475 -0.37147707 1.4087082 0.9391015 -1.0817214 0.51651055 1.7702523 -0.50619453
0.16347423 0.7378814 -1.629197 -0.6541296 1.0781426 1.3417354 0.5520582 0.67429066
-1.5153127 1.0809937 -0.8002676 1.3980186 -0.28400326 0.61159825 1.2834216 -0.7171756
-1.9278061 0.6247847 0.029610798 -0.11199759 -1.6982768 -1.3404162 -0.8775258 0.8392138
0.9700292 -1.199252 0.17876041 0.15867537 1.1240941 -0.4863452 0.14445457 0.62648046
0.035826966 -1.5272093 -0.63517666 -1.0250403 0.3698728 0.12672845 0.064020544 0.14825699
-0.5252679 1.0752904 0.6958809 0.2736356 -0.8256246 0.031736895 0.07749158 0.9269735
0.741265 0.48367214 -1.7955093 -0.85537267 -0.4256667 1.0423789 0.83733284 0.24155715
0.34363997 -0.8341264 0.16742545 -0.48415098 0.0036225915 -0.012347683 0.8524506 -1.5766146
1.5137786 -0.09978645 -0.06481573 0.4561622 -0.48671472 0.7648271 0.17710264 0.024832368
0.5131968 1.7099427 0.79155564 0.39056003 -0.15010741 0.21183863 -0.41764814 -0.42776558
-0.09656727 1.4634752 -0.26963794 0.69886875 -0.39332345 1.0641334 -0.5646934 -1.2576342
0.105754554 -0.17130649 -0.54708326 -1.6493711 -0.12212341 -1.150817 0.459238 -0.20168267
0.377023 -0.6442833 0.32609227 0.17864656 -1.7420605 -0.34433514 -0.08579984 0.34780914
-0.71453154 0.4251347 -0.9927034 0.18817207 0.08199912 -1.3587172 0.60686517 -1.6630718
0.7780322 -0.44728756 0.21406713 -1.075597 1.2202487 0.13977179 0.3752805 0.9641352
-0.3591668 0.64986706 -1.590409 -1.5869788 -0.5174693 -0.671245 -0.69278604 -0.048959546
0.92808694 -0.6198747 -1.2323798 1.5426803 -1.8125159 1.3201957 1.1969783 0.080666125
1.1950302 -1.2410899 1.0056324 0.6307435 0.14213127 0.77149236 -0.7359434 -1.8516026
0.70977044 0.45918787 -1.1223341 -0.15181702 -0.33094686 0.1849756 -0.3006907 -0.026152581
-0.21793872 -0.6292662 -0.5723453 -0.10232234 -2.0382617 0.18613836 -1.7673516 1.0738521
0.28745875 2.523248 0.22089389 0.036354948 -1.5094105 -0.2764933 1.4572027 -0.052696884
0.2948455 0.7634947 1.1886826 0.7722026 1.5007102 -0.07813785 2.606661 -1.4907129
-0.51713926 -0.9078214 -1.207008 -0.58238006 0.51045 0.21570817 0.84736013 0.8848773
0.47806317 1.2650514 1.5672667 0.07202165 0.20174801 0.19401324 -0.6863837 0.56911534
0.2764406 1.5204011 1.8979311 -0.5050185 0.4636927 -0.34167764 -0.9390498 1.3237453
-0.6809806 -0.11661291 0.10024868 -1.6695547 0.08327842 -0.6289203 -0.22216973 -0.007855445
-0.17144656 -1.0217183 0.8440432 -0.8653042 -0.5846257 -0.9013505 -0.6918666 -0.43011105
-0.29161274 -0.5814185 -1.469548 0.20757794 0.6608377 0.2938611 0.7418747 0.385642
-0.15362602 0.44519168 0.46321177 -0.16940728 0.6139809 -1.7506992 0.12432733 -1.5711229
-0.3749233 0.8981904 0.31260014 -0.015053321 0.12639813 -0.82362616 0.089757025 0.6659086
-0.6046097 -1.0443037 1.1251049 0.068299234 1.1081529 0.6447257 -0.9183583 0.86340445
00000000: f9e6 0240 3e32 bebe 8d50 b43f f568 703f
00000010: d975 8abf 093a 043f a197 e23f f795 01bf
00000020: ca65 273e cce5 3c3f 8789 d0bf 0a75 27bf
00000030: 9400 8a3f fcbd ab3f b053 0d3f 509e 2c3f
00000040: c4f5 c1bf 005e 8a3f 56de 4cbf 46f2 b23f
00000050: e068 91be b491 1c3f 2947 a43f d298 37bf
00000060: 5ac2 f6bf e4f1 1f3f 5892 f23c fe5e e5bd
00000070: 2261 d9bf c292 abbf 88a5 60bf b7d6 563f
00000080: d553 783f 1781 99bf f80c 373e cc7b 223e
00000090: 51e2 8f3f 3d02 f9be e6eb 133e 0661 203f
000000a0: 4cbf 123d 987b c3bf f09a 22bf 8534 83bf
000000b0: f85f bd3e 1ac5 013e 341d 833d aed0 173e
000000c0: f577 06bf 1ea3 893f 4025 323f f719 8c3e
000000d0: 225c 53bf 8cfe 013d e8b3 9e3d 234e 6d3f
000000e0: 8bc3 3d3f e0a3 f73e 40d3 e5bf b4f9 5abf
000000f0: fcf0 d9be ac6c 853f 725b 563f c25a 773e
00000100: 94f1 af3e 4f89 55bf 9471 2b3e a3e2 f7be
00000110: 0069 6d3b f04d 4abc 343a 5a3f 82ce c9bf
00000120: 7fc3 c13f d75c ccbd 1cbe 84bd 188e e93e
00000130: ac32 f9be b5cb 433f 655a 353e 406d cb3c
00000140: de60 033f 67df da3f 64a3 4a3f 7cf7 c73e
00000150: c2b5 19be 3aec 583e fad5 d5be 1704 dbbe
00000160: 10c5 c5bd 2853 bb3f fc0d 8abe 10e9 323f
00000170: b161 c9be 8635 883f bf8f 10bf 28fa a0bf
00000180: d895 d83d f86a 2fbe a60d 0cbf 981e d3bf
00000190: d71b fabd f94d 93bf 3e21 eb3e e785 4ebe
000001a0: 2909 c13e c0ef 24bf 91f5 a63e 20ef 363e
000001b0: d7fb debf b24c b0be d4b7 afbd 0a14 b23e
000001c0: 8aeb 36bf 41ab d93e cf21 7ebf 2eb0 403e
000001d0: 28ef a73d 72ea adbf 845b 1b3f 89df d4bf
000001e0: 1e2d 473f e002 e5be 6a34 5b3e 2aad 89bf
000001f0: 1c31 9c3f 5620 0f3e c424 c03e 91d1 763f
00000200: b6e4 b7be b05d 263f 8692 cbbf 1f22 cbbf
00000210: de78 04bf b6d6 2bbf 6d5a 31bf ce89 48bd
00000220: 1b97 6d3f 1cb0 1ebf 9fbe 9dbf 8c76 c53f
00000230: 8500 e8bf 2cfc a83f 9636 993f 4834 a53d
00000240: c0f6 983f 09dc 9ebf 90b8 803f 6878 213f
00000250: dc8a 113e 8680 453f c966 3cbf 5001 edbf
00000260: 84b3 353f ac1a eb3e a5a8 8fbf ec75 1bbe
00000270: de71 a9be 3e6a 3d3e 22f4 99be f03d d6bc
00000280: 542b 5fbe 9717 21bf 3985 12bf 608e d1bd
00000290: e172 02c0 0e9b 3e3e 9438 e2bf fc73 893f
000002a0: cb2d 933e e57c 2140 0232 623e ede8 143d
000002b0: 5d34 c1bf 8890 8dbe 9e85 ba3f b0d8 57bd
000002c0: fdf5 963e 6374 433f c026 983f 12af 453f
000002d0: 4617 c03f bd06 a0bd 89d3 2640 aecf bebf
000002e0: 3d63 04bf fc66 68bf 3d7f 9abf dc16 15bf
000002f0: daac 023f 9ae2 5c3e 98ec 583f 5287 623f
00000300: b2c4 f43e 34ed a13f 329c c83f 1680 933d
00000310: 0897 4e3e 68ab 463e d8b6 2fbf 8bb1 113f
00000320: 9f89 8d3e 819c c23f 68ef f23f e448 01bf
00000330: 2169 ed3e 5ff0 aebe 9165 70bf 7c70 a93f
00000340: bf54 2ebf c0d2 eebd 2e4f cd3d f8b3 d5bf
00000350: e08d aa3d ec00 21bf 7680 63be 20b4 00bc
00000360: b08f 2fbe aac7 82bf 3713 583f 9384 5dbf
00000370: 08aa 15bf e8be 66bf 2b1e 31bf 8437 dcbe
00000380: 444e 95be d8d7 14bf 261a bcbf 508f 543e
00000390: a92c 293f f674 963e 80eb 3d3f de72 c53e
000003a0: 2450 1dbe 2af0 e33e 182a ed3e 1a79 2dbe
000003b0: da2d 1d3f e916 e0bf 549f fe3d 8e1a c9bf
000003c0: f2f5 bfbe ceef 653f 200d a03e 34a2 76bc
000003d0: 836e 013e 2ad9 52bf 88d2 b73d fc78 2a3f
000003e0: b4c7 1abf beab 85bf 7003 903f 78e0 8b3d
000003f0: f4d7 8d3f be0c 253f 8819 6bbf 1308 5d3f

fc1.bias f4 [32]
-0.50253886 0.32394555 -0.68916655 -1.1143948 -0.29554617 -0.9129195 -0.2082363 0.5654026
1.2759573 -1.2447771 -0.9106456 2.0989745 -0.4848235 -0.24723479 -0.40679473 1.4544472
0.8965006 -0.38503832 -0.69295895 0.5374048 -1.3581381 -0.9326143 0.39561576 -0.54477006
0.34106597 -0.92935574 -0.5337902 0.018878415 -1.066029 0.40878582 -0.94674796 -0.31318682
00000000: 63a6 00bf 31dc a53e 386d 30bf 7da4 8ebf
00000010: d451 97be 18b5 69bf e63b 55be 3abe 103f
00000020: 9252 a33f db54 9fbf 1220 69bf 9955 0640
00000030: c93a f8be 1e2b 7dbe 6647 d0be 532b ba3f
00000040: 1081 653f be23 c5be c265 31bf 5c93 093f
00000050: 78d7 adbf d0bf 6ebf 268e ca3e 0d76 0bbf
00000060: 33a0 ae3e 42ea 6dbf 79a6 08bf e8a6 9a3c
00000070: a373 88bf 604c d13e 135e 72bf 065a a0be

fc2.weight f4 [16, 32]
0.9343539 -0.053494573 -0.88089436 0.22315376 0.68023646 0.56379604 -1.2374182 0.58151144
0.15228578 -0.15049754 1.2321543 -0.4907647 0.856052 -0.74008274 -1.2503529 0.55194104
-0.2596103 0.49836582 0.7710736 -2.0370033 -1.8685161 -0.47867012 -0.1218766 -0.28171533
0.47467515 -1.0478128 -0.7194829 -0.42114294 0.99346894 0.6429411 -0.94542134 0.2501145
-1.5586832 0.49249753 0.47196528 2.6228135 -0.74438536 -0.0022298768 -0.2960914 1.0636952
0.6936333 0.14792773 1.0312197 0.11643848 -1.5452117 1.5222156 1.0274783 -0.16278347
1.4290648 -1.7067862 -0.8805568 -1.3866258 -0.08966157 0.8083077 0.3765432 0.8328995
-0.15053877 -0.541247 -0.18537554 0.928996 0.65911996 -0.7096611 -0.23456296 -1.409048
0.286143 -2.0394638 -0.8998116 0.64754647 0.0048540235 -0.7793647 -0.030529961 0.93630445
-0.38510227 -1.1385785 -0.49948454 -1.6726109 0.85679483 -0.43282902 -0.42435881 1.204098
-0.39838192 1.4287235 -0.5573123 -0.014285356 -0.58925825 1.2515532 0.19634521 0.6357078
-1.4773023 -1.36676 1.5229573 0.7258369 -0.7038416 1.1907092 -0.7868576 0.079283625
0.2853397 -1.439181 0.8146756 -0.50120986 -0.009951733 0.9397737 1.6006008 1.4026345
-1.3295599 0.0064608753 0.532621 0.68428046 -0.2869135 0.9165379 -0.67479366 0.49799082
1.9251913 0.09429917 1.3412206 0.88692176 -1.3689235 0.6517507 1.2957265 -1.8112136
-0.10335255 0.046528935 1.2130306 0.10487339 0.25297445 0.3211282 -1.2675366 1.1091933
1.3079578 0.84665406 0.34903863 -0.913784 0.39309937 -0.58366644 0.7576163 -1.2771747
-1.0226668 0.66898966 -1.5450704 -0.6604869 -0.8586622 0.1734744 0.9399247 -0.7886823
-0.47022423 0.1381221 -0.48215443 -0.10344967 -1.0844035 0.49107856 0.78618276 -0.43933666
0.31303185 0.8059479 1.5991336 -2.3906996 -0.4666161 -1.4700243 -1.3173589 -0.6602413
-1.0663176 0.4787072 -0.07106994 1.2860522 -0.6656939 0.5747418 1.2044382 -1.9725577
-0.9002875 -0.56748664 -1.166594 -0.3796049 -0.27588058 0.14171937 0.8896253 0.9974151
0.7950359 -0.14928219 -0.0023416579 1.2662901 -0.623976 0.5016053 -1.3847055 1.4364382
0.37409765 -1.1828526 1.0318888 -0.79532903 0.2554186 0.20961303 0.6565933 -0.43885112
-0.61457705 -0.1536631 -0.32612255 1.9519219 -0.7202261 0.46770257 0.0030157417 0.652144
-0.49175143 1.0777519 -0.44594306 0.6273668 0.84153306 1.8764157 -1.3851482 -0.36752248
-0.2038832 -0.65880084 -0.1256319 1.0528587 -1.4856591 0.5402347 -1.1058574 0.29306558
1.6224482 0.5270037 -0.12440677 -0.43680128 -0.077930346 2.1592498 -0.2973555 -0.093266085
-1.2320595 -0.6025418 -0.033504207 0.71499735 1.5034351 0.09339997 0.7465257 1.0763341
0.4991662 0.11402576 -1.1647859 0.09072626 0.15836033 -0.37987387 0.18445598 -0.56800056
-0.31709924 -1.2416004 -0.23234773 -0.83921045 -2.9917152 0.2981011 -0.5754566 -0.18477154
-1.4653442 1.8091393 -1.6647432 1.1108575 0.7877028 -0.29563272 0.38422984 -0.45886815
00000000: d131 6f3f 201d 5bbd 4b82 61bf 6b82 643e
00000010: fa23 2e3f f054 103f b863 9ebf efdd 143f
00000020: cef0 1b3e 071c 1abe 3bb7 9d3f 8345 fbbe
00000030: 3926 5b3f 1076 3dbf 900b a0bf 024c 0d3f
00000040: a4eb 84be ce29 ff3e 1465 453f 435e 02c0
00000050: 892b efbf 4014 f5be 709a f9bd fe3c 90be
00000060: 9f08 f33e bb1e 86bf 0830 38bf 0ca0 d7be
00000070: fb53 7e3f ca97 243f 2207 72bf 020f 803e
00000080: ee82 c7bf a328 fc3e 6fa5 f13e 2ddc 2740
00000090: 0a90 3ebf 2023 12bb 4b99 97be 2a27 883f
000000a0: f491 313f 5e7a 173e 02ff 833f 4c77 ee3d
000000b0: 7fc9 c5bf f6d7 c23f 6984 833f b6b0 26be
000000c0: 98eb b63f f877 dabf 2c6c 61bf f47c b1bf
000000d0: 7ca0 b7bd 41ed 4e3f 45ca c03e e738 553f
000000e0: d626 1abe 2a8f 0abf 16d3 3dbe afd2 6d3f
000000f0: 16bc 283f 5aac 35bf 4631 70be af5b b4bf
00000100: 5681 923e 9386 02c0 0e5a 66bf 9bc5 253f
00000110: 800e 9f3b 7284 47bf f819 fabc a6b1 6f3f
00000120: 202c c5be f1bc 91bf 70bc ffbe 1d18 d6bf
00000130: e856 5b3f c49b ddbe 8f45 d9be e21f 9a3f
00000140: b7f8 cbbe 69e0 b63f 05ac 0ebf 200d 6abc
00000150: a1d9 16bf e532 a03f b80e 493e bfbd 223f
00000160: 3e18 bdbf fef1 aebf 44f0 c23f 72d0 393f
00000170: f72e 34bf 2969 983f 806f 49bf 745f a23d
00000180: 0c18 923e 1537 b8bf 958e 503f 4a4f 00bf
00000190: 980c 23bc 0295 703f 7de0 cc3f 8789 b33f
000001a0: 052f aabf c0b5 d33b da59 083f 012d 2f3f
000001b0: 54e6 92be 3aa2 6a3f 47bf 2cbf a7f8 fe3e
000001c0: ab6c f63f ec1f c13d 1ead ab3f 4e0d 633f
000001d0: e338 afbf 22d9 263f 5eda a53f d9d5 e7bf
000001e0: 80aa d3bd 2095 3e3d 9644 9b3f dcc7 d63d
000001f0: de85 813e ea6a a43e a43e a2bf 0cfa 8d3f
00000200: 296b a73f 52be 583f 31b5 b23e c0ed 69bf
00000210: 5244 c93e 2a6b 15bf 24f3 413f 767a a3bf
00000220: bfe6 82bf e842 2b3f dec4 c5bf ab15 29bf
00000230: 49d1 5bbf 46a3 313e e89e 703f 15e7 49bf
00000240: 3bc1 f0be e16f 0d3e f2dc f6be 6cdd d3bd
00000250: bccd 8abf a66e fb3e 4643 493f bcf0 e0be
00000260: b645 a03e 9a52 4e3f 69b0 cc3f 3901 19c0
00000270: 4ee8 eebe c229 bcbf 379f a8bf 9305 29bf
00000280: 187d 88bf 1c19 f53e 1e8d 91bd 5c9d a43f
00000290: ea6a 2abf 4722 133f 082b 9a3f c57c fcbf
000002a0: 3e79 66bf ce46 11bf f452 95bf 935b c2be
000002b0: 3840 8dbe e21e 113e 7cbe 633f 9956 7f3f
000002c0: 7987 4b3f 6edd 18be 8076 19bb cb15 a23f
000002d0: e4bc 1fbf 3469 003f 083e b1bf 35dd b73f
000002e0: ba89 bf3e b767 97bf ef14 843f af9a 4bbf
000002f0: 3ac6 823e cca4 563e 8016 283f 18b1 e0be
00000300: ec54 1dbf dc59 1dbe 89f9 a6be 94d8 f93f
00000310: bd60 38bf b676 ef3e c0a3 453b e9f2 263f
00000320: d8c6 fbbe c6f3 893f a652 e4be 1c9b 203f
00000330: b66e 573f 642e f03f 894c b1bf e82b bcbe
00000340: c2c6 50be 2ca7 28bf a6a5 00be 13c4 863f
00000350: 142a bebf d24c 0a3f bc8c 8dbf b10c 963e
00000360: 62ac cf3f b7e9 063f fac8 febd 6ba4 dfbe
00000370: f299 9fbd 2631 0a40 fb3e 98be 4a02 bfbd
00000380: 20b4 9dbf 2e40 1abf b53b 09bd 110a 373f
00000390: 9070 c03f 7c48 bf3d 4f1c 3f3f 51c5 893f
000003a0: b692 ff3e 5686 e93d b417 95bf b0ce b93d
000003b0: 3629 223e d47e c2be 07e2 3c3e 7c68 11bf
000003c0: d55a a2be c3ec 9ebf 90ec 6dbe 7fd6 56bf
000003d0: 4378 3fc0 b5a0 983e 2051 13bf c034 3dbe
000003e0: 6690 bbbf e091 e73f 4e16 d5bf 9430 8e3f
000003f0: e4a6 493f 2c5d 97be c6b9 c43e c4f0 eabe

fc2.bias f4 [16]
0.09947881 0.551523 1.41231 -0.22449502 -0.2926272 0.02644448 -1.8889753 -0.2430697
-0.7362931 1.1485633 -0.44213107 0.29956037 -0.3735378 -1.1925292 1.2832437 0.3576009
00000000: 8cbb cb3d 9c30 0d3f 93c6 b43f 06e2 65be
00000010: 3bd3 95be 18a2 d83c f1c9 f1bf 43e7 78be
00000020: b47d 3cbf 1f04 933f 015f e2be fa5f 993e
00000030: 5940 bfbe cca4 98bf 5441 a43f 7717 b73e

fc3.weight f4 [10, 16]
-0.07229047 0.65851086 -1.5328734 1.4118093 0.32062757 -0.2654587 0.050227106 0.68793803
0.4372028 0.33531195 -0.15629113 -0.6738488 -0.9567413 -0.5004114 0.4471346 -1.5745114
0.0060910136 -1.2253574 -1.5895158 0.36798668 -0.7177541 -1.0771993 0.83284885 -1.1920917
-0.8221695 0.19003764 -1.0918051 -0.50591433 -0.9208101 0.6565436 -0.25350672 0.76386523
-0.24598967 0.053454347 -0.47132516 -0.5076333 -0.6790401 0.42839742 0.55227053 -0.6611489
-0.6573389 0.21042126 -0.41827154 0.4724132 -0.78446054 -0.01606283 -1.0108685 0.50460386
-0.29583895 0.24168448 -0.7427075 0.08530605 0.6446273 -0.7017854 -0.2046791 0.46328008
0.44953147 -0.46061283 1.3166294 0.8843241 -0.48269713 -0.5253992 1.4316924 -0.27555516
-0.028091535 -1.780354 -1.0926217 -1.9368775 -0.9784664 -0.17304088 0.099501014 1.4324882
-0.00134404 -1.8492761 0.82234824 0.098020166 0.35853055 0.3484903 0.3620783 -0.99811345
-0.4312411 -0.08194663 0.13854754 1.2169628 1.0379366 -0.7483429 2.2080033 0.13478377
-0.6846583 1.4481485 -1.0258247 -3.1045632 0.14949301 -0.7897495 0.5464514 0.32272568
0.3575365 1.0345917 -0.5268308 -0.65689063 -0.15676638 -0.35900357 1.9064558 -1.1393741
1.9814074 -0.09363963 -0.87926865 0.14184922 0.62267417 -1.248654 0.15418988 -0.6890533
-0.7543369 1.7912128 1.0466615 0.7210691 -0.30514234 -1.1231831 -1.8882185 -0.2005572
-0.8298769 0.40677193 0.27031702 -0.7413733 -0.71365476 -0.8941516 -1.353936 -0.77502704
1.2348512 1.0709393 -1.1952151 0.35105896 -0.66130114 -0.6346437 -0.8904009 0.42095548
1.3482867 1.084292 -0.17789802 0.17254563 0.34261298 0.5229015 0.74061155 0.020651639
0.32696038 0.3994163 -0.83979464 0.016181469 -0.48070085 0.12455319 1.16287 -1.034904
-0.41478363 -0.9047091 -0.43773246 0.108557925 -1.9235286 -0.75880384 0.6762334 -0.048957527
00000000: 070d 94bd 2b94 283f 3235 c4bf 2bb6 b43f
00000010: 4c29 a43e 34ea 87be f0ba 4d3d b51c 303f
00000020: 0cd9 df3e 02ae ab3e c80a 20be 5b81 2cbf
00000030: ffec 74bf f61a 00bf d4ee e43e 9789 c9bf
00000040: 2097 c73b 83d8 9cbf 4175 cbbf c068 bc3e
00000050: bcbe 37bf abe1 89bf 9535 553f 7696 98bf
00000060: b379 52bf 3a99 423e 45c0 8bbf 9a83 01bf
00000070: 36ba 6bbf 3e13 283f a2cb 81be ac8c 433f
00000080: b7e4 7bbe f2f2 5a3d 8851 f1be 42f4 01bf
00000090: 92d5 2dbf e856 db3e 9a61 0d3f 0e41 29bf
000000a0: 5d47 28bf ac78 573e b027 d6be 25e0 f13e
000000b0: 68d2 48bf 3296 83bc 2464 81bf b82d 013f
000000c0: 3478 97be 237c 773e 1422 3ebf f0b4 ae3d
000000d0: 4b06 253f 35a8 33bf 6697 51be 0c33 ed3e
000000e0: fd28 e63e 72d5 ebbe 5087 a83f 1063 623f
000000f0: 1424 f7be 9080 06bf b241 b73f 9115 8dbe
00000100: 3820 e6bc a4e2 e3bf 07db 8bbf 9aeb f7bf
00000110: c67c 7abf a131 31be 30c7 cb3d c65b b73f
00000120: 802a b0ba 14b5 ecbf 6a85 523f ccbe c83d
00000130: 5191 b73e 526d b23e 5462 b93e 5d84 7fbf
00000140: a2cb dcbe a2d3 a7bd 68df 0d3e 70c5 9b3f
00000150: 1bdb 843f 6693 3fbf ed4f 0d40 c204 0a3e
00000160: c445 2fbf ee5c b93f 394e 83bf 2ab1 46c0
00000170: b214 193e 062d 4abf 3de4 0b3f 4d3c a53e
00000180: 060f b73e 806d 843f 62de 06bf fc29 28bf
00000190: 5e87 20be 51cf b7be be06 f43f 03d7 91bf
000001a0: c29e fd3f 22c6 bfbd c017 61bf ec40 113e
000001b0: 9367 1f3f e5d3 9fbf f4e3 1d3e cc65 30bf
000001c0: 391c 41bf 7646 e53f 01f9 853f fc97 383f
000001d0: 9e3b 9cbe 77c4 8fbf 25b1 f1bf de5e 4dbe
000001e0: d072 54bf 6944 d03e fe66 8a3e a4ca 3dbf
000001f0: 14b2 36bf 1fe7 64bf c64d adbf 2c68 46bf
00000200: 9b0f 9e3f 8a14 893f cffc 98bf 00be b33e
00000210: 084b 29bf 0278 22bf 50f1 63bf 7a87 d73e
00000220: a994 ac3f 15ca 8a3f e62a 36be cdaf 303e
00000230: f86a af3e dfdc 053f b898 3d3f a02d a93c
00000240: 5a67 a73e 4b80 cc3e c8fc 56bf 008f 843c
00000250: 6c1e f6be be15 ff3d edd8 943f bc77 84bf
00000260: 855e d4be 049b 67bf 781e e0be 9e53 de3d
00000270: 2f36 f6bf f840 42bf a21d 2d3f b087 48bd

fc3.bias f4 [10]
-2.3977463 0.6711375 0.44406492 -0.46326786 0.295993 -0.4469267 -1.8813226 -0.48802197
0.7645826 1.373772
00000000: ad74 19c0 abcf 2b3f 7a5c e33e 7231 edbe
00000010: 658c 973e 94d3 e4be 2ecf f0bf 04de f9be
00000020: afbb 433f c3d7 af3f
