checkpoints/fastest ones/cnn2/02-02-2024_18-02-59/last_model.pth.tar (torch, 33146 bytes, 16 tensors)

conv1.weight f4 [6, 1, 5, 5]
-0.08958519 -0.15772565 -0.053560194 -0.08449694 -0.046053063 0.098349996 -0.14785744 0.12018721
0.06562556 -0.06728791 -0.01844317 -0.10615843 -0.06384766 0.13776645 0.1371534 0.18384302
0.050598733 -0.19285919 -0.055414867 0.14000063 -0.16324805 -0.057350405 0.046713192 -0.15514569
-0.1596022 -0.013907594 0.08285042 -0.120286785 -0.14164075 -0.11093867 -0.08539093 0.10165333
0.0698252 0.1921176 0.022403978 0.059668407 0.0218878 0.034593824 0.012950494 0.18734297
0.0051985015 0.050319195 -0.014903668 -0.043467287 0.05067857 -0.14521718 0.16579385 0.16586645
0.1341335 -0.055897843 -0.008100085 0.17591299 0.006086195 0.18042547 0.15456067 0.0791224
0.041522242 0.12967992 0.17314412 0.17143747 -0.10401623 0.013580766 -0.03044764 0.17167498
-0.024771357 -0.1216701 -0.18360595 -0.14353542 0.03717568 -0.024432011 0.072078824 -0.14919715
0.18183497 -0.05163346 0.019321669 0.056666654 0.18160996 0.03032277 -0.07506123 0.0028383217
0.091880456 -0.17531954 0.10219238 -0.06622207 0.09351658 0.13993791 0.13443312 -0.005055706
-0.038512565 0.09342751 -0.12944973 -0.17600259 0.047047727 -0.10326622 0.05252426 -0.1129142
0.11342258 0.111939035 -0.182933 0.0071319793 -0.109447114 -0.17929676 0.1504366 -0.19971733
-0.19952637 -0.03280488 -0.11312902 0.051784545 0.136868 0.060649544 -0.1794798 0.16915539
-0.029495234 -0.030015334 0.06364184 -0.01046171 0.19141753 -0.05385359 -0.023087058 0.119087026
-0.16362716 -0.13275711 -0.17881808 -0.12203152 0.1534163 0.067313634 0.02685792 -0.10895414
0.15320835 -0.17642523 -0.10474421 -0.07935644 -0.11453295 -0.035268623 -0.13267165 -0.13142806
-0.013659047 0.13151619 0.028026434 -0.060906257 -0.10243935 0.03401717 -0.18723872 0.12437269
-0.06797161 0.15939327 0.12418662 0.1712196 0.026742067 0.13669676
00000000: 7178 b7bd d582 21be ef61 5bbd bb0c adbd
00000010: 23a2 3cbd b96b c93d f167 17be b624 f63d
00000020: b266 863d 3ece 89bd 2116 97bc 9769 d9bd
00000030: 90c2 82bd a612 0d3e f171 0c3e 5841 3c3e
00000040: 9e40 4f3d e17c 45be b3fa 62bd 535c 0f3e
00000050: 7f2a 27be 42e8 6abd 5556 3f3d 83de 1ebe
00000060: c26e 23be addc 63bc 7bad a93d eb58 f6bd
00000070: 460a 11be d033 e3bd 71e1 aebd 9f2f d03d
00000080: 8400 8f3d 7aba 443e 8c88 b73c dc66 743d
00000090: 0b4e b33c 41b2 0d3d 4f2e 543c d6d6 3f3e
000000a0: 3158 aa3b 801b 4e3d 842e 74bc c10a 32bd
000000b0: 5594 4f3d d0b3 14be ddc5 293e e5d8 293e
000000c0: 4b5a 093e 23f5 64bd 38b6 04bc 8922 343e
000000d0: b46e c73b 74c1 383e 2745 1e3e ed0a a23d
000000e0: 3a13 2a3d d0ca 043e b14c 313e 4e8d 2f3e
000000f0: 7606 d5bd dc81 5e3c 546d f9bc 91cb 2f3e
00000100: 4ded cabc 2c2e f9bd 3303 3cbe f3fa 12be
00000110: 8745 183d a425 c8bc 109e 933d 23c7 18be
00000120: f232 3a3e 9b7d 53bd 7a48 9e3c 4b1b 683d
00000130: f6f7 393e 7567 f83c b4b9 99bd 2303 3a3b
00000140: d22b bc3d f786 33be 3d4a d13d 709f 87bd
00000150: 9f85 bf3d e24b 0f3e d6a8 093e 56aa a5bb
00000160: 5abf 1dbd ec56 bf3d 788e 04be 063a 34be
00000170: 1eb5 403d 3d7d d3bd ae23 573d 8f3f e7bd
00000180: 194a e83d 4b40 e53d ca52 3bbe 61b3 e93b
00000190: cf25 e0bd 9299 37be 0d0c 1a3e b382 4cbe
000001a0: a450 4cbe 695e 06bd 30b0 e7bd 081c 543d
000001b0: 2027 0c3e a86b 783d 8dc9 37be 1237 2d3e
000001c0: fd9f f1bc b8e2 f5bc a756 823d 9867 2bbc
000001d0: f502 443e 9595 5cbd 1221 bdbc e6e3 f33d
000001e0: e18d 27be 7bf1 07be 161c 37be a9eb f9bd
000001f0: 2a19 1d3e bbdb 893d 2405 dc3c 5923 dfbd
00000200: a6e2 1c3e d1a8 34be 2284 d6bd a185 a2bd
00000210: 4090 eabd d575 10bd 14db 07be 1495 06be
00000220: 32ca 5fbc 2eac 063e b197 e53c d778 79bd
00000230: b9cb d1bd 9755 0b3d 82bb 3fbe 1cb7 fe3d
00000240: b334 8bbd fd37 233e 8e55 fe3d 3154 2f3e
00000250: 2e12 db3c 3cfa 0b3e

conv1.bias f4 [6]
-0.06632643 -0.0012339597 0.038829196 -0.036507513 -0.11781106 -0.12712656
00000000: 27d6 87bd d1bc a1ba 5d0b 1f3d e788 15bd
00000010: ed46 f1bd 772d 02be

conv2.weight f4 [6, 6, 5, 5]
-0.010009158 0.005676966 0.04076593 -0.003784153 0.04176031 -0.058203228 -0.058159124 -0.07461268
-0.03514463 -0.06529157 0.0343974 0.026169289 -0.066469826 0.043170698 0.019029772 -0.059658848
-0.030443927 0.05907037 0.049152825 0.05344414 0.033410516 -0.03274889 0.022610223 0.028969506
-0.03491963 0.020533595 0.06458412 0.059508286 -0.054240167 0.013821867 -0.06481347 0.032886215
0.05456691 -0.058085036 -0.0010672016 0.017929088 0.066017054 0.05837132 -0.025231538 0.037707195
-0.011091476 -0.047642663 -0.06512416 0.043096717 -0.00074298773 0.070628166 -0.011639744 0.07448576
-0.05302492 -0.056081057 0.0024923636 0.020922557 -0.0050658192 -0.06902926 -0.061588697 -0.025398461
-0.032265626 -0.027802667 0.045040958 0.06005012 -0.05864782 0.038309667 -0.06275129 -0.06492179
-0.078776516 -0.08132178 0.07032098 0.07590914 0.035732247 0.0023054392 0.014363846 0.020144178
0.07632064 0.01335795 0.028801328 -0.040985465 -0.030194202 -0.07997001 0.038891982 -0.046244446
0.04198575 -0.04523055 -0.027999459 0.05812168 -0.03096437 0.07797034 -0.06558439 -0.07675324
-0.032795206 0.023468452 0.027292268 -0.026482688 0.023981528 -0.06571836 -0.02903793 -0.012677939
0.028036753 0.0127369985 -0.0010243176 0.0008727685 0.024410948 0.016549857 0.048105083 0.04781175
-0.049287353 0.0630569 -0.024944456 -0.05654142 -0.039568283 -0.071177185 -0.06246165 -0.07960938
0.04784196 -0.07748271 -0.053947687 0.04372457 0.073651776 0.010455516 -0.008604053 0.05553422
-0.011822987 -0.05095979 0.017616626 0.019662185 0.066672646 0.057578977 -0.07603765 -0.06269168
-0.047410313 0.0073287566 -0.0052963453 -0.029612117 -0.07281217 0.0060890727 0.03292399 0.053048145
0.0282059 -0.05463514 -0.018627886 -0.054818906 -0.003008892 -0.03342376 -0.0005682339 0.040141378
0.0786445 -0.027152017 0.0068928036 -0.013045379 -0.008411993 -0.005217499 0.066713355 0.041187733
-0.024565846 0.06382103 -0.018233411 -0.067545556 -0.02128756 -0.031052751 0.046128117 0.005195724
0.009179738 0.05493252 -0.060885403 0.044942204 0.08026769 -0.04382233 -0.073934175 0.069538474
0.022739006 -0.064165294 -0.03685539 -0.06742969 0.009873008 0.020238126 -0.0010063056 0.07092006
-0.05425387 -0.0776564 -0.020028576 0.00259343 -0.061634835 0.033155285 0.00995298 0.040736493
-0.030624337 -0.028289583 -0.03756421 -0.034882743 0.026003517 0.05622335 -0.05227426 -0.06400707
0.050177578 -0.070147745 0.04281774 0.05630476 -0.026333917 0.064258896 0.016389089 -0.042209346
0.03773777 0.058966793 -0.07841763 -0.069762684 0.029000478 0.06463967 -0.0057288534 0.047296762
-0.033007916 0.06032991 -0.066679396 0.07826728 0.029174425 -0.041986607 -0.029381095 -0.020563444
-0.010501302 -0.010612714 -0.074856274 0.028850844 -0.008078938 0.012918767 0.045622803 -0.025393257
0.03497767 -0.04803146 -0.037969716 0.040556844 0.048263002 -0.01258623 0.0019393656 0.071781605
-0.05027761 -0.038741656 -0.055197112 0.058471028 0.018675525 -0.04784353 -0.040564284 -0.01708884
0.028281849 0.024159444 0.029527906 -0.07970761 0.037164584 -0.07575526 0.04149927 0.034565244
0.016338764 -0.04529842 0.070615895 -0.07858164 0.024122698 0.012754309 -0.06455638 0.063852176
00000000: 74fd 23bc d805 ba3b 2dfa 263d 8dff 77bb
00000010: dc0c 2b3d 8266 6ebd 4338 6ebd 88ce 98bd
00000020: d1f3 0fbd 96b7 85bd 4ae4 0c3d fa60 d63c
00000030: 5521 88bd c2d3 303d 53e4 9b3c d65c 74bd
00000040: 8b65 f9bc c6f3 713d 7954 493d 3ee8 5a3d
00000050: 77d9 083d b323 06bd 1339 b93c 7551 ed3c
00000060: e307 0fbd 1236 a83c ae44 843d f6be 733d
00000070: f02a 5ebd 1d75 623c edbc 84bd b2b3 063d
00000080: 8d81 5f3d 93ea 6dbd 58e1 8bba 06e0 923c
00000090: f333 873d c416 6f3d 5fb2 cebc dc72 1a3d
000000a0: 06b9 35bc f424 43bd d15f 85bd 2f86 303d
000000b0: 10c5 42ba 80a5 903d a0b4 3ebc fd8b 983d
000000c0: a930 59bd 40b5 65bd ec56 233b c865 ab3c
000000d0: 2cff a5bb 365f 8dbd 6e44 7cbd 6f10 d0bc
000000e0: f628 04bd 6bc2 e3bc de7c 383d 1df7 753d
000000f0: b238 70bd 99ea 1c3d c083 80bd b7f5 84bd
00000100: 9555 a1bd 098c a6bd 7204 903d 4076 9b3d
00000110: fa5b 123d da16 173b 5656 6b3c 6705 a53c
00000120: ff4d 9c3d 4edb 5a3c c3f0 eb3c 60e0 27bd
00000130: d559 f7bc 51c7 a3bd 334d 1f3d d16a 3dbd
00000140: 40f9 2b3d ab43 39bd 1f5f e5bc 0011 6e3d
00000150: fea8 fdbc eaae 9f3d 1c51 86bd cd30 9dbd
00000160: 4454 06bd e940 c03c 0994 df3c 39f2 d8bc
00000170: e974 c43c 5997 86bd f4e0 edbc 21b7 4fbc
00000180: 55ad e53c d8ae 503c 6542 86ba 81ca 643a
00000190: 78f9 c73c 9193 873c d609 453d 41d6 433d
000001a0: 89e1 49bd fa23 813d 5158 ccbc fa97 67bd
000001b0: 5a12 22bd 58c5 91bd cad7 7fbd 3e0a a3bd
000001c0: eef5 433d 41af 9ebd 40f8 5cbd 8918 333d
000001d0: bed6 963d 9d4d 2b3c 04f8 0cbc da77 633d
000001e0: 34b5 41bc 36bb 50bd be50 903c 9712 a13c
000001f0: ab8b 883d efd7 6b3d a1b9 9bbd 7f64 80bd
00000200: 5131 42bd 1126 f03b f78c adbb 1c95 f2bc
00000210: 8c1e 95bd d886 c73b 4edb 063d 0349 593d
00000220: 0f10 e73c 19c9 5fbd 8299 98bc ca89 60bd
00000230: d530 45bb 5ae7 08bd 88f5 14ba 496b 243d
00000240: 5e10 a13d e86d debc 07dd e13b 49bc 55bc
00000250: 75d2 09bc 8ef7 aabb 03a1 883d 78b4 283d
00000260: 503e c9bc 9ab4 823d 3c5e 95bc 5355 8abd
00000270: 4063 aebc 5762 febc d6f0 3c3d e440 aa3b
00000280: 9d66 163c ec00 613d f962 79bd 5115 383d
00000290: 6363 a43d 0b7f 33bd cd6a 97bd 306a 8e3d
000002a0: 2747 ba3c 1869 83bd adf5 16bd 9418 8abd
000002b0: 66c2 213c 6dca a53c 03e6 83ba 893e 913d
000002c0: 4e39 5ebd 520a 9fbd f812 a4bc 89f6 293b
000002d0: cf74 7cbd d6cd 073d d311 233c 4fdb 263d
000002e0: e4df fabc 8ebf e7bc eedc 19bd 35e1 0ebd
000002f0: 5405 d53c 754a 663d 891d 56bd 2416 83bd
00000300: 0187 4d3d 9fa9 8fbd a861 2f3d d29f 663d
00000310: 3aba d7bc 2b9a 833d 6942 863c b5e3 2cbd
00000320: eb92 1a3d 2a87 713d 6c99 a0bd bddf 8ebd
00000330: 6992 ed3c ce61 843d 1bb9 bbbb 40ba 413d
00000340: 4f33 07bd 7f1c 773d 358f 88bd 984a a03d
00000350: 34ff ee3c 26fa 2bbd 9fb0 f0bc ab74 a8bc
00000360: a70d 2cbc f3e0 2dbc 3f4e 99bd 9b58 ec3c
00000370: 865d 04bc 3ca9 533c fade 3a3d 8505 d0bc
00000380: bf44 0f3d a3bc 44bd 2286 1bbd ef1e 263d
00000390: 6daf 453d 7a36 4ebc 5032 fe3a 3c02 933d
000003a0: e5ef 4dbd 92af 1ebd 5e16 62bd 517f 6f3d
000003b0: 6afd 983c 94f7 43bd bc26 26bd e5fd 8bbc
000003c0: 56af e73c 07ea c53c 82e4 f13c be3d a3bd
000003d0: e439 183d 9325 9bbd 23fb 293d 4994 0d3d
000003e0: dfd8 853c d68a 39bd 119f 903d 69ef a0bd
000003f0: f79c c53c 73f7 503c 2336 84bd eec4 823d

conv2.bias f4 [6]
-0.034176845 0.033193562 0.010500061 0.07109654 0.070700146 0.014998771
00000000: 05fd 0bbd f9f5 073d 7308 2c3c 109b 913d
00000010: 3dcb 903d 68bd 753c

fc1.weight f4 [50, 96]
-0.07181634 0.08489909 0.02953236 -0.04763016 -0.0024981569 0.068355955 0.09418219 -0.025170498
0.039225258 -0.019404085 0.09239498 -0.0016793284 -0.06887937 0.048636455 -0.09667944 -0.0018235382
0.06941192 0.09310134 -0.09032376 0.04773307 0.06891774 0.072896704 -0.033746123 0.07850652
-0.036191534 0.026675036 -0.09485049 0.061517946 -0.089121796 0.016115312 0.039673742 -0.06633145
0.011444102 -0.04159775 -0.07314659 0.046452634 -0.04607012 -0.019333567 -0.059652813 0.098717466
-0.03852331 0.048204362 0.03652254 -0.06243187 0.099299334 0.037802756 0.015716482 0.0423855
-0.056123525 -0.088017836 0.036407363 0.02123945 -0.015099833 0.05028234 0.06819219 -0.015637668
0.058278035 -0.049071845 -0.021167908 -0.081493296 0.0839759 0.021542436 -0.09261297 0.080516495
0.058745183 0.0373813 0.076997355 -0.0011184973 -0.08266521 -0.098272316 0.090253755 0.04494528
0.034583215 -0.014850908 0.010512028 0.07320421 -0.08565634 0.003725139 -0.06746705 -0.046702985
-0.07961315 -0.019142155 -0.07217547 -0.021734543 -0.068060674 -0.0778354 0.011275865 -0.098747484
0.051739033 -0.084923096 -0.0065401657 -0.012579403 0.006771812 -0.05924658 -0.075049065 -0.07366804
-0.0103892125 -0.08685852 -0.08892525 -0.07778211 0.017257117 0.07099555 -0.047130022 0.090569615
-0.024788799 0.09178872 -0.056376345 -0.033150636 0.05324491 -0.038773205 0.05884196 -0.059570804
0.037609335 0.089659184 0.023547888 0.07120986 -0.012293831 -0.09136845 -3.519137e-05 -0.027073303
-0.08430335 0.07225843 -0.06439276 -0.05267824 0.0518547 -0.0060612876 -0.086401775 -0.056682102
0.046237886 0.018154932 0.09029303 0.037053622 0.029577754 0.04713704 0.05458625 -0.08226789
0.011898924 0.09862988 0.003131145 -0.062009595 0.019782038 -0.092362545 -0.100095905 0.07640038
-0.0059245266 0.03150551 -0.024871916 0.034469597 0.030310249 0.0024394006 -0.0021821118 -0.02600822
-0.09843386 -0.027213229 -0.03599012 -0.009923974 0.084090285 -0.0037864335 -0.019188529 0.083384395
-0.05825331 0.030813703 -0.024562484 -0.035487775 -0.004157325 -0.05982517 0.06450994 -0.025841482
-0.050092243 0.050943132 0.020153182 0.052569296 0.09130448 0.10154142 -0.03632532 0.06702259
-0.06547536 -0.03746406 0.0567003 0.039842002 -0.013016988 0.07922462 -0.045554012 -0.09215748
0.032140005 -0.011521882 0.035457958 0.037396573 -0.07820826 -0.028640285 0.01106186 0.08947201
0.061729185 0.06605832 -0.0667903 0.026036682 -0.04999823 0.0052745915 -0.042517416 -0.09493896
-0.07339076 -0.041622188 0.082922205 -0.08936662 0.0920854 0.084651925 -0.0039491844 -0.08867925
-0.087343656 0.0075180517 -0.101834506 0.10125361 0.005456955 0.07929996 0.101041295 -0.092611425
-0.05440529 0.04477196 0.054703802 -0.054443214 -0.07568053 0.032394487 0.0107174665 0.05485541
0.04224237 0.030271545 -0.08954433 0.09916022 -0.07760627 -0.030785678 0.017160326 0.0883043
-0.09669021 0.03315775 -0.014957062 0.08780609 0.0013302469 -0.07480358 -0.009992377 0.031443104
-0.022524467 -0.032239188 -0.08873447 -0.061309446 -0.10078427 0.013659085 -0.029658863 0.09519804
-0.0269301 0.013896865 -0.096953265 0.009800514 0.04683218 0.042153016 0.08947507 0.046840005
00000000: 7214 93bd 93df ad3d d9ed f13c d817 43bd
00000010: 1eb8 23bb 35fe 8b3d 98e2 c03d 5c32 cebc
00000020: aaaa 203d 51f5 9ebc 9439 bd3d e91c dcba
00000030: a110 8dbd 0537 473d dfff c5bd ca03 efba
00000040: d627 8e3d eaab be3d aafb b8bd c083 433d
00000050: be24 8d3d de4a 953d 6039 0abd 07c8 a03d
00000060: 933d 14bd 9b85 da3c f940 c2bd 3efa 7b3d
00000070: 7d85 b6bd 4204 843c ef80 223d c9d8 87bd
00000080: 0b80 3b3c 6762 2abd e1cd 95bd 1e45 3e3d
00000090: 06b4 3cbd 6e61 9ebc 8256 74bd 622c ca3d
000000a0: 9eca 1dbd f071 453d a998 153d 8fb8 7fbd
000000b0: 735d cb3d 10d7 1a3d dabf 803c 6b9c 2d3d
000000c0: c8e1 65bd b242 b4bd e31f 153d 5bfe ad3c
000000d0: 4a65 77bc dbf4 4d3d 59a8 8b3d 911a 80bc
000000e0: f3b4 6e3d 8fff 48bd 5268 adbc f5e5 a6bd
000000f0: 8ffb ab3d c379 b03c deab bdbd d5e5 a43d
00000100: ca9e 703d 221d 193d cab0 9d3d 8b9a 92ba
00000110: 614c a9bd ff42 c9bd f6d6 b83d 8b18 383d
00000120: 21a7 0d3d 3951 73bc a43a 2c3c 17ec 953d
00000130: 976c afbd 7621 743b 2a2c 8abd a14b 3fbd
00000140: 380c a3bd 02d0 9cbc bcd0 93bd a40c b2bc
00000150: 6563 8bbd 2b68 9fbd 68be 383c 1f3c cabd
00000160: 4fec 533d 29ec adbd e34e d6bb d719 4ebc
00000170: 14e6 dd3b 8bac 72bd 53b3 99bd 45df 96bd
00000180: 8437 2abc e1e2 b1bd 711e b6bd 3a4c 9fbd
00000190: cc5e 8d3c 1d66 913d 690b 41bd 907c b93d
000001a0: e111 cbbc b9fb bb3d e2ea 66bd f6c8 07bd
000001b0: 5617 5a3d a7d0 1ebd 4404 713d 8400 74bd
000001c0: 3f0c 1a3d 3c9f b73d 80e7 c03c 7ad6 913d
000001d0: 116c 49bc 621f bbbd 729a 13b8 d5c8 ddbc
000001e0: 3ca7 acbd 3afc 933d 5ae0 83bd 23c5 57bd
000001f0: 9865 543d c49d c6bb 6af3 b0bd 7e2b 68bd
00000200: f063 3d3d a7b9 943c 8deb b83d 8ac5 173d
00000210: 0c4d f23c c512 413d d595 5f3d 117c a8bd
00000220: b4f3 423c 76fe c93d e533 4d3b c6fd 7dbd
00000230: f10d a23c 9328 bdbd 15ff ccbd cd77 9c3d
00000240: 8822 c2bb ec0b 013d 30c0 cbbc fe2f 0d3d
00000250: 334d f83c 5ade 1f3b c301 0fbb 310f d5bc
00000260: b197 c9bd 47ee debc 606a 13bd 2a98 22bc
00000270: 8737 ac3d d025 78bb 4331 9dbc 70c5 aa3d
00000280: 069b 6ebd 056d fc3c 4337 c9bc a15b 11bd
00000290: 2b3a 88bb 3d0b 75bd ca1d 843d 84b1 d3bc
000002a0: 862d 4dbd bfa9 503d 4918 a53c e752 573d
000002b0: d8fd ba3d f3f4 cf3d dcc9 14bd 2443 893d
000002c0: f217 86bd ea73 19bd 933e 683d 5e31 233d
000002d0: 3445 55bc 8440 a23d d896 3abd 10bd bcbd
000002e0: 3da5 033d 47c6 3cbc 5d3c 113d 262d 193d
000002f0: a72b a0bd 089f eabc ce3c 353c 1a3d b73d
00000300: bed7 7c3d 9649 873d 5ac9 88bd e14a d53c
00000310: f2ca 4cbd 7bd6 ac3b be26 2ebd 5c6f c2bd
00000320: e54d 96bd 077c 2abd 1ed3 a93d d905 b7bd
00000330: 4597 bc3d fd5d ad3d 2968 81bb 779d b5bd
00000340: 3be1 b2bd fd59 f63b 9c8e d0bd 0d5e cf3d
00000350: 42d0 b23b 0468 a23d bdee ce3d 0fab bdbd
00000360: 15d8 5ebd cd62 373d 1811 603d d9ff 5ebd
00000370: 65fe 9abd 15b0 043d 5098 2f3c 11b0 603d
00000380: 5606 2d3d 08fc f73c 0563 b7bd 8314 cb3d
00000390: 09f0 9ebd 3f32 fcbc d093 8c3c e3d8 b43d
000003a0: 8405 c6bd 6cd0 073d 770e 75bc aed3 b33d
000003b0: ae5b ae3a 9f32 99bd 11b7 23bc 7cca 003d
000003c0: 3b85 b8bc 3d0d 04bd 6bba b5bd 9d1f 7bbd
000003d0: fc67 cebd 5bca 5f3c 25f7 f2bc 31f7 c23d
000003e0: 839c dcbc adaf 633c 6f8f c6bd 5692 203c
000003f0: 1ad3 3f3d a4a8 2c3d b53e b73d 4edb 3f3d

fc1.bias f4 [50]
-0.08351006 0.09747178 -0.016230017 -0.0054029766 -0.052507434 0.043132212 0.036782216 0.055737022
-0.019025134 -0.038446218 -0.04193811 0.053751647 -0.020276286 0.061193023 0.03679631 0.08463095
0.04201859 0.03890284 0.010073422 -0.0010182932 -0.061216764 0.0046736337 0.09447249 -0.096727274
0.01890837 -0.038499877 -0.10022515 0.0655303 -0.017541852 0.058090698 -0.00897762 -0.02502676
0.032835867 -0.07772079 0.052372135 -0.09389886 -0.09942108 0.060794625 0.025111506 0.03242811
-0.06146918 -0.011633993 0.00085620355 0.027495962 0.040260006 0.033522826 0.010189021 0.075521834
0.053632267 -0.07422839
00000000: 5307 abbd 499f c73d d0f4 84bc 740b b1bb
00000010: 0912 57bd 67ab 303d f3a8 163d 814c 643d
00000020: 99da 9bbc c879 1dbd 4cc7 2bbd b02a 5c3d
00000030: 741a a6bc 89a5 7a3d bab7 163d fe52 ad3d
00000040: af1b 2c3d 9658 1f3d ff0a 253c 4078 85ba
00000050: 6ebe 7abd 4825 993b cb7a c13d f318 c6bd
00000060: bae5 9a3c 0cb2 1dbd d842 cdbd c034 863d
00000070: eeb3 8fbc 83f0 6d3d de16 13bc eb04 cdbc
00000080: e77e 063d 142c 9fbd 2a84 563d 0c4e c0bd
00000090: 479d cbbd c903 793d a5b6 cd3c 56d3 043d
000000a0: 1bc7 7bbd 819c 3ebc d972 603a 363f e13c
000000b0: ade7 243d 3b4f 093d daef 263c 31ab 9a3d
000000c0: 82ad 5b3d 0e05 98bd

fc2.weight f4 [10, 50]
-0.13718623 0.072321415 0.07745663 -0.028497355 -0.123878255 -0.1331929 -0.012547591 0.092197195
0.13032001 -0.11806525 -0.0009350244 0.07923243 -0.08097697 0.038726978 -0.04094556 -0.0925832
-0.05124134 0.10789606 -0.016849335 -0.14114985 0.028682865 0.080862194 -0.052733913 0.043264024
0.051400814 -0.12689485 0.039775945 0.009035208 -0.10874018 -0.090727195 -0.12685455 -0.11995941
0.10302556 0.09481236 0.015300208 -0.041843418 0.14072897 -0.07638379 0.05733701 0.05436722
-0.039506998 0.0040810294 -0.13281529 -6.606325e-05 0.086372845 0.03755168 0.03221694 0.13858202
-0.055398703 0.1381765 -0.035819054 0.095107734 0.022902643 -0.07964875 -0.00304949 -0.0021932004
-0.12596619 -0.046633016 0.12831555 0.017290477 0.07212866 0.09448392 0.08620623 -0.011395509
0.03593166 -0.06130193 0.017903402 0.12689611 0.013797018 0.016902007 -0.0104125375 0.0009458376
-0.0076284534 0.05492772 -0.06876381 -0.06689764 -0.038522583 0.023035519 0.07165273 -0.1252969
-0.016259175 -0.080697134 0.051198464 0.03899615 -0.028007207 0.058351666 0.10836499 -0.00700979
0.06519473 -0.058214784 -0.07963753 0.013597051 -0.0738464 -0.049391232 -0.06682547 0.08967348
0.10575037 -0.12652865 0.07269018 -0.11857728 0.08595492 0.054761846 0.075283945 -0.117701255
0.13853587 -0.12195666 -0.035344973 0.09042408 -0.11347694 -0.09569327 0.105014294 0.096316196
-0.026532982 -0.12824944 0.10562862 -0.12380625 -0.12593374 0.0021469668 0.027255734 -0.103317164
0.028246017 -0.033673793 -0.015185303 0.0018978405 -0.12830697 -0.13290867 0.06332192 0.028371152
-0.10944566 -0.08300114 -0.1384309 -0.042107854 -0.047002535 -0.027552651 -0.10772122 0.0073391907
0.06355386 0.08591504 -0.1204603 0.1263201 0.023351356 0.05214496 -0.07779227 0.012380735
0.13179825 -0.10465629 0.09086707 0.04920385 0.05287236 0.050692067 -0.068073034 0.09033543
-0.053850763 0.12274989 -0.03855932 0.062496357 0.09203751 -0.06331515 0.05640234 0.09233036
-0.1271526 -0.055447035 -0.08692009 0.024532715 0.10219344 0.10790039 0.13000812 -0.07929053
-0.04747098 0.013061869 -0.03642974 -0.13247488 -0.095900975 0.11908403 0.02021626 0.0687034
-0.028585333 -0.12218532 0.092453904 -0.016951995 -0.05944852 -0.13886987 -0.060801473 -0.066863224
0.097245686 0.0013047943 -0.06629967 0.060508978 -0.11056738 0.0803937 -0.033461384 0.09697901
0.015198341 -0.019632973 0.017715773 0.10204298 -0.049517594 -0.07644018 -0.05173225 -0.03586307
-0.03371819 -0.09165995 0.01236857 -0.082168505 -0.05398829 -0.13503864 -0.11859773 0.015513779
0.036701567 0.11428672 -0.13359205 0.033007603 -0.030047527 0.05722565 0.09812677 -0.12373913
-0.11772844 -0.023158807 -0.09113437 -0.03889165 0.027956046 -0.12789337 -0.002473529 0.13087186
0.1017896 -0.07800584 0.02612284 -0.0045709503 -0.034672428 -0.014119532 -0.112280786 0.015079556
0.08923569 -0.119458236 -0.014471151 -0.09552002 0.04556913 -0.030224746 0.051453326 -0.011227622
0.07122639 0.07706008 -0.070423365 0.05938856 -0.09746488 0.018340828 -0.12988333 -0.101441875
-0.056362238 0.025348479 -0.11740842 0.020183843 0.07088435 0.11658 -0.075340934 0.03206023
00000000: 8c7a 0cbe 401d 943d 95a1 9e3d 4973 e9bc
00000010: e2b3 fdbd b863 08be 6994 4dbc e2d1 bc3d
00000020: 9c72 053e 32cc f1bd 6d1c 75ba 9d44 a23d
00000030: 41d7 a5bd 2ea0 1e3d 88b6 27bd 439c bdbd
00000040: 70e2 51bd 9cf8 dc3d 9e07 8abc 9689 10be
00000050: 54f8 ea3c 149b a53d 84ff 57bd 9e35 313d
00000060: a989 523d b9f0 01be 1aec 223d 6908 143c
00000070: 2cb3 debd 2ecf b9bd 29e6 01be 47ad f5bd
00000080: 11ff d23d fc2c c23d b9ad 7a3c 0164 2bbd
00000090: 411b 103e 1b6f 9cbd 36da 6a3d 29b0 5e3d
000000a0: 17d2 21bd 28ba 853b bb00 08be 708b 8ab8
000000b0: 3fe4 b03d cacf 193d e9f5 033d 72e8 0d3e
000000c0: c0e9 62bd 247e 0d3e 00b7 12bd d8c7 c23d
000000d0: 539e bb3c e21e a3bd f4d9 47bb ccbb 0fbb
000000e0: 48fd 00be 4302 3fbd 2765 033e c2a4 8d3c
000000f0: 31b8 933d c980 c13d e48c b03d 3bb4 3abc
00000100: 142d 133d bc17 7bbd 28aa 923c 0ef1 013e
00000110: e30c 623c 1476 8a3c 5999 2abc 16f2 773a
00000120: 1bf8 f9bb e4fb 603d 0ad4 8cbd a101 89bd
00000130: dbc9 1dbd fcb4 bc3c abbe 923d d54d 00be
00000140: f631 85bc 8a44 a5bd 7bb5 513d 6dba 1f3d
00000150: 5f6f e5bc 2802 6f3d 77ee dd3d 61b2 e5bb
00000160: d184 853d a072 6ebd 0019 a3bd 2ac6 5e3c
00000170: c83c 97bd 764e 4abd cbdb 88bd bba6 b73d
00000180: a693 d83d ba90 01be 97de 943d a5d8 f2bd
00000190: 2209 b03d f54d 603d 782e 9a3d 5b0d f1bd
000001a0: 59dc 0d3e 6ac4 f9bd e4c5 10bd 4330 b93d
000001b0: 9966 e8bd d5fa c3bd bc11 d73d 6d41 c53d
000001c0: b25b d9bc d253 03be d153 d83d 228e fdbd
000001d0: c6f4 00be 20b4 0c3b 6b47 df3c f397 d3bd
000001e0: 3164 e73c 88ed 09bd c7cb 78bc f6c0 f83a
000001f0: e762 03be 3619 08be ecae 813d 9e6a e83c
00000200: 0c25 e0bd 80fc a9bd d4c0 0dbe 4979 2cbd
00000210: bb85 40bd 19b6 e1bc f19c dcbd 987d f03b
00000220: 8728 823d 39f4 af3d e4b3 f6bd 0e5a 013e
00000230: 584b bf3c f495 553d 8e51 9fbd 91d8 4a3c
00000240: 1ff6 063e 0956 d6bd 8418 ba3d fa89 493d
00000250: b090 583d 7ca2 4f3d e069 8bbd c801 b93d
00000260: 9e92 5cbd 4b64 fb3d 61f0 1dbd 2efc 7f3d
00000270: 297e bc3d 60ab 81bd 2406 673d b317 bd3d
00000280: 4b34 02be 6e1c 63bd 2903 b2bd d5f8 c83c
00000290: cb4a d13d e1fa dc3d d920 053e 1363 a2bd
000002a0: ee70 42bd 7301 563c 5a37 15bd 7fa7 07be
000002b0: bb67 c4bd 54e2 f33d 929c a53c 5eb4 8c3d
000002c0: ca2b eabc 4c3c fabd 7958 bd3d e9de 8abc
000002d0: 4b80 73bd e733 0ebe f70a 79bd 96ef 88bd
000002e0: bf28 c73d a205 ab3a 1fc8 87bd 43d8 773d
000002f0: 2771 e2bd 74a5 a43d ce0e 09bd ee9c c63d
00000300: 7602 793c 54d5 a0bc ab20 913c e9fb d03d
00000310: f6d2 4abd ab8c 9cbd 32e5 53bd 28e5 12bd
00000320: 161c 0abd 36b8 bbbd 8ba5 4a3c f647 a8bd
00000330: d322 5dbd 9247 0abe 5ee3 f2bd 812d 7e3c
00000340: 6254 163d 280f ea3d 5bcc 08be fb32 073d
00000350: 3b26 f6bc 7165 6a3d b0f6 c83d f16a fdbd
00000360: 9c1b f1bd 8ab7 bdbc a8a4 babd da4c 1fbd
00000370: 1404 e53c 7bf6 02be ee1a 22bb 4603 063e
00000380: 1177 d03d 87c1 9fbd 91ff d53c e9c7 95bb
00000390: ad04 0ebd 9c55 67bc 78f3 e5bd 3e10 773c
000003a0: 34c1 b63d 85a6 f4bd 6818 6dbc 00a0 c3bd
000003b0: b2a6 3a3d e399 f7bc b9c0 523d 0ff4 37bc
000003c0: 24df 913d add1 9d3d 203a 90bd 6b41 733d
000003d0: ab9b c7bd 813f 963c 2300 05be c2c0 cfbd
000003e0: 17dc 66bd 9da7 cf3c d373 f0bd 9658 a53c
000003f0: d02b 913d 7fc1 ee3d 594c 9abd 9651 033d

fc2.bias f4 [10]
-0.06505667 0.06281484 -0.09130228 -0.1327592 0.062968746 -0.12500894 0.082719445 0.12198835
-0.052765675 0.009640404
00000000: 6e3c 85bd 11a5 803d b1fc babd 07f2 07be
00000010: c2f5 803d 5802 00be d068 a93d 07d5 f93d
00000020: d220 58bd c9f2 1d3c

batch_norm_2d.weight f4 [6]
0.99997854 0.99999046 0.9998922 1.0001029 0.9999863 1.000111
00000000: 98fe 7f3f 60ff 7f3f eff8 7f3f 5f03 803f
00000010: 1aff 7f3f a303 803f

batch_norm_2d.bias f4 [6]
0.00010662042 -0.0001068986 0.00015412425 7.415898e-05 4.7557674e-05 4.2335807e-05
00000000: 6799 df38 c02e e0b8 6a9c 2139 cd85 9b38
00000010: aa78 4738 ba91 3138

batch_norm_2d.running_mean f4 [6]
3.854082e-06 -2.1649184e-05 -7.1137845e-05 -8.900812e-05 1.1561595e-05 -5.1678875e-05
00000000: 5052 8136 459b b5b7 d72f 95b8 dfa9 bab8
00000010: acf8 4137 c5c1 58b8

batch_norm_2d.running_var f4 [6]
1.0000039 0.99994975 0.99995023 0.99991983 0.9999729 1.0000448
00000000: 2100 803f b5fc 7f3f bdfc 7f3f bffa 7f3f
00000010: 39fe 7f3f 7801 803f

batch_norm.weight f4 [50]
1.0000452 0.99994963 1.0001023 0.9999577 1.0000887 1.0000224 1.0000252 0.9999823
1.00002 0.99997765 0.9999286 0.9999281 1.0000329 0.999991 1.0000323 0.9999232
0.999993 1.0000592 0.99997085 1.0000916 1.0000598 1.000058 1.000005 0.9999571
0.9999641 1.0000668 1.0000191 1.0000467 0.99994904 0.9998566 1.0000439 0.9999894
0.9999761 1.0000715 1.0000485 0.99994355 0.99998873 0.99996066 0.99997073 1.0000373
0.9999288 0.9999869 1.000112 1.0000138 1.0000812 1.0000185 0.99998367 0.9999318
0.9998164 0.9999653
00000000: 7b01 803f b3fc 7f3f 5a03 803f 3afd 7f3f
00000010: e802 803f bc00 803f d300 803f d7fe 7f3f
00000020: a800 803f 89fe 7f3f 52fb 7f3f 4afb 7f3f
00000030: 1401 803f 69ff 7f3f 0f01 803f f8fa 7f3f
00000040: 8bff 7f3f f101 803f 17fe 7f3f 0003 803f
00000050: f601 803f e701 803f 2a00 803f 30fd 7f3f
00000060: a6fd 7f3f 3002 803f a000 803f 8801 803f
00000070: a9fc 7f3f 9af6 7f3f 7001 803f 4eff 7f3f
00000080: 6ffe 7f3f 5802 803f 9701 803f 4dfc 7f3f
00000090: 43ff 7f3f 6cfd 7f3f 15fe 7f3f 3901 803f
000000a0: 55fb 7f3f 24ff 7f3f ac03 803f 7400 803f
000000b0: a902 803f 9b00 803f eefe 7f3f 88fb 7f3f
000000c0: f8f3 7f3f bafd 7f3f

batch_norm.bias f4 [50]
-6.760368e-06 8.310392e-05 5.414391e-05 1.3662697e-05 -9.673896e-05 -5.418754e-05 7.230915e-05 -8.518637e-05
1.0162315e-05 -7.016033e-05 -3.109832e-05 0.00015423214 1.1450065e-05 9.725909e-05 -1.1741843e-05 5.0865325e-05
-1.9226158e-05 2.1736749e-05 -1.7033082e-05 3.2279895e-06 -0.00014015558 0.00012568154 -4.608417e-05 8.465622e-05
-5.452015e-05 -3.495457e-05 4.1682513e-05 3.1058575e-05 9.605388e-06 -6.6684974e-05 1.4054067e-05 2.144084e-05
9.610728e-05 5.1060808e-05 -8.421564e-06 0.00010629816 6.8345435e-07 -7.6979006e-05 9.433183e-06 -2.4380908e-05
3.860082e-06 9.047125e-05 4.7491296e-05 3.0648418e-05 1.7547623e-05 -4.7821366e-05 5.8498e-05 8.5960026e-05
-0.00020088152 4.5142922e-05
00000000: 1ed7 e2b6 1448 ae38 9518 6338 d638 6537
00000010: 55e0 cab8 6e47 63b8 aea4 9738 16a6 b2b8
00000020: d07e 2a37 0a23 93b8 916f 02b8 60b9 2139
00000030: a819 4037 94f7 cb38 d5fe 44b7 3a58 5538
00000040: dc47 a1b7 5057 b637 44e2 8eb7 70a0 5836
00000050: baf6 12b9 62c9 0339 804a 41b8 7689 b138
00000060: 91ac 64b8 2f9c 12b8 42d4 2e38 e444 0238
00000070: d426 2137 39d9 8bb8 c2c9 6b37 dadb b337
00000080: 348d c938 202a 5638 584a 0db7 64ec de38
00000090: a076 3735 ca6f a1b8 3643 1e37 9a85 ccb7
000000a0: da85 8136 62bb bd38 6431 4738 7d8c 0038
000000b0: 3c33 9337 cd93 48b8 c05b 7538 7045 b438
000000c0: b9a3 52b9 d857 3d38

batch_norm.running_mean f4 [50]
-4.134457e-05 -1.8224739e-05 -2.6329226e-06 8.778923e-05 5.0456474e-05 2.3429657e-06 -8.370014e-05 4.1840147e-05
-6.794184e-05 -1.5280344e-05 -7.787527e-05 -6.820722e-07 0.0001752543 -1.036514e-05 2.1489377e-05 5.665582e-05
0.00010243002 1.0664312e-06 -1.0903787e-05 0.00012233843 -3.737541e-05 5.5193796e-05 -1.0726545e-05 -3.0597676e-06
-2.5311805e-05 -3.022201e-05 4.6748653e-05 -8.847369e-06 -1.2242136e-05 4.006888e-06 0.00015800487 -1.9662333e-05
-8.579588e-05 0.0001230937 1.9738227e-05 4.5402816e-05 -0.000131951 1.9106248e-05 -9.367187e-05 9.8488934e-05
-3.8719918e-07 -3.717073e-05 1.4087964e-05 -4.5958463e-06 -9.798853e-05 5.4881275e-06 4.007289e-05 -0.00011351669
-1.862118e-05 5.3688913e-05
00000000: 6569 2db8 54e1 98b7 44b1 30b6 7c1b b838
00000010: 3aa1 5338 d83b 1d36 2c88 afb8 847d 2f38
00000020: ff7b 8eb8 4a2e 80b7 f850 a3b8 a517 37b5
00000030: 78c4 3739 f0e5 2db7 1644 b437 b9a1 6d38
00000040: b3cf d638 4c22 8f35 69ef 36b7 f947 0039
00000050: 8ac3 1cb8 e37f 6738 29f6 33b7 6856 4db6
00000060: b054 d4b7 4685 fdb7 fc13 4438 296f 14b7
00000070: 9363 4db7 e872 8636 1cae 2539 8af0 a4b7
00000080: 50ed b3b8 b712 0139 8593 a537 e76e 3e38
00000090: 545c 0ab9 5b46 a037 b471 c4b8 d88b ce38
000000a0: 40e0 cfb4 c4e7 1bb8 585b 6c37 0536 9ab6
000000b0: 317f cdb8 a826 b836 f013 2838 cf0f eeb8
000000c0: ae34 9cb7 0830 6138

batch_norm.running_var f4 [50]
0.99997044 0.9999558 0.99995065 1.000112 0.99995744 0.9999121 1.0000155 1.0001689
1.0000323 1.0000638 0.99998003 0.9999829 0.9999745 1.0000119 1.0000471 0.9999672
0.99993926 1.0000527 0.9998787 0.99998325 0.9999846 0.999885 1.0000923 1.0000083
1.0000387 0.99994946 0.99991935 0.9999558 0.99990344 1.0000592 0.99987537 0.99999535
0.99997556 0.9999825 0.99989766 1.0000488 0.999997 0.9999609 1.0000076 1.0000075
0.9999064 1.0000674 0.99995834 0.99997365 0.99998105 0.9999006 0.99995613 1.0000669
1.0000128 0.99988437
00000000: 10fe 7f3f 1afd 7f3f c4fc 7f3f ac03 803f
00000010: 36fd 7f3f 3dfa 7f3f 8200 803f 8905 803f
00000020: 0f01 803f 1702 803f b1fe 7f3f e1fe 7f3f
00000030: 54fe 7f3f 6400 803f 8b01 803f dafd 7f3f
00000040: 05fc 7f3f ba01 803f 0df8 7f3f e7fe 7f3f
00000050: fefe 7f3f 77f8 7f3f 0603 803f 4600 803f
00000060: 4501 803f b0fc 7f3f b7fa 7f3f 1afd 7f3f
00000070: acf9 7f3f f101 803f d5f7 7f3f b2ff 7f3f
00000080: 66fe 7f3f dafe 7f3f 4bf9 7f3f 9901 803f
00000090: ceff 7f3f 70fd 7f3f 4000 803f 3f00 803f
000000a0: def9 7f3f 3502 803f 45fd 7f3f 46fe 7f3f
000000b0: c2fe 7f3f 7cf9 7f3f 20fd 7f3f 3102 803f
000000c0: 6b00 803f 6cf8 7f3f
