checkpoints/archive/Cifar with CNN3/30 choose 5/BSFL brute/last_model.pth.tar (torch, 716706 bytes, 38 tensors)

conv1.weight f4 [32, 3, 3, 3]
000000 4e d8 36 bc 1e 5e 8a 3e 31 1b 18 3f 8b 08 09 3f
       -0.0111599695 0.2702493 0.5941649 0.5352866
000010 4c 5a 17 3f 6d 6a 4c be 70 74 28 bf 6e 0a 61 bf
       0.5912216 -0.19962473 -0.6580267 -0.8790654
000020 35 14 ff be bd e3 81 3e 9e ff c0 3e 46 1a 11 3f
       -0.49820104 0.25369063 0.3769502 0.56680715
000030 93 d6 38 3f 68 e3 bc 3e 59 83 fd 3c e9 c3 10 bf
       0.72202414 0.36892247 0.03094642 -0.56548935
000040 a3 e3 1c bf 9d 0b e2 be f3 48 80 bd 64 52 17 be
       -0.61284846 -0.44149485 -0.06263914 -0.14777523
000050 29 4d df bc 6d db 86 3e 17 ec 11 3f 0c 14 a0 bc
       -0.027258473 0.26339284 0.5700087 -0.01954081
000060 9c 88 f6 be 65 9e 01 bf ea 88 89 3d 5a 8a d7 3e
       -0.481511 -0.50632316 0.067155674 0.4209774
000070 73 46 15 be e7 c8 a5 be e8 46 85 3c ab e6 63 be
       -0.14577655 -0.3237984 0.016269162 -0.22255962
000080 51 02 2a be 6d 43 fd be 1c 13 a3 3d bc 71 37 be
       -0.16602446 -0.49465504 0.07962629 -0.1791448
000090 31 44 34 bc 16 40 ef be a0 99 e6 3c 63 ba f3 be
       -0.011002586 -0.4672858 0.028149426 -0.4760314
0000a0 32 d7 a4 be 9a e0 b0 3b da cf 8f 3d b8 bf 78 be
       -0.3219543 0.0053978683 0.070220664 -0.24291885
0000b0 47 77 3e 3e d0 23 51 3e 1e 7f 01 3e 81 b5 45 be
       0.18600188 0.20423818 0.12646148 -0.1930752
0000c0 5b b7 b4 bd f8 65 b8 be 16 1e 79 bb 30 bb 54 be
       -0.08824035 -0.36015296 -0.0038012317 -0.20774531
0000d0 03 3b 8a 3e c2 75 14 3d 9c 64 c5 bc be de 47 3d
       0.26998147 0.036245115 -0.024095826 0.048796408
0000e0 ca 77 11 bf 16 c0 d8 be b7 d1 65 3f 30 eb ff bd
       -0.5682341 -0.4233405 0.89773124 -0.1249603
0000f0 55 a0 db be 36 12 33 3e 7b 81 cc 3e 6e 2f 76 3e
       -0.4289576 0.17487416 0.39942536 0.2404153
000100 78 75 47 3e 6f f0 a9 be 22 a0 69 3d 76 40 52 3f
       0.19478405 -0.3319125 0.05703748 0.8212961
000110 d5 9f bb be cc 69 9f be de 98 f7 bd 7b 3c e3 3e
       -0.3664538 -0.31135404 -0.12089704 0.4438208
000120 9b 24 3e 3e b9 e4 28 3e f7 9e e5 be b0 ce b7 be
       0.18568651 0.16493501 -0.44847843 -0.35899878
000130 b5 9f 50 3f f4 1a 6a be 66 27 1e bf 16 d5 5a bd
       0.81493694 -0.22861844 -0.6177887 -0.05342587
000140 43 48 15 3e 4a 6e f7 bc f4 b1 4f 3e 0a 5c e5 3b
       0.14578347 -0.030203957 0.20282727 0.0069994973
000150 a9 14 3d be dc d0 c7 3c cb ac 24 3f 4c be ea 3b
       -0.18464912 0.024391584 0.6432616 0.0071637984
000160 b0 d9 64 bc 86 af c0 3e 9f 9d b2 bd 2e 4e cb 3d
       -0.013967916 0.37633914 -0.0872147 0.09927021
000170 c4 65 ee 3d ac c8 ae be 2b ed 7f 3e 00 74 1f 3e
       0.11640504 -0.34137475 0.24992816 0.15571594
000180 3b 73 de be 73 8b 59 bd 48 d7 5a 3e 2e 39 4a 3e
       -0.4344729 -0.053111505 0.21371186 0.19748375
000190 bf e3 bc 3e 5f 62 fc 3e a3 f6 fd be 18 58 f2 3e
       0.36892506 0.492938 -0.4960223 0.47332835
0001a0 0c 6d 2e 3f 6f df f5 be 83 5e b1 3d 52 a3 89 3e
       0.6813514 -0.4802203 0.08660605 0.26882416
0001b0 8d 79 18 3f bf 94 3f bf e6 ae e5 bc 33 9c 39 bf
       0.5956047 -0.74836344 -0.0280375 -0.72503966
0001c0 7b cd 00 bf 1b 13 af 3e 30 15 a5 3d 53 26 e4 3e
       -0.5031354 0.34194264 0.08060682 0.4456049
0001d0 51 bc c4 3e d2 74 16 3e 18 26 34 bf af 64 0a 3e
       0.38424924 0.14693001 -0.70370626 0.1351497
0001e0 e3 f5 1e bf d5 0d 9e be 84 65 be 3e 91 5e 61 bd
       -0.62093943 -0.30869928 0.37186825 -0.055021826
0001f0 4f 96 df 3e 58 07 8c 3e b7 cc eb 3d ac 7f e6 be
       0.43669364 0.27349353 0.11513656 -0.4501928
000200 1b a4 0e 3d d0 79 74 bf cc 77 d1 bd be a4 06 3f
       0.034824472 -0.9549837 -0.102279276 0.52595127
000210 41 85 b0 bd af 2b e6 3e 5d f3 05 3f a8 c2 0f 3b
       -0.08619166 0.44955203 0.5232447 0.0021936093
000220 01 34 07 3f bf 59 78 3e 9e 3f a5 3e 67 62 44 3f
       0.52813727 0.24252985 0.322751 0.7671265
000230 04 fa 23 3e 28 32 33 bb c3 7e e4 3d f9 75 c7 be
       0.16013342 -0.0027343128 0.111569904 -0.38957193
000240 0e 11 d1 be ee c3 45 3e af fc d9 3d 36 c1 e8 bd
       -0.40833324 0.19313022 0.10643899 -0.11364977
000250 12 b7 b9 bb 90 d7 95 bd 63 79 be be 7e db b9 bd
       -0.0056675756 -0.07316506 -0.37201986 -0.09075068
000260 84 0a 04 be 5c d4 c2 3e 8f b3 17 3f f7 ab 48 3f
       -0.12894636 0.38052642 0.5925836 0.783874
000270 7e d3 6e bd dc cd 9d 3e f7 de 64 3e ae 76 5f 3d
       -0.058307163 0.3082112 0.2235068 0.05455654
000280 f2 f6 70 be 22 1f c9 be f8 84 f7 3c 34 36 32 be
       -0.23531702 -0.39281565 0.030214772 -0.1740349
000290 de 8c 21 be 42 96 05 be df 42 0c 3e 1c f4 d2 bd
       -0.15776393 -0.130456 0.13697384 -0.103004664
0002a0 53 f3 62 be 1c a3 60 be 21 07 6d be 7c 2f ad 3d
       -0.22163133 -0.21937221 -0.2314725 0.084563226
0002b0 84 24 05 3e 4e 3d b8 3d 30 71 33 bd a3 8d 79 3d
       0.13002211 0.08996068 -0.043809116 0.06092609
0002c0 dd 15 12 bf 86 c0 65 3e 91 6a a4 be 44 88 ac be
       -0.5706461 0.22436723 -0.32112554 -0.33697712
0002d0 fe 3f e0 3e 90 29 10 3f 0e e2 db 3e 70 ce 2e 3f
       0.43798822 0.5631342 0.42945904 0.6828375
0002e0 d6 f4 a1 3e 0f d3 1c 3e 90 2e 90 3e a1 d6 18 3f
       0.31632107 0.15314887 0.28160524 0.597025
0002f0 ee 28 73 3e 60 9e 4d 3f b0 01 58 3f 54 be 0b 3f
       0.23746082 0.80319786 0.84377575 0.5458729
000300 f7 ec 92 3d eb ad 00 3f f7 bb c5 3d 6a 53 02 bf
       0.07174104 0.5026538 0.09654992 -0.5090853
000310 5f 56 7c bf 7d c5 64 bf 1e 20 31 be ee 1b e3 be
       -0.9856929 -0.89363843 -0.17297408 -0.44357246
000320 5c 89 81 be 3f 2c 41 be 1e e2 4d bc 9a 49 63 3e
       -0.2530011 -0.18864535 -0.012566118 0.22196046
000330 4f 4d 73 be 39 08 5c bf 43 10 f1 be f6 88 3d be
       -0.2375996 -0.85950047 -0.4708272 -0.18509278
000340 b2 22 54 be 28 73 6a 3d b5 d9 00 3f fc 7f 1a 3f
       -0.2071636 0.057238728 0.50332195 0.6035154
000350 c2 30 c9 3e d6 f0 82 3e df 54 08 be e6 14 23 3c
       0.39295012 0.25574368 -0.13313626 0.009953713
000360 26 b2 0c 3f c7 f6 2e be af 7c 80 3e 95 2c 4f 3f
       0.5495933 -0.17086326 0.25095126 0.809274
000370 d9 15 49 be c6 1c a5 be d2 70 2b 3f 16 66 69 be
       -0.1963724 -0.32248515 0.66969025 -0.22792849
000380 6e 19 61 be 6a e7 72 3e 39 b3 08 bf 8a 90 0b bf
       -0.21982357 0.2372109 -0.5339847 -0.54517424
000390 cc a1 4a 3f b5 74 28 bf 2d b6 75 bf 51 ee 3f 3f
       0.7915313 -0.6580308 -0.95981103 0.74973017
0003a0 a7 ab d2 be 51 d1 28 bf a0 59 bd 3e be 87 8c 3e
       -0.41146585 -0.6594439 0.3698244 0.27447313
0003b0 8e 39 19 be bc a4 69 3f d5 15 2b bd 86 55 a3 be
       -0.14963362 0.9126699 -0.041768868 -0.31901187
0003c0 ca 3c 02 3f 22 4e c2 be de 7e 85 be c4 1c 9a 3d
       0.50874007 -0.37950236 -0.26073354 0.07525018
0003d0 94 d4 43 bf 0e c0 67 bd 9d b3 15 bf 38 de 11 bf
       -0.76496243 -0.056579642 -0.58477193 -0.56979704
0003e0 7c cd c0 3e e3 ae 45 3e ef 72 13 3f 6c 74 aa 3e
       0.37656772 0.19304995 0.5759725 0.33291948
0003f0 f3 af c1 3e 35 90 5c bf 19 ce 57 3d 69 52 a8 be
       0.3782955 -0.8615754 0.052686784 -0.32875374

conv1.bias f4 [32]
000000 58 60 12 bb b5 5c 41 bf 3b 0e b8 bd d6 5f 1f bf
       -0.0022335257 -0.75532085 -0.08987089 -0.6225561
000010 e5 8e 79 3e e2 4a 02 bd ac 33 42 bf 80 66 81 3d
       0.24370916 -0.031809695 -0.75860095 0.063183784
000020 5d 10 31 3e 9a c0 43 3f 97 19 11 3d e5 80 44 be
       0.17291398 0.7646576 0.035424795 -0.19189794
000030 b3 0c 35 3e 81 c4 9d 3e 70 22 f1 3e 86 14 e7 3d
       0.17680626 0.30813983 0.47096586 0.112832114
000040 0c b6 85 3c 38 5d 45 bd 27 68 ca be a9 38 d1 3e
       0.016322158 -0.048184603 -0.39532587 0.4086354
000050 85 9d a3 3e 7b f5 98 be 60 4e ec 3d 5b 91 11 bf
       0.31956115 -0.29874787 0.11538386 -0.5686242
000060 89 b6 a0 3d 98 cf b8 3e 5f 80 bd bd a3 ad 0a 3f
       0.07847316 0.3609588 -0.092530005 0.541712
000070 56 c1 2e be 61 4a 95 3e 66 18 46 bc 53 6f 5b be
       -0.1706594 0.2915831 -0.012090778 -0.21429186

batch_norm_2d_1.weight f4 [32]
000000 82 b4 04 40 65 72 4c 3f a1 3d b3 3f e7 41 3e 3f
       2.0735173 0.7986205 1.4003183 0.7431931
000010 a4 8b b0 3f a0 9b aa 3e ba 34 35 3f 91 b0 f6 3f
       1.3792615 0.33321857 0.7078358 1.9272634
000020 28 eb 80 40 22 04 f1 3f 56 e0 91 3f 76 6e 73 3f
       4.0287056 1.8829386 1.1396587 0.95090425
000030 90 42 42 40 b0 4f 1f 3f 94 60 16 3f 0d ff 95 3f
       3.0353127 0.6223097 0.58741117 1.171846
000040 b8 dc f4 3e 60 90 f7 3f 5a c8 82 3f 53 9b c2 3f
       0.47824645 1.9340935 1.0217392 1.5203651
000050 96 f8 fc 3f ef 5b 3d 3f a8 a8 d3 3e b6 27 f8 3e
       1.9763362 0.73968405 0.41339612 0.48467797
000060 32 a6 fe 3e 6e f4 6a 40 66 69 9d 3f 71 04 8e 3f
       0.49736172 3.6711688 1.229779 1.1095105
000070 93 37 5a 40 8a 26 aa 3f ab 5e 5b 3f bd 02 24 3f
       3.409642 1.3293011 0.85691327 0.6406668

batch_norm_2d_1.bias f4 [32]
000000 4e 0b 55 3f 00 97 d0 3e 9b a6 39 3f d2 8f 0d 3f
       0.83220375 0.40740204 0.72519845 0.5529758
000010 0c 03 0b 3f 02 3e e2 3e 78 5f 38 3f 54 7b 1d 3f
       0.54301524 0.44187933 0.72020674 0.6151631
000020 4c 90 b7 3f d3 32 38 3f 51 3c 29 3f ab 0b 52 3f
       1.4340911 0.7195255 0.6610766 0.82049054
000030 32 cd a7 3f 06 5e 7d bd c6 1a c9 3e ce 83 d9 3d
       1.3109496 -0.061857246 0.3927824 0.10620843
000040 ad e3 c0 3e 9f e6 5a 3f 48 8d 0f 3f e3 8d 08 3f
       0.37673703 0.8550815 0.56074953 0.533415
000050 db 3b 55 3f 4b d0 3f be dc 92 af 3e 70 d4 b5 be
       0.8329446 -0.18731801 0.34291732 -0.3551364
000060 d6 ce 06 3f 70 9e ab 3f 40 f5 5e 3f 19 bb ed 3e
       0.52659357 1.3407726 0.8709297 0.46431807
000070 7d 5e b7 3f 4d 0e 1d 3f 34 e6 f9 3e 68 1a 0c 3f
       1.432571 0.61349946 0.48808444 0.5472779

batch_norm_2d_1.running_mean f4 [32]
000000 c9 25 20 3f da 9c 90 3e a4 37 b8 3e e9 28 c5 3e
       0.62557656 0.28244668 0.3597995 0.38507774
000010 d5 fc 39 3f 10 37 13 3f a5 f9 3c 3e 36 72 0e 3f
       0.72651416 0.57505894 0.18454607 0.5564302
000020 5c c0 58 3f 6b 2a 89 3f cc 7d 4f 3f 2f 5b 91 3e
       0.8466852 1.071607 0.81051326 0.2838988
000030 2b 3c 6d 3f db f8 67 3f 24 23 23 3f b6 2c 65 3f
       0.92669934 0.906141 0.63725495 0.8952135
000040 b0 1a bc 3e 20 df 16 3f 87 eb be 3e c7 14 49 3f
       0.3673911 0.5893421 0.37289068 0.7854733
000050 a7 29 56 3f 4b 6b 9c 3d ba 01 48 3f ba 01 48 3d
       0.83657306 0.07637652 0.78127635 0.04882977
000060 84 3a 12 3f 28 60 68 3f aa 44 33 3f 2e 8f 2b 3f
       0.5712054 0.9077172 0.7002665 0.6701535
000070 ee f4 d0 3e 3a 90 72 3f 34 7f ed 3e 3f 76 24 3f
       0.40811867 0.9475132 0.4638611 0.6424293

batch_norm_2d_1.running_var f4 [32]
000000 9b 9c 2d 3f a2 95 6f 3e ec b7 47 3e 7e c0 fc 3e
       0.67817086 0.23396924 0.19503754 0.4936561
000010 a7 f8 16 3f 34 5e 28 3f b0 d8 39 3e 35 c5 f4 3e
       0.58973163 0.6576874 0.18149066 0.47806707
000020 bc 7c 8e 3f 8a c4 09 3f 34 38 57 3f 78 85 2c 3e
       1.1131816 0.5381552 0.84070134 0.1684779
000030 df 0e b6 3f 89 07 4d 3f 80 f5 67 3f bb 2f 6e 3f
       1.4223288 0.8008962 0.9060898 0.9304158
000040 a5 c4 5a 3e 98 2b 47 3f ec 40 f4 3e 8d d5 ab 3e
       0.21364076 0.77800894 0.4770578 0.33561364
000050 20 f3 41 3f d7 b8 16 3d 6a a3 9c 3f 1e 98 fd 3c
       0.75761604 0.03679737 1.223737 0.030956324
000060 d1 aa 04 3f 69 6d 5e 3f 02 05 a4 3f 50 03 51 3f
       0.51823145 0.86885697 1.2814028 0.8164568
000070 13 63 db 3e a0 4a 4f 3f ca e7 a1 3e e2 54 51 3f
       0.42849025 0.80973244 0.31622154 0.81770146

conv2.weight f4 [64, 32, 3, 3]
000000 e3 bc 7c be 8e 55 b2 3d ee fd b2 3e f9 2b ba 3e
       -0.2468143 0.087077245 0.34959358 0.36361673
000010 03 3a 1e 3f 63 85 2e 3d ac 0b c6 3e b7 a9 b5 bd
       0.6180727 0.042607676 0.3868078 -0.08870261
000020 12 07 d0 3c ea 16 18 be 96 08 88 be cb 21 6f bd
       0.025393996 -0.14852491 -0.2656905 -0.058381837
000030 54 14 e8 bd c7 8c db 3e e6 cb ee 3e 66 c4 6d 3e
       -0.11332002 0.42880842 0.46639937 0.23219451
000040 7d a5 a3 3e 60 e7 ac 3e 70 53 4e 3d a6 2c ec be
       0.31962195 0.33770275 0.05037254 -0.46127814
000050 8f 05 fc 3d 01 cb e1 3d b9 9b 5c bd 05 f8 2f be
       0.12305748 0.11025048 -0.053859446 -0.17184456
000060 b2 a5 86 3d 75 46 37 bd ad 9f 79 be 03 60 f4 3e
       0.065745726 -0.044744927 -0.24377318 0.477295
000070 a5 eb 1c 3e 8d 0c 8d 3e e8 f7 86 3c 5a cf 18 3d
       0.15324266 0.27548638 0.016475633 0.03730712
000080 f2 59 ff bd 9e 68 2f be b4 1e a6 be 16 80 1a be
       -0.124683276 -0.17129752 -0.324453 -0.15087923
000090 69 53 7f 3d a2 bd 30 bd 70 d6 36 be 68 2e fe bc
       0.062335405 -0.043149598 -0.17855239 -0.031027988
0000a0 65 90 65 be 06 ec 86 3d 32 48 c7 3e 27 1f c9 3e
       -0.22418363 0.06587987 0.38922268 0.3928158
0000b0 21 f1 82 3e a1 bf fa 3e 79 e9 0e 3f 8d 54 ad 3e
       0.25574592 0.48974326 0.55825 0.3385357
0000c0 37 ea 53 3d 46 d1 ca bd 1a 1e 47 bd 92 5b b4 3d
       0.051737037 -0.09903197 -0.04861269 0.08806528
0000d0 a3 ad 50 be a0 0c da be 6a f7 08 3f 33 73 1e 3f
       -0.20378737 -0.42587757 0.53502524 0.6189453
0000e0 b9 ed 36 3f a7 85 63 3e f6 02 38 3e 7d 72 4c bd
       0.71456486 0.22218953 0.1796988 -0.049913872
0000f0 20 33 f8 bd fe 9e 19 bf c0 28 05 bf 30 49 35 be
       -0.12119126 -0.6000823 -0.52015305 -0.177037
000100 83 c4 03 3d e2 d4 1b 3e 1c 59 1f 3e 49 ee 23 3f
       0.03216983 0.15217927 0.15561336 0.6403547
000110 28 24 9e 3e 9b 4c cf 3e e1 00 62 3e 48 14 94 3d
       0.3088696 0.40488133 0.22070648 0.07230431
000120 c3 3a af be ee 6e a7 3d 88 4b 84 3e 75 bd ec 3b
       -0.3422452 0.08175455 0.25838876 0.0072247335
000130 e6 01 a5 3e 60 f2 5c be 99 bb d4 3d c0 44 cc bd
       0.3222801 -0.21576834 0.10387344 -0.099740505
000140 17 c8 d2 3d df 4f c7 bd 1b e0 b8 3d 05 eb 8b be
       0.1029207 -0.09732031 0.0902712 -0.27327743
000150 a9 26 3b be a8 b3 c6 be 50 b1 46 be 89 3c eb 3b
       -0.18276466 -0.38808942 -0.19403577 0.007178847
000160 01 ff 26 3e 29 b7 a7 3e ef 1a 5d 3d 75 fc c6 3d
       0.16308214 0.32756928 0.053980764 0.09716121
000170 2f 5d aa 3d 93 67 68 3e 5e 6e e4 3e 2e b5 8c 3e
       0.083185546 0.2269576 0.44615453 0.2748198
000180 0a 60 3b bd 6e 69 33 be 77 c4 5a be a8 90 da 3e
       -0.045745887 -0.17520687 -0.21364008 0.4268849
000190 d3 78 37 3e d2 0f b2 3e e8 f0 81 3e 8b ef 63 3e
       0.17917185 0.34777695 0.2537911 0.22259347
0001a0 f9 a1 92 bd 73 d1 48 be 65 5d 91 bd ab 74 9f be
       -0.071598 -0.19611149 -0.07097892 -0.31143698
0001b0 74 94 7b bd 2a 25 15 be 00 e1 c1 be 82 c7 a0 bd
       -0.061420873 -0.14564958 -0.37866974 -0.07850553
0001c0 4c c7 91 be 06 e7 d4 bd 1e f5 cd 3c 3e e9 92 3c
       -0.28472364 -0.10395627 0.025141295 0.017933484
0001d0 57 06 19 3e 10 f0 8f bd 43 14 71 be b4 d2 9d be
       0.14943825 -0.0702821 -0.23542885 -0.30824816
0001e0 de ed 27 3e bc f7 da 3d 60 67 fc 3e 0a 5e 9c 3e
       0.16399333 0.10691783 0.4929762 0.30540496
0001f0 46 50 c6 3e 77 51 92 3e 75 2e a0 3e 54 02 48 3e
       0.3873312 0.28577778 0.31285444 0.19532138
000200 aa f6 bb 3e 7d cc be bd 24 6a a5 be 45 3a ae be
       0.36711627 -0.09316347 -0.3230754 -0.3402883
000210 78 4a 37 3c 27 8c 18 be 96 fe 89 be 48 52 c8 3b
       0.011187188 -0.14897214 -0.26952046 0.0061133243
000220 dc 82 f1 bd 3e 7a 84 be 49 e5 ee bd 09 8d b0 3c
       -0.117925376 -0.25874513 -0.116648264 0.021551626
000230 5a 49 48 3e 5a a5 4b 3e 48 38 7b be 2c 19 e4 bd
       0.19559231 0.19887295 -0.24533188 -0.11137614
000240 0f 2d 14 be 5f ee 57 3d fc 23 5b 3d 36 26 bb be
       -0.14470313 0.052717563 0.053501114 -0.3655259
000250 4b ad 0f 3d 6a f7 8a be 4d d9 c6 be ff 08 54 be
       0.035077374 -0.27141887 -0.38837662 -0.20706557
000260 a0 e8 8a bd c5 88 2f bd 90 2f fc be f7 7f fe be
       -0.06782651 -0.042855043 -0.49255037 -0.49707004
000270 de c5 7e be e5 f1 cd be 7b eb aa 3d cd 5e 25 3e
       -0.24880168 -0.40223613 0.083456956 0.16149445
000280 7c 2d f8 3d 3d 40 06 3c fa 6d 6d be 19 80 ce 3d
       0.121180505 0.008194027 -0.23186484 0.100830264
000290 ac a0 5d be 68 9f 8e bd f2 f0 6c be b6 92 08 bd
       -0.21643323 -0.06963998 -0.23138788 -0.03334304
0002a0 72 8c 4a be 84 5c 33 3e 3c 63 94 bc a4 82 15 3d
       -0.19780138 0.1751576 -0.018113725 0.03650154
0002b0 7a a3 cc 3d 20 34 3f bd 7b fb 42 be f0 6c f1 be
       0.09992118 -0.04668057 -0.19041245 -0.47153425
0002c0 54 27 87 3d ae 06 98 be 92 88 03 be 22 21 da 3c
       0.06599298 -0.29692596 -0.12845066 0.026627127
0002d0 6a 3a 38 be 54 36 5f bc e3 54 ba 3d c1 cf b7 3c
       -0.17991033 -0.013623793 0.09098222 0.022437932
0002e0 9b da 1b bd 69 42 f0 3d 6c fe f6 3d c1 3f 9d bc
       -0.038050275 0.11731417 0.12060246 -0.01919544
0002f0 4e 2f 3a 3e 16 0f 0e 3f be d7 55 3f 46 b9 ef 3e
       0.18182108 0.5549177 0.8353232 0.4682104
000300 a9 cf b5 3e f8 ae 93 3e 77 7c 43 3e 53 cd 3a bd
       0.35509995 0.28844428 0.19090448 -0.04560597
000310 f5 9d 9c be d6 31 14 bf a6 ac e6 3e a0 a4 9b bb
       -0.30589262 -0.57888544 0.45053595 -0.0047498494
000320 b9 14 92 3e c2 88 af bd 3e 49 8e bd 76 dc e1 3d
       0.28531435 -0.08571006 -0.069475636 0.11028378
000330 32 e8 6e 3d 37 67 f1 bd 6d ce 76 3d 09 80 c0 3e
       0.058326907 -0.11787265 0.060255457 0.37597683
000340 7b 48 04 3f 7d 5b 10 3f 5c f0 af 3e b7 f5 0e 3e
       0.51673096 0.563896 0.34363067 0.1396092
000350 85 25 75 3e 16 07 14 bd ae bd 53 bc bc bd df be
       0.23940094 -0.03613957 -0.012923641 -0.43699443
000360 ca db f0 3d b2 1d 4f 3e 1a 38 a5 3c 0e 4a 07 3d
       0.117606714 0.20226172 0.020168353 0.03302961
000370 1a f4 0f be 5c ea 1e 3c 54 96 91 be 93 1c 9a be
       -0.14057961 0.00969943 -0.28435004 -0.30099925
000380 ab d0 b0 be 3c 21 85 bd 3e 02 c7 3d 6e 01 a5 be
       -0.345342 -0.065004796 0.097172245 -0.32227653
000390 98 d1 81 be 1a c4 b5 be c4 32 ad 3d a4 9c 0d be
       -0.2535522 -0.35501176 0.084569484 -0.13829285
0003a0 37 b0 f9 3d 5b 0f 35 3e a5 02 ca 3e 2c f5 02 3f
       0.121918134 0.17681639 0.39455143 0.5115535
0003b0 8c 9a 0b 3f 79 fd a6 3d b8 be 4e bc c9 96 3d 3e
       0.54532695 0.08153815 -0.012618713 0.18514551
0003c0 f8 94 0f be 04 88 d5 be 65 00 4e be 2b 4d 2e 3d
       -0.14021671 -0.41705334 -0.20117338 0.04255406
0003d0 45 2a 29 3e d6 1d 92 bd 23 3e ea be e5 59 15 bf
       0.16520031 -0.07134597 -0.45750532 -0.58340293
0003e0 37 3c a5 be 87 33 c2 be de 36 9b bd 06 a7 c4 3e
       -0.32272503 -0.37929937 -0.075788245 0.3840868
0003f0 f0 d5 29 3e d2 23 24 3c 8f e4 75 3e 63 9d 44 3d
       0.16585517 0.010018306 0.2401297 0.04800166

conv2.bias f4 [64]
000000 b6 45 80 bd 50 5a a0 3d 52 17 b5 3e 2a 64 60 3e
       -0.06263296 0.07829726 0.35369354 0.2191321
000010 5a 97 bc 3d c7 e0 e5 be 5a 26 b2 be 2e 68 9f 3e
       0.092085555 -0.44898054 -0.34794885 0.3113417
000020 91 38 20 3e 6a 40 de bc 92 e3 28 3e ae ae 96 be
       0.15646578 -0.027130324 0.16493061 -0.29430145
000030 af a6 42 be 8f b0 ca be 32 e5 4f be 41 44 ea 3d
       -0.19008897 -0.3958783 -0.20302275 0.114388
000040 49 bc 61 3e d0 13 e7 3e 06 b2 15 be 3d 9b 2e be
       0.22044481 0.45132303 -0.14618692 -0.17051406
000050 41 53 7c 3e 15 30 0d be 38 d1 b4 be d0 80 f7 3b
       0.24641134 -0.13787873 -0.3531587 0.0075531974
000060 39 7b 8c 3d 22 c5 bc 3e 22 21 8a be b3 d4 1d bc
       0.0685944 0.3686915 -0.26978403 -0.009633231
000070 ea a9 b9 be bd 76 94 3e 23 94 8c 3d d8 d9 51 3d
       -0.36262447 0.2899684 0.06864192 0.051233143
000080 e2 38 e6 be 85 28 82 3e 07 68 c0 3d 7c 82 81 bc
       -0.44965273 0.2542154 0.09394842 -0.01580929
000090 21 45 ce bd 26 f1 09 3c 8a 58 d8 be 32 75 df bd
       -0.10071779 0.008419311 -0.4225505 -0.10911025
0000a0 b8 4c 92 bd 71 10 5c 3e 32 f2 08 3d 58 c1 ac 3d
       -0.07143539 0.21490647 0.0334341 0.08435315
0000b0 7a 6f 0f 3f a9 21 86 be c7 c1 e1 be 59 6f c4 bc
       0.56029475 -0.26197556 -0.44093153 -0.023978876
0000c0 10 a2 52 3d 49 62 33 3c 12 d3 ab 3d 2a d4 b7 be
       0.051424086 0.010948726 0.08389868 -0.35904056
0000d0 22 35 8d 3e 0a 39 ae bd a8 9a 8c 3e a8 b4 b8 be
       0.275796 -0.08506973 0.27461743 -0.3607533
0000e0 d5 de bb be b6 00 5e 3d f0 76 6c be c3 b8 6a be
       -0.36693445 0.054199897 -0.23092246 -0.22922044
0000f0 99 7d e8 3c 24 83 c3 bb 2e 23 53 bd 4a 0d 9e 3e
       0.028380202 -0.005966561 -0.05154722 0.30869514

batch_norm_2d_2.weight f4 [64]
000000 7d 23 b4 3f 84 37 36 3f fc c0 d0 3f 6e d9 0f 40
       1.407333 0.7117846 1.6308894 2.2476459
000010 17 a1 ea 3f 6f 49 fd 3f 53 da b3 3f 35 91 fe 3f
       1.8330411 1.9788035 1.4051002 1.9888064
000020 d7 95 e1 3f 42 fa a8 3f b0 22 84 3f d9 77 08 40
       1.7623852 1.3201373 1.0323086 2.132315
000030 76 81 db 3f db aa ba 3f 22 4d 1d 40 c8 4c 39 40
       1.7148883 1.4583391 2.4578328 2.8953114
000040 50 83 7d 3f e8 f3 38 40 b4 da cd 3f 74 ee 0d 40
       0.9902849 2.8898869 1.6082368 2.217679
000050 eb 8d af 3f 71 6c d9 3f 75 cd 2d 40 7e 06 a9 3f
       1.3715185 1.6986219 2.715665 1.3205106
000060 ac 05 fc 3f d5 a7 d4 3f af af c1 3f 09 86 bf 3f
       1.9689231 1.6613718 1.5131739 1.4962779
000070 51 00 b9 3f bf a6 18 3f 94 79 14 40 a2 e2 da 3f
       1.4453222 0.59629434 2.3199205 1.7100413
000080 9a 7d 09 40 d0 47 d1 3f 6d 2c e7 3f e7 a0 43 3f
       2.148291 1.635004 1.8060433 0.7641739
000090 df 1a e2 3f 8e 78 1e 40 ae 81 c7 3f 63 e1 81 3f
       1.766445 2.476108 1.558645 1.0146908
0000a0 f9 f2 43 3f 85 5e a4 3f 21 94 b3 3f 2e 30 b3 3f
       0.7654262 1.2841345 1.402958 1.3999078
0000b0 0f 48 74 3f b5 0a e6 3f 71 e9 30 3f 96 8f e6 3f
       0.9542245 1.7972018 0.69106203 1.8012569
0000c0 11 93 c0 3f 68 ec 29 40 52 9c dc 3f b8 03 e9 3f
       1.5044881 2.655054 1.7235205 1.820426
0000d0 60 0b b5 3f f4 8b f0 3f 94 70 92 3f 5f 21 05 40
       1.4144096 1.879271 1.1440606 2.0801618
0000e0 59 91 ad 3f 32 7e 58 3f b8 61 ea 3f d9 e4 00 40
       1.3559982 0.8456756 1.8311071 2.0139678
0000f0 a3 d6 a0 3f ac 52 b6 3f 1d bd 9b 3f e4 aa 6b 40
       1.2565502 1.424398 1.2167088 3.6823053

batch_norm_2d_2.bias f4 [64]
000000 19 5c 03 3f 3e 59 a0 3e 54 81 4f 3f 31 22 3e 3f
       0.51312405 0.31318086 0.81056714 0.7427092
000010 d8 6a 0d 3f bc a0 07 3f 9d 49 09 3f 77 3e da 3e
       0.55241156 0.52979636 0.5362795 0.42625782
000020 3d 06 c5 3e 73 74 94 3e 69 32 ca 3e 56 b1 9a 3e
       0.38481322 0.28995094 0.39491585 0.30213422
000030 c6 e2 bf 3e 68 a6 55 3e d7 c8 f7 3e 1c e3 14 3f
       0.37477702 0.2086426 0.48395416 0.5815904
000040 b4 c0 d1 3e 6a 2e 54 3f 64 d8 6b 3f ae 63 95 3e
       0.40967333 0.8288332 0.9212706 0.29177612
000050 30 66 aa 3e a5 32 bf 3e 35 25 6a 3f 69 cb 02 3f
       0.33281088 0.37343326 0.91463023 0.5109163
000060 b9 60 78 3f 98 5e 1b 3f e5 b1 ef 3e 3c 96 dd 3d
       0.9702259 0.60691214 0.4681541 0.108196706
000070 2c 5f 7c 3f 05 5f f7 3d ba b3 2b 3f 5c 4c 4f 3f
       0.9858272 0.120786704 0.67071116 0.8097589
000080 74 5d 44 3f 06 5a 1c 3f f4 9d 22 3f 18 22 9d 3e
       0.767051 0.61074865 0.6352227 0.30690074
000090 fe 3c a0 3e de 69 e5 3e ef dd ca 3e 9c 94 25 3f
       0.31296533 0.44807333 0.39622447 0.64679885
0000a0 64 98 c5 3d a5 07 ed 3e 5a af a1 3e 2e 4c a1 3e
       0.09648207 0.46294895 0.31579095 0.31503433
0000b0 b6 eb d1 3e ef c1 47 3f 2a 36 ac 3e f9 f8 15 3f
       0.41000146 0.78030294 0.33635074 0.5858303
0000c0 61 7b 77 3f 23 f4 c1 3e 74 b2 f3 3e de 75 e0 3e
       0.96672636 0.37881574 0.47597086 0.43839926
0000d0 ee c6 73 3f 0b e9 4d 3f fc a5 08 bd f3 2b 2c 3f
       0.9522542 0.8043372 -0.03336142 0.6725456
0000e0 bc f9 3a 3f 0d f9 08 3e 83 0a 02 3f f1 02 c8 3c
       0.73037314 0.13376255 0.5079729 0.024415465
0000f0 c8 55 10 3f ee 4b ed 3e 40 8f 79 3e 0c 2d 6c 3f
       0.5638089 0.46346992 0.24371052 0.92256236

batch_norm_2d_2.running_mean f4 [64]
000000 83 7a 4b 41 84 30 75 41 33 6a 27 40 56 7a 8b 40
       12.71741 15.324345 2.615857 4.3586836
000010 5e 05 01 41 e1 4c b0 40 04 c5 33 3f fc e1 9e 3f
       8.06381 5.5093846 0.70222497 1.2412715
000020 87 6e f1 3f 8d b5 0d 40 a6 8c 39 40 d6 04 1f 40
       1.8861855 2.214206 2.8992095 2.4846702
000030 11 a4 1e 40 64 06 61 40 1c 2d 98 40 fd 6c 92 40
       2.4787638 3.516015 4.7555065 4.575804
000040 9c e5 82 41 5a 19 00 41 12 15 92 40 1a 43 08 40
       16.362114 8.006189 4.565072 2.1290956
000050 1e 59 03 40 50 55 e1 3f 06 41 78 40 b5 75 8c 40
       2.0523143 1.760416 3.8789687 4.3893685
000060 e6 d7 f9 3f 54 42 d5 40 06 4a 71 3f 70 b4 2a 41
       1.9519012 6.6643467 0.94253576 10.669052
000070 f7 67 96 40 20 d3 7e 41 bf 13 af 40 a5 2a 2b 40
       4.700191 15.926544 5.4711604 2.6744778
000080 d5 97 e1 3f 7e ba ab 40 26 e9 ae 40 8e 70 de 41
       1.762446 5.366515 5.4659605 27.804958
000090 f9 aa 27 40 fa 8d 70 40 9c 3a 08 41 de 72 4c 40
       2.6198103 3.7586656 8.514309 3.194511
0000a0 b1 2d 01 41 28 57 ca 3e da 2d 40 40 41 d0 7e 3f
       8.073655 0.3951962 3.0027986 0.9953652
0000b0 e4 08 a7 41 6f f6 c4 3f 13 f5 53 41 79 66 c8 40
       20.879341 1.5387706 13.247333 6.262509
0000c0 14 2c 0b 40 b9 75 e0 40 28 26 09 41 a6 d1 4c 40
       2.1745653 7.0143704 8.5718155 3.200296
0000d0 20 92 49 41 16 37 a5 40 51 eb f2 3f 81 59 31 40
       12.598175 5.1629744 1.8978063 2.771088
0000e0 b1 77 84 40 55 39 8b 3f 25 bb 4e 40 76 23 66 40
       4.139611 1.0876871 3.2301724 3.5959144
0000f0 7a c4 96 40 c7 c1 96 40 19 e5 e3 3f 29 e3 f8 40
       4.711484 4.7111545 1.780429 7.7777295

batch_norm_2d_2.running_var f4 [64]
000000 44 91 51 43 76 e7 69 43 82 ea 08 42 7e 67 72 42
       209.56744 233.90414 34.22901 60.601067
000010 cf 9d b7 42 1c 11 b3 42 7a b3 e4 40 1c 59 57 41
       91.80822 89.53342 7.1469088 13.459255
000020 4a 1e 97 41 44 9e da 41 a9 3b db 41 c6 08 fa 41
       18.88979 27.327278 27.40413 31.254284
000030 b2 05 d0 41 c9 c3 73 42 a2 a6 ad 42 7b ac 52 42
       26.00278 60.941196 86.825455 52.668438
000040 ff 3c 58 43 4e 23 c0 42 1c 47 b1 42 d5 ea c2 41
       216.23827 96.068954 88.638885 24.364664
000050 aa 9c bb 41 c7 2b b7 41 1f 5c 4c 42 c5 15 2b 42
       23.451496 22.896376 51.089962 42.77126
000060 e4 3f f5 41 e9 b3 c4 42 10 0a 6b 41 9c 49 3c 43
       30.656197 98.35139 14.689957 188.28754
000070 ca ff b9 42 99 40 79 43 2d 56 b6 42 75 00 1c 42
       92.99959 249.25233 91.16831 39.000446
000080 36 e9 af 41 d7 9d 99 42 f6 86 a6 42 ec 46 a3 43
       21.988873 76.80828 83.263596 326.55408
000090 20 4c ed 41 ee e4 69 42 be 73 fe 42 8c 17 45 42
       29.66217 58.473564 127.22606 49.272995
0000a0 3b f6 cd 42 dc ba 3f 40 3b 66 06 42 bf f6 04 41
       102.98092 2.99578 33.599834 8.310241
0000b0 e3 d6 6a 43 11 74 a1 41 57 89 4c 43 8a 1c e1 42
       234.8394 20.181673 204.53648 112.55574
0000c0 7a fc f2 41 81 77 c8 42 3c 98 02 43 7c 81 48 42
       30.37328 100.233406 130.59467 50.12645
0000d0 15 71 1f 43 fe 1b 80 42 26 46 84 41 53 c5 02 42
       159.44173 64.05467 16.534252 32.6927
0000e0 84 fe 78 42 1a 5e 8a 41 68 4e 0f 42 f0 f6 30 42
       62.24855 17.295948 35.82657 44.24115
0000f0 a0 0d ae 42 61 06 5f 42 a0 af 9f 41 94 cb c0 42
       87.02661 55.75623 19.960754 96.39761

conv3.weight f4 [128, 64, 3, 3]
000000 ac 6b 5f be ef 0b b4 bd 9e 06 14 bf 93 0d 2f be
       -0.21818417 -0.08791339 -0.578226 -0.17095022
000010 b1 c8 83 be f2 de 98 be 53 a3 4c bd 6b 83 15 be
       -0.25739053 -0.29857594 -0.049960446 -0.14600913
000020 42 ce ef be c0 d9 59 bc a2 6e d7 3d 86 68 c8 bb
       -0.4683705 -0.013296545 0.105191484 -0.006115976
000030 a4 7a bd bb 4e ca 71 be 59 cd f3 3d b7 7f 35 be
       -0.005782442 -0.2361233 0.11904401 -0.177245
000040 64 ee 14 bd 38 01 ae 3e 1e 69 9f be fb 0b c6 bd
       -0.03636016 0.33985305 -0.31134886 -0.09670254
000050 a6 75 30 3c aa d5 b5 bd 22 bf 74 3c 1f fd 92 3d
       0.010770237 -0.08878644 0.014938148 0.07177185
000060 8c 8e d8 bd e2 c0 8c 3d 72 30 b4 3d d0 9c 9e 3d
       -0.10574064 0.06872727 0.08798303 0.07744753
000070 12 db 0d 3d 8c 6e fd bb 5c 8b ad 3d f3 0f 77 be
       0.03463275 -0.0077341255 0.08473846 -0.24127178
000080 5e 6e 05 be ca 95 32 3e 5c cc 74 be ad db c9 3d
       -0.13030383 0.17439952 -0.23906082 0.09856353
000090 23 30 99 bd 1c db f3 be c2 6c 3b 3d c3 10 57 be
       -0.074798845 -0.47628105 0.045758016 -0.21002488
0000a0 62 f9 ea bd 52 9c 06 3d d1 9b 8c 3e c5 32 91 3e
       -0.11473347 0.032863922 0.27462628 0.28359047
0000b0 a8 38 43 3e 73 7d e6 bd b3 bc 42 bc 9c c2 48 be
       0.19064581 -0.11254396 -0.01188581 -0.19605488
0000c0 20 dd 6b ba f5 14 7b bd e4 e9 1e bd 7a 8d 1b bd
       -0.0008997489 -0.061299283 -0.038797274 -0.03797672
0000d0 f5 b4 39 3d 4b 6b 22 be 45 3c 64 3e f4 b2 98 3e
       0.04533859 -0.15861242 0.22288616 0.2982403
0000e0 a7 dc 09 3e 11 66 a2 be 81 f2 db bd 2a 94 7d 3c
       0.13463078 -0.31718495 -0.10739613 0.01547722
0000f0 58 1c 78 be 1e bd 73 bc 8d 2e 01 3e 18 75 8a bd
       -0.24229562 -0.014876632 0.12615414 -0.06760615
000100 0a c5 c3 bb 88 0b d0 bd 23 e4 4e be f0 47 50 bb
       -0.0059744166 -0.101584494 -0.20204215 -0.003178116
000110 9f 43 6a be a4 52 67 bd c5 72 e7 bd 0f 8c 88 bd
       -0.22877358 -0.056475297 -0.113011874 -0.06667339
000120 21 93 2b be 77 f7 24 be 72 db 11 3c 9e 7d e9 bd
       -0.16755344 -0.16110025 0.0089024175 -0.11400913
000130 f8 b7 e0 3b 22 0c 19 be 62 b0 a7 3d 81 6e 74 3d
       0.0068578683 -0.14946035 0.08187939 0.059675697
000140 ae 07 4c 3e f7 dd be bd 54 72 ad 3c 8a 7f 24 3c
       0.19924805 -0.0931968 0.02117268 0.010040173
000150 cd d1 b6 3b 61 c3 64 be e2 50 45 be 66 c5 3c 3d
       0.0055792094 -0.22340156 -0.19269136 0.04608669
000160 3c a4 ea bd 12 bd 55 be 34 78 bd bc 93 1a 36 3e
       -0.114571065 -0.20872906 -0.023128606 0.17783575
000170 20 b5 d4 3a c2 b9 85 be 14 66 93 be 2d 94 04 bd
       0.0016228296 -0.26118284 -0.28788817 -0.032367874
000180 d7 bc 8b be 1a 8d 56 bc 94 4e 8c 3e bd e4 84 be
       -0.2729251 -0.013095165 0.274037 -0.25955763
000190 2d c1 a8 be bc 52 5c be ea 1c b2 bd 2a 75 46 be
       -0.3295988 -0.21515936 -0.08696921 -0.19380632
0001a0 29 9d 9a be 01 9a 23 3e 88 0c 7e 3b 06 11 fc 3d
       -0.3019803 0.15976717 0.0038764793 0.123079345
0001b0 bb 2b b9 be 51 00 02 3d 9f 82 4a be 48 6d 37 3e
       -0.36166176 0.031738583 -0.1977639 0.17912781
0001c0 15 41 75 be 5f e1 2c be a1 c1 2b 3e 2f 9a 8e bd
       -0.23950608 -0.16882847 0.16773082 -0.06963002
0001d0 71 20 c8 bc 8f ae ad be 7a 1f 81 be 73 77 a2 be
       -0.024429532 -0.3392224 -0.25219327 -0.31731758
0001e0 6b 57 e4 be 19 75 93 be 8a 93 9a be bc 07 80 be
       -0.44597945 -0.28800276 -0.30190688 -0.250059
0001f0 c2 47 d9 bb 17 8c ab be 37 fd 40 be e8 05 a0 3c
       -0.0066308687 -0.33505318 -0.18846594 0.019534066
000200 3c 50 8e bd 4c 85 17 3e cc 55 ad 3c d2 23 97 be
       -0.06948897 0.14796942 0.021159075 -0.29519516
000210 b5 20 b5 bd 46 33 3f 3e 2b 7f 0b be cf 95 0e be
       -0.08844129 0.18671903 -0.1362273 -0.13924335
000220 5e 38 a8 bd 82 8c cc bd 47 53 65 3e a2 9c 92 bd
       -0.08213876 -0.09987737 0.22395049 -0.071587816
000230 d1 fa 55 3d d9 34 a4 be 8f 09 b6 be 5e fb 8f be
       0.05224115 -0.3207157 -0.35554168 -0.28121465
000240 d0 7b 96 be 6b 26 87 be cf 74 01 3d dd f2 f7 bd
       -0.29391336 -0.26396498 0.031605538 -0.12106869
000250 a1 05 da be 5f 43 55 be 1b ef 1f be b8 b3 01 be
       -0.4258242 -0.20826481 -0.15618555 -0.12666214
000260 39 ca e1 bd 1d 86 8a bb da 47 44 be 24 78 55 be
       -0.11024899 -0.0042274133 -0.19168034 -0.20846611
000270 b0 e9 f4 bb b8 27 ea bd aa 4a 7b be 3b d4 03 be
       -0.007474147 -0.11433357 -0.24540201 -0.12873928
000280 58 77 85 bc 92 72 88 be 85 3d 9e bd f0 98 a7 bd
       -0.01629226 -0.2664991 -0.07726578 -0.081834674
000290 82 f9 2d 3e f1 51 c2 be 40 81 3f 3e 82 d0 b8 bc
       0.16989711 -0.3795314 0.18701649 -0.022560362
0002a0 40 e4 b9 be e9 15 35 3d f4 69 a0 3e 34 33 58 3e
       -0.36306953 0.04421035 0.31330836 0.21113282
0002b0 d8 83 cd 3c 14 ed d8 bd c9 20 a5 3e 34 6e 17 3e
       0.025087282 -0.10592094 0.32251576 0.14788133
0002c0 f0 0e 61 ba d6 cb b2 3b 33 60 22 3e 21 ed e6 3d
       -0.00085852947 0.005456428 0.1585701 0.112756975
0002d0 aa 05 ca bc fd af 0d be a2 7b e9 bc 54 40 1e be
       -0.024660904 -0.13836665 -0.028501336 -0.15454227
0002e0 2b 67 c3 bd a7 1b 95 bd a7 26 70 be 49 03 b3 bd
       -0.09541162 -0.07280665 -0.23452245 -0.08740861
0002f0 60 19 40 be 12 8d 5b be 14 d8 a8 bd 0e 75 9b bd
       -0.1875968 -0.21440533 -0.08244339 -0.07590686
000300 db 15 51 bc 51 c2 0a bd 6f 85 6d be 76 c2 49 3d
       -0.012761558 -0.03387672 -0.23195432 0.049257718
000310 43 89 17 3e 47 65 35 3e ac 1d 8b be 22 cd 5a be
       0.14798455 0.17714415 -0.27171075 -0.21367314
000320 5c 75 83 be f6 59 48 bd 40 b1 9d be d8 b0 c1 bb
       -0.25675476 -0.04891392 -0.30799294 -0.005910974
000330 ec 49 3e be a4 77 54 3b 62 65 5b 3c 29 bd 86 be
       -0.18582886 0.0032419944 0.013390871 -0.26316193
000340 25 77 83 bd 9a ef fa bd 6b 8a f1 be e7 23 e8 3c
       -0.064192094 -0.122527316 -0.47175917 0.028337432
000350 41 e1 94 bd 63 b1 e3 bd 67 a2 87 3d 98 07 14 be
       -0.07269526 -0.11117818 0.06622773 -0.14456022
000360 46 d8 3a 3d c0 0d 05 bd be d9 e7 3d 15 90 26 bd
       0.04561641 -0.032483816 0.11320828 -0.04066475
000370 2d 40 b3 bd 1d e4 24 3d 68 34 34 be 57 1d d7 be
       -0.08752475 0.04025661 -0.17598116 -0.42014572
000380 6a 54 c5 be 42 56 83 3d 8f b5 7b bd d5 3e fa bd
       -0.38540965 0.06412937 -0.061452445 -0.122190155
000390 71 59 3a be 56 90 8c 3d 3a fc dc 3d 19 37 0a 3e
       -0.18198182 0.068634674 0.10790296 0.1349758
0003a0 81 1d 8a be fe a9 e5 bd b9 fa a2 3d ae 4f 29 3e
       -0.26975635 -0.11214064 0.07957978 0.16534302
0003b0 92 df db bd 98 fe b2 bc 21 3a 1e 3e 8c 31 cf bd
       -0.10736002 -0.021849915 0.15451862 -0.10116872
0003c0 b0 60 21 be ff 8d 9e be 2c 4b 03 be 93 2c 94 3e
       -0.1575954 -0.3096771 -0.12821645 0.28940257
0003d0 78 4c 8f be 58 54 3b be 95 57 e1 3d 80 5b ba 3c
       -0.2798803 -0.18293893 0.11003033 0.022748709
0003e0 4a cc 5d bc e3 cd 42 3d ed 22 02 be cc 5e aa be
       -0.013537476 0.04755963 -0.12708636 -0.3327545
0003f0 5f c8 4c be e8 ee 5b be 40 93 6f be b7 9e b0 be
       -0.1999831 -0.21477854 -0.23396015 -0.3449609

conv3.bias f4 [128]
000000 59 cb bc 3d ce 45 a3 bd 2b 25 04 3e dc 64 e7 3b
       0.09218473 -0.079722986 0.12904803 0.007061584
000010 60 c8 e3 b9 08 87 d9 3d 78 f5 c0 3d 80 9e 86 be
       -0.00043446105 0.10621458 0.094218194 -0.262928
000020 b5 1b ed 3e bb fc 99 3e a4 c6 d0 3d fd 47 b2 be
       0.463102 0.3007563 0.10194138 -0.34820548
000030 fa d2 61 3d e8 73 78 3e 4d af 23 3d 8c ff 87 3d
       0.055132844 0.24262965 0.0399621 0.066405386
000040 ee bd 76 3e 68 1d 40 3e 14 c5 31 be 8e 24 ac 3e
       0.2409589 0.18761218 -0.17360336 0.3362164
000050 f7 b4 6d be 58 ae 0c 3e 91 2b b1 bd 9d 7e 7f be
       -0.23213564 0.13738382 -0.08650888 -0.24950643
000060 6e 18 db 3e c1 be 09 be 7e a2 78 3e 73 1d d7 3d
       0.42792076 -0.13451673 0.24280736 0.10503664
000070 99 f4 12 3d 40 b0 5a be 21 19 28 3d 9c ce 4b be
       0.035877798 -0.21356297 0.04103959 -0.19903034
000080 45 13 db 3d 43 74 4e 3e 40 26 68 3e 5c 9c 1d 3e
       0.10697035 0.20161538 0.22670841 0.15391678
000090 fc e3 34 bd 1c a3 89 bc 83 a4 ab 3e 25 c0 d7 3e
       -0.044162735 -0.01680141 0.3352395 0.42138782
0000a0 a7 ef 31 3e 73 30 95 bd 75 10 b3 3e d6 9a 1c 3d
       0.17376576 -0.072846316 0.34973493 0.0382336
0000b0 e7 a1 c0 3c 61 4b 44 bc 91 94 c5 bd 6c 40 91 3e
       0.023514701 -0.011980862 -0.096474774 0.28369462
0000c0 84 da d2 be 7e 7e 0a 3e 75 e1 da bc 46 d3 23 3e
       -0.4118234 0.13524815 -0.026718834 0.15998563
0000d0 12 b4 73 3e 22 23 bd 3d 1b 8e 0f 3e e5 5c fd 3c
       0.2379916 0.09235217 0.14019053 0.030928085
0000e0 c0 ef d1 3d ff 91 fb bd 29 04 0b 3e 91 11 00 bd
       0.10250807 -0.12283706 0.13575806 -0.031266753
0000f0 26 c3 20 3d c0 98 8d 3e d5 66 0e 3e e6 17 f7 3e
       0.039248608 0.27655602 0.13906415 0.4826042
000100 34 18 87 be 07 42 58 3e 44 f4 9b 3e 18 12 b6 be
       -0.26385653 0.21118937 0.30459797 -0.3556068
000110 04 04 62 3d 1e 13 0f bb 2e cc 87 3e 54 6e 23 3e
       0.05517961 -0.0021831463 0.26522964 0.15960056
000120 db 98 bc 3d bc 90 93 3e b6 1a 0d be 33 69 9a be
       0.09208842 0.2882136 -0.1377972 -0.30158386
000130 72 11 86 be d5 b2 66 be ba 24 6e bc 27 a3 47 3e
       -0.26185185 -0.22529157 -0.0145351235 0.19495831
000140 82 76 26 3e d8 f7 9f be e7 c3 7d 3e 0d 2c 9a 3e
       0.16256145 -0.31243777 0.24781762 0.30111733
000150 80 32 19 ba 93 2a 0c 3e 6e 70 80 be b8 f7 8e 3d
       -0.0005844012 0.13688116 -0.25085777 0.06980842
000160 53 cc a2 3e 39 bf 56 3e 7e 1c 02 bf 5b 61 68 3e
       0.31796512 0.20971383 -0.50824726 0.22693388
000170 23 4c be bd 54 be 2e 3d 1e 89 db bd 07 9a bb 3e
       -0.09291866 0.04266198 -0.107195124 0.3664095
000180 c5 cb e7 3d 9d 38 36 3e 2f 57 10 3d be 9d d3 be
       0.11318163 0.17795034 0.035239395 -0.41331285
000190 45 a0 e2 3d 5d b5 6e 3c 0a 81 cf 3d 35 99 aa 3e
       0.11065725 0.014569608 0.10132034 0.33320013
0001a0 d4 f1 1f 3e 99 b9 14 be b9 c7 bf bb b3 d9 72 3d
       0.15619594 -0.14523925 -0.005852666 0.059289645
0001b0 8c 34 46 3d bc f5 a2 3e 43 14 c6 bc 63 f2 c0 be
       0.048389956 0.31828105 -0.024179583 -0.37684926
0001c0 6c 3f f7 3c f6 aa 16 bb e9 22 ec 3d e6 2e 7e 3e
       0.03018161 -0.0022990084 0.11530096 0.24822578
0001d0 10 c6 85 bd f6 49 86 3d 20 09 83 3e 7e 55 b7 bc
       -0.06531918 0.06557076 0.255929 -0.022379633
0001e0 d3 c4 11 3d 6a 97 eb be 7f 0d 44 be 37 61 8f bc
       0.035588097 -0.46013957 -0.19145773 -0.01750241
0001f0 23 ff f0 3e 81 c9 8e 3d 9d f5 9a be 37 4d 93 3e
       0.47069654 0.069720276 -0.30265513 0.28769848

batch_norm_2d_3.weight f4 [128]
000000 11 4f 53 3f ef c5 b2 3f 0f 62 b2 3f 59 f9 bc 3f
       0.8254252 1.3966655 1.3936175 1.4763595
000010 80 89 a9 3f 73 23 8b 3f 82 3b d3 3f 68 83 79 3f
       1.3245087 1.0870193 1.6502535 0.97466135
000020 8f 5e b5 3f a2 ce b6 3f 31 ab e7 3f de 8e 7a 3f
       1.4169482 1.4281809 1.8099118 0.9787425
000030 c3 1b e4 3f 79 6e b7 3f 41 27 a8 3f 2d cb 1a 40
       1.7820972 1.4330589 1.3136979 2.4186509
000040 6f c7 d2 3f 8d 12 c6 3f 40 52 00 40 1a 95 9b 3f
       1.6467112 1.5474411 2.0050201 1.2154877
000050 3e fd b9 3f eb 82 b2 3f 31 02 c0 3f 3e 68 e3 3f
       1.4530408 1.3946203 1.5000669 1.7766187
000060 1c 26 60 3f c1 ac c4 3f 1a ff c3 3f 8d d7 e9 3f
       0.8755815 1.536522 1.5312226 1.8268906
000070 2b 08 be 3f 1a 72 bd 3f 0e 3d 06 40 16 e2 ac 3f
       1.4846243 1.4800446 2.0974765 1.3506496
000080 0b d5 ad 3f 31 ea cf 3f c8 66 3a 3f 09 3e e3 3f
       1.358064 1.6243345 0.7281308 1.7753307
000090 5f 9d be 3f 07 e9 e1 3f 2b 21 89 3f 20 eb 40 3f
       1.4891776 1.7649239 1.0713247 0.7535877
0000a0 07 65 a2 3f 49 08 c7 3f 1c 25 b2 3f c8 97 00 40
       1.2687081 1.5549403 1.3917575 2.009264
0000b0 f9 24 02 40 a4 62 d5 3f e0 3e c3 3f 89 8f 9d 3f
       2.0335066 1.6670728 1.5253563 1.2309428
0000c0 30 dc ab 3f 53 36 fe 3f 04 78 f3 3f f9 e3 d3 3f
       1.3426571 1.9860328 1.9021001 1.6553947
0000d0 f7 54 05 40 d9 48 b8 3f 30 1f 16 40 44 42 d7 3f
       2.0833108 1.4397231 2.3456535 1.6817098
0000e0 ad f9 87 3f 21 b9 c8 3f 3d 68 d9 3f 15 14 83 3f
       1.062307 1.5681497 1.6984936 1.0240504
0000f0 94 fc f8 3f 94 e9 dd 3f 9e a6 9d 3f a1 b4 9d 3f
       1.9452081 1.7336907 1.2316473 1.2320749
000100 18 74 bb 3f 57 fa 96 3f f6 67 c2 3f d5 33 91 3f
       1.4644804 1.1795148 1.5187976 1.1343943
000110 b7 a5 b4 3f 4f 31 ba 3f 55 3e 8e 3f be 80 bd 3f
       1.4113072 1.4546298 1.1112772 1.4804914
000120 2a b8 c9 3f 79 33 01 40 6a 4f d0 3f 3d a2 06 40
       1.5759327 2.0187666 1.6274235 2.1036522
000130 a3 56 c7 3f 8d 6c f0 3f 0a 0f db 3f 1e f7 f1 3f
       1.5573314 1.8783127 1.7113965 1.8903539
000140 e1 0b af 3f ec f5 26 40 24 ce cc 3f cc 33 08 40
       1.36755 2.6087599 1.6000409 2.1281614
000150 51 da ce 3f 7a 23 95 3f 68 74 05 40 fd 8f a4 3f
       1.6160375 1.1651452 2.0852299 1.2856442
000160 26 b7 9c 3f 06 b4 ce 3f d3 30 cc 3f 56 2b cd 3f
       1.2243392 1.6148689 1.59524 1.602885
000170 eb a4 04 40 1a 54 1c 40 a6 f7 e8 3f 49 31 cc 3f
       2.0725658 2.4426332 1.8200576 1.5952541
000180 46 4f 68 3f 95 7e 10 40 24 8a da 3f 8c 98 58 3f
       0.9074596 2.257726 1.7073407 0.8460777
000190 bf da 8d 3f 23 4b 11 40 a2 1c b4 3f 71 48 4f 3f
       1.1082381 2.270211 1.4071238 0.8096991
0001a0 35 56 b1 3f 60 1e d2 3f f9 14 dd 3f 0b 71 a2 3f
       1.3854433 1.641552 1.7272025 1.2690748
0001b0 9c 3e 0a 40 5e d1 ae 3f 36 6b ce 3f ef b7 be 3f
       2.1600714 1.3657644 1.6126468 1.4899882
0001c0 d0 65 b1 3f 85 f9 98 3f ec b6 70 3f a2 53 38 3f
       1.3859196 1.1951147 0.94029117 0.72002614
0001d0 2e 03 ce 3f f8 2f ce 3f de 54 dc 3f b7 49 e0 3f
       1.609472 1.6108389 1.72134 1.7522496
0001e0 c5 67 e9 3f 4e 57 b0 3f 63 8b d4 3f f9 2f c1 3f
       1.8234793 1.3776643 1.6605037 1.5092765
0001f0 a1 93 e9 3f ad 03 cb 3f 1c 33 80 3f 30 e8 ad 3f
       1.8248178 1.5860497 1.0015597 1.3586483

batch_norm_2d_3.bias f4 [128]
000000 06 33 a3 3d a8 9b 08 3f ca 08 a0 3d db 19 b6 bd
       0.07968716 0.5336251 0.078141764 -0.0889165
000010 2e 75 8f 3e f1 f8 c8 3e 0e c9 93 3e d8 86 2b 3c
       0.28019089 0.39252427 0.2886433 0.010469161
000020 e8 3d c7 3d c9 5c 9f 3e 4a 15 c8 3c 95 85 37 3d
       0.097286046 0.31125477 0.024424214 0.044805128
000030 80 f2 3c 3a 05 14 ad 3e 22 a9 bc 3e 94 f5 7b 3e
       0.0007207766 0.33804336 0.36847788 0.246054
000040 3d 04 84 3e a5 50 13 bd 15 02 9c 3e 4c 99 45 bd
       0.25784484 -0.03596558 0.30470338 -0.0482419
000050 09 f4 4d 3e 16 58 b9 3d 99 c9 5f 3e 7c 6d a4 3e
       0.20112623 0.09050004 0.21854247 0.3211478
000060 2a d3 49 3e 44 cf 62 3e a2 2d 38 3e b8 23 67 3e
       0.19709459 0.22149378 0.17986158 0.2257222
000070 a9 0a 95 3e d6 84 38 bd 46 57 98 3e 82 14 ad 3e
       0.29109696 -0.045048557 0.29754084 0.3380471
000080 54 74 45 3e c1 56 06 3f a8 2b a3 bc ac 21 61 3e
       0.19282657 0.52476126 -0.019918278 0.21985501
000090 10 7a 9d 3b 15 6d fa 3c ba a7 a0 3e f0 90 4d 3e
       0.0048058107 0.030569592 0.31377965 0.2007482
0000a0 fc dd 06 3d 5f 51 eb 3e 9b a9 cc 3d 73 2e d0 bd
       0.032926545 0.4596052 0.09993287 -0.101651095
0000b0 6e c1 9d 3c 65 28 7b 3e cb ec 7f bc 11 5d 24 3e
       0.019257274 0.24527128 -0.015620421 0.16051127
0000c0 82 2d 8b 3c 7f ec 14 3e a4 8a 6c 3e 2d 72 94 3d
       0.016989473 0.14543341 0.23099762 0.0724834
0000d0 e7 69 e4 bc 77 27 bd 3e 32 a0 e6 bc 58 3e 94 3e
       -0.02788253 0.36944172 -0.028152559 0.28953815
0000e0 5f 08 c0 3e 55 18 44 3e ac 2c a0 bb 68 27 48 3e
       0.37506387 0.19149907 -0.004888138 0.19546282
0000f0 ae 82 9a 3e da c2 4a 3d 03 ac b2 3e 14 0e 8d 3e
       0.30177826 0.04950223 0.3489686 0.27549803
000100 d4 7f 1d 3e c0 b0 ab 3b 5e 71 af 3e a2 23 a7 3e
       0.15380794 0.005239576 0.3426618 0.32644373
000110 8d a3 5d 3e c8 6d b5 3e e1 ae f8 3d c5 08 45 3e
       0.21644421 0.3543532 0.121427305 0.19241627
000120 3e 7c f2 3b 29 f9 f1 3e 2a cd 00 3e 9f 3c b0 3e
       0.0074000647 0.47260407 0.12578264 0.3442125
000130 9b 45 bf 3e 14 95 55 3e ba 1e d5 3e 4f 85 9a 3e
       0.37357792 0.2085765 0.41625005 0.3017983
000140 b8 cf db 3e b9 84 23 be 76 25 21 3d 11 2f ff 3d
       0.42931914 -0.15968598 0.039342366 0.12460149
000150 17 c9 a2 3d 01 ad 49 3d f2 81 49 3d 4f 84 c3 3d
       0.07948511 0.049237255 0.04919619 0.0954672
000160 6c d8 6f 3e 50 2f 19 3e 93 e3 c2 3e c7 7c f3 bc
       0.23422402 0.14959455 0.3806425 -0.029722584
000170 6e 79 e0 3e 0d ab 2e 3e 40 cc af 3e 2a a2 06 3e
       0.43842643 0.17057438 0.34335518 0.13147798
000180 47 d2 46 3e 86 f7 8a be f9 1e 16 3e 51 c3 3b 3e
       0.19416152 -0.2714197 0.14660253 0.18336226
000190 32 09 1e bd be fd 75 3f f2 3c b8 bd dc e9 5d be
       -0.038582988 0.96090305 -0.089959994 -0.21671242
0001a0 f1 8c e4 3d 1c 67 bf 3e 2e 92 af 3e 7c 73 0f 3d
       0.11159695 0.37383354 0.34291214 0.035022244
0001b0 73 eb e1 3d 96 f1 81 3e 62 a4 65 3d e3 bc 8d 3e
       0.110312365 0.25379628 0.05606497 0.27683172
0001c0 12 1d 60 bd 0a 2c 91 3e 0c 22 8a 3e a2 37 47 3d
       -0.054715224 0.28353912 0.269791 0.04863704
0001d0 60 ab 2a 3d cf ae a6 3c b6 5f 9e 3d 56 1f 6a 3d
       0.041667342 0.020347027 0.07733099 0.05715879
0001e0 d8 4a 0a be e9 25 3a be f2 b2 9f 3d 75 c2 17 3e
       -0.13505113 -0.18178524 0.07797803 0.14820273
0001f0 0f 06 11 be ce 2b d1 3e c1 cd 94 3e 99 63 cb 3e
       -0.14162467 0.40853733 0.29063228 0.39724424

batch_norm_2d_3.running_mean f4 [128]
000000 52 cd 34 3f cd 06 35 41 92 c4 2e 41 30 35 2a 40
       0.70625794 11.31416 10.922991 2.6594963
000010 6f 0b 57 40 48 f7 d0 40 34 a9 bf 40 e4 55 bb 40
       3.3600729 6.5301857 5.9894047 5.8542347
000020 14 fc 1d 40 1f 8a 51 40 06 5f 52 40 4f bd 60 41
       2.4685106 3.2740552 3.2870498 14.046218
000030 83 60 44 40 48 3f 19 41 f9 ca ac 40 da cb 35 40
       3.0683906 9.57795 5.399777 2.840567
000040 fd 51 30 41 22 a6 8c 40 d7 84 35 40 3b 44 a8 40
       11.020017 4.39528 2.836233 5.258329
000050 92 b1 39 41 e7 e9 0a 41 27 bc 0c 41 4d a3 47 40
       11.605852 8.682105 8.795936 3.119342
000060 c2 b6 f1 40 88 d2 53 40 70 2d 8b 40 0c 0b bf 3f
       7.5535593 3.3097248 4.3492966 1.4925246
000070 de 3f 71 40 61 4f 20 40 30 3e 98 40 5c 41 46 40
       3.7695231 2.504845 4.7575912 3.0977392
000080 ed a8 db 40 4b 66 3b 40 67 1c 56 41 62 0f be 40
       6.864371 2.9281185 13.381934 5.939378
000090 bd 22 fe 40 cf af 82 40 74 fa 5a 40 84 44 25 41
       7.9417405 4.083961 3.4215364 10.329227
0000a0 92 ab 1a 40 af ab e6 40 f8 ef b8 40 ec 25 0e 40
       2.4167218 7.2084575 5.779293 2.2210646
0000b0 bd 82 a3 3f 62 68 cf 40 ee ea 8c 40 ca 48 95 40
       1.2774273 6.481492 4.403678 4.6651354
0000c0 65 83 12 41 21 71 b2 40 64 e9 d4 40 6d 88 4d 40
       9.157079 5.5763097 6.65349 3.2114518
0000d0 af ee 0f 40 7d fc 98 40 c2 e1 01 40 fd bd 00 40
       2.248943 4.7808213 2.0294042 2.011596
0000e0 de 2b e2 40 f9 3a 2f 40 1c e6 9a 40 30 6c d2 40
       7.067855 2.7379744 4.8405895 6.5757065
0000f0 30 ba 47 40 69 a5 34 41 02 a1 3a 41 de f7 c7 40
       3.120739 11.290383 11.664309 6.249007
000100 66 4d a4 3f 4f ff 5c 41 f4 c6 86 40 9f 1a 94 40
       1.283612 13.812331 4.2117863 4.6282496
000110 e6 35 ae 41 ab 81 c5 40 a1 c3 4a 41 48 72 21 40
       21.776318 6.1720786 12.672761 2.5226002
000120 63 38 1a 40 2d 2d 00 41 44 99 0e 40 67 8f 40 40
       2.4096916 8.011029 2.2281046 3.0087526
000130 10 9f a0 40 5b c4 c6 40 ea bd a5 40 be 58 43 40
       5.019417 6.211469 5.179433 3.0522914
000140 51 67 31 40 9a 06 6e 40 ee db 95 40 a6 07 be 40
       2.771931 3.719153 4.683097 5.9384336
000150 49 0c 37 41 2e 58 45 41 e7 6b 5b 40 79 81 37 40
       11.440499 12.334028 3.4284608 2.8672774
000160 28 1f d0 40 5a b2 88 41 d2 b6 fe 3f 3a 17 20 40
       6.5038033 17.087086 1.9899542 2.5014176
000170 05 79 64 40 00 7a 2d 40 99 99 b1 40 b7 14 9f 40
       3.5698864 2.7105713 5.5499997 4.9712787
000180 19 92 d8 40 92 09 4d 40 5b 60 25 40 1e 26 e0 3f
       6.767834 3.2037091 2.584006 1.7511632
000190 78 7a e9 40 7a 81 3e 40 d1 9a 8b 40 f7 86 44 41
       7.2962 2.9766526 4.3626485 12.28295
0001a0 2d ea e3 40 5e f3 ad 40 82 9a 41 40 46 0b 04 41
       7.122336 5.435958 3.0250554 8.252752
0001b0 90 d3 37 40 40 2b 34 40 e6 ad 59 40 ca 19 a3 40
       2.8722878 2.8151398 3.401239 5.096898
0001c0 de a4 91 40 cc 4c 11 41 57 93 4d 40 54 f3 33 41
       4.5513754 9.081249 3.212118 11.246906
0001d0 1a 8e 6f 40 4a 18 f6 3f 34 4b d7 40 4a 6e b6 40
       3.7430482 1.9226162 6.72793 5.700963
0001e0 67 87 4c 40 1e e2 22 41 95 db 7b 40 93 b8 56 40
       3.1957643 10.180204 3.9352772 3.3550155
0001f0 20 4e 83 40 9a 44 91 40 9d 53 19 40 c9 13 2a 41
       4.1032867 4.539624 2.3957283 10.62983

batch_norm_2d_3.running_var f4 [128]
000000 cc 99 f7 40 3c 96 08 43 0f 63 11 43 96 a0 f1 41
       7.737524 136.58685 145.38695 30.203411
000010 da fe 28 42 9b ac aa 42 f3 4e ac 42 ec 16 b1 42
       42.24888 85.33712 86.1542 88.54477
000020 96 23 d9 41 db 15 28 42 44 64 33 42 b4 17 86 43
       27.142376 42.021343 44.847916 268.18518
000030 d7 97 2d 42 83 74 f0 42 30 a2 89 42 79 f7 2f 42
       43.39828 120.22756 68.81677 43.991673
000040 dc b2 15 43 f5 3f 41 42 f5 19 23 42 8e 7c aa 42
       149.69867 48.312458 40.77535 85.24327
000050 b4 40 36 43 7f e5 e9 42 f7 2e f3 42 14 40 30 42
       182.25275 116.948235 121.59173 44.062576
000060 2c 16 ea 42 94 cf 1d 42 68 18 78 42 3f e2 92 41
       117.043304 39.452713 62.023834 18.360472
000070 59 e6 5d 42 48 94 dc 41 8a 9a 75 42 f0 e2 19 42
       55.47495 27.572403 61.400917 38.47162
000080 42 4c ac 42 54 8d 17 42 84 a7 7a 43 c4 d7 86 42
       86.14894 37.888016 250.65436 67.42142
000090 0f 99 d8 42 38 d6 50 42 06 6d 29 42 68 21 31 43
       108.29894 52.209198 42.35647 177.1305
0000a0 ec cb f7 41 fc 83 c7 42 1a 54 a0 42 6a f2 cd 41
       30.974571 99.75778 80.16426 25.743366
0000b0 60 f2 7a 41 50 55 ba 42 f2 ca 7f 42 ea 85 67 42
       15.684174 93.166626 63.94819 57.880775
0000c0 69 ec 03 43 20 07 85 42 34 70 a7 42 16 b9 24 42
       131.92348 66.513916 83.71915 41.180748
0000d0 9a f9 d7 41 5f 8c 63 42 54 7d c6 41 90 f3 ae 41
       26.996876 56.88708 24.811195 21.868927
0000e0 b8 86 d3 42 ab dc 22 42 5e 9e 65 42 d0 13 b7 42
       105.76312 40.715496 57.404655 91.5387
0000f0 f7 3c 2d 42 3e fd f5 42 48 48 41 43 41 78 b0 42
       43.309536 122.99461 193.28235 88.23487
000100 73 6e 83 41 84 c7 49 43 82 5c 53 42 62 2e 9a 42
       16.42893 201.77936 52.84034 77.09059
000110 27 17 6a 43 72 6c 9d 42 d3 90 2e 43 55 63 0a 42
       234.09044 78.71181 174.56572 34.597004
000120 6f c3 d0 41 a0 e6 97 42 8a a0 c8 41 0c 4d 33 42
       26.095427 75.95044 25.078388 44.82524
000130 21 a0 89 42 1c 3d 8e 42 a0 f6 60 42 a0 80 07 42
       68.81275 71.119354 56.240845 33.87561
000140 10 36 ff 41 1c a2 7f 42 98 d3 55 42 54 de a9 42
       31.901398 63.90831 53.456635 84.934235
000150 c2 f1 28 43 c8 55 59 43 93 f7 50 42 e4 d7 fd 41
       168.94437 217.33508 52.24177 31.730415
000160 82 fe c1 42 54 cb 60 43 ad 7c f4 41 a6 28 d9 41
       96.997086 224.79425 30.560877 27.144848
000170 63 86 4a 42 6f 95 09 42 ee eb 88 42 87 86 5f 42
       50.631237 34.39593 68.4608 55.881374
000180 5e c7 f4 42 9b 5b 09 42 28 9d 11 42 5e 7d b6 41
       122.38939 34.33946 36.403473 22.811214
000190 f7 e9 9f 42 c9 e6 01 42 11 17 43 42 ca c5 53 43
       79.95696 32.475376 48.772526 211.77261
0001a0 79 26 b4 42 3a 73 a1 42 78 c4 1c 42 f2 55 c7 42
       90.07514 80.72505 39.191864 99.66786
0001b0 b2 7a 0f 42 b4 20 dd 41 0c 9c 75 42 f8 ba 88 42
       35.86982 27.640968 61.40239 68.36517
0001c0 86 42 85 42 a5 5d 1c 43 31 2d 2a 42 03 c4 73 43
       66.62993 156.3658 42.544132 243.76567
0001d0 ce 27 5c 42 74 7b b9 41 99 cd b4 42 04 1b 8f 42
       55.03887 23.18528 90.40156 71.552765
0001e0 95 38 34 42 8c 4e 1b 43 ea 4c 81 42 34 ab 27 42
       45.055256 155.30682 64.65022 41.91719
0001f0 9b 8a 42 42 fa d9 93 42 3e 7a 06 42 c7 94 1d 43
       48.635357 73.925735 33.619377 157.58116
