checkpoints/fastest ones/cnn2/20-12-2023_10-39-20/last_model.pth.tar (torch, 39546 bytes, 16 tensors)

conv1.weight f4 [6, 1, 5, 5]
00000000: ec42 5b3e f515 2c3e 49cc 19be b4f5 ce3d
00000010: c309 14be 84b3 413d 27a3 17be a01b 203e
00000020: 9fff a73d 6588 e3bc 9479 e43b 5301 0fbd
00000030: 5fcf 113d 1e95 d43d e81a 1b3d 5ff1 323e
00000040: 8f21 44be 2795 81be c24a bf3d 5be5 f53d
00000050: d02f 2d3e 3e39 0fbe 3db7 0b3e 00ca 183e
00000060: dc14 163d 89e6 53bd 8562 133e 4ec3 543e
00000070: 920f 013e 1c3e fb3d 6d66 be3c 7821 f5bd
00000080: 2225 aebd e2ac a639 39f7 8cbc 7324 19be
00000090: e4b4 62bd e30c 09be 4800 35bd fba0 dbbd
000000a0: e464 5b3b c8d2 03be 30c9 423d d418 52be
000000b0: 5041 0dbd 22b9 c2bd 65b2 01be 984e 503d
000000c0: 17de ce3c 1804 c4bb 8566 a4bd 11ec b43d
000000d0: e5ce 5b3e 08bf f63d b99b 68bc aa21 633d
000000e0: a772 1e3d 4d0b f03d 4ac0 08be 3c37 39be
000000f0: 113a 7cbd 2a78 0c3e 40bd f2bd e742 2dbe
00000100: 2165 1bbd bd60 233e a40d 3e3e 4b88 333e
00000110: 02cb 0f3e 856b b9bd f374 3bbe 2370 24be
00000120: ca91 5c3d ba0f e2bc 3ebd d4bd cccc dbbd
00000130: 3498 063d d62d 253e 3a2e 1bbd 1f23 713e
00000140: bc06 963d 09dd 263d d4e1 35bd c08a b3bd
00000150: 68ed 2d3d bcd7 84bd bcdc 23bd f2e4 8fbc
00000160: 198a 54be 953d eebd e32c 013e e040 86bd
00000170: 12c8 b2bd 4830 a0bd 1423 083e 78a6 3cbd
00000180: 6ce0 cabc 0cf9 dcbd 6d2c 583c d81b bd3c
00000190: bd43 15be d72e 1dbe 52d9 083c 3e5f 013e
000001a0: 80a3 d03d c5bf bebd f4c1 e039 ceab 623e
000001b0: 8222 08be f228 20be b647 4c3d 0bc7 203e
000001c0: 81ed c83d b1b2 2dbe e622 093e 0673 8dbd
000001d0: b170 57bd 9f36 d93d b5a5 58bd cc0b 4d3c
000001e0: cb2f 293c d9c8 73bc 75ad 28be aa55 dc3d
000001f0: 58df 5dbe 6e20 28bd b045 303e a997 81bd
00000200: 0810 0abe 6963 4c3d 07b6 b53c 1cc1 ea3d
00000210: ae3b 2c3e c6e4 b83d 6a03 f43d 563a 073e
00000220: e35f 1d3e aad7 363e 673a 4f3e cbd6 96bd
00000230: f792 6e3c dd25 adbc f399 efbd 1cd3 263e
00000240: d227 2f3e 80c0 6cbe a08e 44be 919e 033e
00000250: 99c3 04be 211c 8a3c
0.21412247 0.16805251 -0.15019335 0.10105458 -0.14456849 0.04729034 -0.14808331 0.15635538
0.08203053 -0.027774999 0.006972501 -0.034913372 0.035598155 0.10380004 0.037867457 0.17474888
-0.19153427 -0.25309107 0.09340431 0.12006637 0.1691277 -0.1398668 0.13644119 0.14920807
0.036640987 -0.051733527 0.14393051 0.20777628 0.12603596 0.12267706 0.0232422 -0.11969274
-0.08503176 0.00031790795 -0.017207729 -0.1495531 -0.055348292 -0.13383822 -0.04418972 -0.10724064
0.0033476884 -0.12873375 0.04755515 -0.20517284 -0.034486115 -0.095079675 -0.12665708 0.050856203
0.025252385 -0.0059819333 -0.080273665 0.088340886 0.21465643 0.12048155 -0.014197283 0.055452026
0.03868356 0.117209055 -0.13354602 -0.18087476 -0.061578814 0.13717714 -0.11852503 -0.16920052
-0.03793824 0.15954871 0.18559891 0.1753246 0.14042285 -0.09053711 -0.18306331 -0.16058402
0.053849973 -0.02759539 -0.103876576 -0.10732421 0.032859996 0.16130766 -0.037885882 0.23548554
0.07325503 0.04073814 -0.04440482 -0.08766699 0.042462736 -0.064864606 -0.04000543 -0.017565224
-0.20755805 -0.116328396 0.12614779 -0.06555343 -0.08729567 -0.07821709 0.13294631 -0.046057194
-0.024765216 -0.107896894 0.013194186 0.023084566 -0.14576621 -0.15349899 0.008352594 0.12633988
0.10187435 -0.09313921 0.00042869116 0.22135851 -0.13294414 -0.1564062 0.049873076 0.15700929
0.09810925 -0.16962697 0.13392219 -0.069067046 -0.052597705 0.10606121 -0.052892406 0.01251502
0.010326336 -0.014879429 -0.16472419 0.107585266 -0.2166723 -0.041046552 0.17214084 -0.06327755
-0.13482678 0.049899492 0.022181524 0.11462614 0.16819641 0.0902801 0.11914714 0.13205847
0.15368609 0.17855707 0.20237122 -0.07365187 0.014561406 -0.021136219 -0.11699285 0.1629147
0.17105034 -0.23120308 -0.19195032 0.12853457 -0.1296524 0.016859116

conv1.bias f4 [6]
00000000: f68e 023e 8f4b 66be c32c 1d3d 0c37 1f3b
00000010: 8ac5 3f3e 7743 11be
0.12749848 -0.22489761 0.038372766 0.0024294285 0.18727699 -0.14185892

conv2.weight f4 [6, 6, 5, 5]
00000000: 026f 6d3d 8b05 68bd 3aa1 9b3d 2661 953d
00000010: e4b4 a83d 523a 4739 702b c6b9 e913 7dbc
00000020: af06 dc3d 738c 983d 8ce4 d13c f3f9 be3c
00000030: cc01 543d 655d 7c3d 8caa 8c3d 0de1 f43d
00000040: 632b 63bd 7564 ac3c 3244 18ba 4947 163d
00000050: e8bc 153d d4a7 91bd dd99 3c3b e65a 34bd
00000060: 46fa 823c 2d30 d1bc 17fa 0c3d d593 1b3d
00000070: 188a 20bc 0049 8b3c 61d9 3dbd cfea 5bbc
00000080: de02 90bd 562e 243d e3be 6c3d 6f7c 8e3c
00000090: 1ff0 babd 81e8 23bc c418 9cbb 184a d23d
000000a0: fb0f 453c 1ca2 fcbc d384 f03a f0e4 f93b
000000b0: 65e7 6f3d 48ea 6bbd 0627 92bd eb3b 463d
000000c0: 74bb 543d 740d 303c e44d f53d 40df 9b3d
000000d0: 54ad 533d 6c5e 25bb e47d 4ebd 2a25 02bb
000000e0: d533 6c3d 807d 903d 58ae 8abd b6f1 803d
000000f0: 2116 003a cee5 a7bd c4f0 46bd 396b 513c
00000100: 3b4a 06bc b52a 09be b722 bbbd 6d57 e43c
00000110: 95b5 263c 1377 1cbc b552 a8bc 516f 583d
00000120: a7f4 b13c 758c 19bd 20e2 27bb 47fa 693c
00000130: 6b1b 22bd 068c 85bd fe2f c13d 043e 40bd
00000140: 0679 7d3b 4a94 c4bc 0e9a aa3d 84e8 533c
00000150: 9b4c 03ba 8a21 cc3c 6820 f33c 78ef 2abd
00000160: 27a7 52bd 30f4 0e3d fa07 fcbd b32d 213c
00000170: dc77 613d 0995 c53c c906 853d bc7a a83c
00000180: bd5d 53bd 5194 aebc 6758 7f3c 3bf2 dc3c
00000190: f29e 0d3d 836f b3bc 1a36 f4bb ef3f 6d3c
000001a0: ef81 0cbd e6c1 6dbd 602c a33d 6a10 1b3d
000001b0: 38fb 36bd 23d8 cb3d 0c81 14bd cb7d 8a3d
000001c0: a627 ac3c 8249 393d a50f 65bd 1be0 ae3b
000001d0: dc08 32bd f0c4 703d 14fa 823d c3e2 a13d
000001e0: 7085 a83c beef 203d 9b85 22bd 8098 1dbd
000001f0: eeaa 343d a2b7 ae3c b7b7 e1bc 5063 b1bd
00000200: 64ef c1bc 5944 283c abe6 633c b689 f93c
00000210: 13dd 7d3d f940 b23d 6806 a43d 7831 303c
00000220: 7092 513d 6840 b73b 58ae f3bc 9919 6abd
00000230: cf20 5ebd 28e6 e13c 56f7 0c3d 75fb 93bc
00000240: 5d99 d2bc 949b 44bb fa40 6c3d 57d1 afbb
00000250: 6c1f e4ba 5838 edbd b2cf efba ad0e 2b3d
00000260: b7eb b13d cfe2 22bd cbe2 3cbd d230 6739
00000270: 2764 10bd 6edd 593d b6b5 84bc a690 07bd
00000280: 8a80 7bbb cabe adbd 37c7 b13c 8bf2 d3ba
00000290: 05e2 bebc 6ac2 5e3d 53ba 2cbd 8aa0 e6bc
000002a0: c8b9 f7bb 0c80 f23d dfcf 953c e233 ce3a
000002b0: b814 c93d 7637 54bd fde3 d33c 8293 21bd
000002c0: 8818 cb3c 50cb b23c d91f 613b 05e3 c3bd
000002d0: d7db b4bd 5000 9fbc 7a26 b1bd f153 17bd
000002e0: 1832 903d 684e 22bd 3f9c 263d cac8 23bd
000002f0: c333 bd3b fffb 7dbc d9e3 94bb 4d2b 3dbd
00000300: 877e 8bbb 0305 f83b 8621 873c 8654 a3bd
00000310: 8895 203c 8c67 a93d f9d5 81bc 013c 1b3d
00000320: 1dc6 eebd cda1 953d d7e1 863d e68a 4fbd
00000330: 6aea ab3d 195c 35bd 4ff2 143d 2163 513d
00000340: c490 b93c 6a0f 7abd aeb2 3c3d 0018 8d3c
00000350: 22e6 0fbd de29 79bd 4272 39bc 345d 573c
00000360: 3dde 9bbd 7933 a23d eba0 f53c 419e c6bd
00000370: f205 753c 6e29 5ebd beec 973c 30af 10bd
00000380: 611b 083d 2017 70bd 5694 85bb c839 833c
00000390: 39e4 223c 1f17 d6bc bf38 ed3c b3f9 483c
000003a0: bf93 09bd a8bd 2ebd d532 cdbc 7798 a9bd
000003b0: 22ff cebd d09e 8e3d 2c99 13bd d18c 14bd
000003c0: a1d2 b6bb 6e9d a9bd 1bd9 a93d fa3d 393d
000003d0: f0fc 993c 5141 b23d 27f7 acbd 590c 1cbb
000003e0: 8f5e b0bd 2b4f b7bc 6f89 d3bd 43f0 2a3d
000003f0: 82af cd3b b8e0 46bd d888 f4bc 7066 923c
0.057967193 -0.05664591 0.07599111 0.0729392 0.08237627 0.00018999845 -0.00037797866 -0.0154466415
0.10743462 0.074486636 0.025621675 0.023312544 0.051759526 0.061612505 0.06868467 0.119569875
-0.0554613 0.021043995 -0.0005808502 0.036689077 0.03655711 -0.07112089 0.0028778233 -0.044032
0.01598848 -0.025535667 0.03441819 0.03798278 -0.009798549 0.017002583 -0.046349887 -0.013422682
-0.07031797 0.040083252 0.05779923 0.017393319 -0.09127831 -0.010004164 -0.0047636945 0.102680385
0.012027736 -0.030839019 0.0018350132 0.0076261684 0.058570284 -0.057596475 -0.071363494 0.048396986
0.05193658 0.010745395 0.11977747 0.07610941 0.05167897 -0.0025233282 -0.050413027 -0.0019858577
0.05766662 0.07055187 -0.06771535 0.06296103 0.000488611 -0.08198129 -0.048569456 0.0127819115
-0.008196409 -0.13395198 -0.09137481 0.02787372 0.0101751285 -0.009549874 -0.02054725 0.052840535
0.021723105 -0.037487466 -0.0025616959 0.014280862 -0.03957693 -0.06520848 0.09432982 -0.046934143
0.0038676872 -0.023996491 0.08330165 0.012933854 -0.00050086685 0.024918336 0.029678538 -0.04173228
-0.05142894 0.034900844 -0.12306209 0.009837556 0.055045947 0.024118917 0.06495435 0.020566337
-0.051603068 -0.021310957 0.015585042 0.026970973 0.03457541 -0.021903759 -0.0074527385 0.014480575
-0.0343036 -0.058046244 0.07967448 0.03785745 -0.044673175 0.09953334 -0.03625588 0.06762274
0.021015 0.04523612 -0.055923123 0.005336774 -0.04346548 0.058781564 0.06395355 0.079045795
0.02057144 0.039291136 -0.039678197 -0.038475513 0.044108324 0.021327797 -0.027553422 -0.086615205
-0.02367372 0.010270202 0.013909976 0.030461174 0.06197841 0.08703799 0.080090344 0.010753982
0.051165044 0.0055923946 -0.02974622 -0.057153318 -0.054230507 0.027575567 0.034415565 -0.01806424
-0.025707895 -0.0029999958 0.057679154 -0.0053655314 -0.0017404384 -0.11583012 -0.0018296151 0.041762043
0.08687537 -0.039767083 -0.046114724 0.00022048064 -0.035251763 0.053189687 -0.016199928 -0.033096932
-0.0038376176 -0.08483656 0.021701438 -0.0016170306 -0.023301134 0.054384626 -0.04216988 -0.028152723
-0.0075599886 0.11840829 0.018287597 0.0015732015 0.09818405 -0.051810704 0.02586555 -0.039447315
0.02479197 0.021825463 0.0034351258 -0.09564785 -0.088309936 -0.019409329 -0.08649917 -0.036945287
0.070408046 -0.039625555 0.04067635 -0.03998641 0.0057739927 -0.015501975 -0.004543763 -0.046183873
-0.0042570266 0.007568957 0.016495477 -0.07975106 0.009801276 0.08271703 -0.0158491 0.03789902
-0.11658881 0.07306252 0.06586044 -0.050669573 0.0839432 -0.044277284 0.036363896 0.051119927
0.022652037 -0.061049856 0.04606884 0.017223358 -0.03513158 -0.060830943 -0.011318745 0.01314478
-0.07610748 0.07919974 0.029983958 -0.09698153 0.014955031 -0.05423873 0.018545505 -0.03532332
0.033229236 -0.058615804 -0.004076521 0.016018763 0.009942108 -0.026134072 0.028957723 0.012266564
-0.033588167 -0.04266134 -0.025048653 -0.082810335 -0.101072565 0.06963885 -0.036034748 -0.036267105
-0.005579308 -0.082819805 0.08293363 0.04522512 0.018797368 0.08703864 -0.08445578 -0.002381107
-0.086117856 -0.022376617 -0.10328948 0.041733038 0.0062770257 -0.048554152 -0.029850408 0.017871112

conv2.bias f4 [6]
00000000: 5f67 a2bc a58a 91bd 5602 b93d 0a3f 8ebd
00000010: df3a bdbc 95d8 35bd
-0.019824682 -0.071065225 0.09033649 -0.069456175 -0.023099361 -0.044396

fc1.weight f4 [50, 96]
00000000: 9c23 6bbd 0c3c c9bc ba10 9a3d 0623 2f3d
00000010: b66c 053b 2f60 bfbd 466f 973d fc7a 32bd
00000020: 1afd f73c f7e2 79bd eefa a43d b015 793d
00000030: 59cc 293d 4e43 4d3d 2523 813d f457 c63d
00000040: 1e13 0ebd 75d1 ec3c a1b6 3e3d 4d9a 8abd
00000050: a08f 16bd d529 4c3d f229 d3bc 8a69 16bc
00000060: f231 fe3c 7a23 9c3d 0d39 b5bb 706c 38bc
00000070: 9ca5 c3bd 04cf baba aa4b 993d 5574 be3c
00000080: b270 ad3d 849a abbd 1e71 dcbc 4d42 5abd
00000090: 76a8 8ebd 90b2 7cbd 2ce7 56bd 932a af3b
000000a0: 795d eb3c 50e3 013e afd3 bc3d 6342 afbc
000000b0: 7579 763d edef 61bc 1f39 753d ec48 09bd
000000c0: f5b6 d53d 3133 993d ae45 0cbd e814 8ebc
000000d0: 3351 bcbd 2636 a23d 566b 36bd 6211 7bbc
000000e0: ff68 15bd 04ee b0bd 21a7 1cbd 54af 973c
000000f0: c1c7 5ebc dd0b 483d b910 45bd c881 08bd
00000100: 09df 8abc a3c4 963d 25f2 123c c3ae 5d3d
00000110: fa37 23bd 459b 8bbd 1031 193d c999 89bd
00000120: ffe1 463a 3e65 9f3d 92f5 a13b d814 503d
00000130: fa3d c6bd e6e4 1dbd a866 a6bd fe0e cfbd
00000140: 9b81 253d d373 0d3d d439 e13d 53e9 b5bb
00000150: e86e c2bd 35c3 27bd 09ab ffbc 36a4 65bd
00000160: 754e e6bd a450 923d 0902 6dbd 5e46 8fbd
00000170: f7c2 a43d a55c a93d c760 d4bc 39e7 763d
00000180: 7605 01be 6c78 b53d 4d26 d63d 10ba bd3c
00000190: 07cc a6bd 5d8c ca3d d881 3b3d b954 43bd
000001a0: fa0c bb3c 9203 acbc 0904 cdbd e2b1 0cbd
000001b0: b735 60bd 529e 053d 2519 5d3d 1c88 bcbd
000001c0: e8fd 13bd 59fa 0c3d 04e3 ce3d 1dc8 92bd
000001d0: c207 ba3c d8db 17bd 9b55 1cbd fb34 393d
000001e0: bdb1 80bd 1139 163d 05b9 8fbd 7320 ce3c
000001f0: ef85 fb3d 0112 103d 6228 92bc 1ddc b0bd
00000200: 245b babb 93aa b4bd 5075 023d dc05 3abd
00000210: 8110 9c3d f2ed 27bc b53e 4d3c 5a62 99bd
00000220: 24a6 85bd a453 1a3d bc3b a5bd 4ca2 c1bd
00000230: 56b5 c3bd d026 913d 597c a43d 5441 c43c
00000240: 3713 8fbd a617 c5bc 3981 c0bd 1994 8fbd
00000250: 4af0 c6bd 8e12 b8bd 5437 a73d 4bd0 c53d
00000260: 3840 af3d 4e27 d73b b1b0 333d 59d0 bb3d
00000270: ea23 43bc 2c48 a7bd 12c5 35bd c06d 7a3d
00000280: 0aa2 013c 08b2 b53b bb5e 603d 0fcf b0bd
00000290: 0b33 3fbd 50b7 afbb bb2e 9d3d cbac b43d
000002a0: 000a 4fbd fb74 2c3d 6cc0 143d 3353 62bd
000002b0: fbeb 353d 40c8 8f3b ded3 b4bd 5a1c c3bd
000002c0: 578c 72bd 3892 903d 54a2 3fbd 8f03 27bc
000002d0: 2714 053d 088a 46bc faac 9d3c b598 b33d
000002e0: b9c9 753d 1a6b 89bd 835c c7bd a64b 933d
000002f0: c9a2 d2bb 93f0 ae3d 50a8 f03b 5211 b8bb
00000300: c2ba 183d 7ffe 553c 584a e13d 1223 903c
00000310: 0af5 753d 92c7 5ebd b766 bf3d 76f1 ddbc
00000320: 1406 1ebc e133 043b 1df6 1f3c dd55 9abd
00000330: d876 89bd 0f0a b2bd bf95 d9bc e666 0639
00000340: 83ee 99bd 31c4 39bb 862c f3bc 1a5b 353d
00000350: c1f2 a83c ac26 4bbc 7240 31bd 6852 5d3d
00000360: e0c4 03bd 286c 03bd 3648 913d dd92 b2bd
00000370: 772b 923d 1192 593d d56e 87bc 5fb3 c3bd
00000380: 9044 103d a06e afbd cd11 c5bc be06 03bd
00000390: 4d01 1a3d 91a4 8e3d 68c4 7d3d bcee 473d
000003a0: 912c 6bbb 507f 543c 2951 bc3c 7d02 86bb
000003b0: 688e 7dbd 614d 7cbd b482 7d39 272a 83bd
000003c0: 6676 46bd e548 8fbd e2bf 8ebd 3006 babd
000003d0: 1088 413d b355 aabd 773c e53c 5639 9dbd
000003e0: b92c b0bd 46ba 87bc 60e3 8e3d 6426 163d
000003f0: cfbb 28bd 19d0 44bb 745b e8bb ea94 cdbd
-0.057407007 -0.024564765 0.075227216 0.04275801 0.0020358986 -0.093445174 0.073942706 -0.04357432
0.030272055 -0.061007466 0.080556735 0.0608117 0.041454647 0.050113015 0.063055314 0.096847445
-0.0346862 0.02890847 0.046560887 -0.06767712 -0.036758065 0.04984458 -0.025776837 -0.009180436
0.031029675 0.07623954 -0.0055304826 -0.011256322 -0.09553072 -0.0014252369 0.07485135 0.02324883
0.084687606 -0.08379081 -0.026909407 -0.053285886 -0.06965725 -0.061693728 -0.052466556 0.0053456514
0.028731095 0.12684369 0.09220063 -0.02139396 0.060174424 -0.013790113 0.059868928 -0.03351681
0.10435287 0.07480467 -0.03424614 -0.017343953 -0.09195175 0.07920484 -0.044535957 -0.015323969
-0.036477085 -0.08639148 -0.038245324 0.01851622 -0.01359743 0.04883944 -0.04811165 -0.033326894
-0.016952055 0.07361724 0.008968865 0.054121744 -0.039848305 -0.06816725 0.037400305 -0.06718785
0.00075867766 0.07782982 0.0049426043 0.05080113 -0.0967979 -0.038548373 -0.08125049 -0.101102814
0.040406805 0.034534287 0.10997358 -0.005551496 -0.0949381 -0.04095765 -0.031209486 -0.056064807
-0.11245433 0.07144287 -0.05786327 -0.06995843 0.08044999 0.08269624 -0.025925053 0.060279105
-0.1259974 0.08860859 0.10456524 0.02316001 -0.08144384 0.098900534 0.045778126 -0.04768822
0.022833336 -0.020997796 -0.10010535 -0.03434933 -0.054738726 0.03262169 0.053979058 -0.09205648
-0.036130816 0.034418438 0.101018935 -0.07167075 0.022708777 -0.037074894 -0.038167577 0.04521654
-0.06283901 0.036675517 -0.070177115 0.025161957 0.12281405 0.03517342 -0.017841522 -0.08635733
-0.0056871343 -0.08821597 0.03185016 -0.045415744 0.07620335 -0.010249602 0.012527158 -0.07489462
-0.065258294 0.037677422 -0.08068034 -0.09454784 -0.095560715 0.07087481 0.0803153 0.023956932
-0.06986087 -0.024059128 -0.09399647 -0.07010669 -0.097138 -0.08987914 0.0816485 0.09658869
0.08557171 0.006565965 0.043869678 0.091705985 -0.011910418 -0.081680626 -0.044377394 0.061139822
0.007912168 0.0055449046 0.054777842 -0.08633243 -0.046679538 -0.0053624287 0.07674929 0.0882202
-0.050546646 0.04210375 0.03631632 -0.055255126 0.0444145 0.0043878853 -0.08829473 -0.09526892
-0.05921587 0.07059139 -0.046785668 -0.0101937195 0.032489922 -0.01211787 0.01924752 0.08769361
0.06000683 -0.06709881 -0.09734442 0.07192163 -0.006428097 0.0854198 0.007344283 -0.005617299
0.03728748 0.013061165 0.11000508 0.017594848 0.06004814 -0.054389544 0.09345763 -0.027092677
-0.009645004 0.0020172524 0.009763268 -0.07535908 -0.06712121 -0.08693325 -0.026560662 0.00012817568
-0.075161956 -0.00283457 -0.029684316 0.044276334 0.020623567 -0.012399357 -0.04327435 0.054033667
-0.032170177 -0.032085568 0.07093851 -0.08719418 0.071371965 0.053117815 -0.016532341 -0.09555697
0.035221636 -0.08566022 -0.02405634 -0.03198885 0.037598897 0.06964982 0.061954886 0.04881166
-0.0035884718 0.012969807 0.022987919 -0.004089652 -0.061903387 -0.06159723 0.00024176651 -0.06404524
-0.048452757 -0.069963254 -0.069701925 -0.090832114 0.0472489 -0.08317127 0.027982933 -0.076769516
-0.0860228 -0.016568314 0.06976962 0.036657706 -0.041194733 -0.0030031262 -0.00709098 -0.10038169

fc1.bias f4 [50]
00000000: cd8f b93d a2c6 543c 5972 be3d 8a9b 113c
00000010: 270f bd3d 54c3 90bd f65c b8ba ff06 a0bd
00000020: 512b f4bb 151c 3c3d b44b 7ebd 99e1 cb3b
00000030: 3ff8 b43d 288f 34bd 8722 f43c 5119 093d
00000040: ca2f 97bd 351f 233d 96dd a13d 7cc3 0e3d
00000050: ab64 20bd e5b8 433d 3f5a ec3d 0a0e a4bc
00000060: 8d51 9c3d 1443 46bc 9fdf ad3d d9c1 0bbd
00000070: 558c d13c e834 34bd a81b 14bd 312a 863d
00000080: 8745 123d 0314 db3c ceb0 093d c160 ccbc
00000090: b92c a4bd 3582 9c3d 2828 9d3c 8b84 a03d
000000a0: 2ac5 a2bd bf1e b63c a1e1 14bd 2e90 69bc
000000b0: 30db 97bc 1832 14bd ec64 9fbd 4b0a 9cbc
000000c0: 4633 c8bd 306b 603d
0.09060631 0.012986811 0.09299154 0.008887181 0.09231406 -0.07068506 -0.001406579 -0.078138344
-0.007451453 0.04592522 -0.062083915 0.0062219617 0.08836412 -0.044081837 0.02980162 0.03347141
-0.07382162 0.039824683 0.07903592 0.034854397 -0.039158504 0.04778375 0.115406506 -0.020026226
0.07632742 -0.012100954 0.08489918 -0.034120414 0.02557961 -0.043995768 -0.036159188 0.06551016
0.035710838 0.02674294 0.03361588 -0.02494848 -0.08016343 0.076420225 0.019184187 0.078377806
-0.07947762 0.022231458 -0.03634799 -0.0142555665 -0.018537134 -0.036180586 -0.07782921 -0.019047877
-0.09775405 0.054789722

fc2.weight f4 [10, 50]
00000000: c9fe b03d 3b44 a93e 4685 4dbd cec2 013c
00000010: 0ea7 1fbd 83d2 45be efd8 1f3e e4dc d0bd
00000020: 8f95 d1bd 2aa5 11be 5609 383d ed48 c03d
00000030: f0f6 003c 2701 41bd a672 a4bc 9c4b 82bd
00000040: 02c1 0dbe 58b5 533d 9308 7cbe 2917 78bd
00000050: d659 843e b80b f3bd 67e0 aabc 30a7 aa3c
00000060: 6208 563e 9f01 00be 200f 703e f728 17be
00000070: fc9c a03d 7d48 353d e50b 9abd 825c 9bbc
00000080: 8a06 17bb 5091 99bb 8598 123e 459e 77be
00000090: 534b 033d e9c6 60be 6b25 96bc 0506 24be
000000a0: 3d9f 0bbe 130c d73d 684f b43c 20fa 19be
000000b0: 6ec0 40be b6af 563e 186b ecbd 543d 18be
000000c0: 5028 d2bd 1e1e ae3d d9b9 813d 6deb a53d
000000d0: b755 993e 35dd 1bbe de2b c63d 88ba b93d
000000e0: 1ddf 95bd b970 10be 5b3f 16be 776d e33d
000000f0: 88a2 573e 4217 6b3d b507 a53c 85b1 9fbd
00000100: ab8f 873d 6d3f fc3c e0c1 25be 5d49 45be
00000110: 5bb9 1ebe ae96 d83c eef8 2ebe b008 d3bd
00000120: 3453 3e3e 543f 87be 9075 0abe 356e ebbc
00000130: 401c 10be 90df be3d 1668 03bd bb9f 5bbe
00000140: 35a9 83bb 021c 79bd bd9c 75bd 182c 2dbe
00000150: 1a59 21be c25a 10be 4781 663e af26 243e
00000160: 0ee9 2dbe ac18 b7bd 7ec7 b93b 786b bc3c
00000170: c68d 13bd c8bd 193e 99ac f13c 228f 4abd
00000180: c321 0d3e 62b2 c2bd edcf b7bc e731 00bd
00000190: 921c 6bbe 791d 43bd 4c3d a83d f0d5 25be
000001a0: 8d33 2cbe 4a0a 503c 776d 463e 210b 623e
000001b0: 26a8 383e 0065 a73d 31ee b4bc 6027 22bd
000001c0: 8c2d c8bc c583 f4bd ce76 c0bd 3640 f9bd
000001d0: 0d10 4b3d 66b1 0fbe ddf7 443d 0a37 af3d
000001e0: 8da3 50bd c455 e73d 9d3b 963e a8c8 03be
000001f0: 5c9d ea3c ad8c 7ebe 9bc5 df3d 7a97 6f3e
00000200: c6de eebd 49ba 2f3e 4c5a 9b3e b19f 0bbd
00000210: 0a52 c8bd b072 58bd 9348 dc3d 8342 6c3d
00000220: 91d4 3e3e 8de3 173b faa8 18bd f0ae 983e
00000230: a725 533d 3caf 693c bc6c 923e d73c f73d
00000240: 36c0 8e3d 4b59 ec3d ac23 5abd 44ea 9f3e
00000250: 5401 38be 7342 613d 3284 11be b47b 16be
00000260: 909d 83bd 6e0b a53d 1e81 bebd c90e 633d
00000270: ef0b 5cbc 1a41 4cbe bdc4 1a3a b2d3 9b3e
00000280: 1132 053c 3908 ecbd 678b 783e d64e bc3d
00000290: 48bd 8b3e 7564 71bb 64f0 253e 1411 4f3d
000002a0: 076b 2dbe 7d9b c7bd b833 353e d18e 6bbd
000002b0: c6c2 d8bd f798 e73c a9b6 1dbe 1de6 8e3d
000002c0: e8d4 68bd 0908 72bd 37fb 53be 274d 0c3e
000002d0: 7e21 3bbe c0bf 2c3e 0898 2d3e ea70 1cbe
000002e0: 22d2 2f3e e2a0 11be 60b4 3cbe a2e5 3cbd
000002f0: e223 5c3d f21f 9d3e 883e ecbd 7cc4 dcbd
00000300: 9c9f 69bd 56ea 09bd b04d 14be affb f33d
00000310: 2f3a 913e 2070 7a3e 57fa 213e 7bfb 08be
00000320: 949c 88b9 f761 a7bd f0b4 0cbe 2bb0 e23d
00000330: be54 4c3e 0c9f 583d 8f88 4a3e f1e9 3f3d
00000340: b69e 353d 280c 193e f26c 07be 3029 fbbd
00000350: 9db0 a4bd b5df 14bd 1f8e debd c9cd f03d
00000360: 0ff3 2cbe e3a5 013e 0fb7 643e 9e1e e1bd
00000370: 6ae7 6dbe 3a36 033e 717e a83d 04e0 b4bd
00000380: 3155 32be dce0 683d 365e 4d3e 8b40 e8bd
00000390: 0c2f 853e f3a6 46be d799 393d 8a27 09bd
000003a0: 8dcc 6fbe 402c 203e 754d aabc 8ee7 6a3d
000003b0: 7a9e 123e fcb3 233d 3475 0ebe 2146 62bd
000003c0: 00ab 153e 25f2 c6bd 5c65 aa3d 3e12 f1bb
000003d0: ca35 473e 236d 43bc f55e 1d3e 4a59 d9bd
000003e0: 38ce 133e d74f a0bd dc22 0dbe b2b0 b2bd
000003f0: 5a79 8dbd a7ec ad3c 4d74 88bd a1c5 e2bd
0.086423464 0.33059868 -0.050175928 0.00791998 -0.038977675 -0.19318585 0.15610097 -0.101983815
-0.10233604 -0.14223161 0.04493078 0.093889095 0.0078713745 -0.04712024 -0.0200742 -0.063620776
-0.13843158 0.051686615 -0.24612646 -0.060568962 0.2584979 -0.118674695 -0.020858957 0.020831674
0.20901635 -0.12500618 0.2344327 -0.1476172 0.078424424 0.044258583 -0.075218 -0.01896501
-0.002304467 -0.004686512 0.14315994 -0.24181469 0.032054257 -0.21950878 -0.01832839 -0.16017921
-0.13634963 0.1050035 0.02201052 -0.15036821 -0.18823406 0.20965466 -0.11543864 -0.14867145
-0.10261595 0.08501838 0.06334276 0.081015445 0.29948208 -0.15221103 0.09676336 0.09068781
-0.07317946 -0.141055 -0.14672606 0.11104863 0.21058095 0.057395227 0.020145277 -0.07797531
0.06619199 0.030791963 -0.16187239 -0.19266267 -0.15500395 0.026439037 -0.17087147 -0.103043914
0.18586427 -0.26415503 -0.13521409 -0.028739074 -0.14073277 0.09319985 -0.032081686 -0.21447651
-0.004017974 -0.060817726 -0.05996393 -0.16911352 -0.15756646 -0.14097121 0.22510253 0.16030382
-0.16983435 -0.08940253 0.0056695333 0.023000464 -0.036023878 0.15013802 0.029501246 -0.04945291
0.1378241 -0.0950668 -0.022438014 -0.03129759 -0.22960117 -0.04763553 0.082148165 -0.16194892
-0.1681654 0.012697766 0.19377695 0.22074558 0.18032894 0.08173561 -0.022086235 -0.039588332
-0.024435781 -0.119391955 -0.0939766 -0.121704504 0.049575854 -0.14032516 0.048087943 0.0855542
-0.050937224 0.11295655 0.29342356 -0.12869513 0.028639488 -0.24858351 0.10926362 0.23397627
-0.116635844 0.17160906 0.3034233 -0.03408784 -0.09781273 -0.05284375 0.1075603 0.057680618
0.18635775 0.0023176402 -0.037270524 0.29820967 0.05154958 0.014262971 0.28598583 0.12072151
0.06970255 0.11540469 -0.053256676 0.31233418 -0.17969257 0.05499501 -0.14210585 -0.14695626
-0.06426537 0.08058821 -0.09301971 0.055434022 -0.01343058 -0.1994671 0.000590395 0.30434948
0.008129613 -0.11525006 0.24271928 0.09194724 0.27292848 -0.0036833559 0.16204983 0.050553396
-0.16935359 -0.09746454 0.1769551 -0.057509247 -0.10584025 0.028271182 -0.1540171 0.069774844
-0.05684367 -0.059089694 -0.207013 0.13701306 -0.18274495 0.16870022 0.16952527 -0.15277448
0.17170003 -0.14221528 -0.18428183 -0.046117432 0.053745158 0.30688435 -0.115353644 -0.10779664
-0.05703698 -0.033670746 -0.1448276 0.11913239 0.28364703 0.24456835 0.15818153 -0.13377182
-0.000260566 -0.08172982 -0.13740897 0.110687576 0.19954202 0.052886054 0.19778655 0.046853963
0.04434081 0.14946043 -0.13225153 -0.12263715 -0.08041499 -0.036346156 -0.10866951 0.117580004
-0.16889594 0.12660937 0.22335456 -0.10992168 -0.23232809 0.12813655 0.08227242 -0.0883179
-0.1741531 0.056855068 0.2005547 -0.113404356 0.26012456 -0.19399624 0.04531273 -0.033484973
-0.23417874 0.1564188 -0.020788888 0.057349734 0.14318267 0.03996657 -0.13911897 -0.05524266
0.14616013 -0.09714154 0.08320114 -0.007356911 0.19454113 -0.011927876 0.15368254 -0.10612734
0.14434135 -0.07827728 -0.13782829 -0.08725108 -0.069079116 0.021231009 -0.066628076 -0.11072851

fc2.bias f4 [10]
00000000: 0ffc 00be e0c8 1e3d a032 d43d c69e f43d
00000010: 49ad a9bd df59 d8bb fd1e 02be 42b0 e83d
00000020: f854 0a3e 3ae3 803d
-0.12596153 0.038765788 0.103612185 0.11944346 -0.08285005 -0.0066025103 -0.12707134 0.113617435
0.13508976 0.0629334

batch_norm_2d.weight f4 [6]
00000000: 46b9 7b3f 263f 803f 0a35 803f 2642 803f
00000010: 6606 803f 80a7 813f
0.9832958 1.0019271 1.0016186 1.0020187 1.0001953 1.0129242

batch_norm_2d.bias f4 [6]
00000000: 1cfc bc3a 12a5 3f3c 639e 57ba b99e 49bc
00000010: ae83 98bc 3aad 0cbc
0.0014418396 0.011697071 -0.00082252006 -0.012305909 -0.018617477 -0.008586222

batch_norm_2d.running_mean f4 [6]
00000000: 7c09 e83d 42ac c13e d765 553e 7a38 a43e
00000010: 23b2 003f 2e0a 083e
0.11329934 0.37826735 0.2083963 0.32074338 0.50271815 0.13285133

batch_norm_2d.running_var f4 [6]
00000000: 82e3 4e3d b52a a43d efce 073e c692 423d
00000010: 63fb 463d 80ec d23d
0.050509937 0.08015958 0.13262533 0.047503255 0.048579585 0.10299015

batch_norm.weight f4 [50]
00000000: 9912 893f b01e 863f ef84 863f bb43 823f
00000010: 61dd 843f ebb7 883f bc5c 8b3f ee98 8a3f
00000020: b4b4 883f 3561 883f d2e7 893f 675e 7f3f
00000030: 00d9 863f b82f 823f a648 853f afb9 803f
00000040: b1e7 8b3f 1cc4 873f c783 903f cb72 8a3f
00000050: 77b2 8a3f 516c 883f a69e 893f a3c1 893f
00000060: 8f61 893f 4612 8c3f 3e83 8b3f 2892 873f
00000070: d1d7 8d3f fbd6 873f 1127 8a3f 4002 893f
00000080: 3b0f 883f 38e8 873f e91e 883f 4a02 8a3f
00000090: f4c4 893f ee43 8b3f 3dd3 893f ba27 8e3f
000000a0: 2f57 843f d7ec 7f3f 54d0 873f fa6d 853f
000000b0: 057c 8a3f f874 813f e280 893f 8f33 903f
000000c0: 5a3c 8d3f bb55 883f
1.07088 1.0478115 1.0509318 1.017692 1.038006 1.0681127 1.0887675 1.082792
1.0680146 1.0654665 1.0773871 0.9975342 1.0534973 1.0170813 1.0412796 1.0056666
1.0930082 1.0606723 1.1290215 1.0816282 1.0835713 1.0658056 1.0751541 1.0762218
1.0732898 1.0943077 1.0899427 1.0591478 1.1081487 1.0612482 1.0793172 1.0703812
1.0629648 1.0617743 1.0634433 1.0781949 1.076323 1.0880105 1.076759 1.1105874
1.0339106 0.99970764 1.0610452 1.0424187 1.0819098 1.0113821 1.0742457 1.1265734
1.1034043 1.0651163

batch_norm.bias f4 [50]
00000000: e286 6c39 3c84 b83b df23 b138 8ff4 44bb
00000010: 23d5 eebb af12 b93b 2806 f2bb e83e 913b
00000020: e234 943b 9fa6 85bc c682 4cbc 3182 d3ba
00000030: ca60 ddbb 1730 e3ba bd6d fcba 0ee2 7dbc
00000040: bd27 163c 6468 083c c293 073c cc6f 9f3c
00000050: 8392 223c cfd1 a53a d77b 33ba 23fb eab9
00000060: 3397 2e3c 407b 163b c9f6 413c b5ff dc3b
00000070: def3 b8ba 3c93 5e3c eccb 773c 413d c1ba
00000080: c890 09bc 1e57 acba 56e4 a8ba 495d 873b
00000090: 6f20 65ba c2e2 a4bb 94a0 173c 3fdf 793b
000000a0: cab8 19bc c8e7 993b b59c 183a 5878 12bc
000000b0: 0fbd 78bb 3840 103c 8a97 92bc bd90 aabb
000000c0: a9df eaba 8141 4c3c
0.00022556962 0.005630998 8.446699e-05 -0.0030052995 -0.0072885915 0.005647979 -0.007385988 0.004432548
0.0045229057 -0.016314803 -0.012482351 -0.0016136823 -0.006755923 -0.0017333057 -0.0019258779 -0.01549579
0.009164748 0.00832567 0.008274974 0.019462489 0.009922626 0.0012651029 -0.00068467617 -0.0004481907
0.010656166 0.0022961646 0.011838623 0.00674435 -0.0014110764 0.013584908 0.015124302 -0.0014742987
-0.008396335 -0.0013148522 -0.0012885432 0.0041309935 -0.000874049 -0.0050319145 0.009254593 0.003812745
-0.009382436 0.00469682 0.0005821691 -0.008939825 -0.0037954485 0.008804373 -0.017894525 -0.0052052424
-0.0017919439 0.012466789

batch_norm.running_mean f4 [50]
00000000: 0d22 893e abbc 1f3d 9c96 bf3c d177 073c
00000010: 76c9 ce3d a071 2b3e b631 c03e f6c8 5e3e
00000020: ab75 bc3e fa5f 7c3e f7c7 c43d 7c21 443a
00000030: 825c 923e 371e 3e3c 1cb9 423e 0d17 ac3c
00000040: 7723 4b3f 6ba5 f23e dd55 823e b9c6 c23d
00000050: 5e3a 023f 5591 943e 29fe 203e bca0 263f
00000060: 867b 123e c18d 9e3e 0f64 9c3e 3bbf b53e
00000070: ead7 e93d f081 b53e a1ff cc3d 4e69 6a3f
00000080: 7e69 413f bc23 003e fccb ae3e f3b4 0c3f
00000090: bc0e 1b3e 93a6 8c3e 4aec 213e c563 473e
000000a0: c39b 7e3d f62c 0f24 25dd 573e 7841 283e
000000b0: 461b 1a3e c932 123d 1976 1e3e 33c0 5d3e
000000c0: 021f 7e3e c160 163f
0.2678379 0.038998287 0.023387246 0.008268313 0.100970194 0.16742563 0.37537926 0.21756348
0.36808524 0.24645987 0.09608453 0.0007481796 0.28586203 0.0116038835 0.19015926 0.021007085
0.7935099 0.4739183 0.25456133 0.095105596 0.5087031 0.2901713 0.15721954 0.6508901
0.14304933 0.30967525 0.3054509 0.3549746 0.114181355 0.35450697 0.10009695 0.9156693
0.75551593 0.12513632 0.34140003 0.54963607 0.1514234 0.27470836 0.15812793 0.19471653
0.062160265 3.1046266e-17 0.21080454 0.16431224 0.15049466 0.035692964 0.15474738 0.2165535
0.24816516 0.58741385

batch_norm.running_var f4 [50]
00000000: 40ee a43d a4c1 3a3c 863e b93b 8413 e93a
00000010: ffe8 343d 7160 373d 55f3 a23d 3e06 843d
00000020: 2439 b43d 1224 863d c9c9 e33c ce23 a338
00000030: 632f bf3d 9059 413b 492e 3c3d 8fb3 f43b
00000040: 1f76 c63d fb16 2f3e febe 883d 560d e53c
00000050: 464e bc3d a33e 9c3d 1cbe 8b3d 0406 a63d
00000060: 9e9d 333d 6367 803d 0bbf df3d 4be7 ee3d
00000070: a413 d13c dc15 a03d 6c04 ec3c 24f1 183e
00000080: 01f6 b83d b707 3c3d 5e12 c23d 703e 0b3e
00000090: 1a4c 083d 9828 8f3d 88f1 2c3d cc1e 7b3d
000000a0: c64c b63c 04e8 7324 28f2 813d 3e60 683d
000000b0: b60e 483d ddf1 a03c ab5e 273d 5403 a53d
000000c0: 9625 943d 5a7b d73d
0.08053255 0.011398707 0.0056532053 0.0017782305 0.044167515 0.044769708 0.07956568 0.06446503
0.08799961 0.065498486 0.02780618 7.779115e-05 0.0933521 0.0029502846 0.04594258 0.007467694
0.096904986 0.1709861 0.06677054 0.02796046 0.09194617 0.076291345 0.0682337 0.08106616
0.043851487 0.062697195 0.109251104 0.116652094 0.02552206 0.07816669 0.028810702 0.14935738
0.090312965 0.045905795 0.094761595 0.13598037 0.0332757 0.069901645 0.04222253 0.061308667
0.022253405 5.288875e-17 0.06345016 0.05673241 0.048842154 0.01964658 0.040861767 0.080572754
0.072337314 0.10521574
