checkpoints/all users/cnn3/20-12-2023_17-37-21/best_model.pth.tar (torch, 138646 bytes, 22 tensors)

conv1.weight f4 [16, 1, 5, 5]
00000000: b18d 0f3e 25e0 9cbe 9d2a 4abe 8924 fbbe
00000010: 04a3 5ebe 0095 c43e 7b6c 38be 041c adbd
00000020: 247b 543e 1379 3a3d f5d2 813e 2eee 68bd
00000030: 05a5 41bd 1732 883e 2175 d2be 6d47 46bd
00000040: ba21 98bd 0507 f63c 8d54 6c3d 5ed7 5fbc
00000050: e2b1 a6be e7df 163e 80de 06be d1be a23e
00000060: 1651 683d 4aef af3d 2472 003f 875e 073e
00000070: dc72 933d c01f d0be be47 573e 6038 35be
00000080: 16a6 063e b0f4 da3e dae1 acbe beb2 77bd
00000090: ed49 42be c609 04bf cec7 b9bd c3c7 92be
000000a0: f042 8dbd 3a70 d5bd 5f34 f6be fc2b ae3e
000000b0: 8053 a73e 053c 6e3e 795a 563e 235e 97be
000000c0: f2fc 8dbd e6be af3e f8cf b8bb 11b0 cf3d
000000d0: 245d c73e aa64 9bbd b845 15bd ae2a 37be
000000e0: 0d8d 583e add9 cbbd 43a9 71bd dd1c 163e
000000f0: 4332 4abe 1d7c 87bd 9e10 8cbb f2a9 83be
00000100: 2b0c 58be e959 023e 57b0 0e3c 6fb8 343c
00000110: a932 3fbe 4c5f 25be bdc0 0f3d ade3 1dbd
00000120: 2f5d 063e 8115 5dbe 82e7 383d b4c6 ecbe
00000130: 7a76 cabe 504a a43e 078e 7b3e 0d94 a7be
00000140: 9b2f 21be 4767 dcbd af31 813e 353f 1abe
00000150: 2a8a f73d ea49 933e ebdd e13e 76a5 dcbd
00000160: c314 983e d0e6 a93c 0436 9e3e 8d98 4dbe
00000170: e10e f7be 7e93 b63d 4309 713c 62fd 773d
00000180: d977 ea3d deaf 20bf 040f 90bd 196b 8f3e
00000190: 0da9 7b3c d9f7 99be 03ac 4b3e 39e1 5bbe
000001a0: 6e1f fe3d 7854 633d 9981 e03e d2d0 d2bd
000001b0: 616a d9bd 0611 84bd 3205 66bd 22b1 903e
000001c0: 411c f7be f6c2 45be ae15 81be b9a1 523e
000001d0: c87a 85be d606 133d d47b 843e 5006 c03e
000001e0: ca60 4b3e d608 303d e7a6 9c3e 6174 a9be
000001f0: 482f 58bc 1e37 4dbd a57b bfbe d06c e63d
00000200: 5d84 c93e 15fc 64be d15e d33d 2be3 acbe
00000210: 26b7 d6be 315c 553e 069d f33c 1ecd b43e
00000220: c124 be3e c79c 57be df36 12be 09b2 ddbd
00000230: 7126 2fbe c383 f2bd a195 b3be f611 f43d
00000240: 3830 84be 6afa d93e da56 083f e0b6 d2b9
00000250: b5c7 ed3d 0242 073e 09d9 893e 3a3d b43d
00000260: 0020 d63e f592 d3bd ea3d 18bf f408 283e
00000270: 62de 9c3e f52f 0b3d 5d73 03be 2065 183e
00000280: 1105 cf3e e7e5 99bd e4fb 7bbe ad1b d6be
00000290: 7b0f 8f3e e551 243e 405e c6be dccd 003e
000002a0: 3b42 6e3e f7ef 6fbe 3db7 0dbf 562c d0be
000002b0: 9b72 15be 51b2 823e 482b 8e3e 698e 5abe
000002c0: a3a3 2f3e d6c7 963e 9e02 5cbe 2476 97be
000002d0: 29ec 263e f11b 99be 021c c0be 7252 cfbe
000002e0: b972 cabe 5e8a 693d 9368 2fbd e0d9 50ba
000002f0: cb34 89be 4ba5 9dbc d0dc f93b a87b 9b3d
00000300: acdb 8dbd 4837 29bd f4e6 2c3e 3e37 2b3d
00000310: ab33 9c3d f836 21be 9592 bebd 716d 7d3e
00000320: 512f 6f3e 7df8 0b3f c3b0 12bf 9d04 bb3b
00000330: 29c4 47be 0b37 9ebc e600 273e 40ba 9d3d
00000340: 454d 5bbe cbe3 f7bd 3b2f 85bd 673d 423d
00000350: 577e 61bc 0eea 553e 5e55 23bd 6236 8bbd
00000360: 13db e73e 0573 a5be be90 93be ebe0 023e
00000370: d589 a7be 4b09 6e3e fd1c c3be cb57 2b3e
00000380: 6557 b23e 904d 9139 c112 3fbe 3828 523e
00000390: 3917 a93d fcd3 0fbd f199 d8bd 643c 863e
000003a0: b755 143d b54b 45be c88e 673e 8958 0a3d
000003b0: 98d8 6d3e 7021 8ebe e590 01be 4513 053c
000003c0: 6652 c53d 3a98 213e dc87 ebbe 88a6 25bf
000003d0: fae9 ddbd 5639 14bb 0994 fabd 449d cd3d
000003e0: 204b 4cbe eb9b 56bd d354 45be 756b c9be
000003f0: 080b 28bf bb06 443d 21f9 1dbe 9ecd 9d3e
0.14018895 -0.3063976 -0.19742818 -0.49051312 -0.21741873 0.38394928 -0.18010132 -0.08452609
0.207501 0.04552562 0.2535626 -0.05686777 -0.047276516 0.26600716 -0.41104987 -0.04840796
-0.07428308 0.030032644 0.05769782 -0.013662187 -0.3255759 0.1473385 -0.13170815 0.31786206
0.056717955 0.08590563 0.50174165 0.13219653 0.07199642 -0.40649223 0.21023461 -0.17697287
0.13149294 0.42764807 -0.3376606 -0.060473196 -0.18973513 -0.51577413 -0.09071313 -0.2866803
-0.06897533 -0.10421796 -0.4808683 0.34017932 0.32680893 0.23265083 0.2093295 -0.29564008
-0.06933011 0.3432533 -0.005640026 0.10141004 0.38938248 -0.075875595 -0.036443442 -0.17887375
0.21147557 -0.09953628 -0.05899931 0.14659448 -0.19745736 -0.066154696 -0.004274442 -0.25715595
-0.21098392 0.1272961 0.008709035 0.0110303005 -0.18671669 -0.16149634 0.03509592 -0.038547207
0.13121484 -0.21590234 0.045142658 -0.46245348 -0.39543515 0.32087946 0.24565898 -0.3273014
-0.15740816 -0.10761886 0.25233218 -0.15063174 0.120868996 0.2876733 0.44114622 -0.10773747
0.2970334 0.020739943 0.30900586 -0.20077725 -0.4825354 0.08914851 0.014711681 0.06054438
0.114486404 -0.6276835 -0.07034114 0.28011397 0.015360129 -0.30071905 0.19889836 -0.21472634
0.124083385 0.055500478 0.43848875 -0.102937356 -0.10615993 -0.064485595 -0.0561573 0.28260142
-0.48263744 -0.19312653 -0.25211853 0.20569505 -0.26070237 0.03589519 0.25875723 0.37504816
0.19861141 0.042977177 0.30596086 -0.33096603 -0.0131948665 -0.050101392 -0.3739902 0.11251223
0.39358798 -0.22361787 0.10320819 -0.33767065 -0.41936606 0.2083595 0.02973796 0.35312742
0.37137416 -0.210559 -0.14278744 -0.10824973 -0.17104508 -0.11841538 -0.35075095 0.11917488
-0.25818038 0.42573863 0.53257525 -0.00040190574 0.11610357 0.13208774 0.26923397 0.088007405
0.4182129 -0.10330764 -0.59469473 0.16409665 0.30638415 0.033981282 -0.12836976 0.14882326
0.40433553 -0.075145535 -0.24607807 -0.4181799 0.27941498 0.16046865 -0.38743782 0.12578529
0.23267452 -0.23431383 -0.55357724 -0.40658826 -0.145945 0.2552667 0.27767396 -0.21343388
0.17152266 0.29449338 -0.21485373 -0.29582322 0.16301025 -0.2990413 -0.37521368 -0.40492588
-0.3954065 0.057016723 -0.04282434 -0.0007967036 -0.2679809 -0.019243857 0.0076252 0.07591945
-0.06926665 -0.041312486 0.16884977 0.04180073 0.076270424 -0.15743625 -0.09305302 0.2474878
0.23357894 0.5467604 -0.57300967 0.005707337 -0.19508423 -0.019313356 0.16308936 0.0770154
-0.21416195 -0.12103995 -0.06503149 0.04742184 -0.013763032 0.20890066 -0.039876334 -0.06797482
0.45284328 -0.32314315 -0.28821367 0.12781112 -0.32722345 0.23245732 -0.38108054 0.16732709
0.34832302 0.00027714344 -0.18659498 0.20523155 0.082563825 -0.035114273 -0.10576237 0.2621795
0.036214557 -0.19267161 0.2261306 0.03377584 0.23227155 -0.27759886 -0.12652929 0.00812227
0.09634857 0.15780726 -0.4600209 -0.6470723 -0.10835643 -0.0022617183 -0.12235267 0.10039762
-0.19950533 -0.05239479 -0.19270639 -0.39339796 -0.6564183 0.04785798 -0.15427066 0.30820936

conv1.bias f4 [16]
00000000: b8e8 bebe 3cf9 803e 83ae 0dbe 62a4 573e
00000010: f66d ed3d 8845 79be c296 003e b7e8 94bf
00000020: 206c 3a3e 9307 4abf e6b7 59be f5fc 31bf
00000030: c127 15bf 1af2 383e eaa2 9ebe 4c30 a93e
-0.37286925 0.2519015 -0.13836102 0.21058801 0.11593239 -0.2434293 0.1255751 -1.1633519
0.18205309 -0.7891781 -0.21261558 -0.69526607 -0.58263785 0.18061104 -0.3098367 0.3304466

conv2.weight f4 [16, 16, 5, 5]
00000000: 8d34 97bd 594b 253c 9035 9abd 2790 a4bc
00000010: 6ef6 c53d 4b8d d7bd 30a4 8dbc 8a8f 90bd
00000020: f2aa 54bd 421a 1abc 9b6d 263c 25c6 02bc
00000030: 1b21 74bd a776 37bd 426f 07bd ca21 103c
00000040: 49bf 36bd 36c0 acbd fdd1 2f3d 5109 7d3d
00000050: ec0e 813d 1f2d 943d e35d 84bd cc87 8a3d
00000060: f5aa 243d 7a2a 4c3e e996 5dbd 4553 4bbe
00000070: 96d3 9f3d 1fb0 10be db93 913c 4633 d6bd
00000080: f67d ddbd 611f 5abd 673c 433d a880 4abe
00000090: 36cb f13d 40e9 19bc b645 9ebd c959 133d
000000a0: f662 d5bd 3a0e 2cbb 6d1c 083e 360a 073e
000000b0: 6bd3 e53c 6ea2 12bd 722c 163d 145c c8bd
000000c0: 8721 8dbd 1a43 543d dfa0 4bbd a095 c7bd
000000d0: c8aa 723c 61b6 063c 60e0 473d 29ff d6bd
000000e0: ddf5 48bd 0390 44bc ac73 063d f218 1ebc
000000f0: de5c 673c 6ad4 233c 2493 803d d691 beba
00000100: 2b22 dc3c 84fd 5bbd d9e7 513d f367 e5bb
00000110: 2357 0a3c 85fe b2bb 6571 67bc 573b a63c
00000120: a94c b1bc c514 22bc 4c21 1abb ea5e 083c
00000130: 883c 553a 4e6c 03be 305d 883d c1ff 553e
00000140: c284 3b3e 142e 003d eb46 c8bd e966 b5bc
00000150: b36d 5ebd b323 e43c 17c8 813d 0a40 883d
00000160: a561 8fbd c4b9 44be 6390 91bd 2775 17be
00000170: d42e d43d 0923 70be f006 2dbe 8c11 83bc
00000180: a1de f9bd 73e8 733d 8573 27bd 25c0 debc
00000190: fbe7 fc3d db28 b7bc 5a51 e1bd 462d 77be
000001a0: 02a5 8d3d 28c6 2fbd f796 0d3d ca89 d0bd
000001b0: 9fc5 c63d 7c32 a13d c6fa 45bd 0ea0 713d
000001c0: f48d 353d ac74 a03d 662b 033d 5f06 2bbd
000001d0: c934 a4bc e47a ecbc e7ef 4dbd 3a05 58bd
000001e0: 8de6 e3bc 0b69 ffbd 737e abbd 326d 1fbd
000001f0: 61a9 49bd a5ba d0bd 63c0 0cbd 790d 4d3d
00000200: 4ac4 46bc 065f 17be d501 dbbd 3841 a63a
00000210: 643e 083d 70e3 603d 6e23 f7bc 061c 363d
00000220: 56b2 513d d69c dabb d617 223d 729c 31bd
00000230: a3e4 96bd eb3a 55bd 9c32 17bc f2bc b63d
00000240: 3612 64bd 1e34 8d3c 9790 d6bd 3242 29be
00000250: b5bc cabc f74e 36bd aed9 c3bd 51a5 c73d
00000260: f3cf a9bd e45a 69be f72f 7c3d 1d04 aa3d
00000270: c30f 3abe 2f9e 2fbe a7f2 003d 0e56 963d
00000280: a278 a53d cd14 6ebe b7c0 923d 5a75 84b8
00000290: 8c03 a43d da0a cdbd d048 f23c a6be 243e
000002a0: 5e76 103d e272 0a3c de7b fcbb b5b0 283e
000002b0: 0f86 e93d c849 903d 0997 ccbd 99c4 b8bd
000002c0: 17c7 e2bd 2d5d 7dbd 69ec febc e666 5a3b
000002d0: c569 a0bd 71bc bcbd d95a 5fbd 5ab4 a63c
000002e0: b8e2 de3d c671 5c3c b383 54bc 4147 af3c
000002f0: 4078 2f3e 3f18 403e 9896 99bd d104 a3bd
00000300: 2804 623d 6740 4a3e 7bae 2d3e 7ad4 63bd
00000310: 4c9e 2cbc ac4e 06bc ca37 223e 8b50 513e
00000320: 1c94 8fbb 308d b73d 6763 f7bd 6425 5b3e
00000330: 12e8 9dbc 837a 3c3c 0113 5b3d a04b 32bd
00000340: e5aa 08be 50db d8bb 16ff 90bb 12bb 8839
00000350: 65a6 843c fcdb 4dbd dd65 9b3d 9254 ac3d
00000360: 70f8 12bd 3be6 1fbd ad6c 4f3d 5290 043e
00000370: 820c f2bd bc49 053e f3ad 48bd 77bb 6bbd
00000380: cf9d 77bc 8240 b1bd e76e bbbd 0fba febb
00000390: 9fbd 773d 16e8 1a3e cb49 05bc 7caf a1bd
000003a0: 30a0 a33d f1de 9d3d 070c 0d3e 5218 92bd
000003b0: 469c 00be 315d 343d 03dd e9bc 4d99 933d
000003c0: 2ac7 7d3c 3d48 e9bc a843 c2bd 3b49 a03c
000003d0: 8366 9cbb 94b1 1c3d 4003 93bb 39fb a5bd
000003e0: 8217 b4bb b9e0 243d e28c b7bd 7156 02bd
000003f0: c55b a03d f849 15be a998 bb3d 3d35 d3bd
-0.0738307 0.010088765 -0.075297475 -0.020088268 0.09666143 -0.10524996 -0.017290205 -0.07058628
-0.05192084 -0.009405674 0.010157968 -0.007981812 -0.059601884 -0.04479089 -0.033065088 0.008797118
-0.044616017 -0.08435099 0.04292487 0.061776463 0.06301674 0.07235169 -0.0646322 0.067641824
0.0402021 0.19938079 -0.054098997 -0.19855984 0.07804029 -0.14129685 0.017770698 -0.104589984
-0.10815041 -0.05325258 0.047665026 -0.19775641 0.118063375 -0.00939399 -0.0772814 0.035974298
-0.10419266 -0.0026253597 0.13292094 0.13187489 0.028054914 -0.035799436 0.03666348 -0.097831875
-0.068911605 0.051821806 -0.049713966 -0.097453356 0.014811225 0.008222193 0.048797965 -0.10497887
-0.0490626 -0.011997226 0.032825157 -0.009649502 0.014121262 0.009999374 0.06278065 -0.0014539312
0.026871761 -0.05370857 0.051246498 -0.007000917 0.008443627 -0.00546247 -0.014126156 0.020291967
-0.021643 -0.009892647 -0.0023518382 0.0083234105 0.0008134325 -0.12834284 0.06658399 0.20898344
0.18312362 0.031293944 -0.097791515 -0.022143798 -0.054303836 0.027849054 0.06336992 0.066528395
-0.07001046 -0.19211489 -0.07107618 -0.14790784 0.10360494 -0.23450865 -0.16897178 -0.015999578
-0.12200666 0.059547853 -0.040881652 -0.027191231 0.12348934 -0.022358349 -0.11001845 -0.24138364
0.06916238 -0.042913586 0.0345678 -0.10182531 0.09705662 0.07870957 -0.04833486 0.05899053
0.04432483 0.078347534 0.03202381 -0.041754123 -0.020044701 -0.028867193 -0.050277617 -0.05273936
-0.027819896 -0.12471207 -0.08373728 -0.038922496 -0.049233798 -0.101918496 -0.03436316 0.050061677
-0.01213176 -0.14782342 -0.10693709 0.0012684232 0.033262625 0.0549044 -0.030168261 0.04446032
0.051195465 -0.0066715283 0.039573513 -0.04336209 -0.07367828 -0.05205814 -0.009228375 0.08922757
-0.05568143 0.017236765 -0.10476797 -0.16529158 -0.024748186 -0.0445089 -0.095630035 0.097483285
-0.08291616 -0.22788578 0.06156918 0.08301566 -0.18170075 -0.17150186 0.03148141 0.073406324
0.080796495 -0.23250122 0.07165664 -6.316109e-05 0.08008489 -0.100118354 0.029575735 0.16088352
0.035269134 0.008450242 -0.007705196 0.16473658 0.11402523 0.07045323 -0.09989745 -0.09021873
-0.110731296 -0.061856437 -0.031118589 0.0033325492 -0.07832674 -0.0921563 -0.05453 0.02034967
0.10883087 0.01345486 -0.012970853 0.021396281 0.17135715 0.18759249 -0.074994266 -0.07959903
0.055179745 0.1975113 0.1696109 -0.055622555 -0.010535788 -0.008197468 0.15841594 0.20440881
-0.0043816697 0.08962476 -0.12079506 0.21400982 -0.019275699 0.011503818 0.05348492 -0.043529153
-0.13346441 -0.006617941 -0.00442494 0.0002607932 0.016192624 -0.05025862 0.07587788 0.08414568
-0.03588146 -0.039037924 0.05064075 0.12945679 -0.11818792 0.13016409 -0.048994016 -0.057551827
-0.015113308 -0.08654882 -0.09152012 -0.0077736448 0.06048357 0.15127596 -0.008135269 -0.07894799
0.07989538 0.07708538 0.1377412 -0.07133545 -0.12559614 0.044034187 -0.02854777 0.07206974
0.015489379 -0.028476829 -0.09485561 0.019566169 -0.0047729625 0.03825529 -0.0044864714 -0.081045575
-0.0054959664 0.040253375 -0.08962418 -0.03182072 0.07830004 -0.14578998 0.09159977 -0.10312889

conv2.bias f4 [16]
00000000: 51fe 69bd 7ac7 0ebe f7cc 89bd ed79 32be
00000010: 61fc 37be 0a49 70bb af0b edbc 302e 83bc
00000020: 15d1 a5bd 4c76 8d3b d24e 0bbe 7d97 6abe
00000030: 3f6f eebd 366f 58bd e9f9 ebbd 7678 08bd
-0.0571273 -0.13943282 -0.06728547 -0.17429323 -0.17967369 -0.0036664628 -0.028936235 -0.016013235
-0.0809652 0.0043170806 -0.13604286 -0.2290935 -0.11642312 -0.052840434 -0.11522276 -0.033318006

conv3.weight f4 [32, 16, 5, 5]
00000000: 1f5f 60bc 5fe0 8dbd 6c75 0f3d 8f5f 2abd
00000010: 3a3c 82bd 2831 2dbd e999 963d bcfb 6ebc
00000020: 7185 b13d df68 8d3d 1bcd ec3c 8ff0 12bd
00000030: d83d 2ebe ba69 533e 9c6d 663c 7dae 02bd
00000040: f254 783d 1566 aebd dce4 e53d 8272 783d
00000050: 82ed 6c3d cc95 37bd a029 1dbe 17a9 e2bd
00000060: 6f74 9cbd b394 cbbc 843f 1c3c 83a3 943c
00000070: f4a8 a9bd 1940 37be 77c2 3dbd 3a5b 933c
00000080: 597e 6cbd b61b a0bd 1a5c ae3d 996e 023e
00000090: 4609 89bd 2b3f 62bd 69e0 88bc 4086 3e3d
000000a0: a951 76bc b419 f43c 5119 9b3c 02ba 10bd
000000b0: 3c4d 823d 031b 533d 41f1 8c3d 75ca c8bd
000000c0: a809 f13b a2cb 313d 3336 5c3c 4fdb 113d
000000d0: 0ecb 65bc aa52 99bd 7eb7 9fbd eb3b e4bc
000000e0: 3201 a1bc 48cf ce3d 59bb e53c 5eac f13c
000000f0: ba2a d4bc 6f13 cf3d 56b3 15bd a35d 82bd
00000100: 7250 29bd 6d5a b73d 3892 8c3d f34e 4ebd
00000110: cb71 423a 84af e2bd dd9a a8bd 953c 13ba
00000120: 0fe7 16be bc94 3d3a 185b 0abe d25c 80bd
00000130: 1c8d 033c 9764 3f3d 5f1a 023e 2ba5 703d
00000140: 3c48 9a3c 22a7 81bd 3d5e 833c 93be 20bc
00000150: d5f7 a23d 2d79 ccbc a599 e33c e712 26bd
00000160: dba7 113d d552 6f3d 566d f6bc f220 5d3c
00000170: 725e 6dbd 8331 033c 8d86 8cbc 5291 3ebd
00000180: 0c9b ddbd daf6 e8bc 2eb7 3abd 8fab 32be
00000190: 9715 a83d d6f1 f23c 8b23 2e3e 057c 9fbc
000001a0: 117f ab3d c263 2e3d bddf a53c 99ce 013d
000001b0: ec23 28bd 2e6b 1d3e 1b4d 8dbd c300 293d
000001c0: 63b4 debd b862 413d 7013 913b 8061 163e
000001d0: b162 803d 029e 453b 89a4 52bd e30d 77bd
000001e0: 08c5 953d 26c6 c93d 790f 303d 2290 91bb
000001f0: dd48 853d 3236 01be 45af b5bd c883 b83c
00000200: 70ee e53d f9ef 4d3d d685 40bc 047a d63d
00000210: 02aa 6ebd eb82 e53d b82a 1ebd d79b 603e
00000220: 7214 82bd 1e43 14be 77cd cebd fc29 523d
00000230: 4c94 6fbc c818 cbbc 049d 26bd 3987 d1bc
00000240: d4ee 8d3d 329f 1b3e 66b5 58bc 121c b6bd
00000250: 6dd0 203e 41a9 ae3d fd5b afbd d9cd 2cbb
00000260: 5d7b bebd f254 db3c e5a5 27bd c8a8 e1bc
00000270: ace4 163e 1897 8ebd 42a5 7abd 012a 7fbd
00000280: 7633 a43d 9dec 983d df01 34bd 0bad 063d
00000290: ca8e 0dbe e92c a3bd f5de 3bbd 3f16 6f3c
000002a0: 7086 1dbd cc87 0b3c a660 103d 6784 cf3d
000002b0: af5e f93c fe6b de3d 0977 043d 6720 713c
000002c0: 614f 9bbd b784 97bd a567 82bd 5f63 29be
000002d0: 901d cfbd 2f4d 03be f04a b8bc d1a8 1dbb
000002e0: 7e6e 1b3d de30 e9bd 505c 0dbd a966 b9bb
000002f0: d722 d1bd a78a e4bd d366 b63d 80a9 5f3d
00000300: 9af7 283b 19f5 90bb 627e 063c 08e4 2cbb
00000310: e79d a6bd 9d67 d53d 9904 3ebc 430f 89bc
00000320: 2317 9abd 8a00 bfbd 590b d8bc 10cf 13bd
00000330: 5c48 cc3d 44a2 9a3c d024 6e3b 1fab 833d
00000340: aa9f 233e c721 e93c 0720 dfbd 10eb 0abc
00000350: 742a 4abd 87a5 873b 0031 863d b8a0 b2bd
00000360: 8a4a 2ebd 17e0 bdbc 3945 7cbd b6e5 c63d
00000370: aaab 8f3a 6a3d d0bb c8fd 0ebd 6300 adbb
00000380: 25af 2cbe 7f42 823c 9f49 833d 5c12 1b3e
00000390: c905 f0bc 5f6d 423d 0106 5bbd dd02 98bd
000003a0: 7b07 0abd dd9f 53bd eeeb 84bd 7e3e 243d
000003b0: 9c7e 00bd 675e 20bd c087 90bd c4ac 87bd
000003c0: 10d6 bcbc 2fc0 5cbd 875b 183d 0029 04be
000003d0: 1147 103c 479f 06be 6bb8 99bd 583e babd
000003e0: b720 fc3c becb cdbd 4b90 a23d 9864 63bd
000003f0: 2bfd 463d d913 113e 666c c6bc 7e64 abbd
-0.013694554 -0.06927561 0.03502409 -0.041595038 -0.063591436 -0.042283207 0.07353575 -0.014586385
0.0866803 0.06904768 0.028906396 -0.035873946 -0.17015779 0.206458 0.014064219 -0.031904686
0.060627885 -0.08515564 0.11225292 0.06065608 0.057843693 -0.04482059 -0.1534791 -0.110674076
-0.076393954 -0.024851179 0.009536628 0.018144375 -0.082841784 -0.17895545 -0.046328034 0.017987836
-0.057737682 -0.078177854 0.08513661 0.12737502 -0.06691222 -0.055236023 -0.01670857 0.04651475
-0.015034118 0.029797412 0.01893297 -0.03533364 0.063623875 0.051539432 0.06881953 -0.098042406
0.0073558874 0.04340709 0.0134406565 0.03560954 -0.014025463 -0.0748647 -0.0779867 -0.027860602
-0.01965389 0.100981295 0.028043436 0.029501136 -0.02589928 0.101111285 -0.03654798 -0.06365516
-0.041336484 0.08952794 0.068638265 -0.05036826 0.0007417469 -0.11068633 -0.08232663 -0.00056166324
-0.1473658 0.0007231941 -0.13511312 -0.06267704 0.008029249 0.04672679 0.12705372 0.058751266
0.018833272 -0.06330706 0.016036147 -0.009811061 0.079574265 -0.024960125 0.027783224 -0.04054537
0.03556047 0.058428604 -0.030081432 0.013496624 -0.0579514 0.00800741 -0.017154003 -0.046525307
-0.108205885 -0.02843802 -0.04558485 -0.17448257 0.08207243 0.029656332 0.17005746 -0.019468317
0.08373845 0.042575605 0.020248288 0.031691168 -0.041049883 0.15372917 -0.06899472 0.041260492
-0.1087425 0.047213286 0.004427366 0.14685631 0.06268824 0.0030153994 -0.051426444 -0.060315978
0.07312971 0.09852247 0.042983506 -0.004442231 0.06508038 -0.1261833 -0.08871321 0.022523776
0.11227119 0.050277684 -0.011750659 0.104724914 -0.0582676 0.11206611 -0.03861496 0.21934448
-0.06351556 -0.14478728 -0.10097783 0.05130957 -0.014622759 -0.02479209 -0.040677086 -0.025577174
0.069303185 0.15197447 -0.0132268425 -0.08892073 0.15704508 0.08528376 -0.08562467 -0.0026367812
-0.093008734 0.026773904 -0.040929694 -0.027546301 0.14735669 -0.069624126 -0.06119276 -0.062295917
0.08017628 0.074670054 -0.043947097 0.03287987 -0.13824001 -0.0796755 -0.045866925 0.014592706
-0.038458288 0.008516263 0.03524842 0.101326756 0.030440656 0.108604416 0.032340083 0.014717198
-0.075835 -0.0739836 -0.06367425 -0.16541813 -0.101130605 -0.12822412 -0.02249667 -0.0024056921
0.03794717 -0.11386274 -0.034511864 -0.00565799 -0.10211723 -0.11159258 0.08906331 0.054605007
0.0025782348 -0.004423749 0.008208843 -0.0026381034 -0.08135586 0.10420153 -0.011597776 -0.01673091
-0.07523944 -0.09326275 -0.026372598 -0.036086142 0.09974739 0.018876202 0.003633786 0.06429123
0.15978876 0.02845849 -0.108947806 -0.008478895 -0.049356893 0.0041396054 0.06552315 -0.08722061
-0.042551555 -0.023178143 -0.061589453 0.09711783 0.0010961194 -0.0063549774 -0.034909993 -0.005279587
-0.16863687 0.015900848 0.064105265 0.15143722 -0.029299634 0.047467586 -0.053472523 -0.07422421
-0.03369854 -0.05166613 -0.064903125 0.04009866 -0.031370744 -0.03915253 -0.07057142 -0.06624749
-0.023051292 -0.053894218 0.037196662 -0.12906265 0.008806006 -0.13146697 -0.07505878 -0.090939224
0.030777318 -0.10048626 0.07937678 -0.055515856 0.048581284 0.14167728 -0.02422161 -0.08368777

conv3.bias f4 [32]
00000000: 5324 78bd 69c8 b8bd f6d6 f6bd 897b 32be
00000010: bc73 0dbe fbc7 45bd 8da5 21be e32b b4bd
00000020: 118f 72bd e0fe ea3a 7fb1 81bd a63b 6cbd
00000030: 7a76 3dbc 7ee0 acbd c00f 8ebd 165b 76bb
00000040: 9940 b2bd 7ceb 043d be1f 04bd 2787 bfbd
00000050: 57b5 093c ff0c 9bbd 242a 00bd d9df 3cbe
00000060: c3c1 03bd 7282 c3bd c82d dfbd 6307 56bd
00000070: c8cd 2d3c 0cc0 0fbe 6ede c1bb f259 55bd
-0.060581516 -0.090226 -0.12052719 -0.17429937 -0.1381368 -0.04828642 -0.15785809 -0.08797433
-0.05921847 0.0017928742 -0.06332683 -0.057674073 -0.011563892 -0.08441256 -0.06936598 -0.0037590913
-0.08703727 0.032451138 -0.032256834 -0.0935195 0.008405051 -0.07570838 -0.03129019 -0.18444766
-0.032167207 -0.09546365 -0.10897404 -0.05225314 0.010608144 -0.14038104 -0.0059164083 -0.05208773

linear1.weight f4 [32, 288]
00000000: 333e 3abd 4604 b53d 46fa b7bb 01cc 333c
00000010: 9edd 5a3d f9c1 c73d 744d 163e f045 6d3d
00000020: 5fb1 173e 8ccf 9fbd 8184 e13d c309 acbc
00000030: e893 3e3d 95ec d03c d3b4 1ebd 4086 003e
00000040: 3969 eabc 40de 5a3d ef3e e1bd 9d47 44bd
00000050: a662 ba3d a20e 783d 62e0 c2bb ebe5 d7bc
00000060: 63f3 ca3d a4ee 92bd 10ab 623d 0c3e ce3d
00000070: 133d 0d3d 3fbf babd ef99 303e 02ac c13c
00000080: 425d 6f3d 4b14 063e 4953 183d fcdd 5f3d
00000090: bd77 6f3d 9eee 17be 104d 073d 029f 39bd
000000a0: e989 98bd 3454 42bb f3ac f4bc b83e d9bb
000000b0: c66e 183e 771e 213e e3f4 2dbd bc75 2a3c
000000c0: 3417 323e 8ea6 86bc cdc9 263e 965e 04bd
000000d0: 8562 9c3d 7ace 903d 2046 2fbd 2aa5 8d3d
000000e0: 93f0 0f3d 5068 debb 1ec1 88bd 42b9 b8bd
000000f0: 52a8 4bbe 1c73 e13c d08c 38bd 0eff 873c
00000100: 258b 41bd 2e10 28bc 8e51 e9bc a5d7 1bbe
00000110: 2de5 25bc d2e3 073e f1eb fdbc 53c0 543c
00000120: 16a4 0f3d b0b7 eabd d104 fa3d 0eeb 13bc
00000130: 4e83 c33d 9779 cbbc 69f1 af3d 6ab3 023d
00000140: a420 ec3d 5bb8 1c3c d862 b73d e4ef 213d
00000150: 2240 3e3d 50d1 b1bc 984a 65bd b800 5dbd
00000160: 1d9e 373e 29a6 20bd 5122 863d c464 9a3c
00000170: f407 3b3d 0905 ad3d 8305 b03d 76cd 003d
00000180: 8653 0fbe 5b17 9e3b 8240 5bbd a3b6 603d
00000190: 3ff8 5f3d eba6 c13d 25d1 3ebe 6eb5 223d
000001a0: 83b6 b2bd 8b5f 41be 2b02 483d 0365 b1bd
000001b0: 5f30 b33d db9f 33bd 9335 2ebd 4729 0cbc
000001c0: 7fc0 00be 0229 343c 3716 38bc 4603 a4bd
000001d0: 9a08 83bd e0f4 013d 243b 953d eca0 8fbd
000001e0: 6d2f efbc 1337 b5bd b3fc 94bc cdaf 9abd
000001f0: 8f89 59bd 08e2 cc3d 6fa7 0bbe 946e babb
00000200: de04 f93c 662c c7bd bee2 853d 57b9 eebd
00000210: 5362 bb3b c617 c03a 3fcc 65bc 8ce3 2aba
00000220: ca98 5a3c ec92 51be 7018 c93d 8331 583c
00000230: 4b77 e63d af39 e63b 8af0 293d 015a 5d3d
00000240: 4032 05be f96b 74bd dc7a 543e 2f5e 903d
00000250: 1252 223c 7da8 533d d079 263e 9f16 db3d
00000260: 17cd 4b3c 2310 a3bd cb3d ff3c 1b34 48bd
00000270: 5060 cfbd ac48 2c3d 4414 723d e310 d8bc
00000280: 853a 2d3d 1226 603d 3b84 af3d 9cac 23bd
00000290: f40c 0abd f326 9bbc 65ce 883c 5e33 ccbd
000002a0: 7403 afbc 200f 3b3e 4006 f33c eb32 483d
000002b0: e8df f8bc 6df9 e1bb 0576 e9bd 189c b8bd
000002c0: b849 a8bd a3cf 76bd b8d8 b33d 14c9 f2bc
000002d0: 934e c1bc efde 19bd c165 8fbd 1c0b b73d
000002e0: 8213 0fbc 8a3b 223b 83c0 ab3b 7a5a 1d3e
000002f0: aaf6 083d 8a5c ee3d 059b 01be b577 e6bd
00000300: 9aa3 543d 010c cbbb 833e 333d 38ad abbd
00000310: 88fc f1bd d607 30bc a430 e53d 40ce f83d
00000320: 5d39 073e a6c9 233c 78d9 c3bd f2cf ddbd
00000330: 41e0 44bc c919 7f3d 8a19 4ebb 3d8d a3bd
00000340: 55c3 cf3d c52d ebbc a81f 0ebe ff48 f5bc
00000350: b1f3 363d 359e 3bbd cf2b dc3c 44e9 cf3d
00000360: 85de 8bbc 3cfb c93b 1021 7a3d 44c3 9bbd
00000370: 5988 30be 3678 853d 7639 ca3d d8fd aebd
00000380: 0686 a23c f0f4 733e c230 8b3d 63dd 71bd
00000390: c4c5 e1bc 3d50 c6bd d50c 60bd 78f3 eabc
000003a0: a692 2c3e 6b9f be3c b164 173e 2d12 493d
000003b0: f434 cb3d a096 b23d cfca 3f3d 817f 4ebe
000003c0: ce10 083d a2b8 17bd e016 14bd 7545 0f3d
000003d0: 408c 053e a127 243d b7b5 f7bc 5060 163d
000003e0: 5e4c d23d 94d2 a1bd 9371 063c 0c65 1bbe
000003f0: c8c3 d13d 54c4 2e3d 8f7f 413c e363 e93d
-0.045469474 0.08838706 -0.0056145517 0.010973931 0.053434007 0.09753794 0.14677984 0.057928026
0.14813755 -0.07803258 0.11011601 -0.021000749 0.046527773 0.025503436 -0.038746666 0.12551212
-0.028614627 0.05343461 -0.10998332 -0.04791986 0.09100847 0.06056083 -0.0059471587 -0.02635475
0.099097036 -0.07174423 0.05533892 0.10070428 0.034482073 -0.091185085 0.17246221 0.02364159
0.058438547 0.13093679 0.037188802 0.05465506 0.0584638 -0.14837119 0.033032477 -0.045317657
-0.07448179 -0.002965224 -0.029867625 -0.006629791 0.14886007 0.15734278 -0.04246987 0.010404047
0.17391664 -0.016436841 0.16287918 -0.032316767 0.076359786 0.07070632 -0.042791486 0.06916268
0.03514154 -0.0067873374 -0.06677459 -0.0901971 -0.19888428 0.027520709 -0.045056164 0.016601112
-0.04725184 -0.010257764 -0.028481271 -0.1521898 -0.010125441 0.132705 -0.030996295 0.012985307
0.035068594 -0.11460817 0.1220795 -0.009028209 0.09546529 -0.024838252 0.08590967 0.031909384
0.11529663 0.009565438 0.089544 0.03953542 0.04644788 -0.021706253 -0.05597934 -0.053955764
0.17931409 -0.039220963 0.06549514 0.018846877 0.04566188 0.08448226 0.08594801 0.031445943
-0.13996705 0.0048245615 -0.053528316 0.054861676 0.054680105 0.09455665 -0.1863447 0.039723806
-0.087262176 -0.18884103 0.048830193 -0.086618446 0.087494604 -0.043853622 -0.04253156 -0.008554763
-0.12573431 0.010996105 -0.011235765 -0.08008437 -0.06398125 0.03172767 0.07286671 -0.07013115
-0.029197419 -0.08848395 -0.018186903 -0.075530626 -0.0531097 0.100040495 -0.1363809 -0.0056894515
0.030397829 -0.09725265 0.06537388 -0.116564445 0.0057185083 0.0014655523 -0.014025747 -0.00065188925
0.013342092 -0.20466202 0.09819114 0.013195398 0.11253222 0.0070259194 0.04148916 0.054040913
-0.1300745 -0.059673283 0.20749992 0.07049214 0.009907262 0.051674355 0.16257405 0.10697674
0.012439034 -0.07962062 0.031157395 -0.048877817 -0.10125792 0.042061493 0.059101358 -0.02637524
0.042292137 0.054723807 0.08570143 -0.039959535 -0.03370376 -0.01893947 0.01669998 -0.09970735
-0.021363951 0.18267488 0.029666066 0.048876684 -0.030380204 -0.006896189 -0.113994636 -0.090141475
-0.08217186 -0.06025661 0.0878157 -0.029636897 -0.023597037 -0.03756612 -0.0700183 0.08937666
-0.008732678 0.0024754726 0.005241455 0.15366545 0.033438362 0.11638744 -0.12656792 -0.11253301
0.051913835 -0.0061964993 0.043760788 -0.08382648 -0.11815745 -0.010744056 0.11190918 0.12148714
0.13205476 0.009996807 -0.09562963 -0.10830678 -0.012016357 0.06228045 -0.0031448328 -0.079859234
0.101446785 -0.028708348 -0.13879263 -0.029942034 0.044665996 -0.045805175 0.026876358 0.10151914
-0.017073879 0.0061639827 0.061066687 -0.07605603 -0.17239513 0.06517069 0.09874241 -0.085445106
0.019839298 0.23823905 0.06796409 -0.05904902 -0.027560122 -0.09683273 -0.054699738 -0.028680548
0.16852817 0.023269376 0.14784504 0.0490896 0.099222094 0.08720136 0.046824273 -0.20165826
0.03321915 -0.037041314 -0.036154628 0.03497835 0.13041782 0.040076856 -0.030238016 0.036712945
0.10268472 -0.07901493 0.008205789 -0.15175265 0.102424204 0.0426677 0.0118101975 0.11396005

linear1.bias f4 [32]
00000000: 37d7 f6bc e216 0b3d a2c3 63bc a7e6 7f3d
00000010: 2a0a 37bd ecab ec3d ba52 bc3a bbc9 9e3c
00000020: d749 d6bb b2be e83d 2505 193d e9fb 28bc
00000030: 84a2 e03c 754b d13c f6d3 a3bb b74d 38bd
00000040: 8dde 6f3d 0c35 a13d 1e77 7e3d c06d 8d36
00000050: 089c 9c3d 57a7 fd3c 6acf 6bbd e01c aebc
00000060: 94e9 f63d 93bb 59bd e54b 6b3d f66f d83b
00000070: f86c cc3c f0be 503c 26f5 24bd 358c 8b3d
-0.03013192 0.03395737 -0.013901623 0.062475827 -0.044687428 0.11556229 0.0014367916 0.019383302
-0.006539564 0.11364497 0.03735842 -0.010313966 0.027421243 0.025548676 -0.004999633 -0.04499599
0.05856185 0.07871446 0.062125318 4.214904e-06 0.07646948 0.030963583 -0.057570852 -0.021254003
0.1205627 -0.0531574 0.057445426 0.0066051437 0.024954304 0.012740836 -0.040272854 0.06813852

linear2.weight f4 [10, 32]
00000000: 0c8f 9fbb ddc2 0cbf d08f 00be 7448 98be
00000010: 00d4 18bd 59d5 a33e ff64 fcbd 6932 a13e
00000020: 6267 e93e 9fe3 4e3e 58d7 843e d59a c1be
00000030: 41e2 ecbe cdec e4bd ac14 b5be eee1 e2bd
00000040: 8475 f1be 8e9c 023f d233 2b3e e409 33bf
00000050: e8c4 013e 316e 36be af2b c4bd 58cd bf3e
00000060: be8a 2abd 9e29 1d3f 3b82 85bc e1f2 06be
00000070: 7f58 8e3e 3947 84bd d1bd 2d3e 8cfd a8be
00000080: 51de 40be 3b01 ae3e 765d 153d 6aef 243f
00000090: e8ea 94bc 03d3 843e 5b8f d83e 33c4 abbe
000000a0: 2f9f 453e 1126 f7be 66b0 71be 186f 8c3e
000000b0: 2b57 fc3e f95e edba 6d11 87be a2ee 4dbe
000000c0: 0961 60bd 439b 0a3f 6193 a7be 777d f13e
000000d0: 5367 943e 5555 9dbe 1f11 483d 65eb ba3e
000000e0: 46ad fcbe 3742 a23e 1a73 2a3f e733 18be
000000f0: ebf0 97be 8a9e 0c3f 0273 e83d dc18 a63e
00000100: 8280 f3bd 555e cb3e c24e 4ebe 92f7 cfbe
00000110: 64f5 fe3d 4303 b83e 5d71 8a3e e4f9 ce3d
00000120: 3a3a e53e 16da d8be 66ac 9e3e 269b 96be
00000130: 7b34 abbe d335 e53c ee81 c43e 23ff e33d
00000140: 362a 92be dd2a 84be 6f32 b83e 0c89 dd3e
00000150: 5275 93bd bde8 003f 152f 8ebd c55f f03e
00000160: 91db ca3d 5e6d 083e 7da5 dbbe a9a5 8fbe
00000170: 5ca3 afbe 09e2 e2be ee6f 533e 08d2 a5be
00000180: 01be a73d 3ba9 143f 2f61 c4be c8b3 bcbe
00000190: f082 653d df7c a6be 268c 703e d829 febe
000001a0: 3519 973d 3f76 993e 7334 e03e d9cf 7fbe
000001b0: 4159 bcbe de6a 203e bf5d 12bf f9bb 96be
000001c0: c0f0 8e3e 1520 833e 5087 9cbe 9e9c 97bd
000001d0: 47f0 903e 6e50 c3be 29ea dcbd 836a 083f
000001e0: d54f 933e d6e5 06bf 8d17 083e 0797 2d3e
000001f0: adb7 91be a4c2 7f3d 9895 08bf 7904 923e
00000200: e984 a33e ea96 033f 486a 90be cb49 e8be
00000210: c714 a8bc d740 23be 121a 21bd c5d6 873e
00000220: 861d 003f 40a6 bdbe e035 83be 64e4 2abe
00000230: dd13 b2be cf96 09bd ffe0 e6be f020 50bd
00000240: aa2e acbe 1805 aebe 3686 edbe 6601 a33e
00000250: 038b 14bf 753b 563e fd53 8bbd 63a3 7fbe
00000260: 79ba 983e 38a9 f93e 503e 1ebe 1a74 2e3f
00000270: 737c d1be 901f 34bb 4bd8 503e 764e 243e
00000280: e8b0 9b3e f2be 1ebf 93c6 bb3e 236d bb3e
00000290: 84ac 04be 94cb d43e 059b 8a3b 35a4 c0be
000002a0: 6cf6 15bf 4549 04bc 1b50 69bc 8fa4 df3e
000002b0: a328 f2be e9a7 093e d1aa ef3e e394 e03e
000002c0: bd03 f23e 318f e0be 543f cabe bd4a bcbe
000002d0: 2a0a f13e d72f d5be 44eb b2bd 2833 70be
000002e0: a3da b9be 0fe9 c4be 0072 82be 79bc 9c3e
000002f0: 384b 4f3e e73c 86be 7d6f 033f 472b a13e
00000300: 1ed4 ebbe c519 3f3e 7c10 e93b 7cd7 c6be
00000310: a1f6 aebc ce3d ffbe 9a55 96bc 4f24 143f
00000320: b888 84be b682 943e 3f7b 95be abfa b1be
00000330: 6d19 e5be c96e 013d 5429 39bd 84c1 cabd
00000340: 7964 6abe 99f7 10bd c489 fc3d 9a3b 9a3e
00000350: 7dfc 4e3d adf0 9fbe 81e2 1fbe 1c99 0a3f
00000360: a25c 0abf 33ca 023f c96e afbe 8dbd bfbe
00000370: 042c 04bf 174e dbbe 0b40 e5bd 229d b43e
00000380: d641 1dbf e547 eebe 2748 573e af9f 5f3c
00000390: 94b3 02bd 381f 00be 9324 583e debc 6fbe
000003a0: a673 23bf 7b83 613e 46ab b5be e206 303f
000003b0: 1e7c de3e 8a5c e4bd c145 903e 7e43 c4be
000003c0: b82a 0b3f 27d2 803e 31de c83d 0353 2bbd
000003d0: f88d 43be 1f99 a63e f9cf 23bd 30b3 6ebe
000003e0: 4ed5 063f 8fb1 a0be 482d 75be 018f 7a3e
000003f0: 7ad1 953e 1f91 6c3e 6828 573e 0868 50be
-0.0048693474 -0.5498484 -0.1255486 -0.29742777 -0.037311554 0.3199871 -0.12323951 0.31483772
0.45586687 0.20204018 0.25945544 -0.3781344 -0.46266368 -0.11177979 -0.35367334 -0.11078249
-0.4715997 0.51020133 0.16718987 -0.69936967 0.1267277 -0.17815472 -0.095786445 0.37461352
-0.04163622 0.6139163 -0.01629745 -0.13178588 0.27801892 -0.06458897 0.1696694 -0.3300594
-0.18834807 0.33985314 0.036466084 0.64427817 -0.018178418 0.2594224 0.42296872 -0.33548126
0.19299005 -0.4827123 -0.23602447 0.27428508 0.49285254 -0.0018109969 -0.26380482 -0.20110562
-0.05478004 0.5414316 -0.3272963 0.47166035 0.2898508 -0.30729166 0.048844453 0.36507717
-0.49350947 0.31691143 0.6658188 -0.14863549 -0.29675993 0.5492941 0.11350061 0.3244084
-0.11889745 0.39720407 -0.20147231 -0.4061857 0.12449148 0.35939988 0.27039614 0.101062566
0.44770986 -0.42353886 0.30990905 -0.29415244 -0.33438477 0.027979767 0.38380378 0.11132648
-0.2854783 -0.25813952 0.35975978 0.4326862 -0.072001114 0.5035513 -0.06942574 0.46948066
0.0990516 0.1332297 -0.42899695 -0.28056076 -0.3430432 -0.44313076 0.20648167 -0.32386804
0.08190537 0.58070725 -0.38355395 -0.36855912 0.056033075 -0.32517144 0.23490962 -0.496413
0.07377855 0.29973027 0.43790016 -0.24981631 -0.36786845 0.15665767 -0.57174295 -0.29440287
0.27918053 0.25610414 -0.30571985 -0.07402919 0.28308317 -0.381473 -0.1078685 0.53287524
0.28771845 -0.5269445 0.13290234 0.16952144 -0.28460446 0.062441483 -0.5335326 0.28519037
0.3193734 0.5140215 -0.28206086 -0.453688 -0.02051772 -0.15942703 -0.039331503 0.26531044
0.5004505 -0.370409 -0.2562704 -0.16688687 -0.3478078 -0.033591088 -0.45093533 -0.05081266
-0.33629352 -0.3398826 -0.46391457 0.31837004 -0.58024615 0.20921119 -0.06803129 -0.24964671
0.29829767 0.48761916 -0.15453458 0.68145907 -0.4091526 -0.0027484633 0.20395009 0.16045555
0.30408406 -0.6201011 0.36674938 0.36606702 -0.12956434 0.41561568 0.0042299055 -0.3762528
-0.58579135 -0.008074109 -0.01424029 0.43680236 -0.47296628 0.13442959 0.4681001 0.43863592
0.47268477 -0.43859246 -0.3950144 -0.3677577 0.47078067 -0.4163806 -0.087362796 -0.23457015
-0.3629962 -0.3845906 -0.254776 0.30612543 0.20243537 -0.2621834 0.5134199 0.3147833
-0.4606027 0.18662174 0.007112561 -0.38836277 -0.021357836 -0.4985184 -0.018351365 0.578679
-0.25885558 0.29005975 -0.29195592 -0.34761557 -0.4474596 0.031599794 -0.04520543 -0.099001914
-0.2288989 -0.035392378 0.12330964 0.30123597 0.05053376 -0.3123831 -0.15613748 0.54139876
-0.54047596 0.5108978 -0.3426421 -0.37449303 -0.5162966 -0.42833015 -0.11193856 0.35276133
-0.6142858 -0.46539226 0.21023618 0.013648911 -0.03190954 -0.12511909 0.21107702 -0.23411891
-0.6384834 0.22022812 -0.35482234 0.687605 0.4345407 -0.11150463 0.28178218 -0.38332742
0.5436206 0.25160334 0.09808005 -0.041827213 -0.19097126 0.32538697 -0.03999326 -0.23310542
0.5266923 -0.31385466 -0.23943055 0.24468614 0.2926138 0.23102234 0.21011508 -0.20352185

linear2.bias f4 [10]
00000000: b587 6d3e 7e77 22be d5d6 493e cb76 203e
00000010: 2eb5 a73d c8fc 5c3c d71d d13e 295f 603d
00000020: 5de0 ccbd 3132 613c
0.231963 -0.15865895 0.19710858 0.15670316 0.08188854 0.013488002 0.40843078 0.05477825
-0.100037314 0.013744877

batch_norm_2d_1.weight f4 [16]
00000000: 420e 653f 96ee 8f3f 5b4a 363f fe4e 8f3f
00000010: ba1c 643f 2b33 873f 2b44 8d3f 7c1d 8c3f
00000020: e4c1 873f 816d 843f 9cae 713f 38d6 6d3f
00000030: f003 523f e8a4 943f b088 453f b155 7a3f
0.8947488 1.1244686 0.7120721 1.1195982 0.89106333 1.056249 1.1036428 1.0946498
1.0606046 1.0345918 0.9440706 0.92904997 0.8203726 1.1612825 0.77161694 0.97787005

batch_norm_2d_1.bias f4 [16]
00000000: 9576 ea3d f9a6 373e 378b 553e b8c7 8e3d
00000010: b452 933d d7c2 843e 7429 303e 25b4 9bbe
00000020: 8f69 183e bc15 373e 23f9 123e b67d 063e
00000030: a18e df3d 5c74 8c3e 09c9 67be 4431 683d
0.11448399 0.17934789 0.20853887 0.06971687 0.07193509 0.259299 0.17203313 -0.30410877
0.14884017 0.17879385 0.1435285 0.13133892 0.10915876 0.27432525 -0.22635283 0.05668761

batch_norm_2d_1.running_mean f4 [16]
00000000: 6610 203e 2623 af3e 7483 763e ac5d a83e
00000010: 9ba2 273e fe73 b63d b3e5 8a3e 1771 2f3e
00000020: 4484 8f3e 1154 013e 7ad2 f73d fad1 833e
00000030: e99d 513d 9448 ba3e 1d14 b33e 2201 f73e
0.15631256 0.34206504 0.24073583 0.32883966 0.16370623 0.089088425 0.27128372 0.17132984
0.28030598 0.12629725 0.12100692 0.25746137 0.051175985 0.36383498 0.34976283 0.48243052

batch_norm_2d_1.running_var f4 [16]
00000000: 5975 4a3d 207b 073e 1a50 973d c5e4 f53d
00000010: 332d 873d 3e9f 813d 4184 f13d 9ccb 573d
00000020: c44e eb3d 1fff 103d 8dd3 ba3d c49b c23d
00000030: dbdf bb3c 1804 773e 8a59 113e a894 b43e
0.049428318 0.13230562 0.07388325 0.12006525 0.06600418 0.06329201 0.117928036 0.05268441
0.11489633 0.035399552 0.09122381 0.09502366 0.022933891 0.24122655 0.14194313 0.35269666

batch_norm_2d_2.weight f4 [16]
00000000: ac91 863f e180 743f a712 803f 2b27 7e3f
00000010: 7f43 883f ac1b 693f 5c30 813f 3e03 693f
00000020: a2fe 8c3f 6c8c 693f 51fc 813f a4f3 763f
00000030: 2e81 783f 0b33 813f bf39 893f 1b18 823f
1.0513206 0.95509154 1.0005692 0.99278516 1.0645598 0.9105785 1.0092883 0.9102057
1.1015208 0.9122989 1.0155126 0.96465516 0.9707211 1.0093702 1.0720748 1.0163606

batch_norm_2d_2.bias f4 [16]
00000000: 74b5 4fbe 489e c63d 682b ebbd 67d5 773d
00000010: 8ed8 573c d6e2 083e d629 05be d3d5 813e
00000020: c332 fc3d 2978 5e3e 3f46 5c3e 008d 493e
00000030: 6538 48bd 5034 07be 5ae4 683d a4cd 883e
-0.20284063 0.096981585 -0.114828885 0.06050625 0.013174189 0.13367781 -0.1300424 0.25358447
0.123143695 0.21725525 0.21511172 0.19682693 -0.048881907 -0.1320355 0.056858398 0.2671939

batch_norm_2d_2.running_mean f4 [16]
00000000: d6a6 bf3f ec11 863f 085e bb3f 757b 693f
00000010: 10bb b13f cc1c cf3f 184a cf3f d289 df3f
00000020: 17c3 8f3f ab5c d03f 3085 713f 95a2 233f
00000030: 9330 b33f cab8 973f 956f 9e3f 2752 d23f
1.4972789 1.0474219 1.4638071 0.91204005 1.3885212 1.6180663 1.6194487 1.7463934
1.1231412 1.627828 0.94343853 0.63919955 1.3999199 1.1853268 1.2377802 1.6431321

batch_norm_2d_2.running_var f4 [16]
00000000: c8c2 7340 acdd 0c40 beec 4e40 ac72 0e40
00000010: 689c 3e40 b5e0 3f40 e3cd 5b40 03d4 6040
00000020: 7a3e 6f40 0f69 3f40 242a 1b40 98f8 9a3f
00000030: a4f9 3040 686e ff3f 6e87 5640 74b5 8640
3.8087635 2.2010298 3.2331996 2.225749 2.9782963 2.99809 3.4344413 3.5129402
3.7381883 2.9907873 2.424447 1.2107115 2.7652369 1.9955568 3.352016 4.20965

batch_norm_1d.weight f4 [32]
00000000: 958f b03f a259 d53f b6ad af3f a94b bb3f
00000010: e45f 7f3f 3bc5 ae3f 98b0 a23f cd07 b33f
00000020: 4678 ca3f 7b0c b73f 9dec af3f 4f69 d63f
00000030: 4ae7 d03f 4707 803f 7e1a b53f 77a5 a23f
00000040: a7ca c03f eb55 ba3f b586 ab3f ad18 b93f
00000050: 397c ad3f 8d7f ab3f 8a73 7f3f 5053 c33f
00000060: b0f2 b43f 3285 c53f 8bf2 be3f d2a8 ab3f
00000070: d473 b43f d943 ad3f 28d0 aa3f 683a ac3f
1.3793818 1.6667979 1.3724887 1.4632465 0.9975569 1.365394 1.2710142 1.3986756
1.5817955 1.4300684 1.3744084 1.6750888 1.6320584 1.0002221 1.414871 1.2706746
1.5061845 1.455747 1.3400484 1.4460655 1.3553535 1.33983 0.99785674 1.52598
1.4136562 1.5431273 1.4917768 1.3410895 1.4097848 1.353633 1.3344774 1.3455324

batch_norm_1d.bias f4 [32]
00000000: b880 96bd 0aed bd3d 8fe7 afbc ae90 adbd
00000010: 8828 e33c e2c8 cf3c 0d54 913c 467a 203e
00000020: 474b ec3d 0f1b 2b3d 4f0f 0e3c 6166 55be
00000030: 1aea ffbd 4c40 17bc b484 8dbc 7648 05bd
00000040: a37c f6bd 8e1b 383d b144 b73d 27b4 013d
00000050: 7ec8 bebc 7160 093d b236 2bbd ccce 0d3e
00000060: 3390 8abd 0ddd 3e3e 2c89 c5bd a4c8 d3bd
00000070: 2bfc cabd 2074 bcbd 86ff f6bc c8f5 94bd
-0.0734877 0.09273727 -0.02147272 -0.08474861 0.027729288 0.025364343 0.017740274 0.15671644
0.115377955 0.041773852 0.008670642 -0.20839836 -0.12495823 -0.009231638 -0.017275192 -0.032539807
-0.12035491 0.044948153 0.08948649 0.031665947 -0.023288961 0.03353924 -0.04180021 0.13848418
-0.06765785 0.18639012 -0.09645304 -0.103410035 -0.099113785 -0.092018366 -0.03015114 -0.072734416

batch_norm_1d.running_mean f4 [32]
00000000: 36a2 5340 2291 e83f 9e82 443f e120 443f
00000010: 0400 0000 1b04 9e3f 0109 743f 95d8 863f
00000020: 12ed 0d40 cd10 e33f 4d25 2140 2b3b bc3f
00000030: 0158 9a3f 0400 0000 913d f63f c608 0d40
00000040: abb1 973f a468 ba3f 69dd c43f 363a 0840
00000050: 0486 c13f 0b26 b23f 0400 0000 306b 1040
00000060: 121c c63f d406 1440 d8f0 e43f 7e69 a33f
00000070: 3014 4b3f 005c 6c3f 01be a63f 0e9e 913f
3.3067756 1.8169291 0.76761806 0.7661267 6e-45 1.2345003 0.9532624 1.0534846
2.2175946 1.7739502 2.5179017 1.4705557 1.2058107 6e-45 1.9237539 2.2036605
1.1851095 1.4563184 1.5380069 2.128553 1.5119023 1.391786 6e-45 2.2565422
1.5477316 2.3129168 1.7886 1.2766569 0.7932768 0.9232788 1.3026735 1.137636

batch_norm_1d.running_var f4 [32]
00000000: 05ba 9c40 e535 4a40 7f84 c63f a437 b13f
00000010: 0400 0000 aea1 2c40 5756 a33f cb3c 0940
00000020: 9f47 8f40 508c 4440 a5f7 8440 483f 5a40
00000030: c777 3140 0400 0000 d3c1 8540 5052 0940
00000040: 5273 1c40 5ff7 2340 0305 2540 5b2d 9a40
00000050: ffd6 2740 6c3f 4640 0400 0000 4199 b540
00000060: dd11 3940 39ad bb40 2335 a040 16f8 3940
00000070: 28f6 d43f 94ae c73f 9b5e ee3f f031 0740
4.8977075 3.1595395 1.5509185 1.3845105 6e-45 2.6973681 1.2760724 2.1443355
4.477493 3.071064 4.15523 3.4101124 2.7729356 6e-45 4.17991 2.145649
2.4445386 2.5619733 2.578431 4.8180366 2.6224973 3.097621 6e-45 5.6749578
2.8917153 5.8648953 5.0064864 2.905767 1.6637621 1.5600152 1.8622621 2.112423
