checkpoints/all users/cnn3/20-12-2023_17-37-21/last_model.pth.tar (torch, 138902 bytes, 22 tensors)

conv1.weight f4 [16, 1, 5, 5]
00000000: 63e4 153e 7abd 96be 2eb1 41be 136d f7be
00000010: c29b 54be 5e2d c93e 1e74 2fbe 1be3 86bd
00000020: 1bc5 683e e29e 6c3d 0564 883e 7a11 2cbd
00000030: 7c74 dabc 5ce5 913e db0a cabe 2a4b 11bd
00000040: f275 61bd 8617 503d af12 943d dcab 68bb
00000050: b6df a1be 8289 263e 425f edbd d3d7 a93e
00000060: 9809 823d a539 b43d e09b 023f 3fd6 013e
00000070: caf1 943d af96 cbbe 99c4 5b3e de05 32be
00000080: 9318 043e f17f da3e 3c6c afbe 6680 61bd
00000090: 119b 3abe 6ca0 01bf b936 a3bd fa34 91be
000000a0: 85a7 73bd 41bd bebd bace efbe d36b b73e
000000b0: db71 b03e 8421 793e 849c 633e 57ce 91be
000000c0: 235f 6bbd 367f b63e 142a 34bc 0470 c13d
000000d0: 5d9f c53e 323c 93bd 7e78 15bd 6929 3abe
000000e0: 2a63 523e 0d8b d9bd 5e18 72bd f6f9 133e
000000f0: 1b5c 4dbe eecf 90bd 8b9d 04bc 91ce 84be
00000100: 037a 5dbe 88a0 fe3d 1615 ec3b 6e12 f93b
00000110: 2d57 43be 8b54 29be 81c5 053d c0bb 20bd
00000120: 6797 033e 32c2 62be e837 2c3d 3421 e7be
00000130: 3275 c1be 66db ad3e bdca 8a3e f73f 9cbe
00000140: db69 1abe adcb b2bd 522e 873e a03d 11be
00000150: 6722 063e 0803 943e 8b2b e83e 4056 e1bd
00000160: cb29 993e e703 183d d662 9f3e c8be 46be
00000170: 261e f6be 38d4 ba3d bb56 f83c 92da 873d
00000180: 0fb4 0c3e bb7f 1ebf 2656 8fbd bc75 983e
00000190: e49e 993c f3f6 9cbe 35af 4d3e 0be5 56be
000001a0: 589f 043e 8457 6e3d c7c5 df3e 8657 d7bd
000001b0: f082 d2bd 5a89 73bd 601a 5dbd 52c8 8e3e
000001c0: d16b f5be 87ea 3fbe 9adf 79be 6b1a 543e
000001d0: 6530 85be 5829 1c3d bb6d 863e 80bd c33e
000001e0: b4bc 493e 9c5d 253d 0e87 9d3e 8e33 acbe
000001f0: 1d40 37bc 8ccf 4abd 6651 c1be 1b5d ce3d
00000200: faf8 c33e da0c 6bbe 7543 d13d e142 adbe
00000210: baaf d8be ba1c 4b3e ade0 9a3c d53e b63e
00000220: ea89 bb3e 6357 62be 36d7 23be 2d0a f3bd
00000230: 5990 2cbe 876c 00be e8bc babe 8d87 d03d
00000240: e664 86be deb8 db3e 1f5d 063f 15fa 28bc
00000250: bdb1 d23d 9768 fd3d 031d 8d3e be6a b93d
00000260: 90fc de3e deec b0bd 152b 14bf b063 303e
00000270: 5917 9d3e c0f2 3f3d e007 f0bd d92d 2a3e
00000280: 50c0 d23e 0405 96bd 712e 6ebe 2fc7 d2be
00000290: 5a5b 923e 523a 263e 0f24 c5be d691 0c3e
000002a0: 8a45 783e 9c23 62be f049 0bbf 51db ccbe
000002b0: 37d2 0ebe 2c82 883e 7305 993e 92de 53be
000002c0: 6cdd 323e 68da 933e 6fd6 5dbe de01 99be
000002d0: bdc5 2b3e a9d7 98be 806b c4be 5653 d2be
000002e0: 352a d0be 03f2 5d3d ea35 37bd 50cc 03bc
000002f0: 5618 8dbe 7139 0dbd b0e5 ed3a c34d 8d3d
00000300: 6593 afbd 0a65 77bd 5e42 143e 5ef8 e63c
00000310: f7b1 7a3d 4389 37be bb48 f5bd cf71 5c3e
00000320: e93b 6a3e 1257 0b3f ae70 13bf ae87 603c
00000330: 5a98 4cbe b2e9 a9bc 6e18 1f3e f2d9 9b3d
00000340: ad8d 52be 4281 eabd 02a8 8abd 50c9 513d
00000350: f77f 84bc 0744 5f3e 1f2b 07bd 6710 87bd
00000360: c380 e93e 4c46 a5be 7bd4 8bbe a254 0e3e
00000370: f4cd a5be be83 6b3e 1a65 c4be c42c 393e
00000380: 0291 b73e a154 543b 45c7 40be e025 523e
00000390: 94fa aa3d de12 bebc 43b4 d8bd 0e67 813e
000003a0: 8d0a df3c 45b8 4bbe 953d 6c3e 34ac 2d3d
000003b0: e160 6d3e dcbf 8ebe 430c 00be 56c3 a13c
000003c0: 65b9 d73d febc 233e ce9a ecbe 2d08 25bf
000003d0: 65c7 cbbd e779 e93b 34eb 00be 4d50 c83d
000003e0: 7469 47be 74da 30bd 513a 45be 819c c9be
000003f0: b59a 28bf 12f7 553d b4ef 21be 5997 9c3e
0.14637904 -0.29441434 -0.18915245 -0.48325405 -0.20762542 0.39292425 -0.17134139 -0.06586286
0.2273144 0.05776871 0.2663881 -0.042008854 -0.026666872 0.284953 -0.39461407 -0.035472073
-0.055044122 0.050803684 0.07230126 -0.0035502827 -0.3161599 0.16263393 -0.115904346 0.33172473
0.06349486 0.08800057 0.51019096 0.12679385 0.0727268 -0.397634 0.21461715 -0.1738505
0.129 0.42675737 -0.34262264 -0.05505409 -0.18223216 -0.5063541 -0.07969422 -0.2836073
-0.05948593 -0.09313441 -0.46837407 0.3582445 0.34461865 0.24329191 0.22227675 -0.28477737
-0.057463776 0.3564393 -0.01099636 0.094451934 0.38598147 -0.07189216 -0.036491863 -0.18179859
0.2054564 -0.10622225 -0.05910527 0.14450821 -0.20054667 -0.070709094 -0.008094202 -0.25938848
-0.21628575 0.12432963 0.007204662 0.007601074 -0.19076224 -0.16536157 0.032659058 -0.039241552
0.12850724 -0.22144392 0.042045504 -0.4514252 -0.37784725 0.3395645 0.27107802 -0.3051755
-0.15079443 -0.08730254 0.26402527 -0.14183664 0.13099061 0.28908563 0.4534572 -0.11002779
0.29914698 0.037113097 0.31130093 -0.19408715 -0.48069876 0.09122509 0.030314794 0.06633486
0.13740562 -0.6191365 -0.069988534 0.29777324 0.018752523 -0.30657157 0.20086367 -0.2098581
0.1295141 0.05818893 0.4370558 -0.10514741 -0.102788806 -0.05945716 -0.05398023 0.27887207
-0.4793382 -0.18741809 -0.24401703 0.20713203 -0.26013485 0.038125366 0.26255593 0.38230515
0.19700891 0.040372476 0.307671 -0.33633083 -0.011184719 -0.04951434 -0.37757415 0.10076352
0.38275892 -0.22954121 0.102179445 -0.33840087 -0.4232157 0.19835177 0.018905962 0.35594812
0.36628658 -0.22103648 -0.16000065 -0.11867175 -0.1685194 -0.125414 -0.3647225 0.10182104
-0.26248854 0.4291448 0.5248584 -0.01031353 0.10287807 0.123734646 0.27561197 0.090535626
0.43552065 -0.08638929 -0.5787824 0.17225528 0.30681875 0.046862364 -0.11720252 0.16619052
0.41162348 -0.073251754 -0.23259903 -0.4116759 0.2858532 0.16233185 -0.38504073 0.13727507
0.24245277 -0.22083896 -0.54409695 -0.40011075 -0.13947378 0.26661813 0.2988697 -0.20690373
0.17467278 0.28877568 -0.21663831 -0.29884237 0.1677465 -0.29852036 -0.38363266 -0.41079205
-0.406572 0.05418588 -0.04472915 -0.008044317 -0.2755763 -0.03447861 0.0018150117 0.068995975
-0.08573035 -0.060399093 0.14478442 0.028194603 0.061204877 -0.17923455 -0.11976763 0.2152779
0.22874416 0.54429734 -0.5759381 0.013704224 -0.19979993 -0.020741317 0.15536663 0.07609929
-0.20561858 -0.11450435 -0.06770326 0.051217377 -0.0161743 0.21803294 -0.033000108 -0.065949254
0.4560605 -0.32280195 -0.27310547 0.13899472 -0.32383692 0.22999474 -0.38358384 0.18083483
0.3585282 0.0032399076 -0.18826015 0.2052226 0.08348575 -0.023202356 -0.10581257 0.25273937
0.02722671 -0.19894512 0.23070367 0.042400554 0.23181488 -0.27880752 -0.12504677 0.019746464
0.10533408 0.15990064 -0.46211857 -0.644656 -0.09950141 0.0071251276 -0.12589723 0.09780941
-0.19473821 -0.043177083 -0.19260527 -0.39377216 -0.65861064 0.052237578 -0.15814096 0.3058422

conv1.bias f4 [16]
00000000: 5b2c c3be 8acd 7b3e 55fa 03be 8292 513e
00000010: b3a3 eb3d 783f 7bbe da90 073e ff64 94bf
00000020: 89a4 383e bd33 4bbf b2bd 75be 3bb8 32bf
00000030: b55e 15bf 20b2 383e 65c0 9ebe 0626 aa3e
-0.38119778 0.24590126 -0.12888463 0.20466045 0.115058325 -0.2453593 0.1323885 -1.1593322
0.18031515 -0.7937582 -0.23998144 -0.69812363 -0.58347636 0.180367 -0.3100616 0.33232135

conv2.weight f4 [16, 16, 5, 5]
00000000: a64b 96bd 3317 1f3c 2130 98bd 2e9e adbc
00000010: c2bf c13d c7ee dabd e7d7 7cbc 844e 8bbd
00000020: fe41 51bd b5db bebb f495 1f3c 1044 e7bb
00000030: b3ed 72bd 3e4d 39bd 99a4 e0bc 951b a73b
00000040: ce87 3ebd 3d9b b0bd 3fd1 2d3d da23 843d
00000050: 20c7 753d e864 953d 4ae5 87bd e60e 8d3d
00000060: e38f 293d 34b2 4f3e 6312 65bd e837 4cbe
00000070: 582a a33d afa5 08be ac59 b33c 1252 d6bd
00000080: cbe4 dcbd 463e 81bd c350 563d f4fe 48be
00000090: 5f7d f83d 7d9d 0fbc 2f86 a3bd cdcb 1a3d
000000a0: 4145 d3bd 80db 9b37 4ef4 053e fbde 053e
000000b0: f782 dd3c 1d39 0cbd 5d9c 1e3d 0d3a d1bd
000000c0: 0e73 8abd c7fa 4f3d 42f2 4cbd 2969 c9bd
000000d0: fa31 6e3c 242a 1b3c bb8c 473d cc92 d5bd
000000e0: 81bf 47bd 6ab2 44bc 318e 113d e17d 33bc
000000f0: a647 743c f5fd 2e3c cb81 863d 5d5d 233b
00000100: 3ae8 d73c 1ccc 54bd e52d 593d ca25 56bb
00000110: 2034 313c b65b bdbb a459 7bbc cad0 ab3c
00000120: 1b1f 9ebc 4e04 0ebc 17e8 31bb 7cfa a33b
00000130: 7478 7cbb 0507 06be 56ea 8e3d 5849 5a3e
00000140: 1c9d 3b3e fca1 ed3c 8f6c c0bd 55ce 8fbc
00000150: fad2 45bd bb09 ed3c bb5f 7c3d 3f1b 893d
00000160: 6849 90bd cbc6 46be 2f08 8dbd 259f 14be
00000170: 850f ca3d e270 71be c643 2bbe c376 4ebc
00000180: e442 f1bd ff80 533d ec65 2bbd a638 dbbc
00000190: 9f40 013e bf7a 93bc 4bdd e0bd 51ce 72be
000001a0: 7fb2 8d3d fffc 40bd 296a 0f3d d748 d4bd
000001b0: 4b38 d33d aa58 9e3d 6778 3dbd 802e 783d
000001c0: 0e8b 453d 8923 a33d 2419 083d 7139 27bd
000001d0: 210f b1bc ceb6 f4bc 7d8c 50bd 836e 63bd
000001e0: f511 c2bc 6b0f 01be 0217 aabd d2e2 1abd
000001f0: b852 47bd 6849 cabd 63df 05bd 859a 583d
00000200: f620 0bbc a837 18be 506e d7bd 2a70 153b
00000210: 4d51 073d ddb7 6e3d e52e cabc 0f80 333d
00000220: e986 553d 1681 dabb fc14 0a3d 7d46 31bd
00000230: 0648 95bd 446b 4bbd 9eb7 2ebc f5aa ae3d
00000240: 372f 50bd 9747 a53c f904 d0bd 01c2 2dbe
00000250: 7203 ebbc 8f1a 3dbd 245a bbbd 8865 c23d
00000260: ba74 adbd c7eb 69be a6ff 8b3d ff9c ba3d
00000270: d2cf 35be 7288 2fbe a5d1 fc3c 1ff9 8a3d
00000280: 0505 9d3d 870e 6fbe 10ce 973d fad8 d63a
00000290: 8714 a13d 37b3 debd e9f4 ec3c 9f1b 1f3e
000002a0: 1f72 fc3c 6385 b53b 5822 6fbc 0279 283e
000002b0: 4d4a e73d 10af 863d b1b0 d5bd f2f5 b5bd
000002c0: 63d7 e3bd c0c9 80bd 0417 f1bc a9b5 ae3b
000002d0: 0155 a0bd 9543 c0bd ee8d 65bd 1236 a43c
000002e0: 4b0a e73d 08a3 4a3c 3d2c 66bc 5e83 b13c
000002f0: 6b0e 313e df50 433e f5f2 99bd c8ff a2bd
00000300: 6359 643d 8f85 4b3e 565b 2f3e f221 63bd
00000310: 5aa2 1abc c727 03bc cf67 223e 1bd8 513e
00000320: 2028 993a 77d8 b83d f84e f3bd 7011 5b3e
00000330: 2b85 6dbc 9b77 a03c d557 683d 66e2 22bd
00000340: e4c9 07be ff36 9abb e079 8139 937a 3fbb
00000350: 60ab 6b3c 6446 40bd f4a7 9f3d 4c0a b33d
00000360: 2380 19bd c2b4 27bd a084 6d3d 1277 023e
00000370: 1828 e8bd 4ed4 013e bb35 61bd 8691 56bd
00000380: 98c9 8cbc f530 b2bd 41d6 babd ba05 03bc
00000390: 3de7 8a3d cdfa 1d3e b697 10bc 8a10 a2bd
000003a0: c85e a13d fed2 b13d 5a8d 103e 8175 91bd
000003b0: 66ab 00be aeb4 443d 5b04 c2bc 0dbf 943d
000003c0: 95db 783c c728 f7bc ff90 bdbd 778d 9e3c
000003d0: 9ba2 84bb 9121 143d 7a78 a4bb efa1 a9bd
000003e0: 5af7 b7bb 3eaf 1d3d e59a bcbd 1461 06bd
000003f0: 140b 953d 0bd5 1abe 65bc ae3d 048a d1bd
-0.073386475 0.009710121 -0.07431055 -0.02119359 0.09460403 -0.106900744 -0.0154323345 -0.06802085
-0.051088326 -0.005824531 0.009740341 -0.007057674 -0.05930872 -0.04523968 -0.027422236 0.0050997236
-0.046516232 -0.08623359 0.04243588 0.06452151 0.060004354 0.07294637 -0.0663553 0.06887607
0.041396987 0.20282823 -0.055925738 -0.19943202 0.07967061 -0.13344453 0.021893345 -0.104648724
-0.10785826 -0.06310706 0.052323114 -0.19628507 0.12133288 -0.0087655755 -0.07984578 0.037792016
-0.103159435 1.8579653e-05 0.13081476 0.13073342 0.027039988 -0.034234155 0.03872334 -0.102161504
-0.06760226 0.05077627 -0.050035723 -0.09834511 0.0145382825 0.009470496 0.048718195 -0.1042839
-0.048766617 -0.012005428 0.035535995 -0.010955305 0.01490966 0.010680665 0.06567725 0.0024927475
0.026355851 -0.051952466 0.053022284 -0.0032676333 0.01081565 -0.005778755 -0.015341196 0.020973582
-0.019301942 -0.0086680185 -0.0027146393 0.0050042253 -0.0038523944 -0.13088615 0.0697829 0.21317041
0.18321651 0.029007904 -0.09395706 -0.017554441 -0.048296906 0.028935304 0.061614733 0.0669465
-0.07045251 -0.19411771 -0.068863265 -0.14513834 0.09866241 -0.23578218 -0.16725072 -0.012601557
-0.117803365 0.051636692 -0.041845247 -0.02676041 0.12622307 -0.018002866 -0.10979708 -0.23711516
0.06918811 -0.047116276 0.03501335 -0.103654556 0.103134714 0.07731755 -0.046257403 0.06059122
0.048228316 0.07965762 0.0332271 -0.040826265 -0.02161366 -0.029872324 -0.05091523 -0.055525314
-0.023690203 -0.12603538 -0.0830517 -0.03781397 -0.04866287 -0.098772824 -0.03268374 0.052881736
-0.008491745 -0.14864981 -0.10519087 0.002280245 0.03303652 0.058280814 -0.024680564 0.043823298
0.052130613 -0.0066682203 0.03371142 -0.043280113 -0.07289128 -0.049662843 -0.010663895 0.08528701
-0.050826278 0.020175738 -0.101571985 -0.16968538 -0.028688166 -0.046167906 -0.09148052 0.09492022
-0.084695294 -0.22843848 0.068358704 0.09111976 -0.17755058 -0.17141894 0.030861685 0.06785797
0.07666973 -0.23345385 0.0741235 0.0016391568 0.078652434 -0.10874026 0.028925376 0.1553788
0.030816136 0.0055395826 -0.0145955905 0.16452411 0.112934686 0.06576359 -0.10434092 -0.08884801
-0.11125066 -0.06288481 -0.02942992 0.005331714 -0.07828713 -0.0938789 -0.056043558 0.020045314
0.1128126 0.012367971 -0.014048633 0.021669086 0.17290656 0.19073819 -0.075170435 -0.07958943
0.05574931 0.19875167 0.17124686 -0.055452295 -0.009438122 -0.008005089 0.15859912 0.20492594
0.0011684932 0.090256624 -0.118802965 0.2139337 -0.014497082 0.019588282 0.05672439 -0.03976669
-0.13260609 -0.004706263 0.000246956 -0.0029217347 0.014384121 -0.04694213 0.077957064 0.08742198
-0.037475716 -0.04094387 0.05798781 0.12740734 -0.11335772 0.12678644 -0.054982882 -0.052384876
-0.017185971 -0.08700744 -0.09122897 -0.007996971 0.067823865 0.15427704 -0.008825233 -0.07913311
0.07879406 0.08682822 0.14116421 -0.0710249 -0.12565383 0.048023872 -0.023683717 0.072630025
0.015189071 -0.030170811 -0.092561714 0.019354565 -0.0040477044 0.036164824 -0.0050192447 -0.082828395
-0.0056142034 0.038497202 -0.09209231 -0.032807425 0.072775036 -0.15120332 0.08532027 -0.102314025

conv2.bias f4 [16]
00000000: d280 64bd 5ae6 0bbe 4c7d 87bd 0c6e 33be
00000010: baa6 39be 3f3c 7abb 30e7 e8bc 6f37 88bc
00000020: 5030 a6bd 7f68 793b e88b 09be 3338 69be
00000030: 0513 eebd afe7 61bd 8a2c e7bd f82c 09bd
-0.055786915 -0.13662091 -0.06615695 -0.17522448 -0.18130007 -0.0038182882 -0.028430551 -0.016627995
-0.08114684 0.003805667 -0.13432276 -0.22775345 -0.116247214 -0.05515259 -0.11287792 -0.03349015

conv3.weight f4 [32, 16, 5, 5]
00000000: e35d 92bc 80f6 97bd 4f52 153d c3ca 28bd
00000010: 3c00 82bd 77bf 46bd 6bb7 8c3d ff6f 9cbc
00000020: 9ab8 b83d 7b82 863d 6638 b33c b9c7 21bd
00000030: 24a6 2dbe e3a9 503e a057 bf3b 12c3 13bd
00000040: 9760 733d df97 abbd 10b0 e63d 31b4 683d
00000050: 14a9 603d 9ddd 3fbd dccb 1bbe c7aa dfbd
00000060: 956f a7bd 2b57 c6bc 931c 403c 3b76 9e3c
00000070: 5d1d a2bd 0b78 33be 7b7c 55bd 6be6 783c
00000080: ba71 73bd 2bcd a5bd e6c0 a73d eeda f73d
00000090: b250 8abd 6c72 5cbd fb67 b5bc cf18 343d
000000a0: 3164 9abc edbd ff3c 36c3 923c 4171 15bd
000000b0: 63f0 813d 69a0 353d ece7 953d e309 c5bd
000000c0: 54df 333b 77b9 263d f0e6 133c 86a2 0a3d
000000d0: f514 51bc 0f7b a9bd 3268 a1bd 9cb2 fabc
000000e0: 93af 97bc 02c7 d03d 965e ea3c 362e e53c
000000f0: 271c cbbc 7025 d03d 73df 21bd b63c 84bd
00000100: 38bd 35bd da14 b83d 6536 853d 1c87 60bd
00000110: 9202 99ba d2eb e7bd d65d b1bd 8b20 92bb
00000120: 9ff3 1bbe f8fd e4ba 53a4 0dbe 6aa2 7cbd
00000130: 828b fd3b af20 403d 5f21 033e eb43 823d
00000140: e085 a83c b1f8 81bd 685e 683c 3479 2cbc
00000150: 4f25 a63d 093c b1bc b9cd dc3c 57d2 2dbd
00000160: c9bc 083d f521 6a3d c60f debc 0913 503c
00000170: 9a21 6dbd 5302 ce3b f34c 99bc 0912 37bd
00000180: 69fb dcbd 1357 f3bc bde0 44bd 8e14 32be
00000190: b611 a03d 00cf f23c f0a4 2c3e 67a2 afbc
000001a0: f62f a43d bdf2 283d 2787 a43c e579 dd3c
000001b0: 259c 1fbd 6d04 223e 5785 97bd be54 243d
000001c0: ee83 e4bd 72a3 463d 0295 be3a 456b 133e
000001d0: ef8c 713d b4bc 9bba f962 67bd 8a97 76bd
000001e0: 33a3 8c3d 2043 c03d 2df5 343d 3413 ecbb
000001f0: 4ce1 853d 1f14 01be 9359 c0bd dd83 9d3c
00000200: 9c54 e83d 8003 513d 0b03 29bc ad88 cd3d
00000210: 45d9 71bd 41d7 e33d 2579 28bd 4c32 5c3e
00000220: e320 89bd ab6f 14be 6d99 cdbd c90a 4c3d
00000230: 6d19 a3bc a8ae d8bc c89b 24bd ca67 cabc
00000240: 9b03 8b3d 6344 183e d7da 43bc 2bd3 bbbd
00000250: a302 1e3e f542 af3d 65b8 afbd bfc5 2dbb
00000260: 9f96 c1bd 7448 e13c e8a4 29bd c1be e4bc
00000270: 8cbf 1a3e 32e8 8fbd 47b0 7abd 35a9 80bd
00000280: db86 9b3d 5563 9d3d e3e0 38bd fa21 ff3c
00000290: 08da 0dbe e1b3 b0bd 3c73 30bd 55db 503c
000002a0: 4ac9 2ebd 9650 153c c8f5 0e3d 8dad d03d
000002b0: e937 fd3c 5a00 d63d c500 d53c 0c62 193c
000002c0: 195f 9cbd f73d 9dbd 9c22 7ebd 713d 2bbe
000002d0: cb6a dabd 923d ffbd 6e49 d9bc 37b9 44bb
000002e0: 52c6 153d f229 f5bd 5477 03bd bd12 58bc
000002f0: 30ac cebd c47c e6bd 8059 b03d 37d6 5d3d
00000300: 2fce 84bb 8fac edbb 1142 f23b 9c23 afbb
00000310: eb8e a8bd 4595 d43d 63ef 42bc 287a 8ebc
00000320: cacf 9abd 94a0 b9bd 2a96 bebc 84a6 02bd
00000330: 9fdf d83d 779a 643c ccd0 503b 5796 8b3d
00000340: 9231 283e c337 f13c d69f e3bd e622 10bc
00000350: 5e8f 57bd 46e0 133c d268 8e3d 4822 b2bd
00000360: 2ff4 2abd 14c7 dbbc 4e28 7ebd aa27 c93d
00000370: e0bb c638 a60a 16bc 1ca5 1abd 8fce 94bb
00000380: 409a 2bbe 4cb5 723c b8e9 7e3d 73ee 183e
00000390: b305 f6bc b090 4c3d 58f3 62bd a512 98bd
000003a0: 2ed3 08bd 169a 65bd 3732 88bd d95e 213d
000003b0: e870 06bd 67e4 11bd d89c 93bd fc63 8dbd
000003c0: c948 b5bc fd7f 58bd 635f 143d 35ae 01be
000003d0: dd6a b53b 09d4 07be 55bd 96bd cc70 bdbd
000003e0: 9458 f73c 96d4 d2bd ae3f a13d fe68 53bd
000003f0: bfa6 473d 0ff0 0d3e 4eb0 e4bc bd62 a8bd
-0.017867034 -0.07420063 0.03645545 -0.041208994 -0.06347701 -0.04852244 0.06870922 -0.019096373
0.09019585 0.06567856 0.021877479 -0.03949711 -0.16957909 0.20377307 0.005839303 -0.036074705
0.059418287 -0.083785765 0.1126405 0.05681247 0.054848745 -0.046842206 -0.15214485 -0.10921245
-0.081755795 -0.024211487 0.011725563 0.019343486 -0.07915757 -0.17526262 -0.052120667 0.015191655
-0.05943463 -0.08095773 0.08191089 0.121023044 -0.06753673 -0.05382006 -0.022144308 0.04396897
-0.018846603 0.031218493 0.01791535 -0.03648496 0.06344678 0.044342432 0.07319626 -0.09621026
0.0027446346 0.040704217 0.009027228 0.0338464 -0.012761344 -0.08275425 -0.07881202 -0.030602746
-0.018516337 0.10194208 0.028609555 0.027976137 -0.024793698 0.10163391 -0.03951974 -0.06456892
-0.044369906 0.08988352 0.065045156 -0.05481635 -0.001167374 -0.11324276 -0.08660476 -0.004459446
-0.15229653 -0.0017470708 -0.13832216 -0.061678328 0.007737578 0.04690617 0.12805699 0.063606106
0.02057165 -0.06346262 0.014182664 -0.010526944 0.08112585 -0.021635072 0.026953565 -0.042436924
0.033383165 0.05716129 -0.02710713 0.012699851 -0.057893373 0.006286898 -0.01871345 -0.044694934
-0.1079014 -0.029704606 -0.04806589 -0.17390653 0.07815878 0.02963972 0.16859794 -0.021439744
0.0801696 0.04124712 0.020083977 0.027035663 -0.03896727 0.15822001 -0.073984794 0.04011988
-0.11157976 0.048495717 0.0014540257 0.14396389 0.058972295 -0.00118818 -0.056490872 -0.060203113
0.06867065 0.09387803 0.04417913 -0.0072044376 0.065371126 -0.12605332 -0.09392085 0.019227916
0.11344263 0.05102873 -0.010315667 0.100358345 -0.059045095 0.11125041 -0.041131157 0.21503562
-0.06695726 -0.14495723 -0.10039029 0.049814973 -0.019909585 -0.02645047 -0.040187627 -0.024707694
0.06787797 0.14869837 -0.011954031 -0.091711365 0.15430693 0.08557693 -0.08580092 -0.002651557
-0.09452557 0.027500369 -0.041417032 -0.02792299 0.15112132 -0.070267096 -0.061203267 -0.06282274
0.07594081 0.07684962 -0.045136344 0.031144131 -0.13852704 -0.08628059 -0.043078646 0.012747605
-0.042672433 0.0091134515 0.034902364 0.10189352 0.03091045 0.10449286 0.026001344 0.009361755
-0.07635326 -0.076778345 -0.062044725 -0.16722657 -0.106649004 -0.124629155 -0.026524272 -0.0030017623
0.036566086 -0.11970891 -0.032096222 -0.013188061 -0.10091436 -0.11254266 0.08610821 0.05415937
-0.0040528993 -0.0072532366 0.0073931296 -0.005344821 -0.082303844 0.103800334 -0.011897895 -0.017392233
-0.07559164 -0.09063831 -0.023264963 -0.031897083 0.10589527 0.013952843 0.0031862734 0.068157844
0.1642516 0.029445535 -0.11114471 -0.008797383 -0.05262696 0.009025639 0.06953587 -0.08697945
-0.041736778 -0.026828326 -0.062050156 0.098220184 9.47637e-05 -0.009157812 -0.037755117 -0.0045412253
-0.1675806 0.014813732 0.06223461 0.14934711 -0.030032014 0.049942672 -0.055407852 -0.07425431
-0.03340452 -0.05605515 -0.06650203 0.039397094 -0.03282252 -0.035618212 -0.0720765 -0.06903836
-0.022129433 -0.052856434 0.03622378 -0.12664111 0.0055364207 -0.13264479 -0.07360331 -0.0925003
0.030193605 -0.10294454 0.07873474 -0.0516138 0.048743006 0.13861106 -0.0279161 -0.08221958

conv3.bias f4 [32]
00000000: 8489 70bd bd12 bbbd 8377 f8bd 3f26 34be
00000010: 03b4 0ebe ec7d 40bd 0fba 23be 6d2e b2bd
00000020: eb51 76bd 0b50 8a3b 6c23 83bd 9db2 68bd
00000030: 0284 5dbc b1d0 aabd f1f6 89bd 1f13 41bb
00000040: de4a b9bd 1b57 0a3d 2d42 17bd d201 bdbd
00000050: e040 073c 5421 9bbd f37c 08bd 12ad 3ebe
00000060: c1fa 03bd bde7 c3bd 29e3 e4bd 02e1 57bd
00000070: ddfe 083c 1aea 0ebe ed86 16bc 3a13 5fbd
-0.058724895 -0.091344334 -0.1213217 -0.17592715 -0.13935857 -0.04699509 -0.15988944 -0.08700261
-0.060136717 0.0042209676 -0.064032406 -0.056810964 -0.013520243 -0.08340586 -0.067365535 -0.002946086
-0.09047483 0.033774476 -0.036928345 -0.09228863 0.0082552135 -0.07574716 -0.033322286 -0.18620709
-0.03222156 -0.09565685 -0.1117614 -0.05270482 0.008361545 -0.1395649 -0.009187442 -0.054461695

linear1.weight f4 [32, 288]
00000000: 076c 3bbd 7cb2 b43d 1438 1bbc dcf9 323c
00000010: 2fc9 543d c96e c73d 0d09 173e b1d7 6e3d
00000020: 32fa 143e e71e 9abd dc59 e03d 6cc6 b8bc
00000030: 3fbb 3a3d 7ac6 c43c 7539 2ebd ca8b 003e
00000040: dc39 e9bc 1512 4b3d 96f1 debd 73d4 46bd
00000050: 4e21 b73d eb30 833d 5294 c5bb 5898 dcbc
00000060: aadb ce3d 75e8 8fbd 0c0d 593d 49a9 cd3d
00000070: ef6f 033d 1999 c4bd f5d0 313e be42 c33c
00000080: 2600 613d 02f3 053e 1eec 193d 874e 5b3d
00000090: 07a0 5e3d 018e 16be 6334 0e3d f7ea 43bd
000000a0: 5590 97bd 8d60 38bb ab19 0abd 6215 1ebc
000000b0: 4774 1a3e a13d 213e e0b6 3fbd 61f8 1f3c
000000c0: 6fc8 323e af24 88bc ca44 273e 840d 08bd
000000d0: 2f4e 9a3d b7e6 913d 3d6a 31bd d202 8c3d
000000e0: 999e 183d 8b2f 18bc 7279 88bd 701a b9bd
000000f0: 8d23 4ebe c408 d03c a6ac 4cbd c832 773c
00000100: f9ed 2cbd 9c55 41bc 1a04 05bd 94b2 18be
00000110: c46d 1cbc e63a 063e 4040 08bd bdbb 423c
00000120: 7969 103d 2a46 f0bd 77f9 fb3d f914 04bc
00000130: d736 c33d 4a60 e2bc d93c b03d b1f0 013d
00000140: 9511 ec3d 5178 403c e454 ba3d 566a 1a3d
00000150: ecc4 443d b250 afbc 50ba 61bd 81a6 57bd
00000160: d8e3 353e 0eb0 2dbd 98a2 883d ed53 993c
00000170: 81de 3f3d 3f43 ac3d a385 ae3d 9913 103d
00000180: 3f89 11be 6590 b23b 9bed 49bd 4ae1 603d
00000190: 1500 533d a17e bd3d ed42 3ebe 88fb 263d
000001a0: af31 b8bd 6bc3 42be bda0 383d 31f9 b5bd
000001b0: a4a4 b63d 6e7c 24bd e7b8 35bd 923a 12bc
000001c0: b95a 00be 958e 303c b1b3 47bc 6f6b a9bd
000001d0: 9b7f 85bd f107 ff3c 678d 913d d259 98bd
000001e0: f4f5 03bd f3f4 b5bd cbe7 a5bc 36e3 9bbd
000001f0: f9a5 5bbd a446 c63d 26d4 0dbe d6c7 15bc
00000200: 1006 153d cf02 c7bd 6ab2 8b3d ce9b eebd
00000210: c0ca 4e3b 2288 533a 2070 53bc 8e1c 31ba
00000220: ba4e 423c f573 53be 1d15 c93d 726c 0b3c
00000230: 5762 e03d af78 cf3b 6e0b 273d 83d3 543d
00000240: 4f9f 06be f24f 6bbd 5496 503e 9dfd 8e3d
00000250: f171 273c 6f55 473d 1ae6 283e 524a d73d
00000260: 7ba5 333c 4736 a9bd e4fc 0b3d d66d 52bd
00000270: bf5d d0bd cdcb 393d cffc 6a3d 09a7 cdbc
00000280: 2c44 323d 1fc8 653d 339e b03d 2546 17bd
00000290: 44a1 00bd 3f73 b9bc c38c 923c af3f ccbd
000002a0: 7033 aebc 9a3d 3b3e 258e f63c fd1d 5a3d
000002b0: 45bd fcbc 6d02 18bc 87d6 e0bd 7d2c bdbd
000002c0: 1318 aebd 9c0d 66bd 8070 b13d 297b 05bd
000002d0: d67c cbbc 0572 28bd 9831 8fbd 3a32 b63d
000002e0: 667a 1bbc 0621 893b 0c2f bd3b eda3 1c3e
000002f0: 1fb1 143d cc94 ef3d 7dc3 01be 1138 e7bd
00000300: 9700 503d ef82 36bc f6d2 3e3d 94f8 acbd
00000310: 493a eebd 6442 34bc 1333 e03d 768f f53d
00000320: 28dd 093e be52 273c c73b c0bd 69e4 d8bd
00000330: de6d 25bc ea15 803d 5d1c b0bb bfd5 a1bd
00000340: 3b4d ce3d 10e6 04bd bac7 0ebe 3fc3 01bd
00000350: 5c0c 293d d9c2 4abd cab7 c63c 6691 c93d
00000360: aca2 8bbc c5ba 8c3b dbcc 753d 6210 9bbd
00000370: 863d 2fbe fb52 843d 2d26 d43d b06c acbd
00000380: 8ac7 ad3c a5c7 703e 390f 873d b848 71bd
00000390: 71b8 02bd 5b27 c7bd 144e 57bd 077d 05bd
000003a0: 0277 2a3e b61a c53c 8d81 173e 5200 403d
000003b0: 934f c63d c23d b33d 3edf 293d 3396 4ebe
000003c0: 2e90 0d3d 1931 25bd dc0c 0bbd 2801 1a3d
000003d0: b5af 033e e5de 203d 863d f7bc 59c9 143d
000003e0: 5add c73d b936 a9bd d860 603b 87e2 1fbe
000003f0: cfd4 cc3d c86c 2a3d cddb 3a3c 5188 e93d
-0.04575732 0.08823106 -0.009473819 0.010923829 0.051949676 0.097379275 0.14749546 0.058311168
0.14548567 -0.075254254 0.10954639 -0.022555552 0.045588728 0.024020422 -0.042535264 0.12553325
-0.028469972 0.04957779 -0.108859226 -0.04854245 0.08941899 0.06405815 -0.006029644 -0.026928112
0.10100491 -0.070267595 0.052990958 0.10042054 0.03208917 -0.095995136 0.17364867 0.023835536
0.054931782 0.13080981 0.037578695 0.053541686 0.054351833 -0.14702608 0.03471793 -0.0478315
-0.07400576 -0.002813372 -0.033715885 -0.009648653 0.15083419 0.15746166 -0.046805263 0.009763808
0.17459272 -0.016619055 0.16334835 -0.033216015 0.075344436 0.071240835 -0.043314207 0.068364754
0.037260626 -0.009288679 -0.06663789 -0.09038246 -0.20130749 0.025394805 -0.049969338 0.015087791
-0.042219136 -0.011800196 -0.032474615 -0.14911872 -0.009547655 0.13108405 -0.0332644 0.011885581
0.035256837 -0.11732133 0.12303441 -0.008061641 0.09531944 -0.027633805 0.08605356 0.03172368
0.11526791 0.011747436 0.09098223 0.037699066 0.04803936 -0.021400783 -0.055109322 -0.052649025
0.17762697 -0.042404227 0.06671637 0.018716777 0.046843056 0.08411264 0.08521583 0.03517494
-0.14212511 0.005449342 -0.049298864 0.054902352 0.05151375 0.09252668 -0.18580218 0.040767223
-0.089938514 -0.19019859 0.045075167 -0.0888542 0.089181215 -0.040157728 -0.04436579 -0.008925097
-0.12534608 0.010776182 -0.012188838 -0.082724445 -0.065184794 0.031131716 0.071070485 -0.07439007
-0.03221698 -0.08884611 -0.020252129 -0.076116964 -0.05362508 0.096814424 -0.1385046 -0.009141883
0.036382735 -0.097173326 0.06821139 -0.11650811 0.0031553954 0.00080692966 -0.012905151 -0.0006756269
0.01185959 -0.20649703 0.0981848 0.008509742 0.10956257 0.0063315253 0.040782385 0.051959526
-0.13146709 -0.05744929 0.20369846 0.06981967 0.010220037 0.04866546 0.16494027 0.10512222
0.010964747 -0.08262306 0.034176722 -0.05137428 -0.10174131 0.045360375 0.057370003 -0.025104063
0.043522045 0.056099053 0.08623924 -0.03693213 -0.031403795 -0.022637961 0.017889386 -0.09973084
-0.021264762 0.18285218 0.030097077 0.053251255 -0.03085197 -0.009277922 -0.10978418 -0.09237001
-0.085006855 -0.056165323 0.08664036 -0.032588158 -0.0248398 -0.041124362 -0.06991881 0.08896299
-0.009489631 0.004184845 0.0057734307 0.15296908 0.03630173 0.116983026 -0.12672229 -0.11289991
0.050781813 -0.011139615 0.046587907 -0.0844585 -0.11632211 -0.011002157 0.10947242 0.119902536
0.1346327 0.010212598 -0.093864016 -0.10590441 -0.010096995 0.0625418 -0.005374475 -0.07902097
0.10073324 -0.032445967 -0.13943377 -0.03168034 0.041271552 -0.049502227 0.02425756 0.09842186
-0.017045341 0.0042947256 0.06000982 -0.07571484 -0.17113313 0.0646114 0.10358844 -0.08419168
0.021213312 0.23513658 0.065947 -0.05890724 -0.03191418 -0.09724303 -0.052564695 -0.03258994
0.1664696 0.024060588 0.14795513 0.046875305 0.09683146 0.08752014 0.041472666 -0.20174484
0.03456133 -0.040330026 -0.03394781 0.03759876 0.12859996 0.03927507 -0.030180704 0.036324833
0.09759016 -0.08262391 0.003423741 -0.15613757 0.100015275 0.041607648 0.011404944 0.114029534

linear1.bias f4 [32]
00000000: c28a f5bc 0041 053d a2bb 51bc b10b 813d
00000010: 2a0a 37bd 80ee ed3d bff7 bd3a 24e3 983c
00000020: 9a46 efbb 0df8 e73d 91cb 183d c6c7 2fbc
00000030: 494f dc3c 754b d13c 326e 7bbb f675 38bd
00000040: 64ec 713d bdac a33d 93dd 7a3d ec6f 58ba
00000050: 2ffe 9d3d 3fea ff3c 6acf 6bbd 0189 b6bc
00000060: d66a f63d d47d 57bd 0791 653d db24 ba3b
00000070: fc45 d13c 7078 653c 2f1d 27bd 7e42 8d3d
-0.029973391 0.032532692 -0.012801083 0.06301058 -0.044687428 0.11617756 0.001449339 0.018662997
-0.0073021175 0.11326609 0.03730351 -0.010728782 0.026893275 0.025548676 -0.0038365242 -0.04503437
0.05906333 0.079919316 0.061246466 -0.0008256424 0.07714497 0.031239627 -0.057570852 -0.022282125
0.12032096 -0.052610233 0.056046512 0.005680663 0.025546066 0.014005765 -0.040799316 0.06897448

linear2.weight f4 [10, 32]
00000000: 4c34 44bc a763 0cbf 9c38 02be 7cbd 99be
00000010: ff52 18bd 041f a63e 49ce f5bd 9819 a63e
00000020: 1ebd ee3e 0325 553e 1b8c 853e 4be8 c3be
00000030: 45e3 eebe a802 e5bd 03ea b6be 9eec e7bd
00000040: 468b f3be 3c13 043f d1aa 2e3e 994c 34bf
00000050: 63a5 073e 2c8e 39be f08c c4bd 2425 c43e
00000060: 321d 37bd cc2e 1e3f a616 94bc 968e 08be
00000070: 2f91 8b3e 6d44 80bd c001 363e bbd0 acbe
00000080: 4562 3fbe 20ae b03e e7fb 0d3d a478 243f
00000090: 6575 94bc 6e43 843e c5e6 d93e fc6a acbe
000000a0: 6017 483e 67d5 f6be afa6 76be f3ee 8b3e
000000b0: 7723 fc3e a412 f0ba fba7 86be 8f98 51be
000000c0: ae7b 52bd 73c4 0b3f ce49 a9be 4897 f03e
000000d0: 0ce4 953e 0bfc 9dbe d5b7 473d 10b8 ba3e
000000e0: 5926 febe 0678 a13e 1b4c 2b3f d362 18be
000000f0: 8e59 99be 0293 0d3f f3f3 e53d fc6b a63e
00000100: 01ba f7bd b92b c83e e358 50be 2450 d0be
00000110: 1cff fe3d 0e54 b93e e35e 8b3e 4283 c93d
00000120: 3542 e53e f597 dbbe 4a0b 9c3e acbd 96be
00000130: 2a25 abbe a328 e53c 3e6a c23e dac3 e03d
00000140: 0284 92be 5d88 85be c5e4 b53e 0479 df3e
00000150: 50ba 94bd be56 ff3e ba40 8ebd 1bd9 f13e
00000160: fa8a c63d b5a7 113e d8cb dabe 7df8 91be
00000170: 0d31 b0be 6b5f e1be 8f90 593e af92 a5be
00000180: 67a5 b53d 28d8 0f3f e73b c3be d6f0 babe
00000190: 0610 653d 6500 a6be 5b5f 6d3e 8788 fcbe
000001a0: 48ff 903d 62b4 993e 6742 e23e 7bdb 7abe
000001b0: 58e6 babe 5e74 203e 0fd1 11bf 693c 91be
000001c0: 58e2 8c3e cc29 813e 10dd 9cbe cdc3 a3bd
000001d0: 9e4b 8d3e 6e85 c2be ac93 dcbd c01c 073f
000001e0: 0cb0 923e c7b0 06bf 2637 063e bc3b 313e
000001f0: 2494 90be 78fc 773d 7606 08bf aa07 943e
00000200: 7005 a43e 9b5e 043f 249a 90be 3867 e8be
00000210: 3a2d a8bc b2b4 26be dbbd 2abd be56 8a3e
00000220: 2b7a fc3e 3859 babe 02c7 80be 7889 2bbe
00000230: 8024 b2be 4b93 09bd b8a1 e6be 894c 57bd
00000240: 0dd1 a9be 2a71 afbe 385d eabe 2623 a63e
00000250: f217 15bf 2c5f 5b3e 0549 8bbd 664d 81be
00000260: 56de 9d3e ab0a f63e 54d5 1dbe 91f8 2f3f
00000270: af3e cfbe b9b9 bcbb 0881 4a3e d651 253e
00000280: 7bff 9b3e 0821 1fbf 3522 be3e 532b bd3e
00000290: 89a6 04be abe0 d43e e437 523b c59b c1be
000002a0: d541 16bf 1e5b 14bc 452e 8bbc c2db df3e
000002b0: fc31 f2be 64a5 093e 9a86 f03e 01e7 df3e
000002c0: 4567 f23e c8f4 dfbe bb40 c9be b424 bdbe
000002d0: 513e f13e a294 d4be c0fd b2bd a83a 74be
000002e0: 7475 babe 1a6c c5be 2dd8 84be 060a 9f3e
000002f0: d378 513e 4946 84be f682 033f 6bd4 a13e
00000300: 8038 ebbe 50d3 4c3e 9fce 313c d6ef c5be
00000310: 8395 afbc 7394 00bf eab3 95bc 7d96 103f
00000320: f2a0 87be cbe4 923e 4f19 96be 30a5 b0be
00000330: d078 e4be c48c 013d 0f92 2bbd 6012 cebd
00000340: 8b46 67be a2fe 14bd 4ae2 ef3d 6d95 9b3e
00000350: 5cbe 4b3d 603c 9fbe eec3 1fbe adcf 0a3f
00000360: 6479 0abf bb79 013f b409 b0be b205 c1be
00000370: 3fae 03bf 13f9 ddbe 2c75 f7bd 718c b73e
00000380: d075 1dbf c738 edbe 673d 543e b47a 673c
00000390: 04cf 02bd 6907 febd a5a8 593e 5a2d 6fbe
000003a0: 8529 23bf 634c 613e e2e4 b3be 314b 2f3f
000003b0: 06b5 de3e df56 e4bd 6328 903e 18fc c3be
000003c0: 55f6 0a3f ce97 813e 5bb3 ca3d c54f 22bd
000003d0: f35a 43be 16bb a73e 65a4 23bd 0c4d 6dbe
000003e0: 7a83 073f f933 a0be 98de 73be 3d7e 763e
000003f0: e523 953e 534f 6d3e 40e8 553e 6132 4fbe
-0.011975359 -0.5483956 -0.12716907 -0.30027378 -0.037188526 0.32445538 -0.120022364 0.324414
0.4662866 0.208149 0.26083454 -0.38263163 -0.46657768 -0.11182147 -0.35725412 -0.11324428
-0.47567195 0.5159185 0.17057349 -0.7042938 0.13246684 -0.1812064 -0.09597194 0.38309586
-0.044705577 0.61790156 -0.018077206 -0.13335642 0.27259204 -0.06263051 0.17774105 -0.33753
-0.1868983 0.34507847 0.03466406 0.64246583 -0.018122384 0.25832695 0.42558876 -0.33675373
0.19540167 -0.48209688 -0.24087022 0.2733074 0.49245808 -0.0018316102 -0.26300034 -0.20468353
-0.05138748 0.5459663 -0.3306412 0.46990418 0.29275548 -0.30856356 0.0487593 0.36468554
-0.49638632 0.31536883 0.66913 -0.14881448 -0.29951137 0.5530244 0.1122817 0.3250426
-0.12096024 0.39095858 -0.20346408 -0.40686142 0.12451002 0.3619694 0.2722083 0.098394886
0.44777074 -0.42889372 0.30477363 -0.29441583 -0.3342679 0.027973479 0.3797168 0.10974856
-0.2861634 -0.260806 0.355261 0.43647015 -0.07262099 0.49870867 -0.06945939 0.4723595
0.096944764 0.14224131 -0.42733645 -0.28509894 -0.34412423 -0.4401811 0.21246551 -0.32338473
0.088694386 0.56189203 -0.3813164 -0.36511868 0.055923484 -0.32422176 0.23180906 -0.49322912
0.07079941 0.30020434 0.44191286 -0.24497788 -0.36503863 0.1566939 -0.56959623 -0.28366402
0.27516437 0.252272 -0.30637407 -0.079963304 0.27596754 -0.37992424 -0.10770354 0.52778244
0.28649938 -0.5261349 0.13106975 0.17307943 -0.28238022 0.060543507 -0.5313486 0.28912097
0.32035398 0.51706856 -0.282426 -0.4539125 -0.020529378 -0.16279867 -0.041684967 0.27019304
0.49311957 -0.36396194 -0.2515183 -0.16751659 -0.34793472 -0.033587735 -0.45045257 -0.052563224
-0.33167306 -0.34266025 -0.45774245 0.3244869 -0.5823966 0.21423024 -0.06801037 -0.25254363
0.3083369 0.48055014 -0.1541341 0.6873866 -0.4047751 -0.0057594446 0.19775784 0.16144499
0.30468354 -0.62159777 0.37135473 0.36947116 -0.12954153 0.41577658 0.003207677 -0.37814155
-0.586942 -0.009054927 -0.016989836 0.4372235 -0.4730376 0.13441998 0.46977693 0.4373093
0.47344413 -0.4374144 -0.39307198 -0.36942065 0.47117856 -0.41519648 -0.08739805 -0.238505
-0.36417735 -0.38559037 -0.2594618 0.31062335 0.20456247 -0.25834873 0.51371706 0.31607375
-0.45941544 0.20002484 0.010852485 -0.38659543 -0.021433597 -0.50226516 -0.018274266 0.56479627
-0.2648998 0.2869018 -0.29316184 -0.34501028 -0.44623423 0.031628385 -0.04188734 -0.100620985
-0.22585504 -0.03637565 0.11713083 0.3038744 0.049742088 -0.3110075 -0.15602085 0.5422314
-0.5409148 0.5057637 -0.34382403 -0.37699658 -0.51437753 -0.4335409 -0.12082896 0.35849336
-0.6150789 -0.4633238 0.20726548 0.014128376 -0.031935707 -0.12403757 0.21255739 -0.23357144
-0.6373523 0.22001795 -0.3513556 0.6847411 0.43497485 -0.11149382 0.28155813 -0.3827827
0.5428212 0.2531113 0.098974906 -0.039626855 -0.19077663 0.32759923 -0.0399517 -0.23173922
0.5293499 -0.31289652 -0.23815382 0.24071594 0.29128948 0.23174791 0.20889378 -0.20234062

linear2.bias f4 [10]
00000000: 6a12 723e ec61 20be 80a1 4a3e 836e 1c3e
00000010: 0cc2 a63d 8600 6b3c 2eaf cf3e 814a 5c3d
00000020: c397 cdbd 4c80 683c
0.23639837 -0.15662354 0.1978817 0.15276532 0.0814248 0.0143433865 0.4056334 0.05378199
-0.10038712 0.014190745

batch_norm_2d_1.weight f4 [16]
00000000: 794a 653f 030b 8f3f 7b4f 373f 7323 903f
00000010: ff03 633f 1b58 863f 1b13 8e3f eb7d 8a3f
00000020: 5e9b 883f 4d13 843f 41d6 6e3f 9f2d 6c3f
00000030: 9002 543f 0c9b 973f a322 463f 81ac 793f
0.8956676 1.1175236 0.7160565 1.1260818 0.8867797 1.0495638 1.109958 1.0819677
1.0672414 1.031839 0.93295676 0.9225711 0.8281641 1.1844192 0.773966 0.97528845

batch_norm_2d_1.bias f4 [16]
00000000: abe0 ea3d 8900 353e 83f9 513e dbaa 8e3d
00000010: 20a9 903d 52eb 833e 1ea7 303e a5f4 98be
00000020: 999c 173e 83e5 373e 956d 153e 98a9 083e
00000030: 3bfe e33d c7f3 883e 1bc5 66be 1480 583d
0.11468633 0.17675985 0.20505337 0.06966182 0.07063508 0.25765473 0.1725125 -0.2987415
0.14805831 0.17958646 0.14592583 0.13345945 0.11132475 0.26748487 -0.22536127 0.05285652

batch_norm_2d_1.running_mean f4 [16]
00000000: 1001 a63d 23e0 953e ec51 893e 6ec1 963e
00000010: d03d 2b3e 9b01 cf3d dd5b 6a3e 9204 773e
00000020: fa35 853e ee13 fa3d 1d2d f83d 50dc 5f3e
00000030: 652a 6b3d 5628 c03e 0b5e a53e 6a9d fb3e
0.081056714 0.29272565 0.26820314 0.2944445 0.16722798 0.10107728 0.22886606 0.24122837
0.26017743 0.122108325 0.1211798 0.21861386 0.057413477 0.37530774 0.32298312 0.49143535

batch_norm_2d_1.running_var f4 [16]
00000000: adc8 153d f98b 0a3e f0fc b13d f5af f73d
00000010: df18 8c3d cb5a 9e3d a855 fb3d 0698 bb3d
00000020: b8e3 e23d 6a36 0d3d 622b c03d 7433 993d
00000030: bd04 d13c d85e 7e3e 6e69 043e 72f9 ba3e
0.036568332 0.13529958 0.08690822 0.12094108 0.06840681 0.07732161 0.12272197 0.091598555
0.1107859 0.03447572 0.093832746 0.07480517 0.025514955 0.24840868 0.12930843 0.36518437

batch_norm_2d_2.weight f4 [16]
00000000: cfeb 843f 7d60 743f f1e6 7f3f 92ca 7d3f
00000010: e451 863f 1f4a 693f 5aaf 803f c20b 6a3f
00000020: ebcb 8d3f 8f9d 693f 491b 823f 080d 773f
00000030: 2494 763f 30f9 803f 2d48 8a3f 1afc 833f
1.0384463 0.9545973 0.99961764 0.9913722 1.0493741 0.91128725 1.0053513 0.9142419
1.1077856 0.9125604 1.0164577 0.9650426 0.96319795 1.0076046 1.0803276 1.031131

batch_norm_2d_2.bias f4 [16]
00000000: 1491 53be f12f c13d 2889 fbbd 469d 723d
00000010: ff40 ae3c cd49 083e aee8 03be c530 813e
00000020: b16c 003e b717 643e 2df6 5e3e fc88 513e
00000030: 269f 58bd 9791 07be cf75 853d b56c 8d3e
-0.20660812 0.09432972 -0.1228202 0.05923202 0.021271227 0.13309403 -0.12881729 0.2523252
0.12541462 0.22274671 0.21773596 0.20462412 -0.05288615 -0.13239132 0.06516611 0.27622

batch_norm_2d_2.running_mean f4 [16]
00000000: a30f b23f 70f0 923f 72bc ae3f ba78 783f
00000010: 88a4 a83f 701a d13f 1c3a bf3f 886e f23f
00000020: d73a 853f 4a23 d43f 0138 783f 7555 433f
00000030: c6f3 a23f 4dbf 883f d26b 9c3f dc70 e23f
1.3911022 1.1479626 1.3651259 0.97059214 1.3175211 1.6336193 1.4939609 1.8939981
1.0408581 1.6573269 0.96960455 0.7630227 1.2730644 1.068338 1.2220404 1.7690692

batch_norm_2d_2.running_var f4 [16]
00000000: 2aff 6f40 22aa 0f40 a549 3840 019d 1740
00000010: 8b49 4d40 87b2 4940 3bd7 5640 fc29 7c40
00000020: 4adf 4840 44d1 4740 c187 1440 4170 be3f
00000030: 2f49 2340 3191 e23f 3d37 5140 3bac 9340
3.749949 2.244759 2.879495 2.3689578 3.2076137 3.1515214 3.3568866 3.9400625
3.1386285 3.1221476 2.3207858 1.4878007 2.5513418 1.7700559 3.2689965 4.614774

batch_norm_1d.weight f4 [32]
00000000: 80a4 b03f dee0 d43f 04a7 af3f 6933 bb3f
00000010: e45f 7f3f 5c2a af3f 7ce1 a23f 749f b23f
00000020: 6cac ca3f ddf8 b63f 23f3 af3f b58e d63f
00000030: b2eb d03f 4707 803f 6af4 b43f ad63 a23f
00000040: 7ca4 c03f bcfd ba3f 0412 ab3f d7cd b93f
00000050: ee90 ad3f 3455 ab3f 8a73 7f3f 69a4 c33f
00000060: 8770 b53f 4030 c53f 0b4a bf3f c657 ac3f
00000070: 1728 b43f ed7c ad3f 24e6 aa3f a6c3 ac3f
1.3800201 1.6631124 1.3722844 1.4625064 0.9975569 1.3684802 1.2725062 1.3954911
1.5833869 1.4294697 1.3746074 1.6762301 1.6321929 1.0002221 1.4137089 1.2686669
1.5050197 1.4608684 1.3364873 1.4515942 1.3559854 1.3385377 0.99785674 1.5284549
1.4174966 1.540535 1.4944471 1.3464286 1.4074734 1.3553749 1.3351483 1.3497207

batch_norm_1d.bias f4 [32]
00000000: 7923 94bd 0ac4 b33d 1582 a9bc 331e a8bd
00000010: 5982 e03c c3de fc3c e5f5 8c3c 035a 213e
00000020: e24d f23d d67b 1f3d 13e7 143c 5b60 54be
00000030: 9e31 febd b0bd 25bc cf4c 85bc aba3 00bd
00000040: 4991 fbbd 9f8e 3e3d eda9 b93d 5418 eb3c
00000050: 8b03 babc dba9 0b3d 3560 29bd d336 0d3e
00000060: f4cf 8dbd 64bc 423e 04a4 c1bd 3805 d6bd
00000070: 449a c4bd 4dbe babd 0d93 d7bc 0bfe 99bd
-0.07233328 0.08777626 -0.02069191 -0.08208885 0.027405905 0.03086794 0.017207095 0.15756993
0.11831261 0.03893646 0.0090882955 -0.20739882 -0.124118075 -0.010116026 -0.016271977 -0.031406086
-0.1228357 0.046522733 0.09065614 0.028698124 -0.022706768 0.034097534 -0.041351516 0.13790445
-0.069244295 0.19017178 -0.094551116 -0.10450214 -0.09599736 -0.09118328 -0.026315236 -0.07519158

batch_norm_1d.running_mean f4 [32]
00000000: 8372 2c40 fa4c d93f 472c 633f e1e0 443f
00000010: 0400 0000 a0e1 bb3f 2eb5 893f d424 8c3f
00000020: 1eec f03f b4e0 c73f ef46 1c40 037d b23f
00000030: 79b5 9f3f 0400 0000 d05e 1040 e395 ee3f
00000040: fe1d 9a3f fe74 e13f 5db4 c63f a36e e23f
00000050: 9cea fa3f 5c35 b03f 0400 0000 4ce6 0540
00000060: 32c5 c53f 57f5 1640 1945 b73f af83 943f
00000070: 0d74 453f 1745 843f 7860 863f 3dfe 953f
2.6944892 1.6976616 0.88739437 0.7690564 6e-45 1.467823 1.0758417 1.0948739
1.8822057 1.5615449 2.4418294 1.39444 1.2477256 6e-45 2.255787 1.8639492
1.2040403 1.7613828 1.5523793 1.7690014 1.9602847 1.3766284 6e-45 2.0921812
1.5450804 2.3587244 1.4317962 1.1602687 0.77130204 1.0333585 1.049819 1.1718212

batch_norm_1d.running_var f4 [32]
00000000: e28f 8140 57e8 3e40 14a7 d53f 6145 af3f
00000010: 0400 0000 a307 4940 5ca8 c63f 17d2 0b40
00000020: 526f 6540 2b18 3140 8b10 7540 a8c2 4040
00000030: c652 3440 0400 0000 621f 9840 e7d9 e83f
00000040: 84eb 1140 2607 3040 2be2 3f40 3a4c 8640
00000050: 9cde 4a40 3469 4740 0400 0000 23a8 9f40
00000060: 97e6 3d40 8073 b540 b8d0 5a40 cffa 2740
00000070: 3794 a83f b54f c73f 008a c13f f527 0b40
4.048814 2.982931 1.6691613 1.3693048 6e-45 3.141091 1.5520129 2.1846979
3.5849195 2.7671 3.8291347 3.0118809 2.817552 6e-45 4.753831 1.8191499
2.2799997 2.7504363 2.9981792 4.196805 3.169837 3.115796 6e-45 4.9892745
2.967199 5.670349 3.4189892 2.6246831 1.3170232 1.55712 1.5120239 2.1743138
