checkpoints/BSFL brute/cnn2/18-12-2023_11-16-04/best_model.pth.tar (torch, 150309 bytes, 8 tensors)

conv1.weight f4 [6, 1, 5, 5]
0.024515469 -0.15029001 -0.007787169 -0.039277744 0.16868965 0.031768735 -0.08610519 -0.017110981
0.12524879 -0.099806614 -0.3149824 -0.25334352 0.10598299 0.20826176 0.092572175 -0.026426245
0.28385624 0.32249644 0.05264172 0.26407975 0.24907644 0.17134722 0.25346595 0.30917656
0.1352005 0.045544457 -0.07325047 -0.12076408 -0.074340016 -0.13409635 -0.09221097 -0.17082453
-0.043952737 -0.04324328 -0.058577355 -0.019874763 -0.26150444 -0.14882141 -0.1812614 0.14847444
-0.05557941 -0.10277998 0.058750376 0.24272825 0.28061932 0.10418014 0.23235384 0.3872466
0.0121362405 0.24178842 -0.021605434 -0.20014285 0.23114641 0.18519488 0.12722307 0.19376366
0.1234798 0.0466078 0.25949362 0.18245354 -0.012100104 0.07974736 0.25823364 0.28298277
-0.055419512 0.17368509 0.12059039 0.14791292 0.17440887 -0.112251215 0.06281648 -0.024566099
-0.1543046 -0.28671408 -0.048996 0.2606057 -0.055442676 -0.022196531 0.18978082 -0.11259937
-0.016273804 0.073559985 -0.093036115 -0.15267609 -0.1165305 -0.013740279 0.16826707 -0.19452816
-0.095323734 -0.25110978 0.16318783 -0.048472635 0.042874545 -0.07891525 -0.03782495 -0.029491331
0.1545286 0.18007123 -0.0049010366 0.043872777 -0.13119504 -0.13393472 -0.113247365 0.05493371
-0.032735754 -0.056993887 0.05139166 0.039172206 -0.11252544 -0.089784086 0.12192185 0.14670989
0.13742615 0.06517796 -0.16310635 0.25012237 0.108853355 0.21708985 -0.14262627 -0.14965723
0.07219345 0.23428418 -0.10329025 -0.20446335 -0.13582122 -0.1373336 -0.009074865 -0.24505603
-0.013152162 -0.17803058 -0.20297821 -0.059846167 -0.2069067 -0.10448338 0.08103074 -0.10368065
-0.051377922 -0.20851406 -0.27563965 -0.25925913 0.09136297 -0.075352974 -0.049773768 -0.25303295
0.10423166 -0.0038882797 -0.08631565 0.04914588 -0.26352876 -0.041596502
00000000: aad4 c83c a0e5 19be 822b ffbb b3e1 20bd
00000010: fbbc 2c3e ef1f 023d eb57 b0bd 542c 8cbc
00000020: 3841 003e 6967 ccbd 6045 a1be 3eb6 81be
00000030: 9c0d d93d 9242 553e 7b96 bd3d da7b d8bc
00000040: 9b55 913e 411e a53e d89e 573d 7635 873e
00000050: e50d 7f3e a575 2f3e 4ac6 813e 644c 9e3e
00000060: 0072 0a3e d38c 3a3d 5804 96bd 2853 f7bd
00000070: 943f 98bd 8e50 09be 1bd9 bcbd a0ec 2ebe
00000080: c907 34bd de1f 31bd cfee 6fbd 66d0 a2bc
00000090: e9e3 85be a464 18be 979c 39be af09 183e
000000a0: 3ca7 63bd 4f7e d2bd 3ca4 703d c18d 783e
000000b0: 56ad 8f3e 665c d53d 2aee 6d3e 3045 c63e
000000c0: 15d7 463c 6297 773e e1fd b0bc 3ff2 4cbe
000000d0: a5b1 6c3e baa3 3d3e c446 023e fb69 463e
000000e0: fae2 fc3d d2e7 3e3d 59dc 843e 1ad5 3a3e
000000f0: 843f 46bc 9552 a33d 3337 843e 1ee3 903e
00000100: 92ff 62bd 81da 313e 18f8 f63d 7c76 173e
00000110: 3d98 323e f7e3 e5bd eda5 803d d83e c9bc
00000120: 0602 1ebe 30cc 92be 08b0 48bd 1c6e 853e
00000130: dc17 63bd 80d5 b5bc e755 423e 809a e6bd
00000140: a450 85bc 9ea6 963d b889 bebd 1f57 1cbe
00000150: 8ba7 eebd e81e 61bc 344e 2c3e 6432 47be
00000160: 1739 c3bd 7691 80be b61a 273e 3e8b 46bd
00000170: 389d 2f3d 529e a1bd 56ee 1abd ce97 f1bc
00000180: bf3c 1e3e 9864 383e e098 a0bb f1b3 333d
00000190: fe57 06be 2f26 09be 3cee e7bd 2b02 613d
000001a0: ed15 06bd 6c72 69bd 1080 523d 0973 203d
000001b0: bd73 e6bd b8e0 b7bd 2ab2 f93d 1e3b 163e
000001c0: 71b9 0c3e 067c 853d 5a05 27be 0a10 803e
000001d0: 82ee de3d cd4c 5e3e 9f0c 12be bf3f 19be
000001e0: 29da 933d 31e8 6f3e d789 d3bd d75e 51be
000001f0: b814 0bbe 2ea1 0cbe beae 14bc f8ef 7abe
00000200: 2a7c 57bc a64d 36be 85d9 4fbe 4121 75bd
00000210: 5adf 53be 62fb d5bd 72f3 a53d 8556 d4bd
00000220: a871 52bd b684 55be a420 8dbe 9dbd 84be
00000230: 821c bb3d a952 9abd 94df 4bbd 898d 81be
00000240: 6977 d53d 82d2 7ebb 42c6 b0bd 314d 493d
00000250: 3eed 86be 1861 2abd

conv1.bias f4 [6]
0.31484506 0.20855537 -0.010910311 -0.050323147 -0.07093134 -0.020597622
00000000: 5f33 a13e 8a8f 553e 29c1 32bc a51f 4ebd
00000010: 7344 91bd 58bc a8bc

conv2.weight f4 [6, 6, 5, 5]
0.02894477 -0.03656893 -0.029052818 -0.03972916 -0.0402213 0.05144936 -0.014985324 -0.023314252
-0.10935917 -0.026973793 -0.0584219 0.075437404 -0.021564554 0.06468315 0.1281726 -0.008402126
-0.050215714 0.027719082 -0.039578784 0.078579344 0.05983559 -0.011553532 0.009450137 -0.014805479
0.10121695 -0.036885448 0.03644781 0.047706135 -0.03590648 -0.103666954 -0.07063121 -0.024609143
-0.0033001746 -0.029458627 -0.011576069 0.047593527 0.0023447967 0.1152211 0.13722593 0.12708546
-0.032862723 0.08940566 0.0323014 0.030053234 0.006921907 -0.061567705 0.034769192 -0.06210142
0.040022347 -0.026102467 0.065027215 -0.05115296 0.055901606 -0.032672092 0.0061380295 -0.003657668
-0.0752068 -0.003740937 -0.06533681 -0.08082891 0.0072059394 -0.04360479 -0.052133203 -0.043445203
-0.06389786 0.07113134 -0.08094176 0.027597072 0.052022107 -0.043555018 0.071132965 -0.018157303
0.0036842774 -0.068921395 -0.016572062 0.0602796 0.07877041 -0.006893455 -0.053731617 -0.02349918
0.10251666 -0.020171192 0.023113165 0.021023054 -0.072978936 0.06932383 0.080648325 -0.04629632
-0.07453982 0.0051394473 -0.0011904845 0.035340276 -0.065202616 -0.040775012 -0.08494329 -0.0024843966
0.028412282 -0.06880681 -0.0024009158 -0.08114314 0.059914198 -0.039106302 -0.08108329 -0.02328684
0.024031827 0.01639964 -0.016496386 0.05150978 -0.08961641 -0.0262221 -0.016803922 0.010659851
-0.048354115 0.024267117 0.03309732 -0.004390103 0.06457982 0.034826778 0.041777644 -0.02604312
0.013717573 0.06670101 -0.03155451 -0.002349607 -0.03188528 0.058460258 -0.01131572 -0.030448023
0.055276327 -0.03989867 -0.012976669 0.05083851 0.019809604 0.008553393 -0.039343614 0.065014645
-0.00032194593 0.08057042 0.08440024 0.00059474877 -0.0015281965 0.014727444 -0.06813295 0.014340164
-0.028523358 0.041482244 -0.036954693 0.0048836535 0.00027334754 0.026151039 0.005246847 0.09509307
0.010398929 -0.06717122 0.07978608 -0.020549923 0.017178293 -0.014642599 0.0914541 0.08854768
0.031706955 0.009934849 0.034151714 0.06309618 0.031123465 -0.053797897 -0.0035408332 0.056051724
-0.048978418 -0.08524465 0.03835583 0.0102789225 -0.0015710195 0.013884748 0.012556527 -0.011496297
0.07060845 -0.08291605 -0.0038517362 -0.07115771 -0.0749802 -0.021154283 -0.035156023 -0.008630143
0.023364779 0.01866573 -0.07664988 -0.03465384 -0.043960243 0.04776315 -0.042766042 0.030762471
0.047811326 0.061621923 -0.07413301 -0.033667006 -0.030013487 0.075322434 0.066418104 0.012598359
0.0068093026 -0.042520642 0.121313944 -0.04309109 -0.030284608 -0.017743224 0.016915487 -0.047334615
0.05032091 0.03836782 0.047690857 -0.04060458 -0.062417228 0.041434046 0.092887655 -0.029209154
-0.044880584 0.039639674 0.046448927 -0.04298993 0.007549067 -0.07486741 0.0043769307 0.076435246
-0.06734752 -0.026220579 0.04414785 -0.027534181 -0.0014824446 0.06547908 0.06162111 -0.0563204
-0.049410503 0.06733263 -0.067072585 0.06470394 -0.054391593 0.032827064 0.03232037 0.03993445
0.06500683 -0.08095273 -0.015023808 -0.0406942 -0.05309223 -0.073107794 0.07097477 -0.00069644337
0.04704831 0.030196007 -0.010503512 0.037470803 -0.019537203 0.08513593 0.0027900266 -0.040742528
00000000: 951d ed3c 4dc9 15bd 2d00 eebc 0bbb 22bd
00000010: 17bf 24bd 90bc 523d 0185 75bc 88fd bebc
00000020: b3f7 dfbd 25f8 dcbc cd4b 6fbd ed7e 9a3d
00000030: 26a8 b0bc 9978 843d ae3f 033e 12a9 09bc
00000040: feae 4dbd 2113 e33c 5d1d 22bd 35ee a03d
00000050: 2a16 753d 074b 3dbc bfd4 1a3c ae92 72bc
00000060: d54a cf3d 3215 17bd 4c4a 153d 8267 433d
00000070: ac12 13bd 574f d4bd 19a7 90bd 1d99 c9bc
00000080: be47 58bb 3853 f1bc 8da9 3dbc 6ef1 423d
00000090: 29ab 193b 0af9 eb3d f484 0c3e b122 023e
000000a0: 109b 06bd 511a b73d 794e 043d 3332 f63c
000000b0: 2ad1 e23b 6b2e 7cbd 246a 0e3d 0f5e 7ebd
000000c0: 79ee 233d d7d4 d5bc fd2c 853d c485 51bd
000000d0: 15f9 643d 2cd3 05bd 8621 c93b 7cb5 6fbb
000000e0: 0606 9abd 822a 75bb 4ecf 85bd a189 a5bd
000000f0: cd1f ec3b f09a 32bd a089 55bd 99f3 31bd
00000100: e2dc 82bd 4fad 913d cbc4 a5bd 4113 e23c
00000110: 2215 553d bf66 32bd 29ae 913d a0be 94bc
00000120: eb73 713b a926 8dbd 22c2 87bc bee7 763d
00000130: 6152 a13d 7ee2 e1bb af15 5cbd 5a81 c0bc
00000140: 41f4 d13d 0e3e a5bc d257 bd3c 8a38 ac3c
00000150: fb75 95bd a7f9 8d3d f32a a53d 36a1 3dbd
00000160: 55a8 98bd cf68 a83b 080a 9cba f7c0 103d
00000170: f388 85bd b303 27bd bff6 adbd 42d1 22bb
00000180: e0c0 e83c 96ea 8cbd af58 1dbb 602e a6bd
00000190: 9768 753d ee2d 20bd ff0e a6bd 0bc4 bebc
000001a0: 65de c43c 8a58 863c 6e23 87bc ebfb 523d
000001b0: cf88 b7bd bbcf d6bc 61a8 89bc a8a6 2e3c
000001c0: f70e 46bd d5cb c63c 0e91 073d dada 8fbb
000001d0: 6d42 843d 86a6 0e3d 091f 2b3d 6258 d5bc
000001e0: acbf 603c 8a9a 883d 4d3f 01bd ddfb 19bb
000001f0: 249a 02bd 0674 6f3d 9265 39bc 226e f9bc
00000200: 6e69 623d ca6c 23bd 189c 54bc 0b3c 503d
00000210: c047 a23c 8823 0c3c c526 21bd 6626 853d
00000220: daca a8b9 1b02 a53d 08da ac3d eae8 1b3a
00000230: c44d c8ba 614b 713c 4a89 8bbd 02f3 6a3c
00000240: d1a9 e9bc 49e9 293d ce5d 17bd 0e07 a03b
00000250: 1650 8f39 b43a d63c beed ab3b 28c0 c23d
00000260: 4560 2a3c 1191 89bd e266 a33d 5058 a8bc
00000270: 7eb9 8c3c 83e7 6fbc 4a4c bb3d 7c58 b53d
00000280: 27df 013d c7c5 223c abe2 0b3d 9238 813d
00000290: a3f6 fe3c 2f5b 5cbd 530d 68bb 7e96 653d
000002a0: 989d 48bd bf94 aebd 011b 1d3d ed68 283c
000002b0: abea cdba db7c 633c e4b9 4d3c f75a 3cbc
000002c0: 2a9b 903d e4cf a9bd 696d 7cbb 22bb 91bd
000002d0: 388f 99bd bf4b adbc c3ff 0fbd 7165 0dbc
000002e0: 7e67 bf3c dfe8 983c 9dfa 9cbd 2ff1 0dbd
000002f0: a80f 34bd 4ba3 433d 722b 2fbd 9401 fc3c
00000300: cfd5 433d 4567 7c3d 0cd3 97bd 6ae6 09bd
00000310: d8de f5bc a642 9a3d 3706 883d 5969 4e3c
00000320: 9220 df3b 202a 2ebd 7273 f83d 4880 30bd
00000330: 6d17 f8bc 3d5a 91bc 5992 8a3c f1e1 41bd
00000340: 4c1d 4e3d 9327 1d3d 7d57 433d fd50 26bd
00000350: 35a9 7fbd bfb6 293d e23b be3d 0948 efbc
00000360: b4d4 37bd 365d 223d 3b41 3e3d 3516 30bd
00000370: 2a5e f73b 1654 99bd 5b6c 8f3b 158a 9c3d
00000380: 7fed 89bd 8acc d6bc 60d4 343d 5d8f e1bc
00000390: 964e c2ba e519 863d 6b66 7c3d 38b0 66bd
000003a0: ab62 4abd b1e5 893d 5a5d 89bd 8083 843d
000003b0: b8c9 5ebd ac75 063d 5d62 043d 4e92 233d
000003c0: 4d22 853d 8bca a5bd 6b26 76bc f6ae 26bd
000003d0: 3d77 59bd 8ab9 95bd 385b 913d 8691 36ba
000003e0: bbb5 403d 9e5d f73c ec16 2cbc fc7a 193d
000003f0: 7c0c a0bc bf5b ae3d e1d8 363b a3e1 26bd

conv2.bias f4 [6]
0.020594886 -0.06392658 -0.01392776 -0.03513215 0.0151123125 0.073595054
00000000: 9bb6 a83c f0eb 82bd 4231 64bc bbe6 0fbd
00000010: a299 773c 01b9 963d

fc1.weight f4 [50, 96]
0.052661795 0.06857523 -0.087305434 -0.04838333 0.06578085 -0.09781332 -0.096392654 0.030700373
-0.062781855 0.062137187 0.068044245 0.09569855 0.077303424 0.049317133 0.07386346 -0.032204572
0.015892882 0.08589976 0.019436117 0.040902834 0.03224302 -0.073749825 0.005723051 -0.077659875
-0.018655762 0.09517637 -0.083012864 0.009571841 -0.047294583 0.033761024 0.05791915 0.033037826
0.06690213 0.09885368 -0.0894915 0.065120585 -0.022566633 -0.07445765 -0.00059534487 -0.087678194
-0.009139837 -0.051228512 -0.025932746 0.08748515 0.0698416 0.012442203 -0.09432776 0.033514705
0.04556651 0.095886014 -0.07211168 0.020319274 -0.025824394 0.09466388 0.079836056 0.028861219
0.04655979 0.100176185 0.05085675 0.03554257 -0.032906782 0.06755147 -0.019364623 -0.03755704
-0.0158329 0.07081506 -0.08523713 -0.036936834 -0.0206894 -0.0545496 -0.097749166 -0.026619753
0.008818546 -0.07652932 0.056488533 0.028029127 0.0074001737 -0.06805149 -0.015209434 0.097327754
-0.058528572 0.05554572 -0.042697493 0.08822842 -0.0022371232 0.026061183 0.090765804 -0.018354861
0.08945696 0.005340701 0.022808524 0.027281893 0.031108225 0.05025741 0.078962244 -0.02361367
-0.05038037 -0.06640452 -0.044801097 -0.093655735 -0.06602459 -0.078394786 0.055114083 -0.03665942
-0.10631047 0.08858879 0.10220853 0.023670878 0.081852324 -0.03455361 0.10737038 -0.09664079
-0.08266961 -0.040626343 -0.09121571 -0.021637546 -0.0601834 -0.021665724 0.09637593 -0.029338036
0.0012629974 -0.0790833 0.06521637 0.061433405 -0.020571133 0.07233062 -0.024997644 0.05547927
0.01684784 0.13061747 0.19551267 -0.038008325 0.11603402 -0.013872441 0.021416586 -0.0023611095
-0.05876085 -0.007683441 -0.06391391 0.034448076 0.053346757 -0.0810866 -0.048724376 0.03075615
-0.025659159 -0.034945585 0.026007175 0.04445314 -0.001699724 -0.07190539 -0.019260274 -0.091409184
0.067006096 0.060356207 -0.060991187 0.06560746 0.07481896 -0.04740253 -0.08540266 0.084445104
0.07675659 0.05607101 -0.049901865 0.09551925 0.08607798 -0.060253933 -0.04729871 -0.0068762074
-0.05707345 -0.031372067 -0.05935237 0.057748333 0.008310912 -0.069716156 0.08420381 0.0016621172
-0.06878874 0.046559185 0.02131231 0.095404886 0.09647248 0.046462703 -0.086774044 0.07647222
0.01910372 -0.055032663 -0.016715359 0.01516699 -0.027681887 -0.024300264 -0.06835594 -0.011589496
-0.08120317 0.011029917 0.059144765 -0.07767301 -0.0862004 0.09079604 -0.007951226 -0.029096879
-0.11261565 0.021522159 0.10803652 -0.05550673 0.09913761 0.1097797 -0.008861439 0.009530027
-0.026719823 0.0017950749 0.058774743 0.07903312 -0.09058939 0.052144486 -0.108409785 -0.055986665
0.0031395266 0.034916766 -0.084767245 -0.01984713 0.042283736 0.039279733 0.028446868 0.049840443
-0.10544598 0.040752552 0.007158665 0.07444981 0.034562465 0.0032979264 -0.0014971959 -0.003876659
0.081032336 0.003992915 -0.092117615 0.056490827 -0.033989478 0.11262443 0.13028839 -0.004844563
0.08174204 -0.01508313 0.08236416 -0.0038063219 0.08073298 0.015324188 -0.07253831 0.0028607391
-0.06761751 0.031398557 0.10293589 0.064983286 -0.050974716 0.07891916 -0.027436998 -0.01582049
00000000: e5b3 573d 2c71 8c3d 31cd b2bd 992d 46bd
00000010: 1cb8 863d 5a52 c8bd 8369 c5bd 597f fb3c
00000020: c693 80bd 9083 7e3d c85a 8b3d 9afd c33d
00000030: 4251 9e3d c300 4a3d ba45 973d f1e8 03bd
00000040: ca31 823c 37ec af3d 7e38 9f3c bb89 273d
00000050: 4211 043d 260a 97bd 6e88 bb3b 240c 9fbd
00000060: f8d3 98bc d4eb c23d a602 aabd 36d3 1c3c
00000070: f7b7 41bd 0049 0a3d a13c 6d3d ac52 073d
00000080: fc03 893d cc73 ca3d 5247 b7bd f15d 853d
00000090: a9dd b8bc 417d 98bd eb10 1cba a090 b3bd
000000a0: 41bf 15bc fdd4 51bd e970 d4bc 6a2b b33d
000000b0: 1d09 8f3d 62da 4b3c ea2e c1bd b746 093d
000000c0: f3a3 3a3d e35f c43d 4aaf 93bd 9b74 a63c
000000d0: ae8d d3bc 23df c13d 1681 a33d 5d6e ec3c
000000e0: 7ab5 3e3d 2c29 cd3d 2b4f 503d 1695 113d
000000f0: 43c9 06bd 6d58 8a3d 8fa2 9ebc 69d5 19bd
00000100: ffb3 81bc 7c07 913d ce90 aebd 144b 17bd
00000110: d17c a9bc 676f 5fbd b730 c8bd ab11 dabc
00000120: aa7b 103c 67bb 9cbd 8560 673d 579d e53c
00000130: 287d f23b 945e 8bbd fd30 79bc c653 c73d
00000140: a8bb 6fbd e983 633d 91e3 2ebd 1ab1 b43d
00000150: b39c 12bb 437e d53c 6ce3 b93d ef5c 96bc
00000160: 3635 b73d 0c01 af3b f1d8 ba3c 477e df3c
00000170: add6 fe3c b7da 4d3d f5b6 a13d 7571 c1bc
00000180: a65b 4ebd 18ff 87bd 5b81 37bd 94ce bfbd
00000190: e637 87bd 728d a0bd 4ebf 613d 3028 16bd
000001a0: 4eb9 d9bd 0a6e b53d b552 d13d 6ee9 c13c
000001b0: 31a2 a73d 1688 0dbd 00e5 db3d 9beb c5bd
000001c0: af4e a9bd cf67 26bd 4dcf babd 3941 b1bc
000001d0: de82 76bd 517c b1bc be60 c53d 5256 f0bc
000001e0: 298b a53a 6df6 a1bd 2990 853d 98a1 7b3d
000001f0: cb84 a8bc 1322 943d dcc7 ccbc 3b3e 633d
00000200: 7b04 8a3c 96c0 053e 7934 483e 9eae 1bbd
00000210: 3fa3 ed3d 3c49 63bc d671 af3c d8bc 1abb
00000220: 38af 70bd 60c5 fbbb 4ce5 82bd 6d19 0d3d
00000230: 2182 5a3d bb10 a6bd 3693 47bd 52f4 fb3c
00000240: 2833 d2bc 1a23 0fbd 000d d53c 7f14 363d
00000250: 46c9 deba 2243 93bd b9c7 9dbc bd34 bbbd
00000260: 7e3a 893d 1238 773d e5d1 79bd 345d 863d
00000270: af3a 993d 2829 42bd 97e7 aebd 8ef1 ac3d
00000280: 8f32 9d3d b7aa 653d e665 4cbd 999f c33d
00000290: a749 b03d d4cc 76bd 4bbc 41bd cf51 e1bb
000002a0: dac5 69bd ff7f 00bd 791b 73bd 8489 6c3d
000002b0: 7e2a 083c 58c7 8ebd 0c73 ac3d 66db d93a
000002c0: 1ce1 8cbd d8b4 3e3d 2797 ae3c a363 c33d
000002d0: 5d93 c53d ad4f 3e3d 97b6 b1bd 789d 9c3d
000002e0: 687f 9c3c ee69 61bd a6ee 88bc f87e 783c
000002f0: 20c5 e2bc 5911 c7bc 33fe 8bbd dfe1 3dbc
00000300: d94d a6bd d3b6 343c c841 723d 0713 9fbd
00000310: d689 b0bd 46f3 b93d dc45 02bc 945c eebc
00000320: 09a3 e6bd 3d4f b03c 4042 dd3d 065b 63bd
00000330: a908 cb3d 2ed4 e03d 922f 11bc d523 1c3c
00000340: 88e3 dabc b848 eb3a c9bd 703d 1edc a13d
00000350: ee86 b9bd 7595 553d f305 debd 4652 65bd
00000360: 84c0 4d3b e204 0f3d 739a adbd 7396 a2bc
00000370: b631 2d3d c9e3 203d 6809 e93c 7e25 4c3d
00000380: 10f4 d7bd 26ec 263d 3c93 ea3b 2479 983d
00000390: 5f91 0d3d 0622 583b 8f3d c4ba 8c0f 7ebb
000003a0: 48f4 a53d 00d7 823b 29a8 bcbd ed62 673d
000003b0: 8d38 0bbd a3a7 e63d 526a 053e 24bf 9ebb
000003c0: 5f68 a73d 3c1f 77bc 8aae a83d 7c73 79bb
000003d0: 5557 a53d 4e12 7b3c f78e 94bd 3d7b 3b3b
000003e0: 0d7b 8abd c69b 003d 0dd0 d23d f515 853d
000003f0: ddca 50bd 5ea0 a13d 8ec3 e0bc f999 81bc

fc1.bias f4 [50]
0.033752162 0.04884013 -0.09423854 -0.06811806 -0.07477804 -0.04155007 0.16542453 0.029382193
0.10678095 0.061280582 0.07137514 -0.024899576 0.033560973 0.03226663 -0.07421999 0.0248151
-0.0437876 -0.069413245 -0.048832815 0.13552079 -0.027268255 -0.094715394 -0.052693676 -0.011899373
-0.005441362 0.1516567 -0.075265154 0.08268445 0.034658283 0.016439771 0.09501747 0.0027530668
0.08102672 -0.10469587 0.021404149 0.057923537 0.09440897 -0.060399078 -0.042590126 -0.03130263
-0.07426315 0.085510634 -0.045023266 -0.07647818 -0.09449455 0.054925166 0.062234785 -0.095471665
-0.017483855 -0.062514566
00000000: b53f 0a3d 970c 483d 2300 c1bd 7b81 8bbd
00000010: 3b25 99bd 6830 2abd 0c65 293e edb2 f03c
00000020: f9af da3d 5901 7b3d 212d 923d 32fa cbbc
00000030: 3b77 093d 042a 043d a600 98bd 0949 cb3c
00000040: a05a 33bd 8828 8ebd eb04 48bd f6c5 0a3e
00000050: ad61 dfbc 25fa c1bd 53d5 57bd 96f5 42bc
00000060: 744d b2bb e54b 1b3e 9e24 9abd 7756 a93d
00000070: d8f5 0d3d b3ac 863c 8598 c23d cc6c 343b
00000080: 56f1 a53d ca6a d6bd c157 af3c 3b41 6d3d
00000090: 7d59 c13d 0665 77bd fc72 2ebd 3037 00bd
000000a0: 4717 98bd 3320 af3d 516a 38bd 98a0 9cbd
000000b0: 5c86 c1bd 36f9 603d e7e9 7e3d a686 c3bd
000000c0: 4d3a 8fbc a307 80bd

fc2.weight f4 [10, 50]
0.085849285 0.17508896 0.048590854 0.031875897 0.0012746962 -0.1893221 -0.08973282 0.19048993
-0.22284184 -0.0037550384 0.045516323 -0.008547478 -0.06943588 0.10373011 0.18622036 0.08811618
-0.13184957 -0.06561292 0.056254458 -0.18727654 -0.06904796 0.0608925 -0.009036563 -0.15678254
-0.034932476 0.18573947 0.0009978231 0.18898596 0.054645643 0.024215402 -0.100546226 0.11660083
-0.005365793 0.1260826 0.046222303 -0.13547538 0.11608297 -0.13436243 0.062853344 0.1079588
0.114543475 0.030187225 -0.12212529 0.092102 0.11433333 0.01846288 0.082215555 -0.11430837
0.004325605 0.06683191 -0.10549533 -0.061119255 -0.17040367 -0.19892336 0.059713844 -0.060029436
0.2831392 0.020137476 -0.06756173 -0.11327142 -0.114403695 -0.07432945 0.0993452 -0.11755634
-0.21396378 0.11757738 -0.023861542 -0.07456107 0.10618814 0.0925497 -0.17739359 -0.07673362
0.1269655 0.17482316 -0.13546878 0.15509742 0.018006675 -0.009458313 -0.18402478 -0.10580215
0.077754654 -0.15781096 -0.119977005 0.09714449 -0.10333729 0.045478035 0.15413156 0.12743941
-0.02556451 0.02352231 -0.005818433 -0.11430624 -0.048312157 0.0810765 -0.0842616 0.07612048
0.15662786 0.013282386 0.18456267 0.0070949737 0.06877784 -0.06330789 -0.15233181 -0.18308175
-0.050547183 0.29360896 -0.011541877 0.18530858 -0.21769914 0.17063303 0.15334363 0.077113345
0.0053985 0.07319664 0.0034250582 0.063884385 0.10711788 -0.13825153 0.024488976 0.016122758
-0.0331379 0.014930886 -0.0012224262 -0.0506377 -0.062595844 -0.018158332 -0.11851716 0.027901126
-0.13428968 -0.15685004 0.058675293 0.07611189 0.07302865 0.069811545 -0.14241765 0.043792978
-0.066672064 -0.06854984 0.04837243 -0.001242568 0.06631461 -0.104631715 -0.07626085 0.023439033
0.038639266 -0.08025459 0.17507172 -0.1176115 0.043928977 -0.102154836 -0.09795171 -0.15911852
0.14739797 -0.114088416 0.08230994 -0.09671958 0.04222844 -0.13995366 -0.00019909022 0.14542425
0.14741655 -0.09555585 -0.025852242 0.060172338 -0.00042290767 0.05541746 0.09059689 0.09730429
-0.023081742 0.05629941 0.22271006 -0.034992144 0.1080283 0.20275795 -0.011476626 0.13346994
-0.057711765 -0.11032021 0.13187559 -0.10511723 -0.06476055 -0.17472577 -0.1365314 0.10809425
-0.115399815 -0.20565234 -0.02526754 0.11303524 -0.06334877 0.060206793 -0.11397459 -0.026649246
-0.13369407 -0.12300789 -0.078356646 -0.19312811 0.02683992 -0.055615358 -0.050749153 0.031716786
0.123953074 -0.16421054 0.039680704 0.07038227 0.0011631708 -0.09270273 -0.02235409 -0.0905785
0.09866641 -0.1475387 -0.12076012 0.23472391 -0.13697389 0.03883056 0.12296553 0.10652806
-0.012568817 0.07559958 0.07783183 0.21879654 -0.021709718 0.01307045 0.08456891 -0.20071004
-0.06463427 -0.1560927 0.025777368 0.10406224 -0.04715912 -0.012399265 -0.111691765 -0.033694755
-0.116299435 -0.0145606315 -0.13611494 0.04814613 -0.117949545 0.045062803 0.15317097 -0.1287139
-0.12600307 0.14497916 0.13722138 -0.026762618 0.107691936 -0.053550698 0.15843849 -0.12759925
0.046042275 -0.15067516 0.049495343 0.101073034 0.11612796 -0.020470623 0.037257407 -0.15619878
00000000: c0d1 af3d 854a 333e 3407 473d 4d90 023d
00000010: b513 a73a a7dd 41be d7c5 b7bd cb0f 433e
00000020: a730 64be 1717 76bb 536f 3a3d b90a 0cbc
00000030: 6634 8ebd 7470 d43d 8db0 3e3e 4176 b43d
00000040: 9303 07be 1160 86bd 136b 663d 6cc5 3fbe
00000050: 0469 8dbd 6a6a 793d 180e 14bc 9a8b 20be
00000060: 5b15 0fbd 7d32 3e3e 63c9 823a 8985 413e
00000070: 1cd4 5f3d 615f c63c 2eeb cdbd 6acc ee3d
00000080: 89d3 afbb cc1b 013e 9953 3d3d 0fba 0abe
00000090: e8bc ed3d 4e96 09be 41b9 803d 8119 dd3d
000000a0: c595 ea3d 334b f73c d31c fabd f99f bc3d
000000b0: 9827 ea3d 773f 973c a160 a83d 821a eabd
000000c0: cebd 8d3b 2bdf 883d f00d d8bd 2f58 7abd
000000d0: 4d7e 2ebe 91b2 4bbe 8196 743d 6de1 75bd
000000e0: 9ff7 903e 59f7 a43c ce5d 8abd d9fa e7bd
000000f0: 7c4c eabd 0a3a 98bd 7f75 cb3d 61c1 f0bd
00000100: 5219 5bbe 69cc f03d 4879 c3bc 79b3 98bd
00000110: 2b79 d93d b28a bd3d aaa6 35be 8426 9dbd
00000120: 3e03 023e d804 333e 54b8 0abe dcd1 1e3e
00000130: bc82 933c 0af7 1abc fe70 3cbe ccae d8bd
00000140: d53d 9f3d 3299 21be 81b6 f5bd b1f3 c63d
00000150: 80a2 d3bd 2d47 3a3d aad4 1d3e 7a7f 023e
00000160: aa6c d1bc dcb1 c03c 8ea8 bebb 6419 eabd
00000170: f8e2 45bd 700b a63d 5991 acbd 0ee5 9b3d
00000180: 0e63 203e 5d9e 593c fffd 3c3e f47c e83b
00000190: 65db 8c3d 91a7 81bd dffc 1bbe c879 3bbe
000001a0: 900a 4fbd ea53 963e 241a 3dbc 88c1 3d3e
000001b0: 86ec 5ebe 6dba 2e3e 1d06 1d3e 9aed 9d3d
000001c0: e6e5 b03b 1fe8 953d f176 603b d1d5 823d
000001d0: 9e60 db3d cf91 0dbe 1b9d c83c e013 843c
000001e0: 9bbb 07bd ada0 743c d139 a0ba 7a69 4fbd
000001f0: 4032 80bd c8c0 94bc 20b9 f2bd e790 e43c
00000200: 3c83 09be 4c9d 20be 8155 703d 8de0 9b3d
00000210: 0b90 953d 5bf9 8e3d efd5 11be 4460 333d
00000220: 5d8b 88bd dc63 8cbd 2b22 463d aadd a2ba
00000230: f4cf 873d 2749 d6bd a62e 9cbd 3703 c03c
00000240: 3544 1e3d 855c a4bd 0046 333e 4cde f0bd
00000250: dfee 333d 8e36 d1bd e89a c8bd f7ef 22be
00000260: 7eef 163e 30a7 e9bd 1d92 a83d ea14 c6bd
00000270: bbf7 2c3d 0350 0fbe e0c2 50b9 18ea 143e
00000280: 5df4 163e c9b2 c3bd 15c8 d3bc 4577 763d
00000290: b5b9 ddb9 6bfd 623d dd8a b93d 7947 c73d
000002a0: ec15 bdbc 369a 663d 1b0e 643e ec53 0fbd
000002b0: f13d dd3d c89f 4f3e 7508 3cbc 58ac 083e
000002c0: 2c63 6cbd 90ef e1bd 650a 073e b447 d7bd
000002d0: 2ea1 84bd 50eb 32be e3ce 0bbe 8560 dd3d
000002e0: bd56 ecbd 8796 52be dffd cebc 057f e73d
000002f0: 00bd 81bd 669b 763d 836b e9bd 854f dabc
00000300: 19e7 08be 90eb fbbd 7379 a0bd 60c3 45be
00000310: 64df db3c eecc 63bd 58de 4fbd 76e9 013d
00000320: 1cdb fd3d cf26 28be 3c88 223d 9424 903d
00000330: 8975 983a eeda bdbd ed1f b7bc 3881 b9bd
00000340: 9d11 ca3d 6314 17be 1551 f7bd 775b 703e
00000350: e242 0cbe cb0c 1f3d 5ad5 fb3d 622b da3d
00000360: 70ed 4dbc f4d3 9a3d 4b66 9f3d 330c 603e
00000370: 94d8 b1bc 7125 563c 7732 ad3d ef86 4dbe
00000380: f95e 84bd c4d6 1fbe 0f2b d33c 951e d53d
00000390: ec29 41bd 4926 4bbc a7be e4bd 8303 0abd
000003a0: 662e eebd b78f 6ebc b761 0bbe e034 453d
000003b0: 888f f1bd c693 383d dad8 1c3e 94cd 03be
000003c0: f306 01be 6b75 143e c383 0c3e 473d dbbc
000003d0: 978d dc3d fa57 5bbd b33d 223e 61a9 02be
000003e0: d396 3c3d 974a 1abe a1bb 4a3d 61ff ce3d
000003f0: 7fd4 ed3d 02b2 a7bc 399b 183d 93f2 1fbe

fc2.bias f4 [10]
-0.11245958 0.19821505 0.06499901 0.06581754 -0.018438589 -0.049564756 -0.06899613 0.064455256
-0.06787115 0.10936376
00000000: 3551 e6bd e3f8 4a3e 331e 853d 59cb 863d
00000010: 860c 97bc 6a04 4bbd d84d 8dbd 1e01 843d
00000020: 0800 8bbd 1bfa df3d
