checkpoints/archive/MNIST with FC2/30 choose 5/ALSA/last_model.pth.tar (torch, 120782 bytes, 6 tensors)

fc1.weight f4 [32, 784]
000000 b3 70 01 3b 8b da 19 bd 00 f9 81 bd 5e 30 bc 3c
       0.0019751012 -0.037561934 -0.06346321 0.022972282
000010 48 f2 6c bd 29 43 4d bc 70 2e 17 3c 01 f1 86 bd
       -0.057848245 -0.012528219 0.00922738 -0.065889366
000020 49 28 90 bb 36 ba ce bc 2b ce c7 3b c3 bd 43 bd
       -0.0043993336 -0.025235277 0.006097575 -0.047788393
000030 72 6f 81 3c 85 9a 81 bb a8 28 d9 3c fc e0 fb bc
       0.015800212 -0.0039551877 0.026508644 -0.03074693
000040 f0 a5 88 bc 1d 1a 7e bc 04 dd 25 bd b2 9e eb bc
       -0.016680688 -0.015509156 -0.04049398 -0.028762195
000050 5c 60 d0 bc e2 66 01 bd c3 90 0b 3c 0c 2e 95 bb
       -0.025436573 -0.031592257 0.008518401 -0.0045526084
000060 df b9 80 bd f0 8a 6c bd 32 d8 06 bc b8 23 75 3c
       -0.06285452 -0.05774969 -0.008230256 0.014962129
000070 fc f9 f5 bb 67 7c 5b bc e3 17 b5 bc a3 4d 0d bd
       -0.007506607 -0.013396359 -0.022106117 -0.03449787
000080 70 3b 26 bd 52 71 eb bc 1b 39 0c bd b5 f1 41 bc
       -0.040584028 -0.028740559 -0.034234148 -0.011837413
000090 5e c9 eb bc b9 36 56 bc 1d 07 8b bd 89 46 b3 3c
       -0.028782543 -0.01307457 -0.06788466 0.02188422
0000a0 aa 28 b9 bc 8b 9e 7b bd fe 09 44 bd 62 53 69 bd
       -0.022602398 -0.061430495 -0.04786109 -0.056964286
0000b0 56 04 b4 bb 13 d5 22 bc 5c 7d 89 bc 07 35 c8 bc
       -0.005493681 -0.009938496 -0.016783409 -0.024439348
0000c0 da 63 07 bd 83 a0 ac 3c 3b 21 3e bb 47 0c 08 bd
       -0.03305421 0.021072632 -0.0029011506 -0.033214834
0000d0 e2 5f 18 bc 8d b9 a1 3a 79 02 03 bd 78 8c 42 bc
       -0.009300204 0.0012338624 -0.03198478 -0.011874311
0000e0 df c7 11 3c e1 c0 43 bd 06 fa f2 bc 70 7e 0c bd
       0.008897751 -0.047791366 -0.029660236 -0.034300268
0000f0 ab 73 34 bd b4 e1 3f bd 04 e6 06 3b 1a 6f e8 bb
       -0.044055622 -0.046846107 0.0020583877 -0.0070933225
000100 c2 77 c4 bc 04 e0 2d bd 42 9e ff bc fd 3c dd 3a
       -0.023982886 -0.042449966 -0.031203393 0.0016879138
000110 97 a1 89 3c 83 cf 8f bc 45 c0 73 bc 66 4b 9b bd
       0.016800685 -0.017555004 -0.014877384 -0.075827405
000120 8c ce 43 bd 4e 91 36 3a 86 45 5e bd 7b 79 60 bd
       -0.0478044 0.0006964401 -0.05426552 -0.054803353
000130 59 e6 e3 3b e2 a5 2f 3d 96 9a 71 bd 3f 6e 4b bd
       0.00695495 0.042882808 -0.058985315 -0.049665686
000140 ea 38 17 bd 45 3a 73 bc 06 72 31 bd d6 4e 42 bd
       -0.03691951 -0.0148454355 -0.04332163 -0.047438465
000150 12 98 38 bd 7e 94 22 bc 9e e7 0e bd bd 59 50 bc
       -0.0450669 -0.009923099 -0.034888856 -0.012716708
000160 29 8d 5d bd 9f 46 96 bc db 5d f8 bb 74 0b 34 bd
       -0.0540897 -0.018344222 -0.007579548 -0.043956235
000170 9c 7c e2 bd a4 7a 9b 39 98 a1 ff bb 0c 3f 1e bb
       -0.110589236 0.00029655278 -0.007801246 -0.0024146466
000180 c5 60 10 3d 46 a2 aa bc 64 c0 07 bd 0b d2 bb bd
       0.035248537 -0.020829331 -0.033142462 -0.09170922
000190 02 0b 8b bd c3 33 6d bd 3e 01 f0 bd f9 56 dc bd
       -0.06789209 -0.057910692 -0.11718987 -0.10758776
0001a0 7f b3 22 be 12 8d c9 bd 9a c0 c8 bd 71 09 b8 bb
       -0.15888785 -0.0984136 -0.09802361 -0.00561636
0001b0 7a 28 80 bb 4d 60 b4 bc bd 78 0d 3c 1c df 3d bc
       -0.003911075 -0.022018576 0.008634743 -0.011588838
0001c0 26 ad d4 bc fb 36 1e bd 6b be 44 3c 56 95 af bc
       -0.02596147 -0.038626652 0.01200829 -0.021433514
0001d0 4e eb 83 3c 23 f8 62 bd 27 54 d6 bc b9 1b 3d bd
       0.016103413 -0.055412423 -0.026163174 -0.046169017
0001e0 b4 e2 ae bb 3b a2 f6 bb ef 22 a7 bd 37 5e 38 bd
       -0.0053370837 -0.0075266636 -0.0816096 -0.045011725
0001f0 7e 05 8b bd 9f a4 96 bd c3 cb 85 bd 3c 61 4f bd
       -0.06788157 -0.07355618 -0.06533005 -0.05062984
000200 20 9c 0c bd 38 e0 2e bd f9 51 4c bd f9 9c b7 bd
       -0.03432858 -0.0426943 -0.049882863 -0.08965487
000210 74 26 f7 bd da 7a 08 be c1 ee 30 be bc a5 a7 bc
       -0.12067881 -0.13328114 -0.17278577 -0.02046477
000220 28 de fb 3a b8 ca bc 3c 6c 34 2b 3c 42 1e 8e bd
       0.0019215988 0.023045883 0.01044951 -0.06939365
000230 ee 71 55 bd 33 b2 86 bd c2 81 dd 3b b1 ba 8b bd
       -0.052110605 -0.065769576 0.006759853 -0.06822718
000240 b6 87 a9 3c ac b9 85 bc a0 8a a2 bd 93 e7 81 bd
       0.020694595 -0.016323887 -0.07936597 -0.063429974
000250 e1 d5 21 3c ae e4 7f bd 97 f7 fd bc 49 b3 09 3d
       0.009877653 -0.062473945 -0.03100185 0.033618245
000260 e8 3d 49 bc c4 3d a6 3c f5 bc b7 3d 78 6d 6c 3d
       -0.012282826 0.020293124 0.089715876 0.057721585
000270 01 a4 89 3d c9 b4 c1 3d e1 bc ed 3d c6 06 ba 3d
       0.067207344 0.0945831 0.116082914 0.09083323
000280 d4 42 8f 3c b8 9f f2 3c b2 b1 2a bc 16 dc 85 bc
       0.01748792 0.029617175 -0.010418342 -0.016340297
000290 dd db 1d 3d eb a8 24 bd 89 60 c0 bc b3 db 04 bc
       0.038539756 -0.040200155 -0.023483532 -0.008109021
0002a0 cf 28 bf 3c 20 12 aa bc dc 0e 59 3a 01 30 87 bd
       0.023334889 -0.020760596 0.0008280107 -0.06600953
0002b0 ba da 74 bc 14 c3 28 bb 12 98 be bd 74 c8 a6 bd
       -0.014944727 -0.0025751041 -0.09306349 -0.08143702
0002c0 a1 57 13 bd 20 63 b3 bc c8 d0 ba bd d6 0c 6f bd
       -0.03597224 -0.021897852 -0.09121853 -0.05836185
0002d0 d9 79 b5 bc 4a 82 90 3d fe 1d 1b 3e 54 da c4 3d
       -0.022152828 0.07056101 0.1514816 0.09611955
0002e0 f9 ef b1 3d 81 41 09 3e 46 47 70 3e c7 47 10 3e
       0.08688349 0.13403894 0.23464689 0.14089881
0002f0 ee 8a 70 3d 2f 59 44 3c 33 52 bc 3d ba e0 0b 3e
       0.058726244 0.011984154 0.09195366 0.13659945
000300 59 4e 10 bc e1 91 bd bc 18 57 0b ba fc b3 46 bc
       -0.008807742 -0.02314085 -0.0005315407 -0.012127873
000310 ba e1 91 bb 0c 51 58 bd f9 99 da bc 60 07 00 3c
       -0.0044519575 -0.052811667 -0.026684748 0.007814258
000320 d1 c5 6e bd f0 03 64 bd 40 bc 59 bd 96 55 9c bd
       -0.05829412 -0.055667818 -0.053158045 -0.07633512
000330 0c 51 8d bd 70 66 b7 bd fc a5 98 bd ca 94 ad bb
       -0.06900224 -0.08955085 -0.07453534 -0.005297278
000340 87 23 c6 3c f3 5e 06 3d 4b 2a ff 3d 31 e7 d3 3d
       0.024186863 0.032805394 0.124592386 0.10346831
000350 32 59 1f 3d 1b 5a 40 3d 0f 14 35 3e f4 18 6e 3d
       0.038903423 0.04696093 0.17683433 0.058129266
000360 f0 1d ad 3d 37 4e d4 3d 1f 3c 06 3e 73 4b 41 3e
       0.08452976 0.10366481 0.13108872 0.18876438
000370 f7 69 1b 3e 80 ea 12 3d e0 8e e8 ba 0a 14 57 bb
       0.15177141 0.035868168 -0.0017742775 -0.003281834
000380 46 66 91 bc 38 f9 9c bc 46 50 7b 3b 98 75 ea bb
       -0.017748963 -0.019161806 0.0038347407 -0.0071551315
000390 3a 2b f9 bd 4e 1c bd bd d4 8c 96 ba 9b 72 86 bd
       -0.12166448 -0.09233914 -0.0011486062 -0.06564828
0003a0 a8 93 9b bc 5c d2 dc bb 6a b7 1e 3d a5 2a 74 3d
       -0.018991306 -0.006738944 0.038749136 0.05961098
0003b0 7d 49 a2 3d 7e cd fc 3d 8e 7b 87 3d b5 af 35 3c
       0.07924173 0.12343882 0.06615363 0.011089255
0003c0 8f b7 56 bd e8 5c ec 3d 19 04 03 3e c2 ca cc 3d
       -0.05242115 0.11541158 0.12794532 0.099996105
0003d0 28 18 2d 3d 2e bb 67 3d 9d 75 26 3e 4e 85 3a 3e
       0.042259365 0.056574993 0.16255803 0.18214914
0003e0 1a dc 17 3e 50 1a 05 3d cf 7e 10 bd 5a 18 88 3c
       0.14830056 0.032495797 -0.035277184 0.016613174
0003f0 e3 7d 5d bd b5 0f 9d bc ae 46 00 bd f1 72 5d bd
       -0.054075133 -0.019172529 -0.031317405 -0.054064695

fc1.bias f4 [32]
000000 1b 3a 1f 3c 60 ed f0 3b 6d 93 60 3d d1 de b0 bd
       0.009718443 0.007352516 0.054828096 -0.08636249
000010 b6 11 9a 3c be 57 23 3d 90 4a 83 bc 34 75 08 bd
       0.018807273 0.0398786 -0.016026765 -0.0333149
000020 ed b7 73 bc 0a a8 fc 3b 37 d1 ea bc fe 42 fa bc
       -0.014875394 0.0077104615 -0.028664215 -0.030549522
000030 b2 05 c2 39 55 c9 56 bd ad 17 f1 3c 57 4c 15 3c
       0.00037006807 -0.0524381 0.029430235 0.009112439
000040 06 cf 37 bd 2f 78 8e 3c 34 90 1f 3a 2f a6 bf 3d
       -0.044875167 0.017391292 0.00060868566 0.09357869
000050 fe 2a cb bd 70 a6 ad bc 34 cb d4 bc b6 b4 1c 3c
       -0.099203095 -0.021197528 -0.025975801 0.009564569
000060 1b 4a 84 bc a6 ad 03 3c e4 8a 96 bd b9 71 af bc
       -0.016148617 0.0080370065 -0.0735071 -0.021416532
000070 c7 98 af bd bd 5b 5f 3d 1e 72 68 bd ed fd fb bc
       -0.08574062 0.054530848 -0.056749456 -0.03076073

fc2.weight f4 [16, 32]
000000 fa f9 a8 bd f4 ee 2c 3e 6b 1e 9f be cc 81 b9 3d
       -0.08250804 0.16888028 -0.31077895 0.0905796
000010 88 69 82 bd a0 9c e8 3d ca e1 05 3d 85 96 08 be
       -0.06367785 0.11357999 0.032686032 -0.13338669
000020 32 82 f0 3e 09 13 d5 3d d4 15 60 3d da d6 15 3e
       0.4697433 0.10404021 0.054708317 0.1463274
000030 ba 2e 20 bd 3e 38 88 3d d9 57 5b be ab d5 1b 3d
       -0.039107062 0.06651352 -0.2142023 0.038045567
000040 a8 23 f0 bd 26 8e d4 3d e2 dd 6e 3e 3a 6d 16 3d
       -0.11725551 0.10378675 0.23326829 0.03672526
000050 ee 90 9f bd cd 8d 87 3e ca 5b e2 3d 6e 0c 49 be
       -0.07791315 0.26475373 0.110526636 -0.19633648
000060 b3 ba ac bd 2a cc 1a 3e 80 c0 f1 bc 0e 52 08 3e
       -0.084340475 0.15116945 -0.029510736 0.13312551
000070 b2 a9 0f be 10 fa 83 be ff c1 b3 bd d0 33 a8 3d
       -0.14029577 -0.2577672 -0.08777236 0.082130075
000080 0c e2 e9 3d 0d 19 87 bd 52 31 2b bd ae e5 06 3e
       0.11420068 -0.06596575 -0.041795082 0.13173553
000090 ad 82 a7 bd 00 ac 1e 3e 7b 79 ce bd 45 de 8f bd
       -0.08179221 0.154953 -0.10081764 -0.070248164
0000a0 c8 2e 24 be 1c 93 19 be 60 b0 e1 3d 9c 99 57 3d
       -0.1603347 -0.14997524 0.11019969 0.052636728
0000b0 b7 f9 32 3e 7d db 1d 3e ac 8f 25 3e 3d b5 63 bd
       0.17478071 0.1541576 0.16168088 -0.055592764
0000c0 28 01 8e bc 06 ad 0c 3d c6 41 3a be f3 c8 4c be
       -0.017334536 0.034344696 -0.18189153 -0.19998531
0000d0 ff 18 b6 3d 59 db 00 3e 8a 8c e3 bd c1 2e dd bd
       0.088914864 0.12583674 -0.1111079 -0.10799933
0000e0 92 0e 00 3e cf c9 da bb 23 e0 10 be b7 b3 02 3d
       0.12505558 -0.0066768895 -0.14148001 0.03190967
0000f0 f4 c6 ba 3c 0e 11 30 3c ec 40 a1 3d bc a6 e7 3d
       0.022799946 0.010746254 0.07873711 0.11311099
000100 05 4a bd be a1 4d 27 3e 27 b7 3f bd 5b 44 e3 bd
       -0.36970535 0.16338207 -0.046805527 -0.11097022
000110 30 28 3b 3e ec 65 80 be 6f d3 45 bd 8f 8a da 3d
       0.18277049 -0.2507776 -0.048297342 0.10670959
000120 c8 88 51 bd 3c 8c 9b bd 0e c5 c1 bd 88 f2 15 3d
       -0.051155835 -0.07595107 -0.09461413 0.03660825
000130 98 c1 5e bd 62 4a dd bd c7 68 7b 3e 87 4e df 3d
       -0.054383844 -0.10805203 0.24551688 0.1090365
000140 c8 2c 26 be d6 6a 24 3a 0a 53 f9 bd 0b ea 98 3e
       -0.1622802 0.00062720233 -0.121740416 0.2986606
000150 d8 1c 75 3c 0f a2 82 3e 54 ed 0e 3d ea 1c 5f bd
       0.01496049 0.25514266 0.034894302 -0.054470934
000160 f2 56 bb bb d8 d3 7c be 6b ee d5 bd 2b 4f 30 be
       -0.005717152 -0.24690187 -0.10445865 -0.172177
000170 ac b2 00 be 18 50 be 3d eb e3 83 3c 6d 85 e0 3d
       -0.12568158 0.092926204 0.01609989 0.10962949
000180 ad 75 2d 3e 55 c9 f2 3d ea fb 33 3e f0 06 f4 bd
       0.16939421 0.11854807 0.17576566 -0.11915386
000190 05 e1 b4 3d e8 98 ad bd e9 2b fd 3d 9d 63 20 3e
       0.088319816 -0.0847643 0.12361891 0.15663
0001a0 6b c4 16 3d d4 28 27 bc d0 aa ee 3d e3 b3 76 3d
       0.036808413 -0.010202605 0.11653674 0.060230147
0001b0 df bc 53 bc 2c 92 52 3d b8 90 4d 3e 28 0a ce bd
       -0.012923448 0.05140893 0.20074737 -0.10060531
0001c0 d0 45 0c be b4 1b 06 bd ed 8f 11 3d ef bb b4 bd
       -0.13698506 -0.032741264 0.03553765 -0.08824908
0001d0 02 1f 6b 3d 4b 6e 92 3e e3 2a 68 bd 3b 75 42 be
       0.05740262 0.28599772 -0.056681525 -0.18990032
0001e0 c3 08 23 be cf 32 a5 3e 86 fb 11 3d 27 81 03 be
       -0.15921311 0.32265326 0.035640262 -0.12842236
0001f0 ba 2f 24 bb 3d 17 06 3e 4c 47 54 3d 98 fe 84 3b
       -0.0025052861 0.13094802 0.051825806 0.0040586703
000200 49 54 a6 be 92 9f 46 3e 05 08 a1 3d 1d 76 c5 3d
       -0.3248618 0.19396809 0.07862858 0.09641669
000210 1b 93 4d 3e f4 b1 37 bd d9 e7 a9 bd 17 e7 4b 3d
       0.20075648 -0.044847444 -0.082961746 0.04978093
000220 e9 51 49 3c 78 0d d8 bc 6b e5 cb 3d 2c 42 4e bd
       0.012287595 -0.02637361 0.099558674 -0.050356075
000230 7a d9 1e be c9 11 33 3d 35 c2 71 bd a7 c2 1e be
       -0.15512648 0.043718133 -0.0590231 -0.15503941
000240 40 bf 90 3d 13 88 c6 bd b3 c2 3c be c0 1c bd 3d
       0.07067728 -0.09693923 -0.18433647 0.09233999
000250 c0 5c 2f be 99 98 82 3e 7b 60 2a be 28 ab 8a 3d
       -0.17125225 0.25507048 -0.16638367 0.06770927
000260 ea 3a 16 be 16 49 a1 3e 79 d6 3e bd e6 49 9f 3d
       -0.14670911 0.31501073 -0.046591256 0.07777767
000270 af 66 0b be 40 d5 aa 3e 92 1d e2 3d ff 62 80 3d
       -0.1361339 0.33365822 0.11040796 0.06268882
000280 e4 9d 8f be 39 53 1b 3d 1d 2a 1d be b1 5a 11 3e
       -0.28050148 0.037921164 -0.15348096 0.14194752
000290 cc a8 07 3e b9 7c 37 3e 1e a7 a3 bc fa 25 72 3d
       0.13247985 0.17918672 -0.019977149 0.05911825
0002a0 90 06 9c be 82 88 12 be a0 09 9b 3b c3 d9 96 3d
       -0.30473757 -0.14309886 0.004731372 0.073657535
0002b0 0a f6 09 be 14 9c 97 3d ae f5 a9 be 8e bd b4 3d
       -0.13472763 0.074028164 -0.3319525 0.08825217
0002c0 2b 95 8f bd 42 48 1a be 31 4f 76 3e df 5e 34 3e
       -0.070108734 -0.15066627 0.24053647 0.17614315
0002d0 fb 6b b6 3c a4 ce af 3e 4c 5b f8 bd de 31 0a 3e
       0.022268286 0.34337342 -0.121267885 0.13495585
0002e0 a0 72 91 bd 26 7a aa bd 54 57 bc 3d 72 df e0 ba
       -0.07101941 -0.08324079 0.09196344 -0.0017156436
0002f0 84 e3 c6 3d cc c4 e1 3d 0e c0 d8 bd 27 99 76 bd
       0.09711364 0.11023864 -0.105835065 -0.06020465
000300 b1 e6 bf 3d 99 81 98 3c 9c 5b 4e 3e 22 29 df 3c
       0.09370173 0.018616484 0.20152134 0.027241293
000310 5d fd a2 be 1a 03 d7 bd dd 53 cd 3d d6 dc 04 3e
       -0.31833926 -0.104986385 0.10025761 0.12974867
000320 cb 1e 4f be ae 3c d5 3d 25 73 db bd 51 8f 0e 3e
       -0.2022659 0.10411964 -0.107153215 0.13921858
000330 92 f7 35 3e f7 ee ca 3d 5d 2d a8 be e7 03 07 bd
       0.17770222 0.0990886 -0.3284711 -0.032962706
000340 62 26 40 3b 38 7d ae b9 b6 46 1a be 72 cf 70 3e
       0.0029319753 -0.0003328116 -0.15066037 0.23516634
000350 ca fd 5e 3d 96 b6 6f 3e 46 47 d5 bc 04 7e 05 3c
       0.05444125 0.23409495 -0.026034962 0.00814772
000360 0a 28 d8 bd 25 51 41 3e ba 86 27 be 33 5a d6 3c
       -0.10554512 0.1887861 -0.16359988 0.026166057
000370 de 91 b8 ba b7 fc 7a be 56 85 be 3d 7e eb bf bd
       -0.0014081558 -0.24510466 0.093027756 -0.093710884
000380 1d 44 73 be f4 7a 22 3e 48 d1 88 3e 4b 64 88 bc
       -0.23756452 0.15867215 0.2672217 -0.016649386
000390 08 64 08 be e0 b7 c4 3e 99 4a 2b 3c ed 57 c7 bd
       -0.13319409 0.38421535 0.010454797 -0.097335674
0003a0 ff e0 c3 bd ef b5 2b 3e d6 44 5e bc e7 97 fb 3d
       -0.09564399 0.16768621 -0.013566216 0.122848324
0003b0 4f e7 24 3d 4f 50 78 3d 52 27 c5 3e 2c 1a 36 3c
       0.040259656 0.060623463 0.38506562 0.011114638
0003c0 31 bf bb bd dd 82 3a 3d 30 57 c1 3e 30 ac 81 3d
       -0.09167326 0.045534957 0.3776183 0.0633167
0003d0 7c 58 86 bc aa ed fc bd 29 30 af 3c e9 d9 01 be
       -0.016399615 -0.12350018 0.02138527 -0.12680782
0003e0 3b 91 a2 3c 9b 85 ea 3d e0 1c 9b bd d0 0b e0 3d
       0.019844642 0.114512645 -0.07573867 0.10939753
0003f0 dd 36 50 be cc 64 f4 bd c0 5d d9 3d 9f cc de bc
       -0.20333429 -0.11933288 0.106135845 -0.02719718

fc2.bias f4 [16]
000000 c7 52 f8 3d 5f e0 2d be 6f 7b a1 3e b8 d8 ab bc
       0.121251635 -0.16980122 0.31539485 -0.020977363
000010 7d d9 4f 3e 78 e3 1f 3e 1b 58 fd 3b 4e 8b 92 bd
       0.20297809 0.15614116 0.0077314503 -0.071554765
000020 47 33 4c 3e f0 9a 0f 3e 1c 3a 56 3e ad e0 ba bd
       0.19941436 0.14023948 0.20920604 -0.09124885
000030 1b 27 aa bd d8 e3 1d be 39 07 8a bd 5e ce 72 be
       -0.0830824 -0.15418947 -0.06739659 -0.23711535

fc3.weight f4 [10, 16]
000000 8b 83 df be 22 62 c9 3d 52 29 f5 be c4 14 81 3e
       -0.43655047 0.098331705 -0.47883087 0.25211155
000010 05 e2 22 3d e1 02 ba be 9f f9 52 3e 68 87 42 bd
       0.03976633 -0.3633032 0.20603035 -0.047492415
000020 c5 8b 8e be 05 1d 30 be e9 cc 8d 3e 49 f0 13 3d
       -0.2784101 -0.1719857 0.27695397 0.036117826
000030 85 bc 10 3e 28 68 81 bd 21 0c fc be 3b 79 2a be
       0.14134414 -0.06318694 -0.49228004 -0.16647808
000040 0a f0 1c 3d 27 6d 2b be 35 c5 9e be 25 bc 86 be
       0.038314857 -0.16740857 -0.31009832 -0.26315418
000050 4a fb ab be c1 15 8e 3e 94 23 18 3d c4 ad 32 3e
       -0.33590156 0.27750972 0.037143305 0.17449099
000060 12 92 c9 3d c7 da be 3d 58 fa bb bd 10 06 02 be
       0.09842314 0.09319072 -0.09178609 -0.12697625
000070 be d7 02 be 51 ec 37 be 53 c7 8b 3e be 13 58 be
       -0.12777612 -0.17961241 0.2730051 -0.21101281
000080 e5 69 da be 03 8b e7 3d b9 11 2c 3e 47 14 4e 3d
       -0.42658916 0.11305811 0.16803636 0.050312307
000090 a2 61 95 be 18 8f 31 bd dd 21 bc bd 50 0f 88 3e
       -0.2917605 -0.043349355 -0.091861464 0.26574183
0000a0 f8 5f 70 3b 8b e1 e0 3d e8 44 b5 be 99 45 74 3e
       0.0036678296 0.10980519 -0.35404134 0.23854674
0000b0 ce 55 60 bd 62 30 93 3d f2 06 8a be c8 12 9f bc
       -0.05476933 0.07186963 -0.26958424 -0.019418135
0000c0 30 93 e8 3d 9f 9c 64 bb 3c 50 75 be 68 34 9f ba
       0.11356199 -0.0034883393 -0.23956388 -0.0012146356
0000d0 7a 37 e6 3d 31 fb 3b be 79 fa 86 be e3 c3 d0 3e
       0.1124105 -0.1835754 -0.2636297 0.4077445
0000e0 8f be a2 3d e8 13 f6 bd 28 f6 89 bd 6c 44 b9 be
       0.079465024 -0.120155156 -0.06736404 -0.36185014
0000f0 5e 45 3c 3e c3 03 1e be 87 25 b6 be 75 11 b4 3d
       0.18385836 -0.15431122 -0.35575506 0.08792392
000100 4e 8b 10 3e de 54 d1 bd f7 95 5c 3e c6 ea cf 3c
       0.1411564 -0.10221265 0.21541582 0.025380503
000110 27 e3 b9 3d 0c 0f 57 3e fe 17 72 3e 22 7c a9 be
       0.09076529 0.21001834 0.23641965 -0.33102518
000120 40 76 24 3e ad bf 22 3e ae d2 02 bf 2f f7 82 be
       0.16060734 0.15893431 -0.5110272 -0.2557921
000130 d0 cc a6 bd ab 54 bc 3a bc a2 d5 be ec c2 a4 bd
       -0.08144534 0.0014368495 -0.4172572 -0.08044991
000140 11 55 81 3e 44 45 95 3d 8e a8 a3 be 5a 3a cf 3d
       0.25260213 0.07288602 -0.31964535 0.101185516
000150 a8 90 65 3d 27 ec ab bd 9f 20 61 3e 56 2c ca 3d
       0.056046158 -0.08394652 0.219851 0.09871738
000160 a3 c3 a3 be 81 11 0b be cb f9 61 3d 7d 0a c9 bd
       -0.31985196 -0.13580896 0.05516986 -0.098164536
000170 4b 7d ca bd 26 2e 54 3b 86 7e bb be 68 47 82 3d
       -0.09887179 0.003237614 -0.36619967 0.06361276
000180 16 dc cd be b8 78 4d 3e d8 96 8f 3e 1d 76 cc be
       -0.40206975 0.20065582 0.28044772 -0.39933863
000190 03 81 e3 bd db 9f a6 bd ec 98 4f 3e 26 05 6c be
       -0.111085914 -0.08135959 0.20273179 -0.23048839
0001a0 99 e9 1b 3e a8 4c b7 3d 87 f9 f8 3d e0 88 02 3d
       0.15225829 0.08950168 0.121569686 0.031868815
0001b0 ab 30 d7 3d 34 4d d9 bd 6b 2f 14 3e 15 4c 24 be
       0.105073296 -0.106104285 0.14471214 -0.16044648
0001c0 61 ab 95 be 4a 4a e3 3d f0 a4 9f 3d d1 0e 0f 3e
       -0.29232314 0.11098154 0.07795131 0.13970496
0001d0 e6 66 8f 3e 5c 42 0f 3e 4e 73 ba be 11 06 a1 bd
       0.28008193 0.13990158 -0.36416095 -0.07862485
0001e0 8b 13 6c be 96 13 b9 3d fc c7 10 3e 68 48 a1 be
       -0.2305433 0.09036939 0.14138788 -0.31500554
0001f0 d9 3f 89 be 75 6c 7f 3c 1d ce d7 bc 55 bc 50 be
       -0.26806524 0.015589823 -0.0263434 -0.20384343
000200 b5 5f 9f 3e c3 65 cd 3d ae 09 75 be 9f 9d 94 bb
       0.31127706 0.10029175 -0.23929474 -0.0045353915
000210 7d a7 5a be fd 9e a4 be ba 77 55 be 3f 35 95 bd
       -0.21352954 -0.32152548 -0.20846453 -0.072855465
000220 dc 51 a4 3e a9 0e 00 be 58 8e 4e 3e 42 9a 55 3e
       0.32093704 -0.12505592 0.20171487 0.20859626
000230 f0 3b 3c 3e bd ed 35 be ac 3b 0c bd bb 0d 0c be
       0.1838224 -0.17766471 -0.034236595 -0.13677113
000240 bc 12 65 3e 24 1b 4f bd 6d 10 84 3d 40 ad 13 3d
       0.22370428 -0.050562993 0.064484455 0.036053896
000250 0d ee 1a 3e ac 2c d2 3d c9 a9 23 3e 40 97 9d be
       0.15129872 0.10262427 0.15982737 -0.30779457
000260 7d 95 d9 bd d8 ff 2f be 31 f8 a3 3d 13 a3 ad be
       -0.10624216 -0.1718744 0.08006323 -0.33913478
000270 71 08 b7 bd eb 40 e7 bc ca b0 24 be 07 39 f2 bd
       -0.08937157 -0.028229197 -0.16083065 -0.11827283

fc3.bias f4 [10]
000000 76 b9 c1 3d 8c c6 c7 be 76 e9 55 3e 3d bb ae 3d
       0.09459202 -0.39018667 0.2088984 0.085318066
000010 de c0 87 be 86 16 1a 3e 36 fd b6 3c 05 68 d6 3d
       -0.26514333 0.15047655 0.022337537 0.10469059
000020 e9 f2 ee bd 07 fb 3a 3d
       -0.11667425 0.045649555
