checkpoints/random/cnn2/25-12-2023_11-08-24/last_model.pth.tar (torch, 33402 bytes, 16 tensors)

conv1.weight f4 [6, 1, 5, 5]
00000000: 9b6b b3bd 8eaf 2c3d c778 ecbd b9b5 863d
00000010: 162e 613c bfad ac3d 81c3 23be 12ae f03d
00000020: 5632 3bbe d11c 4bbe cd00 c93c 93dd 42be
00000030: 6474 ae3d 3239 3dbd 4796 193d 680d debd
00000040: e706 1e3e 42e5 433e ff2b 6c3c 5237 1b3e
00000050: 202d 9c3d 474d 1b3c a757 223e 649f f63d
00000060: 1320 0fbe 542d e23d e70b 523d 6e78 a63d
00000070: c2d5 423d 8e52 f73d d20d 3c3e 15bd ffbd
00000080: 1ef1 b43d f171 2b3e 27b8 a9bd a27c 073e
00000090: 89ce 3abe 2670 2e3e 54ca 193e cd98 133e
000000a0: bbc8 143e 0c0c 093e be77 253d 2690 503d
000000b0: 89b7 a93d 7209 a33d 14f4 21be ef25 133d
000000c0: 6ea8 cb3a c90b 9d3d 8a84 05be ca70 44be
000000d0: e434 3d3e 440b 483d 4a52 153e 1a32 27be
000000e0: 69e6 41be a520 21ba a593 fb3b b0b9 04bd
000000f0: 2d11 1bbe 9783 82bd 7226 08be e68d 5dbd
00000100: dd58 313e 85c0 8b3d 0172 f0bd 9a9d 0b3e
00000110: e7a7 2fbe 17c7 a53d bf73 1abe 3631 b93c
00000120: c6aa 073e 234a 413e 0538 b0bd 2ad3 de3c
00000130: c457 a4bd cc67 85bd 5718 95bc 68ee d13d
00000140: 89a3 0bbe cd14 e03d 5fc4 ab3b d87a 9fbc
00000150: 915c 80bd 97d6 b1bd 675a 87bd cb9d df3d
00000160: c6c8 9dbd bd15 efbd e23c a63d eb09 993d
00000170: ac7b 793d 6eca f5bc 5fde 3f3e 00af 043e
00000180: a2c7 8bbd 46e5 fcbd 543d 2c3e 88b9 893c
00000190: 438a 213d 9ec3 2a3e 76b7 10bd f694 11bd
000001a0: 3755 36be 9945 b53d 7ef1 a53d e10a 553d
000001b0: 708d 39be ab87 82bd 7cc0 85bd 47ce 683d
000001c0: ff78 ddbd abdb 0f3e acd0 223e e528 52bc
000001d0: e040 8fbd 850f 753d d30b 2b3e 6ba1 88bd
000001e0: c710 0abe 9c92 38be bc11 8fbd 9f51 36be
000001f0: 2b1c 033e f783 27be d135 5abd 4545 3f3e
00000200: 590b 8e3d 104f c43d 4326 2fbe 46fb a93d
00000210: a99f c7bd b996 edbd d9bb 1e3d 5c99 42be
00000220: 9ad6 2ebe 14ef cf3d 8204 71bd 67e2 27be
00000230: 183d 7dbd 3a93 d03d edec 87bd 447d 1a3e
00000240: 0b4b 093b e76f 43be f85c 25be 38d5 123e
00000250: d4dd 9fbd 9e90 3cbe
-0.087607585 0.04215961 -0.11546474 0.065776296 0.013743898 0.08431577 -0.15992548 0.11751951
-0.1828092 -0.19835211 0.024536515 -0.19029836 0.085182935 -0.046197124 0.03749683 -0.10842401
0.1543232 0.19130424 0.014414786 0.15157822 0.076257944 0.009478874 0.15853749 0.1204212
-0.13977079 0.11043802 0.051280882 0.08128439 0.047567137 0.12076293 0.18364647 -0.124872364
0.08835052 0.16742684 -0.082870774 0.13231137 -0.1824285 0.17034969 0.15018588 0.14413758
0.14529698 0.13383502 0.0403974 0.05091872 0.0828696 0.07960786 -0.15815765 0.03592485
0.0015537867 0.076682635 -0.13038841 -0.1918365 0.18477207 0.04883887 0.14582172 -0.16327706
-0.18935551 -0.0006146527 0.0076775127 -0.032403648 -0.15143271 -0.06372755 -0.13295916 -0.054090403
0.17319055 0.068238296 -0.117404945 0.13634339 -0.17153893 0.08094614 -0.15083216 0.022606473
0.13248739 0.18875937 -0.08604435 0.0272003 -0.080245525 -0.06513938 -0.018200083 0.102505505
-0.13636602 0.109414674 0.005241915 -0.019467756 -0.06267656 -0.08683508 -0.0660904 0.109187685
-0.0770431 -0.11674068 0.08117081 0.07472595 0.06090896 -0.030003753 0.18737172 0.12957382
-0.06825186 -0.12348418 0.1682027 0.016812101 0.039438497 0.16676185 -0.035331212 -0.03554245
-0.17805944 0.08851165 0.081027016 0.052012328 -0.1812036 -0.06373533 -0.06530854 0.056837346
-0.10814094 0.1404864 0.15899915 -0.012827133 -0.06994796 0.059829254 0.1670373 -0.06671413
-0.13482963 -0.18024677 -0.069858044 -0.17804573 0.12803714 -0.16358934 -0.05327398 0.18678768
0.06935758 0.095853925 -0.1710444 0.0829988 -0.0974725 -0.11601014 0.038753364 -0.19003814
-0.17074051 0.101530224 -0.05884219 -0.1639496 -0.06182584 0.10184331 -0.06636987 0.15086848
0.002094927 -0.19085656 -0.16148746 0.14339149 -0.07805982 -0.18414542

conv1.bias f4 [6]
00000000: 2bb6 f23d 0535 eebd 30ce 46bc 6444 14be
00000010: 61b8 1bbd ca1f fd3d
0.11851152 -0.116312064 -0.01213412 -0.14479214 -0.038017634 0.12359579

conv2.weight f4 [6, 6, 5, 5]
00000000: 8083 7e3d 85a9 81bd 3581 79bb 720f a7bc
00000010: 0152 1bbd db57 21bd 7752 16bd cb63 033d
00000020: 1159 833b 3f10 6abd 398c 4b3d 2e8e 8e3d
00000030: 449e 063d 7a96 9b3c 4322 3bbd 61a9 fcbc
00000040: 2a1e 4b3d 7d09 4ebd 2e28 853d c3eb 95bd
00000050: b2b3 0ebd c09a 9e3d 3b9e 583c c575 44bd
00000060: 9187 553c 4e20 06bd 6756 abbd 8601 8a3c
00000070: 9f29 ca3b ac00 5bbb 7628 093d f4f2 2d3c
00000080: 6086 463d 5724 2abd ff4f 4a3c 10a3 cbbc
00000090: cbab 6bbd 60bf 50bb 8ee8 553d d106 a0bd
000000a0: 491e d3bc bec9 a1bd 363c 0d3d c0a4 a5bd
000000b0: 01f5 0a3d 0568 0b3d f25b 99bd 7227 343d
000000c0: 42a8 52bc a6b3 6cbd 6dea c2bc 1be5 28bd
000000d0: 34e6 bd3b ce0b 7fbb 8e98 b13c abe6 75bd
000000e0: 0c0e 243b 2d2a 253d 4ffe 9dbd 1a0e 5e3d
000000f0: 9b90 95bd e5c9 1d3d f087 013c a85c 8f3d
00000100: 017c 46bd 4066 f4bc a84a 05bd 75ff c8bc
00000110: 8788 693d baee 413d be82 8ebd b929 e63c
00000120: 3e2c 44bd f629 233c 22b6 043c b391 57bd
00000130: 57d4 7b3c 5fcd 273d e3d8 4fbd f603 6cbd
00000140: 3890 813c bf3a 973d 02aa 90bc 0d70 9e3c
00000150: 8f28 57bd 660d 0fbd ba57 a4bb a12d d4bc
00000160: f4c4 323d 5126 b63b 2641 863c 71f6 4bbd
00000170: 6fa3 99bc f054 ec3c db49 00bd 0f33 263b
00000180: 9983 9bbd 7079 893d b804 3fbc 4aa3 753d
00000190: 4e9a a0bd 35fe 5ebc 862b 56bd c8c2 b23c
000001a0: 4edf 6d3a 0fcd 9a3b adbd a93b 5c42 2c3d
000001b0: f9d4 38bd f48e 5fbd f541 91bd 97dc 87bc
000001c0: 9d2c 87bd 3b56 af3c 9176 9bbd dbcc 59bd
000001d0: cb66 f43c 40fc 1f3d 5ea1 debc d2c0 b53b
000001e0: 340c 7cbd 0ef3 333d db49 61bd a1b8 9b3d
000001f0: ccd3 a13d 8cd1 1a3d bbbe 67bd c2e7 193d
00000200: edac b53c 8370 363c f754 80bd 6a56 87bd
00000210: a674 6b3d e5a0 c13c b6bb 57bc 168b 12bc
00000220: 8601 13bd 11fe 963c 70f8 57bd 5c2b 923d
00000230: c099 7abd cbe2 92bd d127 ba3c 9281 87bb
00000240: 8e6a 13bd e325 08bd 5aab 583d cd1a a9bc
00000250: 1ee7 3abd aa83 bfbb 47da 4abd b0ea 11bc
00000260: c1a4 683d a5dc 90bd 8c3a efbc 3351 063d
00000270: ab7f 29bd cf5f 8ebd 7c07 dcbc f7fe 24bc
00000280: a4ae 623a 12a5 e43c 105d f7bc ab0f 38bd
00000290: 84e4 e53b 43c4 f4bc b7f0 4f3b 70f8 6ebb
000002a0: bf2c 46bd 0c00 7cbd 3578 9c3d da4c 92bd
000002b0: 3695 063d e36b 533d 2226 653d 12e3 02bd
000002c0: 996f 7b3d a66d 4c3d f393 733d 3bed 06bd
000002d0: a620 64bd 45ea a43d d1a8 9dbd ccf3 4abc
000002e0: b9d5 95bd 3b76 0d3d 5f35 3ebc 20b1 a93c
000002f0: 12f0 813c b5fc 77bd c429 93bd b467 c53b
00000300: 8af5 4f3d 02ad 16bd 452f acbc dcaf 89bd
00000310: 5b32 07bc 05f3 c0bc 0448 803d 55f0 063d
00000320: ebb9 373d 2d6f 14bc 8041 9cba d162 98bc
00000330: efd6 203d 7f0f c2bc 25dc 88bd eeea 05bd
00000340: f5fe dabc 88bb 98bd aa85 95bd 8ea5 85bd
00000350: 548d a63d 516d 8639 5220 2ebd 4fe8 7d3d
00000360: ac5c 623d 3b57 93bc 6b31 8dbc 4321 a03d
00000370: 9815 9b3c 58ad 533d 66e1 2e3d 7b14 44bc
00000380: 44e4 a0bd e292 2ebd 7587 53bc 609e 90bb
00000390: f171 a23d 2de2 6dbd f8c9 42bc 7247 903d
000003a0: a0a6 42bd b739 24ba f22c 44ba 8b8f 99bd
000003b0: 5df7 07bd 35b8 153d 24cb 253b 82c9 603d
000003c0: 99d2 84bd 660e e93b d78f 9bbd 305b 50bd
000003d0: dd7c 6d3d 6597 96bc 28fc 19bd 5ef8 81bd
000003e0: 62f3 703d bc6f ccbc 195c fbbb 6f49 0f3c
000003f0: 536a 85bd e707 8bbd cd3f 413d b10d eb3c
0.062137127 -0.063311614 -0.0038071398 -0.020393107 -0.037920002 -0.039390426 -0.03669974 0.032077592
0.0040084203 -0.0571444 0.049694274 0.069607124 0.032865778 0.018992651 -0.04568697 -0.030842485
0.049589314 -0.050302017 0.06501804 -0.073203586 -0.03483934 0.0774436 0.013221319 -0.047963876
0.01303281 -0.032745652 -0.08366089 0.01684643 0.0061695124 -0.0033417149 0.033485852 0.010617007
0.048467994 -0.041538563 0.012348174 -0.024858028 -0.05753688 -0.003185235 0.052223735 -0.078138
-0.025771277 -0.078998074 0.03448125 -0.08088064 0.03392506 0.034034748 -0.0748824 0.04398293
-0.012857499 -0.057788514 -0.023793424 -0.041234117 0.0057952646 -0.0038916948 0.021679189 -0.060034435
0.0025032787 0.040323425 -0.07714521 0.054212667 -0.07302972 0.03852262 0.007905945 0.07000095
-0.048458103 -0.029833913 -0.0325419 -0.024535874 0.05701497 0.047346808 -0.06958531 0.028096067
-0.047893755 0.009958735 0.0081000645 -0.052629184 0.01537045 0.04096734 -0.05074395 -0.057620965
0.01581584 0.07384252 -0.017659191 0.01934054 -0.052528914 -0.034924887 -0.0050153406 -0.025900664
0.04364486 0.005558767 0.016388487 -0.04979557 -0.018754689 0.028849095 -0.031320434 0.0025360023
-0.0759346 0.067126155 -0.01165884 0.059970178 -0.07841931 -0.013610412 -0.0522876 0.021821395
0.00090741075 0.004724152 0.005180082 0.042055473 -0.04512498 -0.05457969 -0.070926584 -0.016584678
-0.06600306 0.021403423 -0.07590974 -0.05317388 0.029834172 0.039058924 -0.027176555 0.0055466676
-0.061535075 0.043932967 -0.055002075 0.076035745 0.07901725 0.037797496 -0.05657838 0.037574537
0.022177184 0.011135223 -0.06266206 -0.06608279 0.05748429 0.02363629 -0.013167312 -0.0089442935
-0.035890125 0.018431695 -0.052727163 0.071371764 -0.061181784 -0.071721636 0.022724064 -0.004135319
-0.03599029 -0.033239257 0.05289779 -0.020642662 -0.045630567 -0.005844553 -0.04952457 -0.0089060515
0.056797747 -0.070733346 -0.029202722 0.03279228 -0.04138152 -0.06951868 -0.026859038 -0.010070554
0.00086472393 0.027910743 -0.030195743 -0.044936817 0.0070157666 -0.029878741 0.003172917 -0.0036463998
-0.048382517 -0.061523482 0.07640115 -0.071435645 0.032857142 0.05161656 0.05594457 -0.031954832
0.061385725 0.049909256 0.059467267 -0.032941084 -0.0556952 0.08052496 -0.07698215 -0.012387227
-0.07316155 0.03453658 -0.011609404 0.020714343 0.015861545 -0.060543735 -0.071857005 0.0060243253
0.050771274 -0.036786087 -0.021018634 -0.06722996 -0.008251752 -0.02355338 0.06263736 0.032944042
0.04485504 -0.0090597095 -0.0011921376 -0.018601807 0.039267477 -0.02368903 -0.06682614 -0.03269475
-0.026732901 -0.07457644 -0.07300885 -0.06525718 0.08132425 0.0002563992 -0.04251129 0.061989125
0.05526416 -0.01798593 -0.017235478 0.07818844 0.018931195 0.051678985 0.042695425 -0.011967774
-0.07856038 -0.042620547 -0.012910713 -0.004413411 0.07931889 -0.058077026 -0.011888973 0.07044877
-0.047522187 -0.00062647037 -0.0007483504 -0.07498082 -0.03319489 0.036552627 0.0025298083 0.054879673
-0.06485481 0.007112312 -0.07595795 -0.050868213 0.057980407 -0.018382737 -0.03759399 -0.063462004
0.058825858 -0.024955623 -0.007670891 0.008745535 -0.0651442 -0.067886166 0.047179986 0.028693052

conv2.bias f4 [6]
00000000: d76a 4d3d 5ac9 f33c 2ac1 e7bc 7b0f 45bd
00000010: d1bf 263d ef86 94bd
0.05015072 0.029759098 -0.02829035 -0.048110466 0.040710274 -0.07252299

fc1.weight f4 [50, 96]
00000000: ec9d 5a3d b025 cf3d 33fe c03c 4403 de3a
00000010: c750 bf3d 638a 1cbd 9aa8 403d 5130 593d
00000020: 8ba1 b9bd 015b 2ebc b8f2 8d3b 1a9e 893b
00000030: aa13 6ebd 0db1 85bd e50d 6f3d a485 b53d
00000040: c04b 25bc 6fc7 913d fcd2 76ba 4395 0e3d
00000050: 6bb5 1a3c e400 bf3d 2af0 9ebc e279 b4bd
00000060: dc41 b1bd c8a1 37bb 54d6 803b e355 143a
00000070: fc57 aebd e1a1 ad3d 2c30 5d3d e3fa db3c
00000080: afed adbd ddd5 933d ee96 9a3d d291 c43d
00000090: 476b b83c 7582 813c 619e 403d 9195 ebba
000000a0: f0d0 2a3c d018 a4bd 8dac 863d e44c bc3d
000000b0: 6b95 843d 23ec b3bc 381b 673d bdb5 a3bd
000000c0: bd05 c53d ad32 833d 3f78 cc3d 51ea b63b
000000d0: 8f30 56bd d618 c4bd 3ab1 b6bd 3cb5 093c
000000e0: 1fa6 45bd 647c 27bd c0e6 7c3d 5b11 c7bd
000000f0: 5c92 933c b6a7 903c 517a 593d aa03 a53c
00000100: 1476 55bd 8b89 63bd 041d bc3c 72d8 ae3d
00000110: c041 c9bd 9be5 a4bd 4628 afbd 6577 973c
00000120: 703f 4b3d 315c c7bc 3740 c53d 0f80 22bd
00000130: b9df ad3d 5823 a5bc c68e aebc 0b2d 573d
00000140: d658 b7bb a9ad 893d 8238 2fbd 7874 bebc
00000150: 86cf 28bd 1e96 6e3d a745 493d b457 3f3c
00000160: ff66 2e3d 1465 883d 8d11 d8bb 46cc babc
00000170: 954c 4abd 1d33 01bd 9f75 203c fe9c 003d
00000180: 830f cabd a847 cdbd ad27 bf3d dcdc 80bb
00000190: f289 c2bd 8851 cfbd f243 bfbb 82f6 e9bc
000001a0: 7fde 9bbc e0af 823d 1a42 b1bd 58bb 713d
000001b0: c372 8ebc 5440 823d 07c2 50bc 19c7 833b
000001c0: 6726 7e3d dfac 29bc 9182 67bd 3467 06bb
000001d0: 720a c2bd c69c c1bd 5572 75bd ac3c 2e3b
000001e0: 3892 1abd 04b3 6b3b c493 a53d 77e7 993d
000001f0: 4c76 b3bc 43de 913d 2f2f aa3c 8d3c 833d
00000200: 2e2e a03d d98a 993d 1cd8 c3bd a908 86bd
00000210: 97a2 5fbd 4858 703d b4f4 a1bd c0f5 2bbd
00000220: 51c1 debb d9cb d4bd 5951 983c 919d 9fbc
00000230: 9cdb 9dbd 92a0 d23c 0f1b a7bd 8461 863c
00000240: 961b 8e3c 93df 4fbd ac5a 14bd 55ef 9f3d
00000250: 24b8 a6bc a3a2 5cbd c9f8 3ebc d52e 463d
00000260: 0629 8c3d c670 90bc ef1e b53c 7527 1abd
00000270: 9b9e 93bd 666b 88bc a535 343d 3c64 8bbc
00000280: 4450 263d 1cd8 a2bc f768 d1b9 5239 be3c
00000290: de4d 0c3c dba5 5abd fecc ac3d 6e2a 1fbd
000002a0: 719f 92bd b2b6 3d3d 19ce 52bd a488 b7bd
000002b0: 7232 2a3d 355e c63d ce58 8aba 696f b93d
000002c0: 7c46 ac3d c78e 893c 7034 bebd 6e6e d2bd
000002d0: 4dd7 7c3c f455 d53c 1760 89bc d4b8 073b
000002e0: 65dc 98bd 791d 203d 8a97 623d 0868 a93c
000002f0: 908a 75bc c047 bc3d 3e3c c63c 6cff a03d
00000300: 85cb ac3c 9a39 76bd e65d 93bb a2a6 1f3c
00000310: 2a0d 363d 31a8 5ebd 1888 6abd a6f4 163d
00000320: 8f17 7cbd 5850 a1bd 0f27 e93b 311d aebc
00000330: 486d 593d 733c 823c 0c59 c53d 52a1 bcbd
00000340: e48d 21bc a5f3 c1bd 2a93 ad3d 4e2f bb3d
00000350: 8b84 ed3a fac7 953d c619 bebd b890 863d
00000360: 8794 dd3b b4b6 393c 3e27 1ebd 7c8e 40bd
00000370: ca02 cbbd e112 6e3d 8d68 343b d320 69bd
00000380: 63a1 8abc 6e1a c5bd 7ee6 c53d d91a c9bd
00000390: 23cb cdbd 05dc 493d 1c82 c03c ca11 a13d
000003a0: b6e8 26bd 9db2 6c3d 2b31 babd 4c8a 583d
000003b0: d422 87bc 8f07 94bb c43f c1bc f4e6 133d
000003c0: 218b b2bd f85d 823c cbfb ee3b 297a 9abd
000003d0: 3876 793c 9480 21bd 8a56 e43b 5489 2a3d
000003e0: b87c 69bd dddc 7abd b325 ab3d d167 90bd
000003f0: f370 9fbb a2de cebb 7a83 aabd 913e b4bd
0.053373262 0.1011461 0.023558712 0.0016938229 0.09341579 -0.038217913 0.04703579 0.053024594
-0.09064015 -0.010641814 0.004331913 0.0041997554 -0.05812422 -0.065279104 0.05836286 0.088633806
-0.010088861 0.07118117 -0.00094155944 0.034810316 0.0094426675 0.09326342 -0.019401629 -0.0881231
-0.0865514 -0.0028020013 0.0039318 0.000565855 -0.085128754 0.084781416 0.05400102 0.02685303
-0.084926 0.072185256 0.07548319 0.095981255 0.022512091 0.015809277 0.047026042 -0.0017973651
0.010425791 -0.08012545 0.0657588 0.09194353 0.06473812 -0.021963185 0.056422442 -0.07993648
0.09620235 0.0640615 0.099838726 0.005582132 -0.052292403 -0.095750496 -0.08920522 0.008405026
-0.04825413 -0.040890113 0.061743498 -0.09720107 0.018014126 0.017658096 0.053095166 0.020143349
-0.05211456 -0.055551093 0.022963054 0.085373774 -0.09826994 -0.08051606 -0.085526034 0.018489549
0.049621046 -0.024335952 0.09631389 -0.039672907 0.08489937 -0.020158455 -0.021308314 0.05253319
-0.005595307 0.06722576 -0.0427785 -0.023248896 -0.041213535 0.05824863 0.04913869 0.011678625
0.042578693 0.06659904 -0.006593889 -0.022802483 -0.04938944 -0.031542886 0.009793668 0.03139972
-0.0986624 -0.10023433 0.093337394 -0.0039325785 -0.09498967 -0.10122973 -0.005836957 -0.028559927
-0.019026993 0.06381202 -0.08655186 0.059016556 -0.017388707 0.06359926 -0.012741572 0.004021537
0.062048342 -0.010356157 -0.056521002 -0.0020508291 -0.094746485 -0.0945373 -0.05992349 0.0026586456
-0.0377371 0.0035964856 0.08084825 0.075148515 -0.021906994 0.07122471 0.020774452 0.064080335
0.07821308 0.07497186 -0.09562704 -0.065446205 -0.054598417 0.05867794 -0.079080015 -0.041982412
-0.0067979475 -0.10390443 0.018593477 -0.019484313 -0.07707903 0.025711332 -0.08159458 0.016403921
0.017347138 -0.050750326 -0.036219284 0.07809321 -0.020351477 -0.05386604 -0.011655995 0.048384506
0.06843762 -0.0176319 0.022109477 -0.037635285 -0.07207986 -0.016652774 0.043996472 -0.017015569
0.04060389 -0.01987844 -0.0003994179 0.023220692 0.008563487 -0.05338083 0.08437537 -0.038858823
-0.07159317 0.04631681 -0.05146608 -0.08961609 0.041552015 0.09685937 -0.001055503 0.09054453
0.08411881 0.016791714 -0.092873454 -0.10274969 0.015432191 0.026041962 -0.016769452 0.0020709531
-0.07463912 0.039090607 0.0553203 0.020679489 -0.014986649 0.09193373 0.024198648 0.07861218
0.02109314 -0.060113527 -0.0044972776 0.009744318 0.044446148 -0.05435962 -0.057258695 0.03685441
-0.061545905 -0.078766525 0.007115252 -0.021254154 0.053082734 0.015897965 0.09636125 -0.09210457
-0.0098604895 -0.094703 0.08475335 0.09139882 0.0018121166 0.07313533 -0.0928226 0.06570572
0.0067620906 0.011335064 -0.038611643 -0.047010884 -0.09912641 0.058123473 0.0027528137 -0.05691607
-0.016922658 -0.09624182 0.096631035 -0.09819574 -0.10048511 0.049282093 0.023499541 0.07864721
-0.040749274 0.057787526 -0.09091409 0.052866265 -0.0164961 -0.0045175026 -0.023589976 0.036108926
-0.08717943 0.015913948 0.0072931997 -0.075428315 0.015225939 -0.039429262 0.006968324 0.041634873
-0.057003707 -0.061245788 0.083568 -0.070510514 -0.0048657595 -0.006313161 -0.083258584 -0.08800996

fc1.bias f4 [50]
00000000: 63c6 7bbd 2680 723d 3b13 35bc 0874 a1bd
00000010: 83d3 7c3d c288 d2bc 8985 f03c cf9c cb3c
00000020: 4c94 b7bc 890c 9c3d f17b 343d 8fd7 25bd
00000030: 09ef b2bd 0042 8f3d 2b80 323b ebea b1bd
00000040: ee77 27bd 566a 103c 94a1 0bbd 251d 983d
00000050: 526b bd3d b143 c43d c168 453d a86e 21bd
00000060: 6a5f 15bc bcf5 67bd ecdf babd 49ce 993d
00000070: 7b62 8d3d 9a9e 94bd 2b20 0dbd 9839 61bc
00000080: ba40 f63c 0e98 aa3d be59 94bc 0b1f ec3a
00000090: 204d 9ebd e983 debc d308 aebd 0ac2 c7bd
000000a0: 00a0 af3d 16a5 6dbd eff9 c23d ac3c 68bd
000000b0: bc70 483c 6b6e 5b3d b5cc ccbd 623c 5b3c
000000c0: 3c9b 593d 024f 4abd
-0.061468493 0.059204243 -0.011051948 -0.07883459 0.06172515 -0.025699977 0.02936055 0.024855046
-0.02240958 0.076195784 0.044063512 -0.040488776 -0.087369986 0.069950104 0.0027237039 -0.08687385
-0.04088586 0.008814415 -0.03408964 0.07427434 0.09248985 0.095832236 0.048195604 -0.03941217
-0.009116987 -0.056630835 -0.09124741 0.07510049 0.06903549 -0.07256813 -0.034454506 -0.013746642
0.03006016 0.083297834 -0.018109199 0.0018014623 -0.07729554 -0.027162509 -0.08497777 -0.09753807
0.085754395 -0.058018766 0.09520327 -0.056698486 0.012233909 0.0535721 -0.09999982 0.013381096
0.05312656 -0.049391754

fc2.weight f4 [10, 50]
00000000: 828a d4bd 8ca0 bc3d 49c5 2d3d 3ec6 3e3d
00000010: 0d62 e13a 4742 de3d cc46 053d c868 b4bd
00000020: 96b9 5b3c bfb1 7dbd 981c b73d 3451 8ebd
00000030: 424e 893d 79d8 f23c ae45 9cbd d235 e3bd
00000040: 55a3 ccbd 6f75 debd ab2d 8e3d 1725 3c3d
00000050: fb69 943d cec2 ed3d da48 9fbd be61 a03d
00000060: 47bc 98bd 8907 223b 9af6 ff3c 7c7a c7bc
00000070: 83d8 f5bc b456 aa3d 9420 8f3d 3bd8 c1bd
00000080: d71a 8a3d 6cff 9a3d 174a edbb 4228 bbbc
00000090: 787c 07be 9d20 bbbc dded 0f3e 1d22 923d
000000a0: e33a 2d3d 1312 96bb 1398 ca3d 9134 e33c
000000b0: b088 de3d 7550 023e 1a53 923c cf4f e93d
000000c0: 8f2f 09bd 102a adbd bc26 8abd ddb3 edbc
000000d0: 6a83 eb3b e2b2 c63d 58bb e8bd dbe9 f23d
000000e0: 463a ffbd 2169 2f3d d8e6 a1bb d9ea d93d
000000f0: 305e 5ebd 31fe e5bd bb0b 283d f9f2 d9bd
00000100: 7b83 bb3d 531e 4abd dc78 b4ba f376 97bd
00000110: 72de 993d 83d4 f23d 2d42 4b3d 6340 8abd
00000120: 31e9 72bd 30c9 dbbd 0dba bfbd 2db8 ccbd
00000130: a087 df3d 625d fb3d 7c3d cd3d 511a 89bd
00000140: 6d44 f53d d482 073e b539 113d 1ae4 0a3e
00000150: f2a8 d53d 5006 f73b eabe 0c3c 4ab5 b3bd
00000160: 5898 a9bd 75c5 5b3d 7d24 cebd 03bb e3bd
00000170: e291 f5bd e869 74bd 4547 0abe 1eeb f43c
00000180: 9b2a ab3d 8485 c63d d3c8 643c 2b6a 853d
00000190: d685 24bd 7ee1 eabd 238c bfbd 2df8 0f3e
000001a0: 03e7 083e e0c9 d43c d512 143d 55a4 d43b
000001b0: ce36 20bd 78c9 ac3d 220e ee3d b9c4 3abd
000001c0: bd54 df3b 1624 083e acf1 46bd a42c 47bd
000001d0: 7ea3 d0bd 2deb 953c ae93 b5bd 264f eabd
000001e0: bfc5 2abc 816e b13d e3a3 b13d 9355 6cbd
000001f0: abdd c13d 6e85 0abd 2c15 8cbd e952 c83d
00000200: e5a9 7cbb aeba c5bc 7613 ce3d aa8a 51bd
00000210: 47d7 ec3c b329 093e d203 b0bd 2fad 043d
00000220: 87ce babd 8014 233c 95c2 8dbd 0de6 5ebb
00000230: 39be e4bd c887 4e3d 32e6 0a3e ac21 ed3d
00000240: 457c b8bc 6c6d 0abe 7718 aabc 4f2c 66bd
00000250: f32b 2c3d c937 49bd ccb1 f1bd 70e4 df3d
00000260: 2c00 0e3e adfd a83d 3e1a 5d3d a20d 133d
00000270: 40f4 7b3c 2389 043d e549 40bd abbc cabd
00000280: 4201 51bd 0cb5 95bd ff2b e5bd 85f7 30bb
00000290: 7cd8 03be d392 213c 9708 8d3d d4f1 afbd
000002a0: 4ca2 abbd f122 293d a50c 1abd ad85 033e
000002b0: e6ca db3d c263 bb3d 3cc2 e0bc 11c3 0abe
000002c0: c796 d4bc 9823 d63d 1151 113e 432a 91bd
000002d0: 9b7e f63d 61e4 01bc 1df9 073e 881e ff3d
000002e0: d268 163d 9c71 683c d647 82bd 2a23 83bd
000002f0: eb64 39bd c638 e0bd d4d4 5c3d 7007 94bd
00000300: a232 f43d fecc 293d 35ea f73d bff3 ec3d
00000310: 5e80 6abd 20e5 d73d 136b df3d f0c2 7cbd
00000320: 1cd3 5b3d efa9 a0bd a8ea 2f3c 44a8 083e
00000330: f83f 793d b920 a0bd 7a75 b3bd dc8d 8f3d
00000340: 657f 223d 32a8 633d 09c4 4e3d 3274 cd3c
00000350: 9ef7 833d 23eb b9bd bed5 af3b 0097 1a3d
00000360: 88d4 96bd f4cc e43d e6bb d13d b75e f23d
00000370: aa23 053e fedd b43c d434 fd3c 7152 273c
00000380: 2699 20bd 755f 7fbd 7fff 48bd 7f47 f43d
00000390: dc2e b1bd bed0 633c 1714 cb3d de35 2d3d
000003a0: c1ea 81bd 8349 0fbe e655 34bd 2fab 183d
000003b0: a88c cb3d 1ff7 e03d 7bab 79bd 869c a13d
000003c0: c4fc 823d f973 25bd b243 903a 3161 a53d
000003d0: 916f d2bd 3455 e3bd f6ee 3a3c d19b dc3d
000003e0: 5aa3 063e 5e38 b83d 86e0 113d 613a 1ebc
000003f0: 6f66 2bbd e388 e83d de40 2abd d0f5 80bb
-0.10377981 0.092103094 0.042424474 0.046575777 0.0017195359 0.10852485 0.03253822 -0.08809048
0.013410946 -0.06193709 0.08941001 -0.06949082 0.067043796 0.029644238 -0.07630478 -0.1109425
-0.099920906 -0.108622424 0.06942304 0.04593381 0.07246777 0.11609422 -0.07777567 0.07831143
-0.07457786 0.002472373 0.031245518 -0.024350397 -0.030010467 0.083173186 0.06988636 -0.09465071
0.067434005 0.07568249 -0.007241498 -0.022846345 -0.13231075 -0.0228427 0.14055581 0.07135413
0.042292487 -0.0045797913 0.09892287 0.027735027 0.10865915 0.12726004 0.017861892 0.113921754
-0.03349262 -0.084552884 -0.06745669 -0.02901643 0.0071872966 0.09702088 -0.11363858 0.11861011
-0.12462287 0.042824868 -0.004940849 0.10640497 -0.054289043 -0.11230124 0.041026812 -0.106420465
0.09155937 -0.049345326 -0.0013768929 -0.07395735 0.07513131 0.1185694 0.049623657 -0.06750562
-0.05930442 -0.10731733 -0.09361658 -0.09996066 0.1091454 0.12273671 0.10021493 -0.066944726
0.11975942 0.132335 0.035455424 0.13563576 0.104326144 0.0075385943 0.008590439 -0.087748125
-0.082810104 0.053655107 -0.10065553 -0.11119654 -0.119907156 -0.059671313 -0.1350375 0.029897269
0.08357736 0.09693435 0.013963896 0.065143906 -0.0401667 -0.114687905 -0.09352901 0.14059515
0.13369374 0.025975168 0.036150772 0.0064893165 -0.039114766 0.084368646 0.11623789 -0.045597766
0.0068155215 0.13295016 -0.04857032 -0.048626557 -0.10187434 0.018300617 -0.08866058 -0.114408776
-0.010423123 0.08663655 0.08673837 -0.057698797 0.09466108 -0.033818655 -0.06839976 0.09781439
-0.0038553413 -0.024136867 0.10062306 -0.05115763 0.028911246 0.13394813 -0.08594479 0.032391723
-0.09121423 0.009953618 -0.06921879 -0.0034011633 -0.111690946 0.05042246 0.13564375 0.11578688
-0.022520194 -0.13518304 -0.020763619 -0.0561946 0.0420341 -0.049125466 -0.1180149 0.10932243
0.13867253 0.0825151 0.053980105 0.035901673 0.015378058 0.032357346 -0.04694547 -0.09899267
-0.05102659 -0.073099226 -0.11190032 -0.0027003002 -0.12875551 0.009861666 0.06886404 -0.08591047
-0.08380565 0.04129309 -0.037609715 0.12843962 0.10732059 0.09149887 -0.027436368 -0.13550974
-0.025950802 0.10456008 0.1419108 -0.07088139 0.12035867 -0.007927985 0.13278623 0.12456995
0.03672106 0.014187243 -0.06361358 -0.064031914 -0.04526226 -0.10948329 0.053913906 -0.07227981
0.1192372 0.04145526 0.12105218 0.115699284 -0.057251327 0.10541749 0.10909095 -0.061709344
0.053668126 -0.07844912 0.010737099 0.13345438 0.06085202 -0.07818741 -0.08762641 0.070094794
0.039672274 0.055580325 0.050479922 0.02507982 0.064437136 -0.09078052 0.005366056 0.03774166
-0.07364756 0.11171904 0.10240917 0.11834472 0.13001886 0.02207851 0.03090898 0.010212527
-0.039208554 -0.062346894 -0.049071785 0.11927699 -0.08651516 0.0139047485 0.09915941 0.0422877
-0.06343604 -0.13992886 -0.04402723 0.03727263 0.099389374 0.109846346 -0.060954552 0.078911826
0.063958675 -0.040393803 0.0011006503 0.080751784 -0.10275186 -0.111002356 0.011409512 0.10771907
0.13148251 0.08995126 0.035614513 -0.009657473 -0.041845735 0.11354234 -0.04156577 -0.003935553

fc2.bias f4 [10]
00000000: d82e a43d 6b08 8fbc cae0 8cbd 0d34 113d
00000010: 7804 d33c 54ae 343d 7576 9e3d 8d6d e43c
00000020: 96d2 bdbb c8aa dcbc
0.08016747 -0.017460069 -0.068788126 0.03545003 0.025758967 0.044111565 0.07737438 0.02788427
-0.005792926 -0.026936904

batch_norm_2d.weight f4 [6]
00000000: 73b0 7f3f 99c3 7f3f 6d1d 803f 9433 803f
00000010: bcb4 7f3f fb10 803f
0.99878615 0.99907833 1.000898 1.001574 0.99885154 1.0005182

batch_norm_2d.bias f4 [6]
00000000: 4669 333a ad26 873a b4d2 7339 eece 663a
00000010: e610 17b9 72d6 ba3a
0.0006843995 0.0010311209 0.00023252779 0.00088046386 -0.00014406777 0.0014254584

batch_norm_2d.running_mean f4 [6]
00000000: 94bc 2d3e 406f 633d 4f30 cd3e 6eb0 303d
00000010: c11b 7c3e 4069 2f3f
0.16966468 0.05552602 0.4007592 0.043137006 0.24619962 0.68519974

batch_norm_2d.running_var f4 [6]
00000000: 6263 a43e 72cb 863e 5ae8 a13e 2f00 763e
00000010: e98d 8b3e 6949 a43e
0.32107073 0.2632709 0.31622583 0.24023508 0.27256706 0.32087258

batch_norm.weight f4 [50]
00000000: 0000 803f 0000 803f 0000 803f 0000 803f
00000010: 0000 803f 0000 803f 0000 803f 0000 803f
00000020: 0000 803f 0000 803f 0000 803f 0000 803f
00000030: 0000 803f 0000 803f 0000 803f 0000 803f
00000040: 0000 803f 0000 803f 0000 803f 0000 803f
00000050: 0000 803f 0000 803f 0000 803f 0000 803f
00000060: 0000 803f 0000 803f 0000 803f 0000 803f
00000070: 0000 803f 0000 803f 0000 803f 0000 803f
00000080: 0000 803f 0000 803f 0000 803f 0000 803f
00000090: 0000 803f 0000 803f 0000 803f 0000 803f
000000a0: 0000 803f 0000 803f 0000 803f 0000 803f
000000b0: 0000 803f 0000 803f 0000 803f 0000 803f
000000c0: 0000 803f 0000 803f
1.0 1.0 1.0 1.0 1.0 1.0 1.0 1.0
1.0 1.0 1.0 1.0 1.0 1.0 1.0 1.0
1.0 1.0 1.0 1.0 1.0 1.0 1.0 1.0
1.0 1.0 1.0 1.0 1.0 1.0 1.0 1.0
1.0 1.0 1.0 1.0 1.0 1.0 1.0 1.0
1.0 1.0 1.0 1.0 1.0 1.0 1.0 1.0
1.0 1.0

batch_norm.bias f4 [50]
00000000: 0000 0000 0000 0000 0000 0000 0000 0000
00000010: 0000 0000 0000 0000 0000 0000 0000 0000
00000020: 0000 0000 0000 0000 0000 0000 0000 0000
00000030: 0000 0000 0000 0000 0000 0000 0000 0000
00000040: 0000 0000 0000 0000 0000 0000 0000 0000
00000050: 0000 0000 0000 0000 0000 0000 0000 0000
00000060: 0000 0000 0000 0000 0000 0000 0000 0000
00000070: 0000 0000 0000 0000 0000 0000 0000 0000
00000080: 0000 0000 0000 0000 0000 0000 0000 0000
00000090: 0000 0000 0000 0000 0000 0000 0000 0000
000000a0: 0000 0000 0000 0000 0000 0000 0000 0000
000000b0: 0000 0000 0000 0000 0000 0000 0000 0000
000000c0: 0000 0000 0000 0000
0.0 0.0 0.0 0.0 0.0 0.0 0.0 0.0
0.0 0.0 0.0 0.0 0.0 0.0 0.0 0.0
0.0 0.0 0.0 0.0 0.0 0.0 0.0 0.0
0.0 0.0 0.0 0.0 0.0 0.0 0.0 0.0
0.0 0.0 0.0 0.0 0.0 0.0 0.0 0.0
0.0 0.0 0.0 0.0 0.0 0.0 0.0 0.0
0.0 0.0

batch_norm.running_mean f4 [50]
00000000: 0000 0000 0000 0000 0000 0000 0000 0000
00000010: 0000 0000 0000 0000 0000 0000 0000 0000
00000020: 0000 0000 0000 0000 0000 0000 0000 0000
00000030: 0000 0000 0000 0000 0000 0000 0000 0000
00000040: 0000 0000 0000 0000 0000 0000 0000 0000
00000050: 0000 0000 0000 0000 0000 0000 0000 0000
00000060: 0000 0000 0000 0000 0000 0000 0000 0000
00000070: 0000 0000 0000 0000 0000 0000 0000 0000
00000080: 0000 0000 0000 0000 0000 0000 0000 0000
00000090: 0000 0000 0000 0000 0000 0000 0000 0000
000000a0: 0000 0000 0000 0000 0000 0000 0000 0000
000000b0: 0000 0000 0000 0000 0000 0000 0000 0000
000000c0: 0000 0000 0000 0000
0.0 0.0 0.0 0.0 0.0 0.0 0.0 0.0
0.0 0.0 0.0 0.0 0.0 0.0 0.0 0.0
0.0 0.0 0.0 0.0 0.0 0.0 0.0 0.0
0.0 0.0 0.0 0.0 0.0 0.0 0.0 0.0
0.0 0.0 0.0 0.0 0.0 0.0 0.0 0.0
0.0 0.0 0.0 0.0 0.0 0.0 0.0 0.0
0.0 0.0

batch_norm.running_var f4 [50]
00000000: 0000 803f 0000 803f 0000 803f 0000 803f
00000010: 0000 803f 0000 803f 0000 803f 0000 803f
00000020: 0000 803f 0000 803f 0000 803f 0000 803f
00000030: 0000 803f 0000 803f 0000 803f 0000 803f
00000040: 0000 803f 0000 803f 0000 803f 0000 803f
00000050: 0000 803f 0000 803f 0000 803f 0000 803f
00000060: 0000 803f 0000 803f 0000 803f 0000 803f
00000070: 0000 803f 0000 803f 0000 803f 0000 803f
00000080: 0000 803f 0000 803f 0000 803f 0000 803f
00000090: 0000 803f 0000 803f 0000 803f 0000 803f
000000a0: 0000 803f 0000 803f 0000 803f 0000 803f
000000b0: 0000 803f 0000 803f 0000 803f 0000 803f
000000c0: 0000 803f 0000 803f
1.0 1.0 1.0 1.0 1.0 1.0 1.0 1.0
1.0 1.0 1.0 1.0 1.0 1.0 1.0 1.0
1.0 1.0 1.0 1.0 1.0 1.0 1.0 1.0
1.0 1.0 1.0 1.0 1.0 1.0 1.0 1.0
1.0 1.0 1.0 1.0 1.0 1.0 1.0 1.0
1.0 1.0 1.0 1.0 1.0 1.0 1.0 1.0
1.0 1.0
