checkpoints/random/cnn2/25-12-2023_11-22-08/last_model.pth.tar (torch, 33210 bytes, 16 tensors)

conv1.weight f4 [6, 1, 5, 5]
00000000: 3dd1 373e 2d7f adbd 7d26 48bd 7d94 3c3e
00000010: db23 3a3e 9af8 9d3d 54da adbc fd4e 493e
00000020: 79d7 39bc 3a3f 4dbd b118 11bd a6bf 283d
00000030: be5a 45bd e942 cf3d 6575 ae3d 39b7 1abe
00000040: fecb d9bc 39e1 b43d 97a6 c03d 6f0c 383e
00000050: a6c9 dcbd fa52 393d 71d3 ffbd 4965 3bbe
00000060: d101 02be 6fc9 d03d 54d8 18be 35bc a2bd
00000070: 34b5 14bd 00aa d53d 93bf 2c3d cd0f 423e
00000080: 523f e3bd 1582 de3d 09bd e93c 4c0f feba
00000090: d489 e43c d022 60ba 1236 f63d d6be 8a3c
000000a0: 9180 f23d 1294 433d f886 d9bd 8ccf 113c
000000b0: 84ee 213d b6cd 1fbe 5654 003e 0e28 293e
000000c0: 6d2b 26be c37c 89bd 4af2 14be 0762 063e
000000d0: e8a6 39bd 1fa2 15be 65d1 453e a647 473e
000000e0: 50e1 2cbe 2d5e 293e 411e 133e cf51 de3d
000000f0: e589 593d d24f c23d add7 0d3e c8a5 563c
00000100: 12e4 1c3c 44ff 42bc 355d aa3d 9d3e 3b3e
00000110: dfef febc c457 bbbd 7904 223d 88be 30be
00000120: b3ec 253e 4658 1cbd a534 163e c3f9 20be
00000130: 2871 2f3e b199 cbbd 9a9d 0ebe 09de 76bd
00000140: b78f 05be f61e ec3c 0399 163e 21b6 78bd
00000150: 6d94 80bd d7c8 06bc e4b8 84bd e362 f63d
00000160: 7096 163d ecdc 883d 911c c83c 0be2 423e
00000170: fc0e 0d3e df19 3fbe bcaa 19be 821b 3abe
00000180: 4d2b 97bd 866b 153e 139e 5b3d 364e 17be
00000190: ccfd f73d ec2f f43d c93c cf3b d031 ee3d
000001a0: dd99 253e 02a7 db3d 157a 0c3b 73f5 4b3e
000001b0: b77b 61bd 3256 063e 7cc4 49bd c437 c73d
000001c0: 02f1 48be 4f97 333d cfa6 3a3e dc8f 823d
000001d0: 7774 debc 5915 7b3c 41ef b5bd 2b32 c73d
000001e0: cf49 8fbd 2743 1a3e 6209 343e 6d42 2bbe
000001f0: cc7c 20be ab6f 223e 384d 3c3e a0a4 8c3c
00000200: c97f 21be 3e0b 973d 422a 393e 8c68 97bd
00000210: 59c9 ce3d dd36 abbd bac8 d63d 6c01 6fbc
00000220: 1edd dd3d e284 bd3d a2d1 143e 97ce fb3c
00000230: 431d 133e ac30 c1bc c279 e1bb c908 783d
00000240: 4b1e 253e b009 ef3c e2a9 423e ff1f 413e
00000250: 76aa f43c b114 0c3d
0.17950912 -0.084715225 -0.04886483 0.18416019 0.1817774 0.077134326 -0.021222271 0.19659038
-0.011342877 -0.050109126 -0.03542394 0.041198395 -0.04818224 0.10120184 0.08518485 -0.15108956
-0.026586529 0.0883202 0.094067745 0.17973493 -0.10780649 0.04524515 -0.12491501 -0.18300356
-0.12696005 0.101946704 -0.14926273 -0.07946054 -0.03630562 0.104328156 0.042174887 0.1895134
-0.11096062 0.10864655 0.028532522 -0.0019383221 0.027897753 -0.00085501093 0.12022032 0.0169367
0.11840928 0.047748633 -0.10621446 0.008899581 0.039534107 -0.15605816 0.12532172 0.16519186
-0.16227503 -0.067132495 -0.14545551 0.13123332 -0.04532519 -0.14612626 0.19318159 0.19460925
-0.16882825 0.16539831 0.1436701 0.108554475 0.053110022 0.09487881 0.13851805 0.013101049
0.009575861 -0.01190168 0.08318559 0.18285604 -0.031120239 -0.09147599 0.039555047 -0.17260182
0.16203575 -0.03817012 0.1466852 -0.15720277 0.1713301 -0.09941424 -0.13927308 -0.060270343
-0.13043104 0.028823357 0.14706807 -0.060720567 -0.0627831 -0.008226595 -0.064805776 0.1203058
0.036764562 0.066827625 0.024427684 0.19031541 0.13775247 -0.18662213 -0.15006536 -0.18174556
-0.07381306 0.14591798 0.05361755 -0.14775929 0.12108955 0.11923203 0.006324385 0.11630595
0.16171975 0.107252136 0.0021435071 0.1991785 -0.055049624 0.13118818 -0.049259648 0.09727433
-0.19623187 0.04384547 0.18227695 0.06375095 -0.027155144 0.015324914 -0.08883525 0.09726366
-0.069965 0.15064679 0.17581704 -0.16724558 -0.15672606 0.1586291 0.18388832 0.017168343
-0.15771402 0.07375191 0.18082526 -0.073929876 0.10096998 -0.08360074 0.10487504 -0.014587741
0.108331904 0.09253861 0.14533094 0.030738158 0.14366631 -0.023582779 -0.0068809697 0.060555253
0.16124837 0.029179424 0.19010118 0.18859862 0.029866438 0.03419942

conv1.bias f4 [6]
00000000: c0d6 3d3e b381 c8bd cc57 603d 9273 2bbd
00000010: b171 efbd 227b a7bc
0.18538952 -0.09790363 0.05477123 -0.041858263 -0.11691607 -0.020444456

conv2.weight f4 [6, 6, 5, 5]
00000000: e494 79bd ddce c83c 78a4 9fbd 2ee2 0c3d
00000010: 1357 113d b076 afbc 0241 a63c 6cdb d03c
00000020: 6935 33bc a99d 3abd b016 55bd d8c4 023d
00000030: 23bc e3bc 1219 483c 9d93 833b 5b0b 803b
00000040: 3381 5ebd 6367 9d3d 851e 9f3d 81d2 8abd
00000050: 0e1c 9cbd a4c8 0eb9 99a2 a7bd 26d3 8d3c
00000060: ab1b 9f3d e144 d2ba f4ad 03bc 0252 5bbd
00000070: 3aa4 c4bc 9d37 293d 09fe 463d c717 cf3b
00000080: a74f 8bbd d59e 84bd 1eba ec3c 58b5 793b
00000090: ce3d d0bc 7c8a c8bc 0b5f 8bbd 027c 9e3d
000000a0: 4850 063c 8818 593d f6fe bb3c f628 aa3c
000000b0: 2f8f 49bd f551 bf3b d8a1 923d bf3d 303d
000000c0: b070 2dbc fe3d b8bc 8ba7 753d 71d2 ddbb
000000d0: 1bad c73c 975c 16bd 3156 ffbb ca00 443c
000000e0: 147e 8cbd 5cff 873d 0d6c e83b 6f75 063d
000000f0: ac9b 08bd aeb4 5ebd 586a d4bc bea6 263a
00000100: 7f94 10bc 6c82 f8bb b811 643d fd8b 563d
00000110: f05d a6b8 cab9 09ba 16a5 b93c 2e38 47bd
00000120: 606f 63bb 8383 153d ab20 583d ea6b b53c
00000130: a0cc a03d 9814 a93c 4aad ccbc 9686 25bd
00000140: 677d a7bc 9973 c83c 84ac 573c e936 3d3c
00000150: 15df c83b 0c08 263d ec50 8c3d 9951 a4bc
00000160: 6efa 3b3d f7bf 603c 88cc c7bb 00f7 8f3d
00000170: b736 95bc fdcf 8b3d 2783 29bc 0a0c 3e3b
00000180: 11ee 253d a785 2f3d 2379 8cbd 3f7d b0bc
00000190: ad8a 763c 968d 84bc 08c7 a2bd 447c b43c
000001a0: e9b8 57bd 505e c33c aab9 693d d167 9fbd
000001b0: 2b08 353d c4a6 8e3d 5568 55bd 6127 28bd
000001c0: 26a4 98bd e6b8 5e3c 6c13 a2bd 944f b93c
000001d0: 6c26 e5bc c4b5 953d 8c6f e8bc acbd 213d
000001e0: 6bca 163d 830e 423d 902c 833d e8d9 a03d
000001f0: 1bb8 1fbd a766 a73c 6f56 eb3b a267 d3bc
00000200: aeb3 fbbc c82e 91bc 12b0 293d 38ec 2cbc
00000210: cc90 823c 01d8 73bc 8328 e4bb d37b 81bd
00000220: c991 a63d aa8a 79bd 835e d73c 7f0d 23bc
00000230: 8af9 9f3c c682 a23b e3bf 20bc b1cb 18bd
00000240: 3f51 f83c 70ec 1f3d 4324 4bbd f980 a5bd
00000250: b208 02bc 1e5e e0bc 8dd5 513d 131a 883d
00000260: 2094 75bd fa7d 4fbd d3bc 1bbc a4a1 a2bd
00000270: cd29 79bd 0205 8f3d a9af 9fbd c110 5f3d
00000280: 721e 6bbd 55ec 2fbd 1b66 07bd d0f5 4dbc
00000290: 81d7 2abd eaad 143b a17b 08bb f178 5dbd
000002a0: a204 1b3d 9ebb 233d ce06 7bbd be67 3c3d
000002b0: bfe5 5bbb 7b62 91bd 2e69 b8b9 4c06 563c
000002c0: ad05 84ba 0754 8abd 3afe fe3c 8017 2d3b
000002d0: 5df0 933d aafd a43c 4887 1dbc 9a55 75bd
000002e0: 8ab8 91bd 5fb0 a53c 3a04 943d 8214 fb3c
000002f0: e25f 813d ae9e 29bc a9b1 2bbd 9bb6 9a3c
00000300: c422 293d fa64 6e3d 3eb5 8ebb c00c c43c
00000310: 5466 20b9 d89a 91bd d89b 133c 81a7 70bd
00000320: eda2 20bd 4375 92bd f446 223d 2af0 9d3d
00000330: 7102 87bd 0a11 0abc 0c0a 8cbd 051b 55bd
00000340: 1f6f 8dbc 7b28 babb 7ae2 8dbd 92a1 3abd
00000350: d623 6dbd 3e49 363d 1ee3 3dbc c199 433d
00000360: f28f 083d 3ca1 43bd 546f 42bd 68e3 40bd
00000370: 1184 14bd ada6 2e3d 3787 433d af7d 563d
00000380: d36c 55bd c025 803d 9e84 9bbd e21b 8dbd
00000390: 94d9 febb 7ae4 2dbd 2fa4 60bc 04fa 9cbd
000003a0: 86da 7bbd 1ac0 74bd 73a3 a03c 42fa 9d3c
000003b0: 38d8 62bc b234 4d3d 4921 a7bc 4469 36bd
000003c0: 6e19 6c3d c3bb ee3c 0413 4c3d a7d2 483d
000003d0: 15ed 2abd d297 91bd c366 3abd 7a95 763d
000003e0: 6bf3 483d b71b e83c fe8c 3dbd 8da2 6e3d
000003f0: 56d9 973b 4c94 e93c 622d efbc 928a 30bd
-0.06093301 0.024512703 -0.07795042 0.03439539 0.03548343 -0.0214189 0.02029467 0.025495254
-0.010938027 -0.045560513 -0.05202359 0.031926006 -0.027799672 0.0122130085 0.0040153996 0.0039076037
-0.054322433 0.07685735 0.07769493 -0.06778432 -0.076225385 -0.0001361692 -0.0818531 0.017312597
0.07768949 -0.0016042256 -0.008037079 -0.053545006 -0.02400409 0.041312803 0.04858211 0.006319973
-0.06802302 -0.06475607 0.028897341 0.0038102474 -0.025420096 -0.024480097 -0.068052374 0.07738496
0.0081978515 0.05300191 0.022948723 0.020771485 -0.049208816 0.0058386275 0.071597755 0.043027636
-0.010585949 -0.022490498 0.059974235 -0.0067694713 0.024374535 -0.036709394 -0.0077922572 0.011963079
-0.06859985 0.06640503 0.007092959 0.032826837 -0.033351585 -0.05437153 -0.025929615 0.0006357244
-0.008824467 -0.007583907 0.05568096 0.052379597 -7.932994e-05 -0.000525382 0.022661727 -0.04863756
-0.0034703836 0.036502372 0.05276553 0.022146184 0.07851529 0.020639703 -0.024984974 -0.040411554
-0.020445539 0.024469184 0.0131636895 0.011548736 0.006130109 0.040535018 0.06851372 -0.02005844
0.045893125 0.013717643 -0.00609738 0.070295334 -0.018214567 0.0682678 -0.010346211 0.0028998875
0.04051024 0.04285207 -0.068590425 -0.021544097 0.015047711 -0.016180795 -0.079481184 0.02203191
-0.05266658 0.023848683 0.05706183 -0.07783473 0.044197243 0.06965402 -0.052101452 -0.04105318
-0.07453184 0.013593888 -0.07913861 0.022620954 -0.027972423 0.0731006 -0.028373502 0.039487526
0.036814135 0.04737712 0.06404984 0.07854062 -0.038993936 0.02043469 0.0071819345 -0.025806252
-0.030725326 -0.017722502 0.04142768 -0.010554366 0.015938185 -0.014883042 -0.006962837 -0.06322446
0.08133275 -0.060923256 0.026290184 -0.009951948 0.01952817 0.004959437 -0.009811374 -0.03730363
0.030312179 0.039043844 -0.04959513 -0.0808124 -0.007936643 -0.027388629 0.05122905 0.06645598
-0.059955716 -0.05065725 -0.009505468 -0.07940987 -0.06083088 0.06983377 -0.077971764 0.054459337
-0.05740208 -0.042949993 -0.03305636 -0.012570813 -0.041709427 0.0022686669 -0.0020825642 -0.054070417
0.037846215 0.039973848 -0.061285786 0.045997374 -0.0033553687 -0.07098862 -0.0003517358 0.013063025
-0.0010072492 -0.06754308 0.031127084 0.0026411712 0.0722358 0.020140488 -0.009614773 -0.05989609
-0.07115276 0.020225702 0.07227369 0.030649427 0.06317116 -0.010352774 -0.041917477 0.018885901
0.04129292 0.058201768 -0.004355102 0.02393186 -0.00015296909 -0.07109612 0.009009324 -0.058753494
-0.039217878 -0.07151272 0.039618447 0.07711823 -0.065922625 -0.008426914 -0.06837854 -0.05202772
-0.0172649 -0.005681095 -0.069279626 -0.04556424 -0.057895504 0.044503443 -0.0115897935 0.047754053
0.033340402 -0.047761187 -0.047469452 -0.04709187 -0.03625876 0.042639423 0.047736373 0.052365955
-0.052105736 0.062572 -0.07593654 -0.06890084 -0.007777402 -0.04245422 -0.013711019 -0.07664874
-0.061487697 -0.059753515 0.019609189 0.019284371 -0.013845496 0.050099082 -0.020401614 -0.044533983
0.05764144 0.029142266 0.049822822 0.04902902 -0.041730005 -0.071090356 -0.045508157 0.060201146
0.049060266 0.028333528 -0.04627704 0.05826049 0.0046340628 0.028513096 -0.029196445 -0.0431009

conv2.bias f4 [6]
00000000: 8034 39bd c7c4 973d a1ca 333d 3ee3 4dbc
00000010: e14f 543c 0f9c 9a3d
-0.045216084 0.07410579 0.043894414 -0.012566386 0.012958498 0.07549297

fc1.weight f4 [50, 96]
00000000: e6f8 c43d 4d84 0d3c 3a78 52bd db03 c2bd
00000010: cd18 8dbc c547 1bbd d5bc 033d d542 e039
00000020: 21a1 093d 2d5a ecbc 8055 33bd e700 c63d
00000030: c00a 2e3d 0658 36bd 8eac 25bd 5003 c03c
00000040: 33ab c3bd f1be 973c f9b0 27bd 15b8 26bd
00000050: e7d4 abbd 5f51 c8bd 10db 793d 2ae5 8f3d
00000060: 6a13 473d c014 a03c 751f b03c 90c7 a83d
00000070: 2c37 573c 3a6d b63c 4ff1 ce3a ac81 36bc
00000080: daeb 90bd 6a36 a9bb e27a aa3d 3d5e b8b9
00000090: 3379 953d 90c3 9dbc c22c c43d d944 9dbd
000000a0: d5b9 b5bc 0f7d c3bd 544f b4bc 1159 b23d
000000b0: dcb8 aabd 1302 ee3b 5a05 2dbd 051b 7a3d
000000c0: 720b babd d368 723d 5b5c 4dbd 2520 bbbd
000000d0: 91ac bfbd 8487 c2bd f1bc adbc 5a9a 6abd
000000e0: 9bec 70bd e59a aabd 6ab7 be3d 6179 133d
000000f0: eedc 83bd 8120 5a3d 0621 03bd 1ee7 0a3d
00000100: a93a 62bd b988 bdbb 8de9 abbd 2ed6 9a3b
00000110: 8f99 94bc 55ac 983d 0234 813c d75d c73d
00000120: 731e 9fbd e20e 7f3d a17c bfbc 4650 183d
00000130: e6c1 2f3d 5a3e d93b 1647 12bd e76b 5fbc
00000140: 304c 46b9 6644 a73d 4012 49bd 415e ad3c
00000150: f2c4 d43b a8ec 973d 367a bf3d 21f3 063b
00000160: af3e ba3d 0892 cb3d 1e5a 963d adbc 4ebc
00000170: bfe7 7e3a 75b5 e4bc f190 9abd 70ed 0dbc
00000180: f389 1ebd 883b c7bd 6383 20bd fe1c 993d
00000190: dd0d 26bd 2c0b 32bd e290 abbc 6cfb 3d3d
000001a0: fb94 0ebb 3061 133d 71e2 383a 374b 953d
000001b0: 228d cd3c 0107 303d 74c3 e6bc 2699 973d
000001c0: ebde 04bc f2f0 c43d 02d7 a23b 9de6 58bd
000001d0: 96a7 9ebc 86a8 923d b2bd 6b3c 42f6 1abd
000001e0: 6739 aa3d 924e 4abd 5352 c9bd 105a 513d
000001f0: c3ef ae3d 8901 b03c 2a50 9a3d c052 a53d
00000200: 498b 59bd cc10 a5bc 5c87 9abd dc45 be3d
00000210: 3f28 093d fe52 5fbd f84c 41bc b466 74bd
00000220: 4281 37bd 24a3 c23d 9354 9f3c 0c92 81b8
00000230: fa6a 5a3d 1594 913d d4fa 543d 3615 573d
00000240: d2e0 c7bd 3752 9e3d f782 aa3d 13cb aabd
00000250: 088f b33c 75de 773d b0dd 26bd 25de c3bd
00000260: 0ead bdbd 87ed 7dbd 64a2 95bd 68d3 903d
00000270: 8799 22bd bb57 2cbd bcfb 7abd 9c23 b5bd
00000280: d67e 05bd 0b96 c93c afcf b6bd 8310 aebd
00000290: b80e 313c 53e7 233d 1082 903d 5dd4 b9bd
000002a0: bd12 363d 92d5 5e3d 3cc6 983d bc94 bfbd
000002b0: 2562 87bd 776b b5bd 8677 373d 7df8 85bd
000002c0: 5170 3b3d 37d5 0b3d ccfd f03c 9a90 2bbd
000002d0: f9ab acbd 046f a3bc 425e 983a 71a7 67bd
000002e0: dbe8 10bd c116 ba3d 1262 8cbc 9045 803c
000002f0: 7208 96bd ecb4 c7bd 04ba b43d 28bb 9d3d
00000300: 6fad 2fbd b5aa 713d f788 303c 989e a0bd
00000310: 593e e33c 082d ba3d d6be c3bd 54b4 613d
00000320: 8768 d1bc 4b3d babd 6f92 293c e5f9 b63d
00000330: 7d64 4e3c 8085 b7bb f768 43bc c373 c5bd
00000340: 05d3 34bd a516 9ebd 1aa8 a03d 25aa 9f3d
00000350: 751d e5bc c0ea 96bd d15b cb3d 47d4 cabd
00000360: 126c 82bd d188 39bd 5105 a7bd 5087 b43d
00000370: dc32 d9bb 61d4 533d d0de 193d 62ce 9d3c
00000380: e41f 673d 9540 583d 2a7d a23d 4ae5 b3bd
00000390: c1a3 353d b37e 0fbd 4eae 7e3c 432a 44bd
000003a0: 14e7 99bd 65a5 9bbd 35fc 2abd b74b f83c
000003b0: a50c c73d b99c a73d 9dbb 6e3c 38c4 98bc
000003c0: 4332 cabd 7849 39bd 3782 3abd d7ca b0bc
000003d0: 17b5 6bbd 1acb c1bd 1284 863d 5ebe 07bd
000003e0: 1598 c43c 025b f2bc c436 3d3d 83e0 1ebd
000003f0: b35c 9cbd 6855 7dbd c0db 1b3d dbf8 b1bc
0.09617786 0.0086375 -0.05138419 -0.094733916 -0.01722374 -0.03791024 0.032162506 0.00042774403
0.03360093 -0.028851593 -0.04378271 0.09668141 0.04249072 -0.04451754 -0.040447764 0.02343908
-0.09554138 0.018523665 -0.04094026 -0.040702898 -0.08390217 -0.09781145 0.06099993 0.070261315
0.0486025 0.019541144 0.021499375 0.082411885 0.013135713 0.02226888 0.0015788468 -0.011139315
-0.07076235 -0.0051639574 0.08324219 -0.00035165428 0.072985075 -0.01925829 0.095788494 -0.07679147
-0.022183338 -0.095453374 -0.022010483 0.08708394 -0.083360404 0.007263431 -0.04224143 0.061060924
-0.09084214 0.059182 -0.050136905 -0.091369905 -0.09359086 -0.09498504 -0.021208258 -0.057276107
-0.058819395 -0.08330325 0.09312327 0.036004428 -0.06438623 0.053253654 -0.032013915 0.033911817
-0.055231724 -0.005784121 -0.08394156 0.0047252392 -0.018139629 0.07454745 0.01577187 0.097346954
-0.077694796 0.062270053 -0.023374857 0.03718593 0.042909525 0.0066297473 -0.035712324 -0.013636566
-0.00018911134 0.08167343 -0.04908967 0.021163108 0.0064932043 0.074181855 0.09349482 0.0020591693
0.09093987 0.099399626 0.07341407 -0.012618226 0.0009723864 -0.027918557 -0.07547177 -0.008662567
-0.038705777 -0.097281516 -0.0391878 0.07476233 -0.040540565 -0.043467686 -0.020943109 0.046382353
-0.002175628 0.035981357 0.00070527854 0.07289737 0.025091711 0.04297543 -0.028169371 0.074022576
-0.008109788 0.09616269 0.0049694786 -0.052954305 -0.01936702 0.071610495 0.014388489 -0.037832506
0.0831173 -0.049391337 -0.09830155 0.05111128 0.08541825 0.021485107 0.07534821 0.08072424
-0.05311135 -0.020149611 -0.07545349 0.09290668 0.033485647 -0.054522507 -0.011798136 -0.059668258
-0.044801004 0.09503773 0.019449508 -6.178403e-05 0.053324677 0.071083225 0.05199702 0.052510463
-0.09759678 0.07730525 0.08325761 -0.083395146 0.021918789 0.060514886 -0.04073876 -0.09563855
-0.09261523 -0.0619941 -0.07306364 0.070715725 -0.039697196 -0.042075854 -0.06127523 -0.088446826
-0.032591663 0.024607679 -0.08926331 -0.08499243 0.010806732 0.04001553 0.070560575 -0.09073708
0.044451464 0.054402895 0.07459685 -0.09354541 -0.066105165 -0.08858388 0.04479172 -0.06541536
0.04576141 0.034138884 0.029417895 -0.04188595 -0.08431239 -0.019950397 0.0011624771 -0.05655617
-0.03537832 0.09086371 -0.017136607 0.01565817 -0.073258296 -0.09751305 0.08824542 0.07701713
-0.04289001 0.05900069 0.010774842 -0.07842749 0.02773969 0.0909062 -0.095578834 0.055103615
-0.025562538 -0.09093722 0.010349854 0.08934382 0.0125972 -0.0056006312 -0.011926881 -0.096412204
-0.044146556 -0.07719163 0.07844563 0.07796124 -0.027968148 -0.07368994 0.09929622 -0.0990377
-0.06368269 -0.045296494 -0.08155311 0.08814871 -0.0066283774 0.051716212 0.037566006 0.01926345
0.056426898 0.052795965 0.079340294 -0.08783968 0.04434562 -0.03503294 0.015544487 -0.047891866
-0.07514778 -0.07599906 -0.04174443 0.030309541 0.09719209 0.08184189 0.014571098 -0.018648252
-0.09872868 -0.04523608 -0.04553434 -0.021581097 -0.057545748 -0.09462567 0.06568159 -0.033140533
0.0239983 -0.029584412 0.046194807 -0.03878833 -0.076348685 -0.061849028 0.038051367 -0.021725109

fc1.bias f4 [50]
00000000: b42d 9ebd ccfe 6a3d 1807 1e3d 5521 cfbc
00000010: d015 50bc 9ce3 153d 8284 cdbd 2f39 563d
00000020: d942 26bd d213 b53c 49a5 7fbb a8bc 66bd
00000030: efd4 aabd e3d4 723d ec3b adbd 1a5c 15bd
00000040: 1216 b2bd 05df d5bc 2db6 bfbd 277f c9bd
00000050: 3881 4c3d 20a9 d8bb 27f5 01bc 1942 febb
00000060: 05b0 c9bc 3e16 813d b64f 9b3d a976 133d
00000070: c3b8 bbbd 2459 a73d ef76 3d3b af28 1b3d
00000080: 8022 a535 4b92 2bbd 89f2 b2bd 9472 8b3d
00000090: edca 21bd edb1 a33d 408d 673d 7089 bbbd
000000a0: 784f 453d fd78 21bd 6fb8 65bd 4d35 13bc
000000b0: 3307 bdbb 92ba aabd 1d38 7bbd 453d dbbb
000000c0: d9cc 903d fb50 823d
-0.07723561 0.0573719 0.038580984 -0.025284449 -0.012700513 0.03659402 -0.100350395 0.05230063
-0.040591095 0.022104178 -0.003900843 -0.05633226 -0.08341395 0.059285056 -0.08458695 -0.036464788
-0.08695616 -0.02610732 -0.09360919 -0.098387055 0.04992792 -0.006611958 -0.007931984 -0.0077593443
-0.024620065 0.063030705 0.07583563 0.036001835 -0.091661 0.08171299 0.0028910001 0.037880596
1.2303499e-06 -0.041887563 -0.08737666 0.068089634 -0.039500166 0.07992921 0.05653119 -0.091570735
0.04817149 -0.039422024 -0.056084093 -0.008984876 -0.0057686805 -0.08336367 -0.06133281 -0.0066906535
0.070703216 0.06363102

fc2.weight f4 [10, 50]
00000000: b63a cbbd 3a22 02be 36db 073e 6f5b f23d
00000010: 3f46 b0bd e1fb 0fbe 4d6d d93d e754 eb3d
00000020: e5b5 10be dc40 0bbe f35d 27bd c639 b0bd
00000030: 7e83 8a3d 889e 823d 6fdd c93d 0053 723d
00000040: 9a8c ef3d 4e02 3c3d 2bc7 c73d a7b3 51bd
00000050: 39b4 973d e497 003d b560 523d d7aa 0dbe
00000060: 7857 f43c 1969 9dbd 0a93 0cbe 3484 783c
00000070: 3eb9 0cbd f584 cb3d e69e 07be 8b44 0bbe
00000080: 7480 6abd aa03 963c db0c 3b3d 94d8 9d3d
00000090: bb89 b9bd 72cc a1bc 1a8a bebc 7af6 48bd
000000a0: bb9f 9b3d 8cd3 4dbd 258b bdbd 4227 083e
000000b0: 32dd fabd b066 ba3c 3176 b3bd 1161 2c3d
000000c0: 2720 d0bd 202c 083b 6abc 01be 261c 1f3d
000000d0: 873f f53d 444c 023e 8cee b73d 6195 05bd
000000e0: e8b0 b8bc 843d a5bd 049c 08bd 6c21 033e
000000f0: c66d 003e 9011 7bbd a878 ec3c 5ec3 583b
00000100: fe67 87bb 40d9 513c d03b 0d3e 0e8d 103d
00000110: e96d f2bc 3567 ea3d 6993 0a3e 40b1 71bb
00000120: d1ff e23d a984 8fbd a13d 7b3d e2e3 6b3d
00000130: 677d 26bd 5ffc 05bd ec3e c9bd 2f98 c03d
00000140: 0d84 b23d 509c d3bd 0578 d0bd 0748 f0bd
00000150: 2bae fbbc c7ef d8bd 138e da3d 7d3b a3bc
00000160: a342 d83d 8c60 5c3d 1bc6 203d 1e41 ce37
00000170: 6375 3fbd 56fe 553a 2886 a63c 091a ca3d
00000180: f61b 81bd c2cf 9dbd 56bf 3bbd 5cf2 ff3d
00000190: 3d42 b1bd 5e07 0c3e 40b5 c63d 93e9 4c3c
000001a0: cd95 a13d 6814 c1bd 9a0b 0bbe 03f2 0c3c
000001b0: 98b1 4f3c a239 7e3d f18e e5bd 4e10 a13b
000001c0: e4e2 d0bd f0fe a73b 8674 99bd dcd0 a0bc
000001d0: 9847 b7bd 7c14 4d3d 4a7a f4bd 5161 4bbc
000001e0: bad9 033e fc58 d3bd ef48 f93d 08cb 003c
000001f0: 270f aabd 15e4 c7bd 4827 f7bd 1d19 ce3d
00000200: 4515 613d 768d 69bd 95e5 d9bc 3c5b 99bd
00000210: 2648 e63b fb63 41bd 0ce4 16bb 3779 06be
00000220: f7cd 9ebd eb09 93bd 759f c23d 8821 c4bc
00000230: 905a c43d fa9a 2ebd d613 163d 3731 dabd
00000240: e835 633d e869 c3bd cf28 a7bd 6c06 c6bd
00000250: 1fb4 153d 6e3c 033e a230 d4bd feab 0c3e
00000260: 8339 2ebd 4da3 7ebd 2003 d03d 31a9 053d
00000270: 626b 9abd b54e 73bd dd87 66bd f5df 0b3d
00000280: fe16 59bd a630 db3d 82f4 d83d 71be 0f3e
00000290: 6ebf 10bd d853 04bd 9114 84bd 0177 a1bd
000002a0: 70c9 8a3d b34e 953d c3e1 adbd 59ea 0d3e
000002b0: 52e0 ddbd afe3 a13c 601e acbc 25d5 fa3d
000002c0: 9ef9 aabc 6758 00bd 7028 e6bd 8d1d e3bd
000002d0: a087 5a3d 37ab 93bd 177c d13d cec5 ed3d
000002e0: 5357 b83d 5464 f83d 0cbd e33b f94e c4bd
000002f0: b305 883c a2b7 fa3d 90e3 d23d 566b bebc
00000300: b7f8 b3bd 015b 3cbd b9c6 8ebd 8c8c ef3c
00000310: e0d4 043e fceb b53d 5622 7cbd 87e6 033e
00000320: ca14 8c3d dcb2 7cbc 9e00 073e 8843 223d
00000330: b220 3e3d 4d9d 183d a53e 8dbd aa4d 043e
00000340: b5a1 ab3d d4b1 bcbd 8458 9ebd 1c5d b73c
00000350: 0324 fabd ab64 013e 26d0 e4bd ac2c e5bd
00000360: 2caf 03be 34b0 f6bb b91f 0abd 34ff b5bd
00000370: 5f8a d9bd 860b 993d e371 b63d e5e2 633d
00000380: 06c3 e6bc e815 cfbd 7f0b f4bd d242 a13d
00000390: 9d27 0d3d c290 aabd 6338 553d a5d5 06be
000003a0: 6e29 9dbb a978 00bc 7fee 023c 838e c73d
000003b0: a51e 58bd b842 f5bc 1ce0 883b 0825 58bd
000003c0: ce80 80bc c471 053e b536 c73b d789 563d
000003d0: 9cfb 0cbe d3a3 9abd 7d49 e13b 1e24 9bbd
000003e0: 5a69 0e3e d7f7 f73d 1fbe 08be 4e0e b2bd
000003f0: 91bf aa3d b8b9 6dbd 3999 893d cc98 4c3d
-0.099233076 -0.12708369 0.13267216 0.11833846 -0.086071484 -0.14060928 0.106165506 0.11490803
-0.14131887 -0.1359896 -0.04086108 -0.086047694 0.067633614 0.06377894 0.09856688 0.059161186
0.116967395 0.045900635 0.09754785 -0.05119672 0.074074216 0.031394854 0.05136176 -0.13834701
0.029826865 -0.076860614 -0.13727966 0.015168238 -0.03435635 0.09937469 -0.13244209 -0.13600366
-0.05725141 0.018312294 0.045666557 0.077073246 -0.09059473 -0.019750807 -0.023259211 -0.049063183
0.075988255 -0.050250575 -0.09255055 0.13296226 -0.12249221 0.022754043 -0.087627776 0.042084757
-0.101623826 0.0020778254 -0.1266953 0.038845204 0.119750075 0.12724406 0.08981046 -0.032613162
-0.022545293 -0.08068374 -0.033351913 0.12805718 0.12541875 -0.061296046 0.028866127 0.0033075432
-0.00413227 0.012808144 0.13792348 0.03529077 -0.029593425 0.114454664 0.13532795 -0.003687933
0.11083949 -0.07007725 0.06133807 0.057590373 -0.040646937 -0.032711383 -0.098264545 0.09404027
0.08716593 -0.103325486 -0.10179142 -0.11732488 -0.030722698 -0.10592609 0.1067163 -0.019925827
0.10559585 0.05380301 0.039251428 2.4587436e-05 -0.046742808 0.0008163204 0.020327643 0.09868247
-0.06304161 -0.07705642 -0.04583677 0.12497398 -0.08655212 0.13674685 0.097025394 0.01250686
0.078899 -0.0942772 -0.13578644 0.008602622 0.012676619 0.06206668 -0.112089045 0.0049152737
-0.10199526 0.0051268265 -0.07492928 -0.019630842 -0.08949202 0.050068364 -0.11937387 -0.012413339
0.12876025 -0.10319707 0.12172114 0.007860906 -0.08303671 -0.097603 -0.12068039 0.10063384
0.054951925 -0.057019673 -0.026598731 -0.07488105 0.0070276437 -0.04721449 -0.002302411 -0.13132177
-0.077541284 -0.07179626 0.0950307 -0.02394177 0.09587586 -0.042628266 0.03664001 -0.10653918
0.05547133 -0.095416844 -0.081620805 -0.096691936 0.03654873 0.12816021 -0.103608385 0.13737485
-0.042535316 -0.062167455 0.10156846 0.032632057 -0.07540013 -0.059401233 -0.056281913 0.03414913
-0.053000443 0.10702638 0.10593511 0.14037491 -0.03533881 -0.032306522 -0.06449235 -0.07884026
0.067767024 0.07290401 -0.08490326 0.13858928 -0.10833801 0.019761888 -0.021010578 0.12247685
-0.02087098 -0.031334307 -0.112381816 -0.11089621 0.053352 -0.07210391 0.102287464 0.11609994
0.09001031 0.12128511 0.0069500264 -0.09585375 0.01660428 0.122420564 0.1029731 -0.023244541
-0.08787673 -0.045985226 -0.06971497 0.029241823 0.1297183 0.08882901 -0.061556183 0.12880908
0.06839903 -0.015423503 0.13183829 0.039615184 0.0464179 0.03725939 -0.06896714 0.12920251
0.083804525 -0.092136055 -0.07731727 0.022383265 -0.122139 0.12636058 -0.11172514 -0.11190161
-0.12859792 -0.0075283293 -0.03372166 -0.08886567 -0.10622095 0.07472901 0.08908441 0.055636305
-0.028169166 -0.101116 -0.11916255 0.07874073 0.034461606 -0.083283916 0.052055728 -0.13167436
-0.0047961986 -0.007841268 0.007991432 0.09743979 -0.0527636 -0.02993904 0.0041771065 -0.05276969
-0.015686419 0.1303168 0.0060795196 0.052377548 -0.13767856 -0.07550778 0.0068752156 -0.07575248
0.13907376 0.121078186 -0.13353775 -0.08694135 0.0833732 -0.058038443 0.06718678 0.049950406

fc2.bias f4 [10]
00000000: d3b6 16bd f228 073e 92a5 f2bd b158 29bd
00000010: 115d 0bbe b2e6 e0bd cded 9cbd 3295 08bd
00000020: aa7f 363d c45b d13d
-0.03679545 0.13199213 -0.11847986 -0.04134435 -0.13609721 -0.10981502 -0.076625444 -0.03334541
0.044555344 0.10222581

batch_norm_2d.weight f4 [6]
00000000: af02 803f 2fc5 7f3f 6bf8 7f3f f3da 7f3f
00000010: 4515 803f d0a0 7f3f
1.0000819 0.99910253 0.9998843 0.99943465 1.0006491 0.99854755

batch_norm_2d.bias f4 [6]
00000000: 2b70 5639 c8ea 8939 88bd 5db7 0800 91b9
00000010: 4043 2a36 824e 49b8
0.00020450416 0.00026305602 -1.3216755e-05 -0.00027656578 2.5371119e-06 -4.799525e-05

batch_norm_2d.running_mean f4 [6]
00000000: 633f c23d 780b d33c d4b2 6e3d c838 353e
00000010: 1464 0c3d d4d7 1e3d
0.09484746 0.025762305 0.058276013 0.17697442 0.03427513 0.03878005

batch_norm_2d.running_var f4 [6]
00000000: af0b 163f 1604 0a3f e650 103f 1f0e 0e3f
00000010: c097 0c3f 2ec6 0e3f
0.5861158 0.53912485 0.5637344 0.554903 0.5491905 0.5577115

batch_norm.weight f4 [50]
00000000: 0000 803f 0000 803f 0000 803f 0000 803f
00000010: 0000 803f 0000 803f 0000 803f 0000 803f
00000020: 0000 803f 0000 803f 0000 803f 0000 803f
00000030: 0000 803f 0000 803f 0000 803f 0000 803f
00000040: 0000 803f 0000 803f 0000 803f 0000 803f
00000050: 0000 803f 0000 803f 0000 803f 0000 803f
00000060: 0000 803f 0000 803f 0000 803f 0000 803f
00000070: 0000 803f 0000 803f 0000 803f 0000 803f
00000080: 0000 803f 0000 803f 0000 803f 0000 803f
00000090: 0000 803f 0000 803f 0000 803f 0000 803f
000000a0: 0000 803f 0000 803f 0000 803f 0000 803f
000000b0: 0000 803f 0000 803f 0000 803f 0000 803f
000000c0: 0000 803f 0000 803f
1.0 1.0 1.0 1.0 1.0 1.0 1.0 1.0
1.0 1.0 1.0 1.0 1.0 1.0 1.0 1.0
1.0 1.0 1.0 1.0 1.0 1.0 1.0 1.0
1.0 1.0 1.0 1.0 1.0 1.0 1.0 1.0
1.0 1.0 1.0 1.0 1.0 1.0 1.0 1.0
1.0 1.0 1.0 1.0 1.0 1.0 1.0 1.0
1.0 1.0

batch_norm.bias f4 [50]
00000000: 0000 0000 0000 0000 0000 0000 0000 0000
00000010: 0000 0000 0000 0000 0000 0000 0000 0000
00000020: 0000 0000 0000 0000 0000 0000 0000 0000
00000030: 0000 0000 0000 0000 0000 0000 0000 0000
00000040: 0000 0000 0000 0000 0000 0000 0000 0000
00000050: 0000 0000 0000 0000 0000 0000 0000 0000
00000060: 0000 0000 0000 0000 0000 0000 0000 0000
00000070: 0000 0000 0000 0000 0000 0000 0000 0000
00000080: 0000 0000 0000 0000 0000 0000 0000 0000
00000090: 0000 0000 0000 0000 0000 0000 0000 0000
000000a0: 0000 0000 0000 0000 0000 0000 0000 0000
000000b0: 0000 0000 0000 0000 0000 0000 0000 0000
000000c0: 0000 0000 0000 0000
0.0 0.0 0.0 0.0 0.0 0.0 0.0 0.0
0.0 0.0 0.0 0.0 0.0 0.0 0.0 0.0
0.0 0.0 0.0 0.0 0.0 0.0 0.0 0.0
0.0 0.0 0.0 0.0 0.0 0.0 0.0 0.0
0.0 0.0 0.0 0.0 0.0 0.0 0.0 0.0
0.0 0.0 0.0 0.0 0.0 0.0 0.0 0.0
0.0 0.0

batch_norm.running_mean f4 [50]
00000000: 0000 0000 0000 0000 0000 0000 0000 0000
00000010: 0000 0000 0000 0000 0000 0000 0000 0000
00000020: 0000 0000 0000 0000 0000 0000 0000 0000
00000030: 0000 0000 0000 0000 0000 0000 0000 0000
00000040: 0000 0000 0000 0000 0000 0000 0000 0000
00000050: 0000 0000 0000 0000 0000 0000 0000 0000
00000060: 0000 0000 0000 0000 0000 0000 0000 0000
00000070: 0000 0000 0000 0000 0000 0000 0000 0000
00000080: 0000 0000 0000 0000 0000 0000 0000 0000
00000090: 0000 0000 0000 0000 0000 0000 0000 0000
000000a0: 0000 0000 0000 0000 0000 0000 0000 0000
000000b0: 0000 0000 0000 0000 0000 0000 0000 0000
000000c0: 0000 0000 0000 0000
0.0 0.0 0.0 0.0 0.0 0.0 0.0 0.0
0.0 0.0 0.0 0.0 0.0 0.0 0.0 0.0
0.0 0.0 0.0 0.0 0.0 0.0 0.0 0.0
0.0 0.0 0.0 0.0 0.0 0.0 0.0 0.0
0.0 0.0 0.0 0.0 0.0 0.0 0.0 0.0
0.0 0.0 0.0 0.0 0.0 0.0 0.0 0.0
0.0 0.0

batch_norm.running_var f4 [50]
00000000: 0000 803f 0000 803f 0000 803f 0000 803f
00000010: 0000 803f 0000 803f 0000 803f 0000 803f
00000020: 0000 803f 0000 803f 0000 803f 0000 803f
00000030: 0000 803f 0000 803f 0000 803f 0000 803f
00000040: 0000 803f 0000 803f 0000 803f 0000 803f
00000050: 0000 803f 0000 803f 0000 803f 0000 803f
00000060: 0000 803f 0000 803f 0000 803f 0000 803f
00000070: 0000 803f 0000 803f 0000 803f 0000 803f
00000080: 0000 803f 0000 803f 0000 803f 0000 803f
00000090: 0000 803f 0000 803f 0000 803f 0000 803f
000000a0: 0000 803f 0000 803f 0000 803f 0000 803f
000000b0: 0000 803f 0000 803f 0000 803f 0000 803f
000000c0: 0000 803f 0000 803f
1.0 1.0 1.0 1.0 1.0 1.0 1.0 1.0
1.0 1.0 1.0 1.0 1.0 1.0 1.0 1.0
1.0 1.0 1.0 1.0 1.0 1.0 1.0 1.0
1.0 1.0 1.0 1.0 1.0 1.0 1.0 1.0
1.0 1.0 1.0 1.0 1.0 1.0 1.0 1.0
1.0 1.0 1.0 1.0 1.0 1.0 1.0 1.0
1.0 1.0
