checkpoints/all users/cnn2/27-12-2023_11-15-54/last_model.pth.tar (torch, 33338 bytes, 16 tensors)

conv1.weight f4 [6, 1, 5, 5]
00000000: ec82 dcbf eafd 28c0 48b2 ac3e 8689 e440
00000010: 6cfe 3541 5a02 adc0 e0e4 ec3d e014 7741
00000020: 1cae 1641 73bd 6841 d5c8 ef40 6a89 0441
00000030: c6fa 5941 ecc1 2641 271c d040 7154 bc40
00000040: 12d1 5941 fb80 1441 e8b0 5641 8f33 8440
00000050: 4888 4cc0 623c 0041 8e3d c740 800d 4f41
00000060: 60f9 933f 539c 10c1 f9e1 71c1 70f5 2dc1
00000070: c87a 45c0 f35c ec40 5b9e 65c1 9484 50c1
00000080: b7a9 50c1 326b 6a40 f804 d640 df98 aac1
00000090: bae5 03c1 907d 95c0 cb04 8940 ed6d b040
000000a0: 3859 74c1 cf29 50c1 9803 4a40 f0d0 c140
000000b0: e21d 2b40 24a8 4ac1 9ede f0c0 e443 b9bf
000000c0: a969 9a3f 08a0 a03f 6dd8 6e40 1c4c 86bf
000000d0: a610 a4c0 3c3e 02c0 c889 c0be f813 86be
000000e0: 50b1 7240 7f4d a640 ec30 2a41 7500 ef40
000000f0: a876 9040 b42c b93f 1eaa f240 3ace e040
00000100: 0e54 b2c0 78d1 aabf 4059 72bf d69a 71bf
00000110: 5b99 5ac0 5251 9640 905b de3e 419b ff40
00000120: 7052 92bd 602c aa40 00a8 46be eb45 21c1
00000130: 9922 aac0 7f5b e9c0 a4a0 c2c0 c0e6 08c1
00000140: cda7 60c1 2efd 02c1 6cb1 8ac1 0807 c5c0
00000150: e467 5ec1 1d8a 8fc1 724d d2c1 f240 54c1
00000160: 99ab 31c1 a511 83c0 ccef adc1 2f97 b7c1
00000170: 756d 9ac1 2662 08c1 20fc 9340 348b 84c1
00000180: 105a 49c1 1890 39c1 20b5 4fbd 8392 5341
00000190: aa25 9ac0 0e3e b740 0cbf ea40 0a76 9141
000001a0: a05c 9441 be01 2b41 e90e a641 1429 c941
000001b0: 0b18 ba41 0a02 8f41 d6b3 8841 5571 9d41
000001c0: a9bb e741 4f11 c041 2cbd 6541 a536 2d41
000001d0: 22c0 b241 9697 8341 6c10 5141 f457 5f41
000001e0: 982c 4141 766b cb41 7a5d c941 c584 9d41
000001f0: d9a6 4e41 dc6e cc3f d58b 32c0 bfed 1e41
00000200: 82ee 3341 8d4c 8240 b0ce ddbf c429 2a40
00000210: 4867 1541 428e 4b41 c3fd cf40 a3d7 1140
00000220: 4081 7341 04f0 5541 daa3 8740 498d d040
00000230: be66 1941 5e8c 6641 09a3 7b41 f620 3441
00000240: c04e a040 8830 9140 59e9 2141 0050 d940
00000250: 27d1 6d40 88a2 ae3e
-1.7227454 -2.6404977 0.33729768 7.1417875 11.374615 -5.406537 0.11567092 15.442596
9.417507 14.546252 7.4932656 8.283548 13.623724 10.422344 6.5034366 5.885308
13.613543 9.281489 13.41819 4.131294 -3.195818 8.014742 6.226264 12.940796
1.1560478 -9.038165 -15.117669 -10.872421 -3.085619 7.3863463 -14.351161 -13.032368
-13.041434 3.6627927 6.6881065 -21.324644 -8.243586 -4.6715775 4.281835 5.5134187
-15.271782 -13.010207 3.1564693 6.056755 2.673699 -12.66605 -7.527175 -1.4473844
1.2063495 1.2548838 3.7319596 -1.0491977 -5.1270323 -2.0350485 -0.3760512 -0.2618711
3.7920723 5.19696 10.636944 7.468806 4.5144844 1.4466767 7.5832663 7.025174
-5.5727606 -1.3345175 -0.94667435 -0.94376886 -3.41561 4.697427 0.43429232 7.987702
-0.0714463 5.317917 -0.19400024 -10.07957 -5.3167233 -7.292419 -6.0821095 -8.556335
-14.040967 -8.186811 -17.336632 -6.1571083 -13.900364 -17.942438 -26.287815 -13.265856
-11.104394 -4.095904 -21.742088 -22.94882 -19.303446 -8.523962 4.624527 -16.56797
-12.584488 -11.597679 -0.050709844 13.223269 -4.8170977 5.726325 7.335821 18.182636
18.545227 10.687925 20.75728 25.145058 23.26174 17.875996 17.08781 19.680338
28.96663 24.008451 14.358685 10.825841 22.343815 16.449017 13.066509 13.958973
12.073387 25.427471 25.170643 19.689829 12.915734 1.5971332 -2.7897847 9.9330435
11.245729 4.0718446 -1.7328701 2.6587992 9.337715 12.722231 6.499727 2.2787864
15.219055 13.371098 4.2387514 6.5172467 9.587584 14.409269 15.7273035 11.258047
5.009613 4.537174 10.11947 6.7910156 3.7158906 0.34108377

conv1.bias f4 [6]
00000000: 0843 9dbf 051f 8941 7aeb 00c1 e9e9 8741
00000010: 620f ae41 ba9d 8640
-1.2286081 17.140146 -8.057489 16.989214 21.757511 4.2067537

conv2.weight f4 [6, 6, 5, 5]
00000000: 533d f9c0 1690 8ac0 62b4 f4c0 0937 4dc0
00000010: 38ab 25bf ce4a 0cc0 5b7d 80c0 ceb0 88c0
00000020: 9840 0fc1 a07e 3dc1 9121 9dc0 cefe bcc0
00000030: 1f8c 04c1 94ab d5c0 a775 11c1 4b52 bfc0
00000040: ba6a f7c0 b236 5dc0 f0d8 53c0 acb0 07c1
00000050: 2800 16c1 fe03 c9c0 ba08 55c1 9ea9 3dc0
00000060: a5bd 88c1 de12 b1c0 0e6f 1340 a615 1440
00000070: d6d8 6ec0 4da5 0c3f 4a20 89c0 b2e3 9bc0
00000080: e296 febf defe 8ac0 48ab 6abf 4a27 a63f
00000090: 766d 75bf 42bb 32c0 0f46 4e40 5bf7 dabf
000000a0: 305f 79bf 1451 893f acaf 4d3f 5787 9ac0
000000b0: 0579 2340 207d dbbc 7eb8 a6c0 203f 4940
000000c0: a2ab c5c0 8809 bebf 7cfc 113f c838 e0be
000000d0: 00bd 8040 14c6 b6c0 5d4a c03f b4db e53e
000000e0: 5aaf a8c0 ba77 0440 76b3 9e3f 9c2e bfc0
000000f0: b7ee d0c0 941d 033f cd32 1fc0 c8a2 4cbe
00000100: 7c1f 5940 d465 0cc0 2c97 0dc0 d71e 88c0
00000110: f209 bfc0 c5b5 7840 2344 8440 76f8 2e40
00000120: 4660 4dc0 5c80 0c40 effd 7ec0 c917 71c0
00000130: ffbf 043f fe4c 30c0 2da7 cec0 7506 e4bf
00000140: 18dd bc3e f450 98bf 68fe 923e 0aa0 ddc0
00000150: 7706 0540 9ec0 9ac0 74bd b2c0 d4cb 953f
00000160: 18d0 ee3f 5d97 9cc0 58d9 de40 c6c5 fdbf
00000170: 54ba 47c0 a0c9 edbf e09a 1dbf a7d9 9740
00000180: 7697 29bf c26f f0c0 0faf 24c0 46c4 c8c0
00000190: 13bd 23c0 a029 94bf 48f8 573f a158 5dc0
000001a0: b9ea 09c0 8494 d63f ea47 a6bf 5ae6 51c0
000001b0: 9924 0ac0 df32 14c1 f86e 8740 3dd2 36c0
000001c0: d205 55c0 64b6 a33f 3d75 c63f d864 6cbf
000001d0: e91a 80c0 e417 0140 f36b 1fc1 dc4f 4bbf
000001e0: ae75 ebc0 3aa8 0cc0 1233 bfc0 9cff 2940
000001f0: fc2f 06c0 2989 3fc0 b6d8 8dc0 7004 94bd
00000200: 7833 24c0 89a4 07c1 5459 ebbf 2692 bbc0
00000210: c665 96c0 d3f5 23c1 b2e7 42c1 259e 80c0
00000220: 8e24 f0bf bedf a6c0 5d4e 41c0 81bd 1bc1
00000230: f259 2bc0 e426 08c1 b04c 23c1 85a8 ebc0
00000240: f0cb c1c0 fec2 21c1 d0d7 4bc1 6de4 f5c0
00000250: ad1c c1c0 3cf4 09bf f8ef bb3f d58d 1abf
00000260: 5cb7 7dc0 d8b9 59be 3c1f 0bc0 d2b8 0541
00000270: 601a 31bf 320b 003f a579 3ec0 2697 5140
00000280: 3e5e 80bf 2637 eabf 1c1d 2abf 2ba0 b9bf
00000290: db3b 2940 40b6 17be ae1f 0cc0 e688 20c0
000002a0: 38d8 b340 b78c a2c0 9019 1b3e 4511 e03f
000002b0: 8cd3 09c0 d8a5 a03f a00e 30c1 5ba0 9ac0
000002c0: b7b4 93bf 119e 5d40 6eb7 f13f c392 b23f
000002d0: 22bf d2bf 78dc b3bf c011 6ac0 4ad0 42c0
000002e0: 28af e3c0 d44d 8c40 56d9 0ec0 3951 7ac0
000002f0: f067 533e c045 783e ad03 3b40 4649 903f
00000300: b31e 4340 d7cc 33c0 1116 95c0 feac 24c0
00000310: dd52 5b40 c30a ecbf 5ae5 653f 0674 5fbf
00000320: 25ec 16c1 d02c 91c0 0273 3fc0 c06f b4c0
00000330: 39f6 d23f de19 90c0 146a f040 0706 d5c0
00000340: 9cde 0dc0 1ac3 22bf 6358 37c0 bdc8 0340
00000350: 788c 8abf 3213 1f40 d288 4640 5c53 8d3f
00000360: 6cb7 6d3f 1a5c adc0 c847 d5be 38df 63be
00000370: 2034 53bf 6291 c340 f65e 05bf 88b5 173e
00000380: 37ae fa3f 6821 133f 2238 80c0 060e 3ac0
00000390: b090 9ebf 3144 9940 12a4 ad3f b468 e0bf
000003a0: 9456 2740 74fd 16bf f01c bcc0 4e75 c7bf
000003b0: 5013 b4c0 a807 63c0 75f2 a2bf c519 78bf
000003c0: 1616 b8bf 55fe 50c0 0832 03bf c0a5 3e3d
000003d0: 0152 3ec0 647a a0c0 305f 0cbe c32d 8abf
000003e0: c79a 6e40 666a 7640 bfa3 09c1 6fc2 34c1
000003f0: 1ac7 25c1 282d 29c1 0f5b 6fc0 d7d5 fbc0
-7.788736 -4.3300886 -7.6470194 -3.206484 -0.64714384 -2.1920657 -4.015302 -4.2715826
-8.95327 -11.843414 -4.9103475 -5.906104 -8.284209 -6.6771946 -9.091224 -5.9787955
-7.731778 -3.4564633 -3.3101158 -8.480633 -9.375038 -6.2817373 -13.3146305 -2.9634776
-17.0926 -5.533553 2.3036532 2.3138213 -3.7319846 0.5493973 -4.2851915 -4.871545
-1.9889796 -4.3436117 -0.91667604 1.298074 -0.9587015 -2.7926793 3.223026 -1.7106737
-0.9741087 1.0727868 0.8034618 -4.829021 2.5542614 -0.026793063 -5.210021 3.1444778
-6.1772013 -1.4846659 0.57025886 -0.4379332 4.0230713 -5.7116795 1.5022694 0.44894183
-5.271405 2.0698075 1.2398517 -5.9744396 -6.52914 0.5121701 -2.4874756 -0.19983971
3.3925467 -2.193715 -2.2123518 -4.2537646 -5.969964 3.8860943 4.1333175 2.7339149
-3.209001 2.1953344 -3.9842489 -3.7670767 0.5185546 -2.7546992 -6.457907 -1.781447
0.3688743 -1.1899705 0.28709722 -6.925786 2.0785196 -4.836013 -5.5856266 1.1702828
1.8657255 -4.893477 6.964031 -1.9825981 -3.1207476 -1.8577156 -0.61564445 4.745319
-0.66246736 -7.5136423 -2.5731847 -6.273959 -2.5584152 -1.1575203 0.8436322 -3.4585345
-2.1549513 1.6764073 -1.2990696 -3.2796845 -2.1584837 -9.26242 4.232296 -2.856582
-3.3284802 1.2790036 1.5504528 -0.92341375 -4.003285 2.0170832 -9.963855 -0.7941873
-7.358115 -2.1977677 -5.974984 2.6562262 -2.0966787 -2.9927466 -4.432704 -0.07227409
-2.5656414 -8.47767 -1.8386636 -5.8615904 -4.6999235 -10.247516 -12.181566 -4.0193048
-1.8761156 -5.2148123 -3.020408 -9.733766 -2.6773648 -8.509495 -10.206223 -7.364321
-6.0561447 -10.1101055 -12.740189 -7.684134 -6.0347505 -0.538883 1.4682608 -0.6037267
-3.9643164 -0.212623 -2.1737814 8.357622 -0.6918087 0.5001708 -2.9761746 3.2748504
-1.002876 -1.829808 -0.6645067 -1.4502004 2.6442783 -0.14815617 -2.1894336 -2.5083556
5.620144 -5.079677 0.1514647 1.750527 -2.1535368 1.2550611 -11.003571 -4.8320746
-1.1539525 3.4627726 1.8884103 1.3951038 -1.6464579 -1.4051657 -3.6573334 -3.043963
-7.1151314 4.3845005 -2.2320151 -3.9112074 0.20645118 0.24245358 2.9220994 1.1272361
3.0487487 -2.8093774 -4.6589437 -2.5730586 3.4269326 -1.8440784 0.8980309 -0.8728641
-9.432652 -4.5367203 -2.9913945 -5.6386414 1.6481391 -4.5031576 7.512949 -6.6569858
-2.216712 -0.6357895 -2.8647697 2.059127 -1.0824118 2.4855466 3.1021008 1.1041064
0.92858005 -5.417493 -0.41656327 -0.2225312 -0.8250141 6.111497 -0.52098024 0.14815342
1.9584416 0.5747285 -4.006852 -2.907106 -1.2387905 4.789574 1.3565695 -1.7531953
2.6146593 -0.5898049 -5.8785324 -1.5582674 -5.6273575 -3.5473423 -1.2730242 -0.9691432
-1.438174 -3.2655232 -0.51248217 0.04654479 -2.9737551 -5.0149403 -0.13708186 -1.0795215
3.7281969 3.850244 -8.602477 -11.297469 -10.361109 -10.573524 -3.7399328 -7.8698535

conv2.bias f4 [6]
00000000: fa7c 8dc0 5b02 8440 5a34 6c3f 2c39 bbbf
00000010: 7c24 08bf ca81 df40
-4.421506 4.1252875 0.9226738 -1.4626822 -0.5318067 6.9845934

fc1.weight f4 [50, 96]
00000000: 384c 90be 2181 8c3f 91ef 833f 4c84 893e
00000010: d6f9 5a40 0cef a1c0 60b8 cd3d 5544 eabf
00000020: 60d5 81bd 7ab1 9cc0 0050 7140 db01 c840
00000030: dd47 a23f 36a9 14c0 92ef 8e40 a60c 32c0
00000040: 1218 0cc0 ebe2 39c0 d4dc 3a3f 3c1a bdbf
00000050: 8030 0ec0 8b45 9140 1cee 8c3e cd38 6a40
00000060: c0b6 1d3e 967b 4440 c6a0 2c40 b8f9 87c0
00000070: 72a6 b940 6b3d 9b3f b8c7 0ec0 8b1a 1d40
00000080: 5833 90be 80bb 0ebf 6a9c 1b3f b877 cabf
00000090: dd05 bebf 5dd8 59c0 c25f b0bf 2cdc 9bbe
000000a0: b39a 8340 3013 9dbe 6a04 5740 de34 ba40
000000b0: 0038 1dbc 5466 1ac0 b818 733f e5c7 82bf
000000c0: dc5a e7bc d056 0c40 3b5b e8bf af1c 4640
000000d0: c8ec 7240 54bc ac3e e760 bb3f e471 ef3f
000000e0: 1003 81bd 217d 27c0 f8e7 2b3e ee53 3ec0
000000f0: e794 acc0 c416 acbf 4676 4b40 e0c2 a140
00000100: 849b cd3f 78bd 49bf 2de6 87bf 1437 e8bf
00000110: 20c4 1fbf da18 9040 0c17 6fc0 c048 18c1
00000120: 8b2d a9bf 82c5 fdbe e7c2 6bc0 3c10 4f3f
00000130: 50f5 3ec0 d64b d8c0 02c4 4740 6ccb a4be
00000140: 34a8 19c0 6813 b0be 8814 e1be e4de 6f40
00000150: c411 9840 a91f 2640 c4ce 9440 ec48 83bf
00000160: a42f 35c0 88ea a1be 0f93 1ec0 3cb5 a940
00000170: 0fad 93c0 5cf5 f1c0 d008 d9bf 1e97 2d40
00000180: abf4 2341 3d5c 1040 3966 a640 fe50 6bc0
00000190: c25c 8040 1b9a 00c0 c533 0440 a9e5 9b40
000001a0: 6ec0 b5bf 6f6d f0bf e0a1 6ac0 74dd 6dc0
000001b0: 488a 833f c0b3 5340 582d eb3e f30b ecbf
000001c0: e6f6 853f 9044 f13f e2c1 fbbf 06cd 1a3e
000001d0: adfa c0c0 7eb8 4c40 48e9 e5c0 5033 9ac0
000001e0: 7038 5ebf 5683 6940 5c9f 1ac0 ca6c 91bf
000001f0: b623 46bf bae2 033f 4974 31c0 67cf 1340
00000200: 5662 113e 13ac 2bc0 c54a 4840 10b6 053f
00000210: c0ca 903d 461f 5340 fea3 6540 7ccb 23c0
00000220: ecd0 25bf 4f31 5b40 4106 a540 5c77 36bf
00000230: 9c64 a1c0 540e 543f 187f 1dc0 dec0 e6bf
00000240: 7f98 49c0 e874 b2bf 2c6c 773f 4c4a c240
00000250: 2788 b5bf b78b 68c0 6603 b2bf 6488 2e3f
00000260: 6e38 aebf fe92 2ec0 5d49 b8c0 e8f3 3fbf
00000270: 489c 9c40 b07a 42be aa9e dc3f d63c 45c0
00000280: 7732 2840 2363 b640 faaa fcbf 8d78 1c40
00000290: 08c4 8440 cf00 debf 9852 06bf 253c 20c0
000002a0: f8d6 3bbe 71a5 3cc0 6514 9c40 0497 1f3f
000002b0: 1014 b3bf 6057 7540 9ef7 6cc0 3d8c 2740
000002c0: 99c6 cf3f fa90 203f a479 0240 3435 dd40
000002d0: f113 963f a6e8 41c0 280f 96bf 6c28 613e
000002e0: c2f5 12c0 6179 4cc0 42a8 4340 c0d9 0abf
000002f0: 071d c340 3c6c 96c0 73a6 8740 782f 723f
00000300: 8174 8940 a542 4740 1a45 e0bf 8004 87bd
00000310: ba4d 7140 fa77 8440 d789 5dbf f688 cfbf
00000320: e71a b640 509c da3f e032 713f de44 4040
00000330: e93e e540 7b04 bc3f c805 c0bd 1636 2dc0
00000340: 40f9 223e e2e7 92c0 6d91 8040 1e0a 7ac0
00000350: 292b aa40 6604 84c0 ec4f 37c0 41b3 5940
00000360: a04c f83e 00bc 8fbe f3e5 eec0 d196 a340
00000370: f9b7 38c0 ca43 0ac0 1d35 723f a02c b5c0
00000380: 2e6c febf a824 89be db9b 87c0 8406 0bbf
00000390: 9cd4 cb3f 2572 5740 244e a6bf d0d9 03c0
000003a0: 19ba 69c0 0aaf b73f 6849 3740 3afa d83f
000003b0: 833d b2bf a66e 77bf 07a3 b13f 39b3 02c0
000003c0: 661a ed3f 7e15 16c0 eee5 8a3f 3481 0240
000003d0: 49c1 e0bf a60c acc0 0003 d73d ae9a 5240
000003e0: fc24 db3f c703 0440 881a b4bf d22b 5dc0
000003f0: 25d7 1abf d14b c8c0 f0a6 a0bf 4288 ce3f
-0.2818315 1.0976907 1.0307485 0.26858747 3.4214988 -5.0604305 0.10044932 -1.8302103
-0.06339526 -4.8966646 3.7705078 6.2502265 1.2678181 -2.3228278 4.4667444 -2.782022
-2.1889691 -2.904475 0.72993207 -1.4773631 -2.2217102 4.539739 0.27525413 3.6597168
0.15401745 3.070043 2.6973128 -4.2492332 5.801568 1.2128118 -2.2309399 2.454745
-0.28164172 -0.5575485 0.60785544 -1.5817785 -1.4845539 -3.4038308 -1.3779223 -0.30441415
4.112634 -0.306787 3.3596444 5.8189535 -0.009595871 -2.4124956 0.9495959 -1.0217253
-0.028241567 2.1927986 -1.8152841 3.0955007 3.795702 0.33737433 1.4638947 1.8706632
-0.06299412 -2.6170123 0.16787708 -2.9738727 -5.3931766 -1.3444448 3.1790938 5.0550385
1.6063085 -0.7880473 -1.0617119 -1.8141809 -0.6240864 4.5030336 -3.7357817 -9.517761
-1.3217024 -0.4956475 -3.683771 0.80884147 -2.9837227 -6.7592573 3.1213384 -0.3218645
-2.4008913 -0.34389806 -0.43960977 3.7479792 4.7521687 2.5956824 4.65024 -1.0256629
-2.8310328 -0.31624246 -2.4777257 5.3033733 -4.6148753 -7.561201 -1.6955814 2.7123485
10.247233 2.2556298 5.1999784 -3.6768184 4.011323 -2.0094059 2.0656598 4.8717847
-1.419935 -1.8783396 -3.66613 -3.7166414 1.0276575 3.307846 0.45933032 -1.8441147
1.0465972 1.8849049 -1.9668543 0.15117273 -6.0306 3.1987605 -7.1847267 -4.8187637
-0.86804867 3.648641 -2.4159765 -1.1361325 -0.7739824 0.5151783 -2.7727225 2.3095338
0.14197668 -2.6823776 3.1295636 0.5223093 0.070699215 3.2987838 3.5881343 -2.5592947
-0.64771914 3.4248846 5.1570134 -0.7127588 -5.0435314 0.82834363 -2.4608822 -1.8027608
-3.1499326 -1.3941927 0.9664943 6.0715694 -1.4182175 -3.6335275 -1.3907287 0.68176866
-1.3610971 -2.7277217 -5.7589555 -0.74981546 4.8940773 -0.18992114 1.723592 -3.0818381
2.6280801 5.6996017 -1.9739678 2.4448578 4.1489296 -1.7343997 -0.5246978 -2.503671
-0.18343723 -2.9475977 4.8774896 0.62339807 -1.3990498 3.833458 -3.7026134 2.6179345
1.6232482 0.62721217 2.0386744 6.9127445 1.1724836 -3.0298247 -1.1723375 0.21988076
-2.2962499 -3.1949084 3.0571446 -0.5423851 6.0972934 -4.700712 4.2390685 0.9460368
4.2954717 3.1134427 -1.7521088 -0.06592655 3.770369 4.1396456 -0.8653845 -1.6213672
5.690784 1.7078953 0.94218254 3.0042033 7.1639295 1.4688867 -0.09376103 -2.7064261
0.15915394 -4.590806 4.017752 -3.9068675 5.3177686 -4.125537 -2.864253 3.4015658
0.4849596 -0.2807312 -7.46557 5.11216 -2.8862288 -2.1603875 0.94612294 -5.6616974
-1.9876764 -0.2678578 -4.2377753 -0.5430682 1.5924258 3.3663418 -1.2992597 -2.0601692
-3.6519835 1.4350293 2.8638554 1.6951363 -1.3925022 -0.9665321 1.3877877 -2.042189
1.8523681 -2.3450618 1.0851419 2.039136 -1.7558986 -5.376544 0.10498619 3.290691
1.7120662 2.0627306 -1.4070597 -3.4557996 -0.60484535 -6.259255 -1.2550945 1.6135333

fc1.bias f4 [50]
00000000: af25 9140 97b0 0440 dc57 26bf 2173 443e
00000010: 57c4 ca40 bf18 14c0 c44f e140 d05b 92bf
00000020: 6e85 0cc1 d092 08bf 88f7 34be 48b7 8040
00000030: 0020 a4bd 8426 e7c0 7a07 9540 5feb eb3f
00000040: 406a e240 8675 c640 c872 5bbf d949 1b40
00000050: ecee 353f 8684 c3be 27f9 98c0 f2df 9dc0
00000060: 8cf1 6440 5891 40c0 6f83 f13f 6bf5 c1bf
00000070: 403b 13bf 3828 903f 9a66 8bbf d46b dc40
00000080: d82b 433f c478 cf40 8985 87c0 dd51 9140
00000090: e616 b4c0 c0bb c83c 6115 c0c0 e682 92c0
000000a0: 229b 81bf 53f8 b640 cf5b b6c0 7acf 79bf
000000b0: a583 3040 b2f9 ffbf bf8a f8bf c282 f4bf
000000c0: 0c60 b0c0 18da ad3f
4.53585 2.0732782 -0.6497781 0.19184543 6.3364673 -2.3140104 7.040987 -1.1434269
-8.782576 -0.5334902 -0.1767255 4.022373 -0.08013916 -7.2234516 4.6571627 1.8431205
7.07547 6.201846 -0.8572202 2.4263823 0.7106769 -0.38187045 -4.780414 -4.933587
3.5772429 -3.008871 1.8868235 -1.5153021 -0.57512283 1.1262274 -1.0890687 6.8881626
0.76238775 6.483492 -4.2350507 4.541243 -5.627795 0.024503589 -6.0026097 -4.578479
-1.0125468 5.717813 -5.698707 -0.9758221 2.758035 -1.9998076 -1.9417342 -1.9102404
-5.5117245 1.3582182

fc2.weight f4 [10, 50]
00000000: 8436 eec0 e0d0 023d 552d 83c0 b427 b4bf
00000010: 1ac6 f9bf fbc9 7fc1 6eff 3dc1 3ad3 d740
00000020: 7e7f 9240 0731 c6bf 3842 32c0 a2b1 82c1
00000030: aac4 8640 1632 4640 1db8 e340 5644 31c0
00000040: 33ac 1241 c6c6 74c1 d8c8 a4bf 18f3 e740
00000050: 3a04 f840 347b e63e 528f a340 44a2 8bc0
00000060: ecbf 9c40 7982 7ec0 bf08 f0c0 5396 8bbf
00000070: f664 3540 f8fe 8fc0 26f7 7c40 f795 933f
00000080: 0a1f 1cc0 80c8 2abd 0804 393f f029 c5be
00000090: fc83 c1c0 e880 7f3e 76a5 2b3f bfc2 4e40
000000a0: 7296 7540 4cb6 47bf 1dba 98c0 28c1 33c0
000000b0: 1b3c c1c0 73b7 fbc0 8065 2dbf 52e2 6c40
000000c0: c299 e5c0 6822 13bf 5219 7940 291a 2fc0
000000d0: 39aa 81bf 96bd 1440 181c b1bf e77b 2b40
000000e0: 14c0 8c40 c8ca 0441 7a50 3b41 1e37 b440
000000f0: ccac 1d40 ae70 4cc0 b3fc 6b40 6e9a 0841
00000100: 1f66 d8c0 5289 ddc0 8cc7 0841 50ad c83f
00000110: 656e 883f 6f13 0741 a0b6 123d eead 7f3f
00000120: 1f92 b43f 96a4 be40 86d0 1fc0 a067 11c0
00000130: 58dd 18bf 8452 d33f ec32 cb3f 5bb3 53c0
00000140: 08d8 ec3e dd1f 49c0 d7f8 82c0 662c 2140
00000150: 3834 5741 606b 4a3f fdca acbf d37d 71bf
00000160: 7ae7 2740 41a6 1bc0 82d7 6e40 3806 68be
00000170: 8e31 b340 5e5b 7f3f 5034 81bf 673d 87c0
00000180: 2e40 d9bf 4584 29bf 1eb9 4ac0 b555 8240
00000190: cfa0 103f 8abe 3fbf aad4 95bf ac28 c4bf
000001a0: 7c6b 7140 6d4e 1740 a4cc 71c0 c5cc 9940
000001b0: 241a 2cc0 5ff8 1ec1 12f0 5140 1c68 8440
000001c0: 40c5 8440 23ab 54c0 a4b1 843f 0361 81c0
000001d0: 06f6 bfc0 1832 c440 8054 f9bd e853 48bf
000001e0: 7ea4 18c0 046f 2440 e856 4f3f e222 01c1
000001f0: 56cb da40 80e4 31bd fc41 f93f 00b4 5a40
00000200: 06f3 7e40 7003 9a40 5276 3e40 cee3 8c40
00000210: f735 e93f aaf4 25bf 5eab 74c0 dac0 b940
00000220: 5000 84c0 9564 5ec0 956f 9e40 3eef 12bf
00000230: ee4d 44c0 06b7 0b40 a89a 3d40 3e65 d640
00000240: 612e 5740 9faf 9c3f 6283 9bbf 7285 123f
00000250: 2aa5 0c3f 98d0 a940 0ef1 02c0 df90 0840
00000260: 9831 01bf 615b 8cc0 f2b6 59bf 1396 3840
00000270: 046b f8c0 f26e 0240 82d9 31c1 4d48 51bf
00000280: 20a9 4bc0 e2e9 9540 ee37 fcbe e259 3fc1
00000290: eac5 2bc0 0dc9 82c0 4049 a2c0 3873 03c0
000002a0: 570a 5640 9678 e9c0 43a1 59c0 6962 2b40
000002b0: 56fd d03f a486 23c1 5ccd 0340 3468 7b3f
000002c0: 0a9d 8540 1100 ae3f 0a3b c8c0 b60c 7740
000002d0: 0e6d c33f 62d9 44bf b26a ec3f 0c9a 88be
000002e0: 14ff 1dc1 5ace 1041 2abd 29c0 ccf7 1fc0
000002f0: d96b 8a40 d3a7 6b40 eae4 95be 2e2f 0ec0
00000300: 6069 933f 1c40 7b3e 02ba 7340 2ced ab3f
00000310: 20c9 bf3f b97d 81c0 dbea 13c0 df40 8dc0
00000320: 425c 0840 e009 bbc0 5ce9 a340 b951 62be
00000330: 6dfb d9bf 9221 a040 5e6e 2440 de43 8a3f
00000340: 8ca2 bcc0 20c9 d43e 84ee 5640 8276 8b40
00000350: c974 8b3e 2a56 6ec0 5498 1dbe ae08 cfc0
00000360: e9df c2c0 5cd2 4140 fb62 8240 54d2 98c0
00000370: 9bcc 5640 3072 73be efaa 84c0 8c40 13c0
00000380: 3008 0ec0 52cc 8ec0 78cb e83f 4c06 5a40
00000390: b02b f0c0 31d0 f4bf 9f50 52c0 f044 51bf
000003a0: 9cda 313f 5241 9d40 1f16 5dc1 3bda d240
000003b0: 6acb 6e40 7b4e 1940 4e86 30bf 802a 2bc0
000003c0: a265 913e ed20 92bf 8206 973f 8fa4 e0bf
000003d0: c4bb 9b40 c078 42c0 554e df40 945f f93e
000003e0: 8c88 fac0 ccc9 42c0 5a72 1040 4a10 18c0
000003f0: 429b 3740 1d28 bc40 d613 a03f 3e95 d6be
-7.4441547 0.03193748 -4.0992837 -1.4074616 -1.9513581 -15.986812 -11.874861 6.7445345
4.578063 -1.5483712 -2.7852917 -16.336735 4.211507 3.096807 7.116225 -2.769796
9.167041 -15.298529 -1.2873793 7.2484245 7.750516 0.45015872 5.111245 -4.363558
4.898428 -3.9767134 -7.5010676 -1.090525 2.8342872 -4.499874 3.9525847 1.1530141
-2.4393945 -0.041695118 0.72271776 -0.38508558 -6.0473614 0.24951518 0.6704935 3.2306364
3.8373075 -0.7801254 -4.772719 -2.8086643 -6.038587 -7.8661437 -0.67733 3.7013135
-7.1750193 -0.57474375 3.8921704 -2.7359717 -1.0130073 2.3240714 -1.3836699 2.6794374
4.398447 8.299507 11.707148 5.631728 2.4636717 -3.1943774 3.6872985 8.537703
-6.762466 -6.9230127 8.5487175 1.5677891 1.065869 8.442245 0.035818696 0.9987477
1.4107093 5.957591 -2.4971023 -2.2719498 -0.59712744 1.6509557 1.5874915 -3.307822
0.4625857 -3.1425698 -4.092876 2.5183349 13.450249 0.7907009 -1.3499447 -0.9433262
2.6235032 -2.4320223 3.7319036 -0.22658622 5.599799 0.9974879 -1.009409 -4.2262454
-1.6972711 -0.6621745 -3.1675487 4.0729623 0.56495374 -0.74900115 -1.1705525 -1.5324912
3.7721853 2.3641617 -3.7781153 4.8062463 -2.6890955 -9.935637 3.2802777 4.1377087
4.1490784 -3.3229454 1.0366712 -4.0430923 -5.998782 6.131115 -0.1217432 -0.7825303
-2.3850398 2.5692759 0.80991983 -8.071016 6.8373213 -0.043430805 1.9473262 3.4172363
3.983583 4.8129196 2.9759717 4.402808 1.8219594 -0.6482645 -3.8229594 5.8047915
-4.125038 -3.474889 4.951121 -0.57396305 -3.0672565 2.1830459 2.9625645 6.6998587
3.3622057 1.2241095 -1.214947 0.5723487 0.5493952 5.306713 -2.0459628 2.1338422
-0.504663 -4.3861547 -0.8504478 2.8841598 -7.7630634 2.0380216 -11.1156025 -0.8175095
-3.1821976 4.6848 -0.4926142 -11.959444 -2.6839547 -4.0870423 -5.0714417 -2.0539074
3.344381 -7.29597 -3.4004676 2.6778815 1.6327312 -10.220371 2.0594091 0.98205876
4.17542 1.359377 -6.257207 3.8601508 1.5267656 -0.768942 1.8470061 -0.26680028
-9.874775 9.050379 -2.6521707 -2.4994993 4.325665 3.6821182 -0.2927621 -2.2216296
1.1516533 0.24536175 3.808228 1.3431754 1.4983253 -4.046597 -2.3112094 -4.414169
2.130631 -5.8449554 5.1222363 -0.22101487 -1.7029854 5.004098 2.5692363 1.0801961
-5.894842 0.41559696 3.3583078 4.3582163 0.27237538 -3.724009 -0.1539014 -6.4698095
-6.089833 3.0284643 4.0745826 -4.775675 3.3562381 -0.23774028 -4.145866 -2.3008146
-2.2192497 -4.4624414 1.8187094 3.4066343 -7.505333 -1.9126035 -3.2861707 -0.81745815
0.69474196 4.9142237 -13.817901 6.5891395 3.7311654 2.395415 -0.6895493 -2.674469
0.28397852 -1.1416298 1.1798861 -1.7550219 4.8666706 -3.03862 6.978312 0.48705733
-7.8291683 -3.0435667 2.2569795 -2.3759942 2.8688512 5.8798966 1.2506053 -0.41910738

fc2.bias f4 [10]
00000000: 002d 343d fe98 913f 8494 03c0 0456 93c0
00000010: 3448 0540 453f 8fc0 e3e1 bbbf dfb3 3fc0
00000020: c0ae 353f dfe1 a3c0
0.043988228 1.1374815 -2.0559397 -4.60425 2.082532 -4.4764733 -1.467831 -2.9953535
0.7096977 -5.121322

batch_norm_2d.weight f4 [6]
00000000: 3e96 c13e 9657 8abf 06cf 2dc0 4478 4840
00000010: 5799 70bf 6403 4a40
0.37809938 -1.0807979 -2.7157607 3.1323404 -0.9398398 3.156457

batch_norm_2d.bias f4 [6]
00000000: de6b b340 fe11 96bf 63e0 de3f c9e6 8ac0
00000010: 1ab0 6f3f 79d3 c6c0
5.6069174 -1.1724241 1.7412227 -4.340672 0.93628085 -6.2133145

batch_norm_2d.running_mean f4 [6]
00000000: 88f8 1d40 e089 7ec0 454e 59bf 158d 94c0
00000010: a072 953e 4156 86c0
2.4682941 -3.9771652 -0.84885055 -4.642222 0.29189014 -4.198029

batch_norm_2d.running_var f4 [6]
00000000: c082 f1bd 3c0c 41c0 d0eb 3dbe 5822 bb40
00000010: d733 2840 d83a c1bf
-0.11792517 -3.0163717 -0.18546987 5.8479424 2.628164 -1.5096083

batch_norm.weight f4 [50]
00000000: 216d 66bf 9ac3 7cc0 993c ebbf 7a34 0340
00000010: da95 a0c0 deb5 6040 8833 5340 a277 d840
00000020: 44c3 943f d818 3440 1c75 6cc0 52df 2240
00000030: ca18 a940 a293 e63f dcf9 85be 6c16 0cc0
00000040: 6590 0240 2e87 5440 96ba f9c0 bcf0 8bbf
00000050: 4e5d e640 8feb 6d40 aec4 ec40 9b1e bbc0
00000060: ae55 6340 8a16 1840 c8d4 0b40 0020 63c0
00000070: d812 6a40 201d bfc0 18cb 89bf 72bd 1c41
00000080: cda6 86c0 dcd5 2c40 aaa2 2c40 fe00 9340
00000090: 625c 7c40 782e 8040 04a0 b1be 7f6f 8bc0
000000a0: f497 adbf 3dc3 c740 468a 8140 a06f 6abd
000000b0: ac09 8240 10ca 58c0 9452 503f 51e9 9240
000000c0: 0a2f 5ec0 4857 55be
-0.9001027 -3.9494386 -1.8377868 2.050078 -5.0182924 3.5111003 3.3000202 6.7646036
1.162209 2.8140163 -3.6946478 2.5448804 5.284276 1.8013804 -0.2616719 -2.1888685
2.0400631 3.3207507 -7.8040266 -1.0932841 7.1988897 3.7175024 7.3990088 -5.847486
3.5521045 2.3763757 2.1848621 -3.5488281 3.6574001 -5.9723053 -1.0765104 9.796251
-4.2078614 2.700553 2.6974282 4.593871 3.9431386 4.0056725 -0.34692395 -4.3573604
-1.3561997 6.242583 4.048129 -0.05723536 4.0636806 -3.387333 0.81376004 4.590981
-3.471621 -0.20834076

batch_norm.bias f4 [50]
00000000: 2c6f 1040 478e 8ebf 9ab8 8dbf 38cb 38c0
00000010: 3694 5cbf ba45 b0bf 64e3 dbbf 7274 17c0
00000020: 1e1f 41bf 5b49 d0c0 ba2b f340 3887 463f
00000030: 358c 0040 bfdb 60c0 d6eb 0c40 c84f c63e
00000040: 4792 85c0 6bab 3e40 223e 8a40 0a83 ba3e
00000050: 7db2 a340 6cb9 8140 9cab 573f 68d2 803e
00000060: 6ed9 86c0 f80d b13f 3110 d340 224f 36bf
00000070: eada 5840 92ca 003f 049c c9c0 325e d7c0
00000080: 5ebd 19c0 9746 80c0 e09e 2cc0 58bb 0f41
00000090: 2a65 b3c0 aaec dfbf e977 8fc0 6e97 82c0
000000a0: 37ed e040 b875 1fc0 ee90 ce3f 7464 65c0
000000b0: 24bf 10bf 6dae cb3f f6ed 2cc0 b55a 6f40
000000c0: 3803 12c0 a3ba ea40
2.2567854 -1.113717 -1.1071961 -2.8874035 -0.8616365 -1.3771279 -1.7178769 -2.3664823
-0.75438106 -6.5089545 7.5990877 0.7755008 2.0085576 -3.5134122 2.2018943 0.38732743
-4.174106 2.9792125 4.3200846 0.364281 5.115538 4.0538845 0.8424623 0.25160527
-4.2140417 1.3832388 6.5957265 -0.712145 3.3883615 0.503091 -6.300295 -6.7302485
-2.402183 -4.008617 -2.697197 8.983238 -5.606099 -1.7494099 -4.4833875 -4.080985
7.028957 -2.49156 1.6137979 -3.5842562 -0.5654166 1.5912606 -2.702024 3.7399113
-2.2814465 7.335283

batch_norm.running_mean f4 [50]
00000000: 401d 7cbd 9fd2 dd40 29f2 84c0 f85b 8740
00000010: d80a 3bc0 4262 423f 3db5 3940 e0ef 8f3f
00000020: bafa e0c0 71d5 5340 6494 1ec0 80f7 9f3f
00000030: 81e5 3640 6ea9 ebbf 0091 c53e 9f50 9640
00000040: 2023 d140 d775 09c0 e050 89bd 9a4a 2140
00000050: e59a 8dbf 1772 1b40 3eb8 41bf 76d8 13c0
00000060: 6f89 44c0 4cd7 b940 42b6 8cc0 09f5 9c40
00000070: 1828 87c0 a35b 27bf 2fe7 35c0 19f3 f8c0
00000080: 62c5 ffbf 8419 0e3f 7884 8e40 e360 a140
00000090: cbb1 ab40 30d7 b540 f9e9 fac0 18d8 a140
000000a0: 6494 d73e 6093 d33d 177d 0540 a1bd 34c0
000000b0: ec80 dec0 36ec d9bf 698f bb3e 9db2 87bf
000000c0: e542 97c0 8449 403f
-0.061551332 6.9319606 -4.1545606 4.2299767 -2.9225368 0.7593118 2.901687 1.1245079
-7.0306063 3.3099024 -2.477807 1.2497406 2.8577578 -1.8411081 0.3858719 4.6973414
6.5355377 -2.1478174 -0.06704879 2.5201783 -1.1062895 2.4288385 -0.75671756 -2.3100867
-3.0708883 5.8075314 -4.3972483 4.9049115 -4.2236443 -0.653742 -2.8422353 -7.779675
-1.9982111 0.55507684 4.4536705 5.043077 5.3654532 5.682518 -7.841061 5.0576286
0.421054 0.10330844 2.0857599 -2.824074 -6.9532375 -1.7025211 0.3663285 -1.0601383
-4.726916 0.75112176

batch_norm.running_var f4 [50]
00000000: 5839 f1bf 6a5b 7fc0 bc50 6340 de21 4340
00000010: de51 5740 2ea4 b340 b63b 9e3f 72b4 4ac0
00000020: bf06 43c0 788e 3f40 201c ad40 dc77 bf3f
00000030: 42d4 3440 a35d a0c0 a805 61c0 cad1 3b40
00000040: 00ef ab40 70ff 34c0 c4f1 1e40 101c 3fc0
00000050: dac3 41c0 667b 643f 1ada 503f aa34 cd40
00000060: e023 1640 c601 8440 7719 cdc0 f8db 6240
00000070: 24f8 ce40 d047 a040 d710 8540 1a67 7b40
00000080: da54 e4bf 0ac0 3740 d962 1d41 08cc a7c0
00000090: c21a 63be 94bd 71bf a2b6 3140 1c98 1ebf
000000a0: 17ad 9240 ec92 093e 58ed 1e3f 2a41 4a40
000000b0: 7856 03c0 e81e 3d40 7c1d 3140 b646 eebf
000000c0: 9222 5ac0 2d8e 8abf
-1.8845625 -3.9899545 3.5518026 3.048942 3.3643718 5.6137915 1.2361972 -3.1672635
-3.0472867 2.9930706 5.409683 1.4958453 2.8254552 -5.0114303 -3.5159702 2.9346795
5.372925 -2.8280907 2.4835062 -2.9860878 -3.0275788 0.8925079 0.81582797 6.4126787
2.3459396 4.1252165 -6.4093585 3.5446758 6.4677906 5.008766 4.1583056 3.9281678
-1.7838395 2.8710961 9.836633 -5.243656 -0.22178176 -0.944299 2.776772 -0.6195085
4.583629 0.13434952 0.6208091 3.1602273 -2.0521526 2.9550114 2.7674246 -1.8615329
-3.40836 -1.0824639
