checkpoints/all users/cnn2/18-12-2023_19-00-51/last_model.pth.tar (torch, 120999 bytes, 8 tensors)

conv1.weight f4 [6, 1, 5, 5]
-0.12695666 0.07683562 -0.050752964 -0.22690292 0.06622585 0.17296642 0.14276367 0.36540145
0.20781387 0.285881 -0.09737125 0.12386709 0.31672105 0.30778438 0.34369776 -0.002341854
0.09291204 -0.033930507 -0.28578144 -0.12836435 -0.097553425 -0.43329546 -0.47348574 -0.45702815
-0.34357768 0.030821975 0.0039930292 0.33147725 0.13001743 0.10974522 -0.13871042 0.17457491
0.3508058 0.11802561 0.0031334339 0.004553141 -0.22725415 -0.07475122 -0.040331796 -0.0028898334
-0.06091631 0.022457225 -0.05733261 0.06558123 -0.050686326 -0.13561793 -0.38255802 -0.25802484
-0.18858974 -0.30207518 -0.05965481 -0.09791849 -0.00660042 -0.25003546 -0.35518667 -0.15157916
-0.047880113 0.015372142 -0.27883512 -0.21374911 0.08386202 -0.2830657 -0.30607268 -0.06038895
0.11281416 0.16729853 0.2503053 0.18254454 0.04883499 -0.13440515 0.2130186 0.3264779
0.23482355 0.15175164 -0.19428325 -0.055694062 -0.3891313 -0.39773014 -0.36247465 -0.41675037
-0.30298534 -0.48000976 -0.3756731 -0.15999943 -0.45408377 -0.4872103 -0.40519738 -0.42394733
-0.36413532 -0.38349485 -0.17971843 -0.46526253 -0.4398422 -0.32564384 -0.10350443 -0.30740225
-0.24524803 -0.31240067 0.0566931 -0.13895369 -0.10377462 0.19631064 -0.1100341 -0.26058638
-0.29912722 -0.13575105 0.2775454 0.22323242 0.09026688 0.25637856 0.19146344 0.20300606
0.30537847 -0.020502534 0.17973009 -0.1763035 -0.21595946 0.14275558 -0.010754974 -0.04715483
-0.2595902 -0.19311334 -0.06209544 -0.14182012 -0.034303214 -0.21562508 -0.34324276 -0.4574443
-0.178783 -0.0482311 -0.30995104 -0.31306818 -0.23039417 0.0054608383 0.1174979 0.19765474
0.17187615 -0.051005375 0.30989885 0.17286499 0.3606742 0.33210227 0.031516355 0.037103087
0.49071002 0.13039006 -0.09358517 -0.16777399 -0.11138703 0.27870405
00000000: ed00 02be fe5b 9d3d 57e2 4fbd 3d59 68be
00000010: 6ba1 873d 1c1e 313e a430 123e e615 bb3e
00000020: 29cd 543e ff5e 923e 946a c7bd 07ae fd3d
00000030: 4329 a23e ea95 9d3e 27f9 af3e ca79 19bb
00000040: ab48 be3d b7fa 0abd f251 92be f271 03be
00000050: 17ca c7bd e7d8 ddbe b96c f2be 98ff e9be
00000060: 6ae9 afbe 5e7e fc3c f5d7 823b 63b7 a93e
00000070: 4a23 053e 1ac2 e03d 1b0a 0ebe c4c3 323e
00000080: d19c b33e 69b7 f13d 4c5a 4d3b 8432 953b
00000090: 50b5 68be 2b17 99bd f432 25bd 5c63 3dbb
000000a0: 6183 79bd 37f8 b73c 99d5 6abd 744f 863d
000000b0: 779c 4fbd 6ddf 0abe a5de c3be d51b 84be
000000c0: ab1d 41be 99a9 9abe 9a58 74bd 7d89 c8bd
000000d0: 5648 d8bb a604 80be 07db b5be 9137 1bbe
000000e0: f01d 44bd 70db 7b3c 7ac3 8ebe 0ce1 5abe
000000f0: dabf ab3d fded 90be 8fb5 9cbe 675a 77bd
00000100: 1c0b e73d 4e50 2b3e 0428 803e f5ec 3a3e
00000110: 3307 483d 81a1 09be 8c21 5a3e 1c28 a73e
00000120: 9675 703e c864 1b3e 30f2 46be 751f 64bd
00000130: 383c c7be 49a3 cbbe 4796 b9be 4e60 d5be
00000140: e520 9bbe d7c3 f5be 3958 c0be e4d6 23be
00000150: ab7d e8be a173 f9be 0876 cfbe a00f d9be
00000160: f26f babe 7059 c4be 1c08 38be e436 eebe
00000170: ff32 e1be caba a6be 21fa d3bd d463 9dbe
00000180: 4d22 7bbe fbf2 9fbe 0637 683d e049 0ebe
00000190: ca87 d4bd a805 493e 8f59 e1bd 946b 85be
000001a0: 3427 99be 5302 0bbe 6e1a 8e3e 0a97 643e
000001b0: d8dd b83d 0d44 833e fe0e 443e d2e0 4f3e
000001c0: 915a 9c3e eef4 a7bc 2a0b 383e e888 34be
000001d0: 7a24 5dbe 852e 123e a135 30bc 6c25 41bd
000001e0: 02e9 84be 81bf 45be ca57 7ebd 4b39 11be
000001f0: 8781 0cbd d2cc 5cbe 84bd afbe 2436 eabe
00000200: e412 37be f98d 45bd e7b1 9ebe 794a a0be
00000210: 73ec 6bbe d5f0 b23b bda2 f03d 0166 4a3e
00000220: 4d00 303e 03eb 50bd 10ab 9e3e 8503 313e
00000230: 4aaa b83e 4f09 aa3e 4b17 013d 68f9 173d
00000240: 583e fb3e f984 053e 95a9 bfbd f2cc 2bbe
00000250: e21e e4bd 4cb2 8e3e

conv1.bias f4 [6]
0.28623456 0.16349576 0.17463799 -0.19394098 0.004122344 0.2041719
00000000: 568d 923e 6f6b 273e 4dd4 323e 7798 46be
00000010: ba14 873b 7012 513e

conv2.weight f4 [6, 6, 5, 5]
-0.07438667 -0.15696928 0.13024886 0.19370869 0.1575183 -0.10957532 0.020522995 0.032430734
-0.048563343 -0.029138446 -0.020652814 6.475317e-05 -0.08094072 0.011932303 -0.020083077 0.08987455
0.21099803 0.29278165 0.29883733 0.24301966 0.058059137 0.17114753 0.13323885 0.09842312
0.036228735 -0.046197414 -0.06440086 -0.033513084 0.13948634 0.11456085 -0.03615698 0.023022845
-0.030491726 0.0013109462 0.041927774 -0.09651719 -0.03549918 0.0030674567 0.02881902 -0.0049684863
0.079556756 0.09649014 0.07919772 0.030987382 0.0072786408 -0.014977203 0.17979854 0.19799405
0.09916635 0.0823276 0.07640219 -0.019146575 0.03647867 -0.029348537 -0.1380631 0.08925066
-0.04946857 0.05781311 0.072786495 0.020223968 0.036948998 -0.04078308 0.06272479 0.15974283
0.31794125 0.044029616 -0.047649473 -0.05571811 0.11535058 0.04030687 -0.014928357 -0.07701848
-0.11424974 -0.051713623 -0.03162105 0.085554585 0.11164362 -0.029307142 0.013865032 0.06161718
-0.07414209 -0.23448555 -0.08438423 0.120879844 0.30597702 -0.1664025 -0.29676384 -0.28876016
-0.14587381 0.10689478 -0.07477149 -0.15047166 -0.2825332 -0.36840832 -0.24029243 0.015536896
0.092231944 0.13404335 -0.037901927 -0.12419749 -0.0970308 -0.09630513 -0.04141092 0.027928878
0.05988407 -0.011021954 -0.050582938 0.011355458 -0.027335037 -0.060798135 -0.061982136 0.08269455
0.11668625 -0.064795196 0.035828628 0.07178905 0.11442908 0.17378002 0.21590923 0.123430215
0.11742064 0.08972658 0.17973767 0.015397615 0.05951288 0.03904587 -0.06681021 0.107741036
0.0028343168 -0.078235544 0.11258419 0.012736928 0.003124849 -0.16776624 -0.06251066 0.017799793
0.022254616 -0.06468301 0.24396905 0.3085069 -0.04340688 -0.10963906 0.024121253 0.1168462
0.2767225 -0.09730976 -0.18665229 -0.035890147 -0.04647895 0.053032324 0.13958539 0.22350654
0.09486398 0.013929934 0.08491326 0.081601635 0.13275628 -0.06409184 -0.0648958 -0.05748849
0.088019446 -0.0031435164 -0.093853906 -0.07257658 -0.0688028 -0.0884624 -0.007612997 -0.010178123
-0.014173158 0.080471255 -0.01466224 -0.050021946 0.030669069 0.06441615 0.15549946 0.041435737
0.053150076 -0.016361834 0.05684919 -0.014226776 0.05475507 0.0812234 0.09657779 0.0729906
-0.06068745 0.050064214 -0.023664862 -0.076819666 0.066913374 -0.08121862 -0.053333636 -0.071474604
0.021269428 -0.041226637 0.07818464 -0.054513797 -0.03130384 -0.07927563 0.021656543 0.06237291
0.05319519 0.038202133 -0.051114593 -0.0821328 -0.015877351 -0.0031223493 -0.06344418 -0.09337123
0.03779625 0.06407835 0.08350738 0.054531585 0.01956445 0.053284023 0.10239405 0.100088276
0.07700876 0.03855503 0.070293985 -0.06507507 -0.013590821 -0.049746 -0.037192173 0.02296089
-0.15852614 -0.06371584 -0.15029904 -0.09447153 -0.09148567 -0.04415985 -0.10976572 -0.047010474
0.13042842 -0.015068464 0.1199862 0.08209972 0.14090818 0.20680214 -0.016897378 0.058226958
0.004677439 0.06427759 0.04392068 -0.012816033 -0.12934723 -0.0063198158 -0.117303796 -0.08562881
0.012372831 -0.045888 -0.04468077 0.1213684 0.04836962 0.0268224 0.020232724 -0.046510432
00000000: 0a58 98bd 8ebc 20be f55f 053e 925b 463e
00000010: 7a4c 213e 0669 e0bd d71f a83c 17d6 043d
00000020: 5bea 46bd c0b3 eebc 1730 a9bc 18cc 8738
00000030: 40c4 a5bd b57f 433c 4485 a4bc 2610 b83d
00000040: de0f 583e 7ae7 953e 3501 993e 25da 783e
00000050: 6bcf 6d3d 4c41 2f3e c46f 083e 1092 c93d
00000060: 9564 143d 8039 3dbd 99e4 83bd 0445 09bd
00000070: 82d5 0e3e e19e ea3d 5719 14bd 689a bc3c
00000080: c9c9 f9bc 0ed4 ab3a 75bc 2b3d ceaa c5bd
00000090: 9767 11bd 6207 493b de15 ec3c afce a2bb
000000a0: a7ee a23d 9f9c c53d 6a32 a23d 40d9 fd3c
000000b0: aa81 ee3b f162 75bc 1c1d 383e f4be 4a3e
000000c0: ba17 cb3d 5f9b a83d c078 9c3d 47d9 9cbc
000000d0: a86a 153d 586c f0bc 6a60 0dbe 0dc9 b63d
000000e0: 8e9f 4abd 71cd 6c3d 1611 953d bcac a53c
000000f0: d557 173d 290c 27bd db75 803d a093 233e
00000100: 32c9 a23e 6658 343d 182c 43bd ac38 64bd
00000110: ed3c ec3d d118 253d 1196 74bc ddbb 9dbd
00000120: c5fb e9bd aad1 53bd 1385 01bd 3e37 af3d
00000130: 69a5 e43d 8815 f0bc 292a 633c 4c62 7c3d
00000140: cfd7 97bd fb1c 70be a4d1 acbd da8f f73d
00000150: 05a9 9c3e 6b65 2abe 6ef1 97be 5fd8 93be
00000160: f25f 15be a7eb da3d cc21 99bd 3e15 1abe
00000170: 31a8 90be 04a0 bcbe 380f 76be 778e 7e3c
00000180: 1ae4 bc3d a942 093e 0d3f 1bbd 415b febd
00000190: 16b8 c6bd a03b c5bd 7f9e 29bd 1acb e43c
000001a0: 0049 753d 6d95 34bc 0e30 4fbd 3e0c 3a3c
000001b0: baed dfbc 7707 79bd fbe0 7dbd c35b a93d
000001c0: 33f9 ee3d 58b3 84bd 0ac1 123d 2306 933d
000001d0: cb59 ea3d 64f3 313e 4f17 5d3e fbc8 fc3d
000001e0: 3c7a f03d 92c2 b73d 270d 383e 4746 7c3c
000001f0: c7c3 733d 90ee 1f3d cbd3 88bd 55a7 dc3d
00000200: f2bf 393b f539 a0bd 8a92 e63d 8cae 503c
00000210: 44ca 4c3b eaca 2bbe 9705 80bd dfd0 913c
00000220: 504f b63c 8778 84bd 06d3 793e 9ef4 9d3e
00000230: 6acb 31bd 728a e0bd ef99 c53c 0f4d ef3d
00000240: 92ae 8d3e 574a c7bd c721 3fbe 8c01 13bd
00000250: b660 3ebd 6c38 593d 79ef 0e3e e6de 643e
00000260: 0c48 c23d 613a 643c 01e7 ad3d c21e a73d
00000270: 43f1 073e 9542 83bd 17e8 84bd 0d79 6bbd
00000280: 8a43 b43d 7403 4ebb 7a36 c0bd 08a3 94bd
00000290: 7be8 8cbd c62b b5bd 7376 f9bb 24c2 26bc
000002a0: 8936 68bc 1dce a43d e439 70bc d0e3 4cbd
000002b0: b33d fb3c 9dec 833d 403b 1f3e 85b8 293d
000002c0: e5b3 593d 4109 86bc b2da 683d 6c17 69bc
000002d0: da46 603d 7458 a63d 94ca c53d 187c 953d
000002e0: 6793 78bd 2210 4d3d d0dc c1bc a153 9dbd
000002f0: e109 893d f355 a6bd 5f74 5abd 4761 92bd
00000300: 393d ae3c 43dd 28bd 451f a03d dc49 5fbd
00000310: 7538 00bd 435b a2bd 1069 b13c bd7a 7f3d
00000320: 33e3 593d d779 1c3d 895d 51bd 3e35 a8bd
00000330: 3811 82bc 54a0 4cbb 06ef 81bd 6a39 bfbd
00000340: 3ed0 1a3d 833b 833d eb05 ab3d 835c 5f3d
00000350: a045 a03c 5940 5a3d f9b3 d13d 15fb cc3d
00000360: c5b6 9d3d e1eb 1d3d 4bf6 8f3d 1446 85bd
00000370: 09ac 5ebc 76c2 4bbd d256 18bd 7a18 bc3c
00000380: ad54 22be 737d 82bd fee7 19be 4a7a c1bd
00000390: d75c bbbd f5e0 34bd dacc e0bd 0e8e 40bd
000003a0: 078f 053e b8e1 76bc 53bb f53d e623 a83d
000003b0: 3c4a 103e f1c3 533e 5f6c 8abc 647f 6e3d
000003c0: 3445 993b f8a3 833d 2ce6 333d 57fa 51bc
000003d0: 9a73 04be 7516 cfbb f93c f0bd 285e afbd
000003e0: 6ab7 4a3c 0ef5 3bbd 2f03 37bd ff8f f83d
000003f0: 391f 463d a6ba db3c 19bf a53c b981 3ebd

conv2.bias f4 [6]
0.073755585 -0.025308285 0.042163253 -0.02478928 -0.0011965575 0.029758083
00000000: 2b0d 973d 5253 cfbc 60b3 2c3d e312 cbbc
00000010: cfd5 9cba 39c7 f33c

fc1.weight f4 [50, 96]
0.17460558 0.18711998 -0.013911621 -0.048418246 -0.012417497 -0.046124097 0.11176445 -0.08033584
-0.11773817 -0.13224083 0.011337222 0.01972531 -0.047610126 -0.0032262185 -0.03112298 0.013889613
0.069707066 0.016018 -0.048117112 0.025999846 0.08071136 0.051127445 0.011780409 0.06161902
0.13336769 -0.08290485 0.08886329 -0.078837834 0.05413053 -0.03370668 -0.011606487 -0.02205999
0.024097128 -0.11342807 -0.08680114 0.054143887 0.011973927 -0.049844686 -0.103938475 -0.05536629
-0.015770348 0.10197069 0.14414695 -0.085114405 0.08383564 0.038072653 -0.0060751997 -0.03296444
0.12725489 0.15842727 0.003745346 0.004429826 0.06184977 -0.07742942 -0.017733846 -0.030919768
-0.09715372 -0.12441492 -0.09968329 0.107902035 -0.06953414 -0.018747333 -0.060993604 0.021651743
-0.099378616 -0.19702208 -0.0022620347 -0.06413931 0.09431932 0.085935116 -0.13402343 -0.030069297
0.21113911 0.17671292 -0.09419137 -0.0035838087 0.064871006 0.14006379 -0.017086398 0.030045535
-0.010325531 0.058406934 0.021238571 0.08270629 -0.046983525 0.020617409 -0.06623755 0.09777276
0.09569118 0.03275418 0.0061717154 -0.015274825 -0.004853531 -0.0040767896 0.021141516 0.07409045
-0.10678606 -0.047018774 0.038486116 0.042405248 -0.102457024 -0.023106966 -0.084337294 0.0030764097
0.043329224 -0.016984189 -0.07112066 0.014557381 0.020164259 0.0154093355 -0.091439605 0.06324434
0.03466125 0.04166496 0.044265445 0.016893772 -0.095323466 -0.043608237 0.06395 0.090246156
0.06485561 0.053138945 0.04768 0.08057668 0.06903238 0.01522461 0.055132248 -0.06827597
-0.05591151 0.08030363 0.08224458 0.021464605 0.059158806 -0.011540427 -0.033516563 0.0035946826
-0.030069087 0.059398264 -0.09578903 -0.017927099 0.040109865 -0.04835944 0.07265785 0.031272102
0.0803016 0.0032599426 0.009890789 -0.09151178 0.03729111 0.022433007 0.008058872 -0.09231916
-0.03092142 -0.071927354 -0.032838885 -0.027703786 0.08478735 -0.086661614 0.10049034 0.013790784
-0.12191105 -0.06644032 -0.014945488 -0.108943895 -0.08341583 0.07671762 -0.07133119 -0.053065196
0.040080898 -0.036280043 -0.028481174 0.028550457 0.037372127 -0.06393802 -0.087639466 -0.031973045
-0.10828516 0.03921806 -0.034660835 0.033412308 -0.059081636 0.053575944 -0.08984502 0.013861386
0.00039972825 -0.02807243 -0.042297095 0.07189696 -0.04367706 -0.014248105 0.028296322 -0.024487088
0.06488455 0.024086714 -0.030960133 -0.08606991 0.060086653 -0.05550218 -0.032016687 -0.041469015
-0.10046388 0.039217874 0.07457447 0.015546867 0.043480806 -0.051769674 -0.07860092 0.0655185
0.01891439 0.008954813 0.040773362 -0.0809471 -0.079258956 0.07847514 -0.050841082 -0.09961513
-0.0735762 -0.066238426 0.10155177 0.066320494 -0.07509516 -0.061855674 -0.046794407 0.051923353
-0.09925907 0.07118511 -0.026815563 0.027762588 0.03199565 -0.08495945 -0.008158465 -0.09537819
0.018080337 -0.00450678 0.026717698 0.061717864 0.036052 -0.06958518 -0.059420284 -0.06032011
0.046683572 -0.021005947 -0.044265702 -0.048394 -0.027507855 -0.05718128 -0.06210142 -0.048255336
0.0661238 -0.090313815 0.026076771 -0.09725727 -0.09567752 0.057032164 -0.06958345 -0.050975043
00000000: cecb 323e 619c 3f3e 91ed 63bc 3652 46bd
00000010: c272 4bbc 9fec 3cbd c3e4 e43d 1e87 a4bd
00000020: b620 f1bd 246a 07be c1bf 393c f996 a13c
00000030: d602 43bd f76e 53bb 9ff5 febc 4291 633c
00000040: 94c2 8e3d 2e38 833c 7316 45bd a1fd d43c
00000050: ff4b a53d 036b 513d 9e02 413c 3a64 7c3d
00000060: 8a91 083e 05ca a9bd f5fd b53d bb75 a1bd
00000070: fab7 5d3d 0410 0abd 2329 3ebc 27b7 b4bc
00000080: 5767 c53c fa4c e8bd ccc4 b1bd fbc5 5d3d
00000090: 4a2e 443c f129 4cbd b2dd d4bd c3c7 62bd
000000a0: d130 81bc 02d6 d03d 429b 133e 7650 aebd
000000b0: 05b2 ab3d 12f2 1b3d 7812 c7bb b805 07bd
000000c0: 1b4f 023e c23a 223e 7b74 753b 1328 913b
000000d0: 2f56 7d3d 5193 9ebd 9246 91bc 744b fdbc
000000e0: 88f8 c6bd 40cd febd c126 ccbd befb dc3d
000000f0: ea67 8ebd 0294 99bc 6ed4 79bd ff5e b13c
00000100: 0487 cbbd 28c0 49be a53e 14bb 785b 83bd
00000110: 7d2a c13d c0fe af3d 703d 09be e353 f6bc
00000120: da34 583e 3bf4 343e 68e7 c0bd 55de 6abb
00000130: 17db 843d e26c 0f3e c6f8 8bbc 0e22 f63c
00000140: 6a2c 29bc 1c3c 6f3d 83fc ad3c ea61 a93d
00000150: cc71 40bd d7e5 a83c 8da7 87bd 163d c83d
00000160: bdf9 c33d 3f29 063d 1a3c ca3b 4243 7abc
00000170: 5e0a 9fbb 9796 85bb f930 ad3c bcbc 973d
00000180: a6b2 dabd c296 40bd 9ea3 1d3d 20b1 2d3d
00000190: fdd4 d1bd d24a bdbc 08b9 acbd 979d 493b
000001a0: fc79 313d 6d22 8bbc b5a7 91bd 1582 6e3c
000001b0: 842f a53c 7077 7c3c b044 bbbd 4086 813d
000001c0: f4f8 0d3d e1a8 2a3d af4f 353d cf64 8a3c
000001d0: f338 c3bd 8d9e 32bd 38f8 823d fad2 b83d
000001e0: 05d3 843d 39a8 593d 1b4c 433d 6305 a53d
000001f0: d960 8d3d a570 793c 5ad2 613d 46d4 8bbd
00000200: 7803 65bd 3b76 a43d d96f a83d 8ad6 af3c
00000210: 8150 723d 0f14 3dbc aa48 09bd c494 6b3b
00000220: 7253 f6bc 984b 733d 0a2d c4bd dadb 92bc
00000230: 3e4a 243d 8c14 46bd a4cd 943d 2d17 003d
00000240: 2a75 a43d c3a4 553b fa0c 223c 876a bbbd
00000250: 90be 183d 6dc5 b73c 5c09 043c d411 bdbd
00000260: eb4e fdbc a64e 93bd 1182 06bd 0df3 e2bc
00000270: fda4 ad3d a57b b1bd e1cd cd3d bef2 613c
00000280: 80ac f9bd dd11 88bd ecdd 74bc fa1d dfbd
00000290: ebd5 aabd 211e 9d3d 1616 92bd e45a 59bd
000002a0: de2b 243d 629a 14bd 5a51 e9bc a6e2 e93c
000002b0: 8413 193d f0f1 82bd 527c b3bd 2bf6 02bd
000002c0: 9cc4 ddbd 1ea3 203d 85f8 0dbd 58db 083d
000002d0: 96ff 71bd 7372 5b3d aa00 b8bd de1a 633c
000002e0: 9e92 d139 27f8 e5bc b83f 2dbd b73e 933d
000002f0: b8e6 32bd e270 69bc b0cd e73c 2599 c8bc
00000300: 31e2 843d 8051 c53c 1ba0 fdbc 6c45 b0bd
00000310: 6c1d 763d 4156 63bd ee23 03bd 6adb 29bd
00000320: 02c0 cdbd eca2 203d 80ba 983d 49b8 7e3c
00000330: ee18 323d 700c 54bd 85f9 a0bd 902e 863d
00000340: 5af2 9a3c 35b7 123c f801 273d 98c7 a5bd
00000350: 8552 a2bd 93b7 a03d bd3e 50bd 0403 ccbd
00000360: 1eaf 96bd 03a8 87bd 60fa cf3d 0ad3 873d
00000370: 7ecb 99bd 605c 7dbd 7eab 3fbd 95ad 543d
00000380: 5748 cbbd 80c9 913d 50ac dbbc 5e6e e33c
00000390: df0d 033d 38ff adbd 15ab 05bc a455 c3bd
000003a0: 371d 943c 9cad 93bb 13df da3c dfcb 7c3d
000003b0: 43ab 133d ad82 8ebd af62 73bd 3812 77bd
000003c0: 4637 3f3d aa14 acbc f44f 35bd c938 46bd
000003d0: 2758 e1bc eb36 6abd 0f5e 7ebd 63a7 45bd
000003e0: ea6b 873d 73f6 b8bd f49e d53c d22e c7bd
000003f0: 93f2 c3bd 8f9a 693d c581 8ebd 35cb 50bd

fc1.bias f4 [50]
-0.100971624 -0.0010974918 -0.067130804 -0.0100806225 0.07593555 0.081916325 0.11004051 0.021334672
-0.0061318013 0.02618054 -0.0037960242 -0.06228074 0.022441233 0.010112419 -0.1174046 0.080244854
-0.0041787815 0.11803621 -0.11594074 -0.07305595 0.0030295448 -0.0150473965 -0.07056637 0.05906498
-0.010784694 0.04439714 -0.042991646 0.06328038 -0.041330423 -0.006180185 0.056856636 0.11837994
-0.058700714 0.07900109 0.011097444 -0.03576977 0.080184795 0.009252057 0.07900462 0.09833171
0.01858717 -0.020282887 0.039535236 -0.093283504 -0.08581549 -0.074075274 0.09341011 -0.062532194
-0.007878218 -0.07527003
00000000: 36ca cebd b7d9 8fba e07b 89bd 3229 25bc
00000010: 1984 9b3d bfc3 a73d eb5c e13d 0dc6 ae3c
00000020: 47ed c8bb 9278 d63c b8c6 78bb 171a 7fbd
00000030: add6 b73c 8fae 253c d371 f0bd 6a57 a43d
00000040: 29ee 88bb f8bc f13d 5772 edbd 5c9e 95bd
00000050: 548b 463b 5b89 76bc 1a85 90bd 1fee 713d
00000060: 49b2 30bc c7d9 353d 0218 30bd 2599 813d
00000070: 174a 29bd 2683 cabb 81e2 683d 2f71 f23d
00000080: 2970 70bd 53cb a13d 0ed2 353c 5383 12bd
00000090: ed37 a43d f195 173c 2dcd a13d 2362 c93d
000000a0: 1f44 983c 4c28 a6bc b3ef 213d 6c0b bfbd
000000b0: 08c0 afbd c7b4 97bd cd4d bf3d e110 80bd
000000c0: a413 01bc 2c27 9abd

fc2.weight f4 [10, 50]
-0.30938548 0.100682445 0.03652536 -0.09209567 -0.18296522 0.08576126 0.03377605 0.1462816
0.23056036 0.20520082 -0.18947767 -0.18721916 -0.07376421 0.24024595 0.118743934 0.20952635
-0.121280745 -0.012494227 -0.0986727 -0.03445018 -0.186165 -0.027700117 -0.3606174 0.12969774
0.30314276 0.18779492 -0.2012493 0.124155365 -0.18845493 -0.016334537 0.16410705 -0.15849812
0.222527 0.19001515 -0.1523378 -0.30483687 -0.08712654 -0.004484499 -0.092495844 -0.1439978
-0.11248684 -0.0027702763 0.16636702 0.0016601987 -0.13094103 0.09363451 0.19182818 -0.15440243
-0.097759254 0.027844982 -0.041403145 0.09098916 -0.032017667 0.24936716 0.19350564 -0.087364666
-0.10565084 -0.009480137 0.086892486 0.13726105 -0.0138278175 -0.17030169 0.12000053 -0.19102731
0.1056681 -0.01090585 -0.18175897 0.15616138 -0.100467175 0.24668786 0.116946384 0.02139313
0.060931254 0.0019220385 -0.15820093 0.14997247 -0.027696235 -0.18394613 0.2613923 -0.22436784
-0.18144391 -0.057563085 0.05200403 -0.21487221 0.11337499 0.011641824 0.32344145 0.12600459
0.1576087 0.08429102 -0.1506524 -0.011159415 0.04599717 0.22654404 0.08033898 -0.2228631
-0.19179894 -0.11684376 0.17979167 -0.16750364 0.17328255 0.018228998 0.07928408 0.07465797
-0.15523586 -0.011562119 0.07003783 0.009435548 0.11139014 -0.15593597 0.083236374 0.07738088
-0.037905607 -0.23636748 0.13403112 0.21050107 -0.061018873 0.06907938 0.11495462 -0.15443452
0.16238742 -0.14086054 -0.1132648 -0.035342477 0.2672782 0.24799888 0.24053371 -0.25122207
-0.08820121 0.030580997 0.017674558 0.009031887 0.2674844 -0.25743687 0.0536385 0.15003544
-0.05278111 0.17574428 0.11700003 0.17270984 -0.1555012 0.1819423 0.06238069 0.024968939
0.05447657 -0.2527136 0.15559347 -0.23447862 -0.015204408 -0.0411426 0.109663315 0.080737725
0.12916012 -0.18002872 0.18968095 0.07895965 -0.3002162 -0.3395288 0.08173109 0.20247678
-0.20445558 0.124096304 -0.1406476 0.13258229 -0.14551346 0.2202188 -0.13076614 -0.17880176
0.0050243703 0.012480425 0.14957125 0.12136647 -0.13604037 0.044790473 0.11154124 -0.17704247
0.18740419 0.13692491 0.08323705 0.07562828 -0.19400427 -0.08424182 0.10671208 0.017668242
0.005111003 0.16842696 0.23024702 0.16978802 -0.117067195 0.022719705 -0.091503665 0.1151729
0.082994126 -0.033908796 -0.018297492 0.2035239 -0.08952158 -0.12318905 0.035435572 0.049785607
-0.21965526 0.08448305 0.059845425 -0.044381138 -0.18337628 0.07103473 0.17298147 0.08128811
-0.19868226 -0.023447193 0.08665256 -0.07442024 0.17964157 -0.0971175 0.06345612 -0.27820182
0.040477615 0.21644998 -0.07485577 0.021925302 0.12151928 0.07931621 0.116228245 0.040350474
0.036695544 -0.27604607 0.23046471 0.14083445 -0.14988077 -0.07091022 -0.25528654 0.221022
-0.06538635 -0.07084783 -0.017986314 -0.08563705 0.14563589 -0.19470291 -0.2675075 0.27773994
0.05123548 -0.06801362 0.11332054 -0.018115724 -0.14554118 -0.2083983 0.12369931 0.23539571
0.1921245 -0.17118706 0.10256274 -0.07134247 -0.07168393 0.032724727 0.16361965 -0.042716548
00000000: c667 9ebe 9932 ce3d 9e9b 153d a89c bcbd
00000010: 3c5b 3bbe 99a3 af3d c158 0a3d d8ca 153e
00000020: 0418 6c3e 2a20 523e 6f06 42be 61b6 3fbe
00000030: b111 97bd 0903 763e 0530 f33d 138e 563e
00000040: 0a62 f8bd 96b4 4cbc ea14 cabd a21b 0dbd
00000050: 0aa2 3ebe 5beb e2bc d8a2 b8be 7ccf 043e
00000060: 8735 9b3e 504d 403e 4c14 4ebe 2b45 fe3d
00000070: 54fa 40be 02d0 85bc ae0b 283e 554d 22be
00000080: 1ede 633e 5593 423e 71fe 1bbe 9413 9cbe
00000090: 666f b2bd b4f2 92bb 766e bdbd 2974 13be
000000a0: 805f e6bd 868d 35bb 1e5c 2a3e 069b d93a
000000b0: 6815 06be 73c3 bf3d 9b6e 443e ac1b 1ebe
000000c0: 0136 c8bd 291b e43c 5896 29bd 8658 ba3d
000000d0: f524 03bd 1b5a 7f3e 5826 463e 3fec b2bd
000000e0: 785f d8bd 9452 1bbc b0f4 b13d 298e 0c3e
000000f0: 128e 62bc 9163 2ebe d6c2 f53d aa9c 43be
00000100: 8468 d83d 73ae 32bc 061f 3abe c5e8 1f3e
00000110: bcc1 cdbd be9b 7c3e 9681 ef3d a540 af3c
00000120: 0d93 793d e9ec fb3a 6dff 21be 6292 193e
00000130: 37e3 e2bc 605c 3cbe 36d5 853e afc0 65be
00000140: 6fcc 39be 45c7 6bbd 2e02 553d 7607 5cbe
00000150: 2631 e83d 59bd 3e3c 1e9a a53e 5907 013e
00000160: 2d64 213e c5a0 ac3d 9f44 1abe fbd5 36bc
00000170: 8767 3c3d 29fb 673e c388 a43d 3936 64be
00000180: f166 44be c84b efbd 4f1b 383e 1386 2bbe
00000190: fb70 313e fb54 953c b15f a23d 47e6 983d
000001a0: 26f6 1ebe 0b6f 3dbc fe6f 8f3d 8f97 1a3c
000001b0: 8420 e43d aead 1fbe d577 aa3d de79 9e3d
000001c0: e942 1bbd 510a 72be 743f 093e 988d 573e
000001d0: edee 79bd 7d79 8d3d 546d eb3d 1524 1ebe
000001e0: e348 263e bf3d 10be 60f7 e7bd 46c3 10bd
000001f0: b0d8 883e 6bf3 7d3e 784e 763e 2ea0 80be
00000200: d6a2 b4bd 0085 fa3c 3cca 903c 7bfa 133c
00000210: b7f3 883e c4ce 83be 0bb4 5b3d e4a2 193e
00000220: 0131 58bd 4ff6 333e b69d ef3d d9da 303e
00000230: b53b 1fbe 154f 3a3e e582 7f3d a98b cc3c
00000240: d322 5f3d ad63 81be e553 1f3e 2a1b 70be
00000250: e91b 79bc 2585 28bd 2997 e03d d259 a53d
00000260: 8d42 043e 7359 38be b93b 423e 99b5 a13d
00000270: f0b5 99be b8d6 adbe a162 a73d 1356 4f3e
00000280: ce5c 51be 3426 fe3d ed05 10be a7c3 073e
00000290: 7b01 15be 0981 613e 8fe7 05be cf17 37be
000002a0: 79a3 a43b b27a 4c3c 3529 193e fc8e f83d
000002b0: 2b4e 0bbe 3776 373d bc6f e43d 9f4a 35be
000002c0: e2e6 3f3e 0b36 0c3e 3078 aa3d 00e3 9a3d
000002d0: 0ea9 46be fa86 acbd dd8b da3d fdbc 903c
000002e0: 337a a73b 1e78 2c3e e0c5 6b3e e9dc 2d3e
000002f0: edc0 efbd ad1e ba3c 4666 bbbd c5df eb3d
00000300: d3f8 a93d f3e3 0abd 9fe4 95bc 9268 503e
00000310: 1757 b7bd 8a4a fcbd e424 113d feeb 4b3d
00000320: 4fed 60be 7305 ad3d 7a20 753d ffc8 35bd
00000330: fec6 3bbe a87a 913d 0e22 313e 617a a63d
00000340: 5d73 4bbe 5414 c0bc e676 b13d a469 98bd
00000350: f6f3 373e 8ae5 c6bd 48f5 813d 7870 8ebe
00000360: dbcb 253d 10a5 5d3e fb4d 99bd b19c b33c
00000370: 1adf f83d 8970 a23d 1309 ee3d 8a46 253d
00000380: 114e 163d e955 8dbe f1fe 6b3e e836 103e
00000390: 587a 19be 6139 91bd ebb4 82be 9753 623e
000003a0: 47e9 85bd ab18 91bd 0958 93bc 7a62 afbd
000003b0: 9321 153e 3360 47be bef6 88be ee33 8e3e
000003c0: 4bdc 513d ba4a 8bbd 9914 e83d 6d67 94bc
000003d0: bf08 15be 5d66 55be 1056 fd3d 930b 713e
000003e0: 49bc 443e a94b 2fbe 6a0c d23d 001c 92bd
000003f0: 06cf 92bd 5d0a 063d e98b 273e 8cf7 2ebd

fc2.bias f4 [10]
0.04838177 -0.15137522 -0.13345361 -0.009710671 -0.0487665 -0.09025484 0.05815057 0.016317148
0.18739668 0.013408144
00000000: f62b 463d 1b02 1bbe 10a8 08be 8219 1fbc
00000010: 62bf 47bd 88d7 b8bd 4b2f 6e3d 8aab 853c
00000020: eae4 3f3e d5ad 5b3c
