checkpoints/archive/primary results - NO ALSA/fine results with privacy - 1750 data trunc/fastest ones/last_model.pth.tar (torch, 40506 bytes, 16 tensors)

conv1.weight f4 [6, 1, 5, 5]
-0.067405954 0.0005586203 -0.23121877 -0.044650067 -0.033894125 -0.2744562 -0.27581468 -0.2927867
0.0501803 0.23937806 -0.1487036 0.01063513 0.10794199 0.32414952 0.3404146 -0.20047367
-0.014300843 0.041407336 0.23401527 0.033141967 0.04365089 0.03941981 0.16676345 -0.032185152
0.15179594 -0.310734 -0.20155591 0.16305889 0.16149764 0.12236078 0.033523068 0.232893
0.11728456 -0.11952492 -0.09444154 0.15884215 0.40370905 0.042886898 -0.06813137 -0.34681836
0.2874083 0.3000188 -0.16952385 -0.27317944 -0.32933828 0.4228816 0.35059577 0.044210643
-0.08806747 -0.31629917 -0.36071533 -0.2663863 -0.20988661 0.107560895 0.25530586 -0.22279611
-0.39607468 -0.27075037 0.14447948 0.2607954 -0.27644408 -0.3982995 -0.03431757 0.36689278
0.16588786 -0.43036368 -0.22205192 -0.0009633666 0.5113711 0.1610276 -0.03703481 0.26619077
0.19882391 0.49581683 0.30145913 0.2873937 -0.000987798 0.26622072 0.285357 0.14922252
0.27215245 0.3121362 0.098616645 0.018425042 0.25126573 -0.05437324 -0.08026004 0.099210314
0.107079804 0.2412388 -0.16553695 0.0768582 -0.03564853 -0.044592064 0.22060129 -0.22426344
-0.2077918 -0.08366212 -0.15717109 -0.1850593 -0.1603917 -0.1734004 0.12745087 0.11923425
0.06597016 0.039508164 -0.08221065 -0.17217535 -0.05726203 -0.038221598 -0.10509025 0.0727427
-0.13686886 -0.15424249 -0.054654147 0.03212154 0.3008919 -0.055558145 -0.07820999 -0.08358522
0.12573506 0.1580383 0.26612225 0.17451113 0.15088819 -0.18234225 -0.028784148 -0.117155105
0.052553657 -0.18580817 0.07470628 0.21472564 -0.13900405 -0.06164987 0.05617061 -0.11685513
0.2582047 0.09798468 -0.050718047 -0.15465625 0.21646646 0.27901664 0.27436936 0.034924716
-0.101545304 0.2624787 0.181122 0.019788228 -0.23744433 -0.17407204
00000000: 220c 8abd 6070 123a 9dc4 6cbe fde2 36bd
00000010: 91d4 0abd 8685 8cbe 9537 8dbe 23e8 95be
00000020: dc89 4d3d 861f 753e c245 18be f83e 2e3c
00000030: b110 dd3d edf6 a53e d34a ae3e f848 4dbe
00000040: 154e 6abc bd9a 293d b3a1 6f3e dfbf 073d
00000050: 47cb 323d ab76 213d 0ac4 2a3e 94d4 03bd
00000060: 6570 1b3e 8718 9fbe ac64 4ebe e9f8 263e
00000070: a35f 253e 4a98 fa3d 7c4f 093d 817b 6e3e
00000080: e332 f03d 7bc9 f4bd 916a c1bd 84a7 223e
00000090: f4b2 ce3e 2caa 2f3d 7688 8bbd 2d92 b1be
000000a0: 2e27 933e 109c 993e a997 2dbe 2dde 8bbe
000000b0: 079f a8be f083 d83e 4a81 b33e 3816 353d
000000c0: b85c b4bd f7f1 a1be aeaf b8be c963 88be
000000d0: 84ec 56be e348 dc3d 73b7 823e aa24 64be
000000e0: 4dca cabe cb9f 8abe 6ef2 133e fa86 853e
000000f0: 148a 8dbe e9ed cbbe 9590 0cbd 5fd9 bb3e
00000100: 82de 293e a158 dcbe 9461 63be 708a 7cba
00000110: 37e9 023f 6be4 243e d0b1 17bd 284a 883e
00000120: 7f98 4b3e b4db fd3e da58 9a3e 4425 933e
00000130: 0079 81ba 154e 883e 501a 923e cacd 183e
00000140: 9157 8b3e 51d0 9f3e 86f7 c93d 1df0 963c
00000150: e7a5 803e 79b6 5ebd 605f a4bd c72e cb3d
00000160: a84c db3d 4e07 773e 8582 29be d567 9d3d
00000170: 3104 12bd 2ba6 36bd 4ee5 613e 51a5 65be
00000180: 60c7 54be 0c57 abbd 75f1 20be 2f80 3dbe
00000190: b93d 24be e08f 31be 7b82 023e 1631 f43d
000001a0: 5d1b 873d 50d3 213d 0f5e a8bd bc4e 30be
000001b0: 978b 6abd 408e 1cbd 8f39 d7bd 20fa 943d
000001c0: 5a27 0cbe bef1 1dbe 07dd 5fbd e091 033d
000001d0: 810e 9a3e f090 63bd 8f2c a0bd ba2e abbd
000001e0: b1c0 003e cbd4 213e 2d41 883e 0cb3 323e
000001f0: 6f82 1a3e edb7 3abe bccc ebbc 04ef efbd
00000200: 8142 573d 7f44 3ebe 9bff 983d 0ae1 5b3e
00000210: 1457 0ebe 9384 7cbd 2713 663d be51 efbd
00000220: 6833 843e 31ac c83d babd 4fbd 355e 1ebe
00000230: 62a9 5d3e 45db 8e3e 247a 8c3e 380d 0f3d
00000240: fcf6 cfbd 9c63 863e 0c78 393e ec1a a23c
00000250: 9b24 73be f13f 32be

conv1.bias f4 [6]
0.1605203 0.24104849 0.07689299 0.37048465 -0.11197828 0.40169367
00000000: 6f5f 243e 6ad5 763e 127a 9d3d 2ab0 bd3e
00000010: de54 e5bd cbaa cd3e

conv2.weight f4 [6, 6, 5, 5]
0.024284992 -0.054118905 -0.08198318 0.057655785 0.04977493 0.06731879 0.0045202086 0.028592609
0.016948834 0.010683168 0.10559253 -0.054660633 0.021388173 0.05791568 0.084762305 -0.0032538986
0.01580898 0.07776642 -0.019182615 -0.034180027 0.10801606 -0.0009854696 -0.064039394 -0.06432121
0.04655348 -0.039972857 -0.014002995 0.015888782 -0.02489186 0.017383559 -0.08311049 -0.014112912
-0.11484416 0.008145173 0.048904642 0.086719945 0.0006250745 0.020716548 0.09571498 0.11829011
-0.07187359 0.021074716 0.041576445 0.011414583 0.06351986 -0.101622954 0.11956308 0.15841785
-0.055159338 -0.013580339 0.1602047 -0.012321096 -0.063035086 -0.055718396 -0.004168989 0.1660137
0.09569167 -0.096676044 0.06101373 -0.020879008 0.117397666 -0.0047438503 0.03522155 -0.030431604
-0.011244244 0.09712441 -0.011727663 0.069775894 0.046660904 -0.007929923 0.0861649 -0.075397775
-0.054904126 -0.077050984 -0.03655027 0.020364273 -0.053012066 -0.06167381 -0.05764908 -0.09747176
-0.017345555 0.04872548 -0.010038307 -0.098179355 -0.089277714 0.15431184 0.066896215 0.038629137
-0.07661849 -0.049601294 0.19054538 0.12071367 0.08764099 -0.01671436 0.0555953 0.1782475
0.21446833 0.048027564 0.09928468 0.009844489 0.041609354 0.09155307 0.09286449 -0.080496
-0.0051001925 0.072152026 0.081189804 -0.049105 0.060352474 -0.06816038 0.10584471 0.039529514
-0.049831364 -0.034168564 0.109158166 -0.005759163 0.022069562 0.016264325 -0.037556484 0.068435416
-0.031878166 0.073543526 -0.0009130993 0.00036368286 0.036039706 0.03854937 0.00058208394 -0.058690097
-0.018283218 0.05605594 0.083025314 0.1041595 0.011869069 0.07135832 0.09173728 0.10415445
0.09938475 0.023385555 0.15757024 -0.045661908 0.09687668 0.08457635 0.15386467 0.048713863
-0.013196043 0.037689123 0.015698874 0.08621207 0.06465567 -0.012988056 -0.021686925 0.07035447
0.0040898547 -0.08085438 -0.02330615 0.023337983 0.054355007 0.09492771 -0.031064747 -0.03383995
0.018531054 0.058429126 0.12752445 0.010156362 -0.05795891 -0.025797652 0.14403374 0.15112714
-0.04678172 0.025243552 0.07905107 0.055997394 0.039112303 -0.06654341 -0.08648997 -0.11187289
-0.032465935 -0.022143 0.20749098 0.15743954 -0.04171236 -0.15369546 0.018682534 0.23353955
0.18793942 0.0059610126 0.011982584 0.038312674 0.15037072 -0.0025930882 0.0058646924 0.06310472
0.21826376 0.17153151 -0.08764381 -0.03450861 0.10067498 0.13301733 -0.0540772 -0.0447588
-0.08852703 0.055115297 0.12326502 -0.031499956 -0.064377174 -0.03845045 0.10658051 0.22119875
0.11485029 0.024326686 -0.028377673 0.18872848 0.29789641 0.07466327 -0.051038418 0.11007888
0.20159063 0.15879896 -0.003212806 0.021414712 0.12267243 0.17857435 0.09085836 -0.08526081
-0.16928816 0.087558106 -0.08652197 0.04211282 0.024518332 -0.0864308 0.05150808 0.055358224
-0.071039274 -0.080590956 -0.22792694 -0.080629066 -0.03449388 -0.10288659 -0.08475445 -0.15845288
-0.12007686 0.048770025 0.041627802 0.011002568 -0.010412907 0.041836355 0.11808992 -0.012256471
-0.015737666 0.07192568 0.042961642 0.02824388 0.10658214 0.026703725 -0.038106095 -0.060844395
00000000: 52f1 c63c c9ab 5dbd cce6 a7bd 7928 6c3d
00000010: cce0 4b3d 6fde 893d 421e 943b 0c3b ea3c
00000020: 48d8 8a3c 7408 2f3c e540 d83d d4e3 5fbd
00000030: 4036 af3c fe38 6d3d dc97 ad3d 5c3f 55bb
00000040: d681 813c 0044 9f3d dc24 9dbc 5b00 0cbd
00000050: 8637 dd3d df2a 81ba 1627 83bd d7ba 83bd
00000060: ddae 3e3d 94ba 23bd d16c 65bc 3129 823c
00000070: 04ea cbbc f767 8e3c d535 aabd d839 67bc
00000080: 6a33 ebbd 5573 053c 3c50 483d 3a9a b13d
00000090: 0adc 233a c0b5 a93c 3706 c43d 1642 f23d
000000a0: 7632 93bd e2a4 ac3c 104c 2a3d 3b04 3b3c
000000b0: b316 823d b21f d0bd 7ddd f43d 4a38 223e
000000c0: c2ee 61bd 1280 5ebc b30c 243e 6cde 49bc
000000d0: 8a18 81bd f938 64bd 049c 88bb 7fff 293e
000000e0: fff9 c33d 17fe c5bd 88e9 793d 740a abbc
000000f0: 306e f03d 4d72 9bbb 7944 103d b34b f9bc
00000100: c739 38bc 2ae9 c63d 6225 40bc aae6 8e3d
00000110: 811f 3f3d 82ec 01bc 3977 b03d 266a 9abd
00000120: 26e3 60bd e8cc 9dbd bcb5 15bd fad2 a63c
00000130: 2e23 59bd ad9d 7cbd 7121 6cbd 469f c7bd
00000140: 4418 8ebc 5e94 473d b677 24bc 4212 c9bd
00000150: 3cd7 b6bd ec03 1e3e e200 893d 9639 1e3d
00000160: 28ea 9cbd ba2a 4bbd 541e 433e bb38 f73d
00000170: 1f7d b33d 8eec 88bc e6b7 633d 8386 363e
00000180: 969d 5b3e 8db8 443d c455 cb3d c84a 213c
00000190: 926e 2a3d 2d80 bb3d bd2f be3d 16db a4bd
000001a0: 841f a7bb 71c4 933d d746 a63d 5322 49bd
000001b0: 2834 773d ab97 8bbd 1cc5 d83d b3e9 213d
000001c0: f91b 4cbd 56f4 0bbd 518e df3d 5cb7 bcbb
000001d0: 3acb b43c c33c 853c d4d4 19bd de27 8c3d
000001e0: ae92 02bd fd9d 963d 0f5d 6fba b0ac be39
000001f0: 5f9e 133d f2e5 1d3d fe96 183a 0765 70bd
00000200: b0c6 95bc ea9a 653d 2d09 aa3d 9351 d53d
00000210: 7c76 423c 5024 923d c1e0 bb3d ee4e d53d
00000220: 3b8a cb3d 1093 bf3c 185a 213e fb07 3bbd
00000230: 4867 c63d 5e36 ad3d b38e 1d3e 3088 473d
00000240: 3734 58bc e95f 1a3d ed9a 803c f48f b03d
00000250: 316a 843d dbcb 54bc c7a8 b1bc 0116 903d
00000260: 3004 863b fb96 a5bd 8aec bebc 4c2f bf3c
00000270: 5ba3 5e3d 7669 c23d 7f7b febc c29b 0abd
00000280: 70ce 973c 6153 6f3d c595 023e df66 263c
00000290: 5266 6dbd 9955 d3bc 957d 133e 13c1 1a3e
000002a0: 309e 3fbd 91cb ce3c 87e5 a13d 865d 653d
000002b0: 3934 203d e947 88bd a721 b1bd 9d1d e5bd
000002c0: 00fb 04bd 3d65 b5bc 8478 543e d537 213e
000002d0: 94da 2abd 5862 1dbe 1d0c 993c fe24 6f3e
000002e0: 3173 403e 9954 c33b 9a52 443c c0ed 1c3d
000002f0: c8fa 193e cdf0 29bb 9b2c c03b 0c3d 813d
00000300: 8980 5f3e f5a5 2f3e 997e b3bd e658 0dbd
00000310: af2e ce3d b235 083e 0e80 5dbd 0155 37bd
00000320: a94d b5bd 94c0 613d 5f72 fc3d 1906 01bd
00000330: 2ed8 83bd 387e 1dbd e246 da3d ed81 623e
00000340: a136 eb3d c248 c73c 4b78 e8bc 0a42 413e
00000350: e185 983e 0ee9 983d a90d 51bd 0971 e13d
00000360: c66d 4e3e 329c 223e f18d 52bb e86d af3c
00000370: af3b fb3d 32dc 363e f313 ba3d 389d aebd
00000380: e059 2dbe aa51 b33d 6e32 b1bd 7e7e 2c3d
00000390: abda c83c a202 b1bd 23fa 523d 4ebf 623d
000003a0: 0a7d 91bd df0c a5bd ae65 69be da20 a5bd
000003b0: 7449 0dbd 34b6 d2bd be93 adbd 7941 22be
000003c0: dbea f5bd 14c3 473d ea81 2a3d 1d44 343c
000003d0: e69a 2abc 995c 2b3d 21d9 f13d 5ecf 48bc
000003e0: 47ec 80bc c54d 933d 8cf8 2f3d b65f e73c
000003f0: bd47 da3d c5c1 da3c 2315 1cbd f937 79bd

conv2.bias f4 [6]
0.0036822697 0.06765039 0.018314231 0.092519045 0.13475065 -0.009088187
00000000: 3c52 713b 4a8c 8a3d ba07 963c a07a bd3d
00000010: 13fc 093e 9ee6 14bc

fc1.weight f4 [50, 96]
0.074930824 -0.07191649 0.08208036 0.0886444 -0.030005177 -0.0243833 -0.018390156 -0.09830057
0.045998767 0.066586755 -0.007815774 -0.020483855 0.0035682714 -0.0035199253 0.015827216 0.060248695
0.10202115 0.08327241 -0.049259663 0.07112541 0.03564537 0.048814103 -0.07319659 0.036788892
-0.020866936 -0.09585321 -0.07099472 -0.085547894 0.040748652 0.0522369 0.11344167 0.053912073
0.010569595 0.028952768 0.08124283 0.041551474 0.045326076 0.03520771 -0.037167847 0.09889162
0.034475245 0.06178346 0.0077162827 0.10634084 0.0067509124 -0.0584893 -0.09559454 0.027739327
-0.009908721 -0.018579422 -0.05544277 0.01056176 -0.11365453 -0.067928575 0.078335956 -0.09583468
-0.11235415 -0.08023333 -0.07385919 0.074407354 0.016610922 0.00081720366 0.043421045 0.08896755
0.07638023 -0.026187817 -0.064203605 0.017383229 0.062473856 0.023077386 -0.059297733 -0.09830019
-0.123881064 -0.055071086 -0.018110907 -0.04715999 -0.08539548 -0.018758673 -0.02991044 0.027840083
-0.05938114 -0.08793916 -0.077106416 0.05505371 -0.042064574 0.112925425 0.035117235 0.008995442
0.009895325 -0.042465966 -0.11335517 0.12494786 -0.08561103 0.07873152 -0.04599521 -0.064830095
0.0003885867 0.030084994 0.039848424 -0.09218614 -0.011275927 -0.10140102 -0.09107124 -0.058984786
-0.04895976 -0.084445946 0.09890127 0.0040728236 0.029364841 0.06258853 -0.131879 -0.05526362
-0.09168436 0.04840827 0.012731246 0.058298934 -0.09875052 0.018433562 0.13285102 -0.053694498
-0.015069047 0.006882523 -0.062647656 -0.009742102 -0.052535128 0.0015172577 0.07988876 0.11159593
0.121772274 0.0332049 -0.014898308 -0.026695512 0.08077046 -0.10299734 0.055466972 0.06292436
0.10500013 0.067782976 -0.021979442 -0.004568659 -0.03300956 0.055714507 0.056314506 0.094731845
0.07834607 0.009073209 0.0074067237 -0.09472898 -0.068122484 -0.05500476 0.101574086 0.104335524
-0.08896636 0.037628762 -0.08874506 0.036277607 -0.066378325 0.13223998 -0.062105484 -0.089487724
-0.1077377 0.05271933 0.11979795 0.031230124 -0.07153705 -0.02544378 0.05870823 -0.057266917
0.08852621 -0.07475601 0.020470696 -0.053804472 0.1381896 0.11449269 0.03782024 0.1356266
-0.07842609 -0.0043656887 0.057729803 0.13699567 0.00074211194 -0.022110527 0.10164579 -0.073030874
0.017171884 -0.09382728 0.056480404 0.103529505 -0.029744487 0.017141078 -0.091412544 0.041598402
-0.05462855 0.06108102 0.023202155 0.09090257 -0.028643262 -0.008550662 0.057312194 0.07606413
0.03403183 0.038954616 0.0010993704 -0.007066897 0.04735538 -0.06666024 0.001766449 0.06289963
0.056879204 -0.12636729 0.06878451 0.10914345 0.0179455 0.05540573 -0.041094802 0.11125306
-0.013591118 -0.091989525 0.0037426092 0.09556855 0.0867251 -0.045140713 -0.057387777 -0.032154217
0.06872801 0.037999373 0.009447141 0.09779924 -0.11758182 -0.07530379 0.033618335 -0.04392245
0.098821454 0.014193881 -0.009936634 -0.0858989 0.020117488 -0.085285634 0.054907035 -0.03738951
0.01975938 -0.016659295 -0.03214467 0.026447877 -0.05749658 -0.043491825 -0.014319373 0.035106104
-0.037635915 0.08463667 -0.025937982 0.05851595 0.04391052 -0.08291934 0.0089116115 -0.10556125
00000000: 5575 993d f448 93bd bf19 a83d 328b b53d
00000010: 6bcd f5bc 7dbf c7bc f4a6 96bc cf51 c9bd
00000020: 3469 3c3d a35e 883d bb0d 00bc c2cd a7bc
00000030: a9d9 693b 8cae 66bb 14a8 813c 56c7 763d
00000040: 77f0 d03d ba8a aa3d 80c4 49bd 33aa 913d
00000050: e100 123d 4cf1 473d 18e8 95bd f3af 163d
00000060: 23f1 aabc b04e c4bd ae65 91bd bc33 afbd
00000070: 0fe8 263d 5cf6 553d 1b54 e83d e8d2 5c3d
00000080: 182c 2d3c 5b2e ed3c a462 a63d e131 2a3d
00000090: d6a7 393d f635 103d 503d 18bd b187 ca3d
000000a0: ea35 0d3d a710 7d3d dfd8 fc3b 3ac9 d93d
000000b0: c236 dd3b 7a92 6fbd 12c7 c3bd 963d e33c
000000c0: 3058 22bc df33 98bc f517 63bd 3b0b 2d3c
000000d0: b5c3 e8bd 231e 8bbd 9a6e a03d f944 c4bd
000000e0: ef19 e6bd 5f51 a4bd 7d43 97bd e262 983d
000000f0: a113 883c 9c39 563a 44da 313d 9e34 b63d
00000100: 3d6d 9c3d d587 d6bc 2e7d 83bd 4667 8e3c
00000110: 96e4 7f3d c90c bd3c 2ee2 72bd 9c51 c9bd
00000120: 5bb5 fdbd 3892 61bd 535d 94bc d52a 41bd
00000130: d3e3 aebd caab 99bc bd06 f5bc e310 e43c
00000140: a339 73bd 7219 b4bd f8e9 9dbd 0080 613d
00000150: e74b 2cbd 7245 e73d 17d7 0f3d 9e61 133c
00000160: 0020 223c cbf0 2dbd c126 e8bd aae4 ff3d
00000170: d654 afbd fe3d a13d 7965 3cbd a4c5 84bd
00000180: 39bb cb39 ce74 f63c 1a38 233d 16cc bcbd
00000190: aabe 38bc 57ab cfbd 8f83 babd 089a 71bd
000001a0: 088a 48bd fff1 acbd c08c ca3d 5275 853b
000001b0: 898e f03c 6a2e 803d 4a0b 07be 1b5c 62bd
000001c0: 02c5 bbbd c047 463d b796 503c ddca 6e3d
000001d0: b63d cabd fb01 973c 190a 083e c3ee 5bbd
000001e0: 2ae4 76bc ca86 e13b 6a4d 80bd 569d 1fbc
000001f0: 132f 57bd b8de c63a b89c a33d 688c e43d
00000200: be63 f93d dc01 083d 0818 74bc 8cb0 dabc
00000210: fc6a a53d 45f0 d2bd 5631 633d 7dde 803d
00000220: 4f0a d73d cdd1 8a3d 3b0e b4bc b0b4 95bb
00000230: 0835 07bd e534 643d 0aaa 663d c502 c23d
00000240: e873 a03d cca7 143c 1ab4 f23b 4401 c2bd
00000250: cd83 8bbd ac4c 61bd 1306 d03d ddad d53d
00000260: ff33 b6bd 9e20 1a3d f8bf b5bd d497 143d
00000270: 5cf1 87bd eb69 073e 5262 7ebd 5745 b7bd
00000280: 95a5 dcbd 39f0 573d a158 f53d 51d6 ff3c
00000290: 0482 92bd 796f d0bc 0a78 703d b790 6abd
000002a0: 3b4d b53d ae19 99bd 29b2 a73c 1462 5cbd
000002b0: 9381 0d3e 257b ea3d 65e9 1a3d b3e1 0a3e
000002c0: dc9d a0bd 0d0e 8fbb 1676 6c3d 9848 0c3e
000002d0: 4a8a 423a 2321 b5bc ab2b d03d 3691 95bd
000002e0: 0dac 8c3c 8428 c0bd ff57 673d 4707 d43d
000002f0: b6aa f3bc 726b 8c3c 8036 bbbd 1663 2a3d
00000300: 30c2 5fbd 1730 7a3d 7212 be3c 202b ba3d
00000310: 46a5 eabc 1318 0cbc 31c0 6a3d 83c7 9b3d
00000320: f664 0b3d e08e 1f3d c018 903a 6e91 e7bb
00000330: b7f7 413d 2a85 88bd 3188 e73a 85d1 803d
00000340: 2bfa 683d 6d66 01be e5de 8c3d 9a86 df3d
00000350: 7102 933c 1ef1 623d 0653 28bd a5d8 e33d
00000360: 48ad 5ebc 0165 bcbd 9046 753b 72b9 c33d
00000370: ee9c b13d 78e5 38bd 720f 6bbd 24b4 03bd
00000380: 45c1 8c3d 3ba5 1b3d 2ec8 1a3c f84a c83d
00000390: bdce f0bd e038 9abd 61b3 093d 07e8 33bd
000003a0: e762 ca3d 748d 683c 44cd 22bc c3eb afbd
000003b0: 6ecd a43c 3caa aebd 33e6 603d be25 19bd
000003c0: 6cde a13c 1379 88bc 21aa 03bd 38a9 d83c
000003d0: 8981 6bbd 7c24 32bd ce9b 6abc 6bcb 0f3d
000003e0: 1e28 1abd fe55 ad3d e47b d4bc 6cae 6f3d
000003f0: 84db 333d 9dd1 a9bd 0202 123c 7f30 d8bd

fc1.bias f4 [50]
0.06275011 0.059299193 -0.059264615 -0.068195164 -0.0040214094 -0.007922796 0.04745835 -0.023071758
-0.06216992 0.043003045 -0.027673824 0.008464282 0.020176588 -0.036095746 0.059336662 -0.039548863
0.010573044 -0.07657635 -0.12148043 -0.055681784 -0.07501546 -0.11210233 -0.020609444 -0.06117553
0.039704308 0.04930491 0.053223412 0.03924938 -0.05798404 -0.0869893 -0.11864547 -0.027604843
-0.11448194 -0.06447556 0.067071564 -0.10372066 0.065203995 0.087787196 0.016183622 0.0042999308
0.10775872 0.06535075 0.021927502 0.09929916 0.07223217 0.02400484 0.03857027 -0.054828882
-0.011353966 0.06697232
00000000: 2183 803d b6e3 723d 74bf 72bd e8a9 8bbd
00000010: 07c6 83bb 9dce 01bc b063 423d fc00 bdbc
00000020: e3a5 7ebd f623 303d 37b4 e2bc c6ad 0a3c
00000030: 5f49 a53c 22d9 13bd 000b 733d fdfd 21bd
00000040: 903a 2d3c 10d4 9cbd bbca f8bd 9512 64bd
00000050: b5a1 99bd e895 e5bd 23d5 a8bc 3193 7abd
00000060: fca0 223d f2f3 493d cb00 5a3d f5c3 203d
00000070: ac80 6dbd 7227 b2bd 65fc f2bd 8d23 e2bc
00000080: 8275 eabd c30b 84bd d15c 893d 7f6b d4bd
00000090: ac89 853d c6c9 b33d 8493 843c 6fe6 8c3b
000000a0: 9bb0 dc3d 9dd6 853d 4ea1 b33c 5c5d cb3d
000000b0: 76ee 933d cca5 c43c dcfb 1d3d 4094 60bd
000000c0: fc05 3abc c928 893d

fc2.weight f4 [10, 50]
-0.102610655 0.028816542 0.05316278 0.19959046 0.008109881 -0.2161423 -0.21301246 -0.13090405
0.36097497 -0.050651744 0.038556907 0.085412286 -0.0038663466 0.011009029 0.18178478 0.08612561
-0.21425828 -0.086778045 -0.032428965 0.05622032 -0.17420202 0.13293454 0.19177234 -0.16059949
-0.062313024 -0.17375514 0.16858485 -0.056036316 0.025822043 -0.08262532 0.04451518 -0.059238072
-0.045847118 -0.086786486 0.046670385 -0.058644615 -0.2275703 -0.14016649 0.12157351 -0.07660831
-0.18894921 0.13399602 0.123287804 -0.11980689 -0.19870412 0.042441115 0.07387323 0.12389401
0.10060304 0.011408685 -0.120402835 0.14694208 0.17653058 -0.321561 0.092199735 0.17021903
-0.07254043 0.17103882 0.059860878 0.008836169 -0.13461672 -0.2638413 0.050547037 0.090343274
-0.15013692 -0.11512521 0.17221153 0.026464077 -0.05210831 -0.12128639 -0.19641921 -0.051364467
-0.022885201 0.08482891 -0.04945461 -0.056842856 -0.2578552 -0.021631183 -0.030014567 0.21868643
0.051472273 0.1639305 0.12349113 -0.09686399 -0.24871148 0.1366929 0.15217325 -0.13732904
0.14337742 -0.12329001 0.23771982 -0.14626864 0.0068065636 -0.10519196 0.14566325 0.060883664
0.0069495826 -0.16025022 -0.041244008 0.122913405 -0.06426131 0.01818146 0.050079785 0.21716389
0.08932629 0.1977621 -0.15946223 -0.15254827 0.03735994 0.06693855 0.1319507 -0.09469187
-0.09172357 -0.025718419 -0.01438527 -0.1776663 -0.107239395 -0.1143813 0.11948566 -0.083614156
-0.16164786 0.0892942 0.05705498 -0.0017467188 -0.055335257 0.26813152 -0.14345197 -0.21016096
-0.124243 -0.021769732 -0.08910428 0.12531227 -0.06229723 0.0120977815 0.02237994 0.26423696
-0.09655978 0.03291343 -0.15017073 -0.08029801 -0.069742106 0.20788884 -0.061574865 -0.039393976
0.2376459 -0.05811264 0.07074033 0.26554388 0.031044725 -0.015255819 -0.061536912 0.16657585
0.121605255 -0.16641845 -0.20814215 0.13969214 -0.00030110078 0.08251399 0.06885807 -0.013315391
-0.083300285 0.045762047 -0.1284036 -0.06845855 0.38188025 0.25052276 0.04482914 0.09428687
-0.09668373 -0.11222613 -0.047308587 -0.038202714 -0.28347805 0.15270996 0.051663414 0.08937887
-0.098282695 -0.0062946477 -0.12332312 -0.11097414 0.07526087 0.03894919 0.06611788 0.029491626
-0.0068327878 0.104816906 0.20634322 0.13403213 0.12571986 0.3637534 -0.20639817 0.02357377
-0.0027087298 -0.17957966 0.024759898 -0.031206448 -0.0096805515 -0.11137148 -0.09200913 -0.26665592
-0.13874623 -0.08909275 0.18168227 0.0052297623 -0.16635618 -0.1931808 0.21040866 -0.16676848
0.075452335 -0.1976187 0.18619227 0.11584855 0.087663464 -0.1486123 -0.2641512 0.05636499
0.0725225 0.005823105 -0.12084701 -0.116592415 0.029577289 -0.1873301 -0.010334086 -0.12342468
-0.16019863 0.03717214 -0.005190802 -0.13439181 -0.064281516 0.05716519 -0.10697136 0.110797964
0.0272696 -0.12562834 0.22656165 0.054225318 0.12814601 -0.10453432 -0.0048342645 -0.17357478
-0.21083829 -0.21237436 0.1624138 0.3374349 -0.04465669 -0.1280961 -0.11488162 -0.024899144
0.002761936 0.10266257 0.049786776 -0.05845384 0.15757878 -0.054493193 0.20760907 -0.14958711
00000000: 8925 d2bd ab10 ec3c 37c1 593d 7161 4c3e
00000010: 4edf 043c 6854 5dbe f01f 5abe b60b 06be
00000020: b6d1 b83e 3478 4fbd d9ed 1d3d a3ec ae3d
00000030: 8862 7dbb 375f 343c ca25 3a3e a062 b03d
00000040: 8666 5bbe b0b8 b1bd 3cd4 04bd 4747 663d
00000050: 0462 32be fe1f 083e f85f 443e 3174 24be
00000060: f13b 7fbd deec 31be 82a1 2c3e 5686 65bd
00000070: c088 d33c 7737 a9bd 8d55 363d 9fa3 72bd
00000080: 30ca 3bbd 1dbd b1bd 7229 3f3d 5635 70bd
00000090: 3008 69be ce87 0fbe 88fb f83d d1e4 9cbd
000000a0: e77b 41be 4136 093e 517e fc3d 515d f5bd
000000b0: 1879 4bbe bcd6 2d3d d94a 973d 25bc fd3d
000000c0: f708 ce3d 7eeb 3a3c c395 f6bd fc77 163e
000000d0: 6fc4 343e a5a3 a4be 37d3 bc3d e64d 2e3e
000000e0: 1490 94bd cd24 2f3e ae30 753d 94c5 103c
000000f0: f7d8 09be 3516 87be 690a 4f3d e505 b93d
00000100: 7ebd 19be c4c6 ebbd 3858 303e 31cb d83c
00000110: 866f 55bd 0065 f8bd 1e22 49be 8c63 52bd
00000120: bf79 bbbc c8ba ad3d eb90 4abd 0ed4 68bd
00000130: 9905 84be e133 b1bc 1ce1 f5bc 56ef 5f3e
00000140: 97d4 523d 66dd 273e ebe8 fc3d a160 c6bd
00000150: 39ae 7ebe 39f9 0b3e 4ed3 1b3e fc9f 0cbe
00000160: 88d1 123e 797f fcbd d36c 733e 72c7 15be
00000170: 9809 df3b e26e d7bd bf28 153e 2661 793d
00000180: 53b9 e33b a218 24be 7aef 28bd 06ba fb3d
00000190: 6f9b 83bd 49f1 943c 7620 4d3d 3660 5e3e
000001a0: b4f0 b63d 2682 4a3e 114a 23be 9d35 1cbe
000001b0: bd06 193d 1417 893d 161e 073e d0ed c1bd
000001c0: 91d9 bbbd 6faf d2bc 32b0 6bbc 28ee 35be
000001d0: 54a0 dbbd be40 eabd e6b4 f43d e63d abbd
000001e0: 0487 25be e1df b63d 7cb2 693d 28f2 e4ba
000001f0: 39a7 62bd 8948 893e 13e5 12be 6f34 57be
00000200: 1d73 febd 7056 b2bc 4e7c b6bd dc51 003e
00000210: 612b 7fbd c635 463c 2356 b73c 114a 873e
00000220: 22c1 c5bd 3cd0 063d 5bc6 19be 4873 a4bd
00000230: f3d4 8ebd d0e0 543e ed35 7cbd 945b 21bd
00000240: 7259 733e 8507 6ebd 4ee0 903d 5ef5 873e
00000250: 8251 fe3c 8bf3 79bc 210e 7cbd dc92 2a3e
00000260: 2d0c f93d 9969 2abe 3723 55be 750b 0f3e
00000270: 10dd 9db9 18fd a83d 7605 8d3d cc28 5abc
00000280: 5799 aabd fc70 3b3d 3c7c 03be ff33 8cbd
00000290: cf85 c33e 8544 803e c39e 373d 7919 c13d
000002a0: 1f02 c6bd d0d6 e5bd a6c6 41bd 737a 1cbd
000002b0: 0924 91be 0060 1c3e 049d 533d 450c b73d
000002c0: 7048 c9bd 5543 cebb d590 fcbd 6946 e3bd
000002d0: 5f22 9a3d 3089 1f3d d068 873d 6c98 f13c
000002e0: 94e5 dfbb 3faa d63d a34b 533e b83f 093e
000002f0: b5bc 003e e33d ba3e 0b5a 53be c71d c13c
00000300: f284 31bb bbe3 37be 45d5 ca3c aaa4 ffbc
00000310: 2d9b 1ebc bb16 e4bd 486f bcbd 2087 88be
00000320: 7e13 0ebe 4276 b6bd eb0a 3a3e 6d5e ab3b
00000330: 4659 2abe 30d1 45be 5e75 573e 5bc5 2abe
00000340: c186 9a3d 8e5c 4abe 30a9 3e3e 0142 ed3d
00000350: e788 b33d d32d 18be d33e 87be fade 663d
00000360: ad86 943d bfcf be3b a37e f7bd 01c8 eebd
00000370: 124c f23c 76d3 3fbe 4c50 29bc 14c6 fcbd
00000380: 1c0b 24be d041 183d 9a17 aabb 029e 09be
00000390: 07a6 83bd 0c26 6a3d cd13 dbbd 0bea e23d
000003a0: 7f64 df3c b7a4 00be c7ff 673e 5e1b 5e3d
000003b0: b538 033e 1716 d6bd c068 9ebb 96bd 31be
000003c0: fee5 57be aa78 59be ce4f 263e 44c4 ac3e
000003d0: efe9 36bd a02b 03be 0e47 ebbd 4af9 cbbc
000003e0: 9901 353b c140 d23d 38ed 4b3d 4b6d 6fbd
000003f0: 555c 213e 4134 5fbd 7997 543e 5d2d 19be

fc2.bias f4 [10]
-0.083358884 -0.03596333 0.113332056 -0.009583251 -0.15945004 0.09527304 -0.12973253 0.083328284
0.012664048 -0.045537777
00000000: 10b8 aabd 494e 13bd a31a e83d 1103 1dbc
00000010: df46 23be 831e c33d 9bd8 04be 05a8 aa3d
00000020: de7c 4f3c d285 3abd

batch_norm_2d.weight f4 [6]
1.0294781 1.0304828 1.0181129 1.0241481 1.0102893 0.9779394
00000000: f0c5 833f dce6 833f 8651 823f 4917 833f
00000010: 2951 813f 3d5a 7a3f

batch_norm_2d.bias f4 [6]
-0.023735574 -0.022389786 0.0013426978 -0.010936718 0.009254046 -0.0032332924
00000000: 1b71 c2bc c96a b7bc 76fd af3a ec2f 33bc
00000010: 489e 173c a5e5 53bb

batch_norm_2d.running_mean f4 [6]
-0.01772633 -0.004480389 -0.021070907 0.010099125 0.029144287 -0.015162143
00000000: cf36 91bc 3ad0 92bb e59c acbc cd76 253c
00000010: 00c0 ee3c a36a 78bc

batch_norm_2d.running_var f4 [6]
1.0017042 1.0094225 0.9946403 1.0354953 0.991993 0.9560001
00000000: d837 803f c234 813f bfa0 7e3f 1c8b 843f
00000010: 41f3 7d3f 6cbc 743f

batch_norm.weight f4 [50]
1.0045108 0.9856029 1.023855 1.021805 0.99394906 0.9999299 0.9805573 1.0129551
0.98088104 1.0161818 1.0326871 0.98257333 0.9971519 1.0276748 1.0015912 0.9992948
0.9783703 0.99525255 0.9715383 0.99545985 1.0124023 1.0383344 0.9926806 1.0385299
0.9967342 0.98740685 1.014222 1.014107 1.000539 0.9766936 0.98363936 1.035829
1.0406185 1.0150232 0.9767218 0.9960558 1.021541 0.99320143 0.99850214 1.0054564
1.0165466 1.0140531 0.9957327 1.0243274 0.9898853 0.9958341 1.0195463 1.0163543
1.0311854 0.978557
00000000: cf93 803f 7950 7c3f ae0d 833f 82ca 823f
00000010: 7273 7e3f 68fb 7f3f ce05 7b3f 83a8 813f
00000020: 051b 7b3f 3f12 823f 172f 843f ed89 7b3f
00000030: 5945 7f3f d98a 833f 2434 803f c9d1 7f3f
00000040: 7a76 7a3f dfc8 7e3f bcb6 783f 75d6 7e3f
00000050: 6696 813f 24e8 843f 5120 7e3f 8cee 843f
00000060: f929 7f3f b2c6 7c3f 07d2 813f 42ce 813f
00000070: a911 803f 9708 7a3f cacf 7b3f 0b96 843f
00000080: fd32 853f 48ec 813f 710a 7a3f 83fd 7e3f
00000090: dbc1 823f 7342 7e3f d69d 7f3f ccb2 803f
000000a0: 331e 823f 7ecc 813f 57e8 7e3f 291d 833f
000000b0: 1f69 7d3f fcee 7e3f 7e80 823f e617 823f
000000c0: e2fd 833f b682 7a3f

batch_norm.bias f4 [50]
0.0057203793 -0.011360726 0.012656058 0.019837843 0.020377114 0.013148084 0.014485642 0.030271525
-0.023163667 -0.015850129 -0.021929033 0.03901335 -0.001931225 -0.016807375 0.012475875 -0.0013825155
-0.011131864 1.39260665e-05 0.0014249552 -0.012457614 0.00072885584 0.009810053 -0.039022826 -0.009182976
0.009444173 0.006561245 -0.0044861315 -0.006577244 0.036316752 0.02052942 0.019139243 0.043755043
0.00746255 0.034281153 -0.014588974 -0.027803218 -0.0150684975 0.010008885 0.012622441 -0.019297894
-0.0068517565 -0.027471421 -0.014434725 0.0008789208 -0.038295746 0.0059691565 -0.032278523 0.06399634
0.008357003 -0.007661854
00000000: 0572 bb3b 5722 3abc 5b5b 4f3c f982 a23c
00000010: e8ed a63c 106b 573c 3055 6d3c fdfb f73c
00000020: bbc1 bdbc 21d8 81bc 84a4 b3bc 76cc 1f3d
00000030: 2821 fdba 9faf 89bc 9d67 4c3c 8635 b5ba
00000040: 6c62 36bc 00a4 6937 90c5 ba3a 051b 4cbc
00000050: b010 3f3a 58ba 203c 66d6 1fbd 3174 16bc
00000060: bcbb 1a3c b6ff d63b 6600 93bb ec85 d7bb
00000070: e0c0 143d 502d a83c e7c9 9c3c 7d38 333d
00000080: 6888 f43b 656a 0c3d 9806 6fbc 93c3 e3bc
00000090: dce1 76bc 4efc 233c 5bce 4e3c 9e16 9ebc
000000a0: b384 e0bb bf0b e1bc a07f 6cbc 6067 663a
000000b0: 00dc 1cbd ea98 c33b 7c36 04bd 8310 833d
000000c0: d0eb 083c 4a10 fbbb

batch_norm.running_mean f4 [50]
-0.04524321 -0.012152674 -0.011030985 0.00662666 -0.010216342 -0.0024337065 0.023216791 -7.972121e-05
0.027101815 -0.002330962 0.021168845 0.026104681 -0.011613473 -0.004230427 -0.0020250753 0.030649172
-0.03287606 -0.017466804 -0.010835692 0.042408913 -0.006140334 -0.036693253 -0.009738453 -0.0059597082
0.022492876 0.020748923 -0.012065405 0.0019240072 0.02457305 -0.012483939 -0.00037703582 0.019435462
-0.012610227 -0.0014835813 0.026139693 0.013816946 0.00813884 0.006473118 -0.01666015 0.007652182
0.0037593413 0.021020092 -0.0145517895 -0.018605419 0.024016377 -0.0060216817 -0.028547404 0.012566856
-0.021284722 0.0007089097
00000000: f250 39bd 021c 47bc 4ebb 34bc 7424 d93b
00000010: 7262 27bc d27e 1fbb 2431 be3c 0030 a7b8
00000020: a004 de3c 0ec3 18bb 496a ad3c 7cd9 d53c
00000030: 7046 3ebc 659f 8abb 20b7 04bb f913 fb3c
00000040: 0ca9 06bd 8b16 8fbc 3088 31bc f8b4 2d3d
00000050: db34 c9bb aa4b 16bd 088e 1fbc a849 c3bb
00000060: fb42 b83c a5f9 a93c faad 45bc f82e fc3a
00000070: 6c4d c93c 6f89 4cbc e4ac c5b9 1e37 9f3c
00000080: 209b 4ebc ba74 c2ba e922 d63c 7960 623c
00000090: c558 053c 731c d43b de7a 88bc 28bf fa3b
000000a0: 485f 763b 5432 ac3c a16a 6ebc 646a 98bc
000000b0: febd c43c 8751 c5bb 3fdc e9bc 37e5 4d3c
000000c0: 4c5d aebc 20d6 393a

batch_norm.running_var f4 [50]
1.0085251 1.0168493 0.98397946 0.96912557 0.9769155 0.9974396 0.98713833 0.9925897
1.016683 1.018427 1.045938 0.99947774 1.0126449 0.9890988 1.0080851 0.9985931
1.0082762 1.0071318 1.0119482 0.9970266 0.99897945 0.96656835 0.983285 1.005511
0.9912701 1.0319742 1.0136204 1.0299788 1.0211384 1.0371964 1.015984 1.0267236
1.02577 0.9854207 1.013163 0.98246855 1.0038548 0.9798208 1.0053056 1.0068096
1.0279052 0.9589248 0.9869556 1.0141166 0.99161583 0.9881328 0.9916901 0.9865676
0.9867 0.9963195
00000000: 5a17 813f 1e28 823f 14e6 7b3f 9d18 783f
00000010: 2217 7a3f 3458 7f3f 19b5 7c3f 5c1a 7e3f
00000020: ab22 823f d15b 823f 4ce1 853f c6dd 7f3f
00000030: 599e 813f 9435 7d3f ef08 813f cca3 7f3f
00000040: 320f 813f b2e9 803f 8587 813f 233d 7f3f
00000050: 1ebd 7f3f 0671 773f 91b8 7b3f 96b4 803f
00000060: e1c3 7d3f bb17 843f 50be 813f 58d6 833f
00000070: aab4 823f dac2 843f c40b 823f ae6b 833f
00000080: 6e4c 833f 8844 7c3f 53af 813f 0f83 7b3f
00000090: 507e 803f 89d5 7a3f dbad 803f 23df 803f
000000a0: 6692 833f 187c 753f 1fa9 7c3f 93ce 813f
000000b0: 89da 7d3f 45f6 7c3f 67df 7d3f b28f 7c3f
000000c0: 5f98 7c3f cb0e 7f3f
