checkpoints/random/cnn2/25-12-2023_10-43-05/last_model.pth.tar (torch, 33146 bytes, 16 tensors)

conv1.weight f4 [6, 1, 5, 5]
000000 77 db 0b be e1 6c d2 3d d6 14 b7 bc 43 1f 26 3e
       -0.13657938 0.10274673 -0.022348803 0.16222863
000010 9d 9c d4 bd 8c 40 04 bd 0c 82 41 be 39 b6 e9 3d
       -0.10381434 -0.03228812 -0.18897265 0.11411709
000020 d0 34 a2 bd 3d 7d 1b 3e 2c a8 3c bd 9c 07 39 bd
       -0.079202294 0.15184493 -0.04605882 -0.045173272
000030 8e ae 8a bb 19 2f 9b 3d 56 f1 43 be fc f0 ad 3d
       -0.0042322343 0.075773425 -0.19135031 0.0849323
000040 17 d0 37 3e 03 ec e9 3c 63 86 3b be cd 53 b5 3d
       0.17950474 0.028554922 -0.18312983 0.08853874
000050 ca ca e4 bd 9d 23 33 be af 94 18 bd de 31 87 3d
       -0.111714914 -0.17494054 -0.03725117 0.06601308
000060 65 d7 b1 bd 41 c3 0f bd 23 88 db 3c 30 99 2a 3e
       -0.08683661 -0.035098318 0.026798313 0.16659999
000070 10 71 e4 bd 7f 48 22 3e 42 03 07 be 27 82 96 bd
       -0.111543775 0.15847968 -0.13184837 -0.07349043
000080 ca d4 25 3b 92 68 1b 3e e3 de 1c be b9 df 1f be
       0.0025303834 0.15176609 -0.153194 -0.15612687
000090 bd 10 8a 3d 7b 95 8a 3d 73 e7 1c be 3c 9e 08 be
       0.06741474 0.067667924 -0.15322666 -0.13341612
0000a0 8d 3f 9e bd a2 c2 ec 3d 10 a5 1a bd fa 2f 7f bd
       -0.07726965 0.11560561 -0.037755072 -0.062301613
0000b0 60 77 34 3e 62 47 ff 3c 24 cf 6a bd 2b eb 41 be
       0.17623663 0.031161968 -0.05732645 -0.18937366
0000c0 e4 0e d8 3d 57 ba e5 bd cf 3a f9 3d 12 99 1e 3e
       0.10549715 -0.11217182 0.1216942 0.15488079
0000d0 7c 54 20 bd a1 8c f2 bd 2a 44 51 3d 54 ba c9 37
       -0.03914307 -0.11843229 0.051090397 2.4047833e-05
0000e0 12 87 cc 3d 14 10 09 3e 94 1b 25 3e 1f 24 26 3e
       0.099867 0.1338504 0.16123801 0.16224717
0000f0 b6 70 fc bd 26 92 a8 bd 13 31 1d be 0e 07 50 3c
       -0.123261854 -0.082310006 -0.15350752 0.0126969945
000100 cf e5 28 be e3 c7 e3 bd 88 8c 12 3c 5d 31 99 3c
       -0.16493915 -0.1112211 0.008944638 0.018700296
000110 7d b1 2f 3e e8 04 33 3e 24 d4 fc bb 3c c2 d7 bb
       0.1715755 0.1748234 -0.007715719 -0.006584434
000120 06 9d 9f bd d6 42 38 be 10 92 cc 3d 21 34 01 bd
       -0.07793622 -0.17994246 0.09988797 -0.031543855
000130 fe 40 cc bd 48 f3 d5 ba 56 79 48 3e 62 2d fa bd
       -0.09973334 -0.0016323114 0.19577536 -0.12215687
000140 f1 fe 67 bd f4 a9 14 bd 27 42 1c bd b0 dc 0c be
       -0.056639615 -0.036294892 -0.038149025 -0.1375606
000150 e6 fc fe 39 9c b5 e2 3d 9e 2a f1 bd 13 6a a0 3d
       0.0004863508 0.110697955 -0.11775707 0.07832732
000160 25 40 e0 3d d8 71 38 3d 8f 17 35 be 68 c7 ba bd
       0.109497346 0.045030445 -0.17684768 -0.09120065
000170 c9 ab 26 bd d1 9b 49 3e e4 0d 19 3e db e7 47 be
       -0.04069117 0.19688345 0.14946705 -0.1952204
000180 24 17 0a 3e c8 fe 96 3d e6 49 92 3d fa 68 16 bd
       0.1348539 0.073728144 0.07143001 -0.036721207
000190 5d 47 44 3e b5 7e 14 be bb 61 a3 bd d3 5b 3b be
       0.19167848 -0.1450146 -0.07977625 -0.18296747
0001a0 90 58 31 be 48 8c 4d 3c c1 ae 38 be 4b 49 ff 3c
       -0.1731894 0.012545653 -0.18035413 0.031162878
0001b0 7c 97 36 be 83 8e 76 3d ff 2a 12 3e 72 55 84 3d
       -0.17831224 0.060194504 0.14274214 0.0646161
0001c0 67 ad 5c bd 63 c5 9d bd f5 e1 86 bd fe 11 34 be
       -0.053876307 -0.07703664 -0.06586067 -0.17584988
0001d0 0e 6c e3 bd ec df 8b 3d 09 e9 23 3e c7 31 ba bb
       -0.11104594 0.06829819 0.16006865 -0.0056822035
0001e0 87 0e 5a bd 96 1b 55 bc 76 dc 7e 3d 5a d5 06 3e
       -0.05323651 -0.013007065 0.062221967 0.13167325
0001f0 23 93 ad 3c 19 9f 44 3e 1b 8f c9 bd 14 9e 70 3d
       0.021188324 0.19201316 -0.09841748 0.058744505
000200 67 8b c0 bc 56 91 4c be d7 ea fe bd 27 12 d1 bd
       -0.023503972 -0.19977316 -0.12447136 -0.102085404
000210 c2 6c 46 be e8 8d 10 bc e4 65 10 3e 55 29 8b bd
       -0.19377425 -0.008822896 0.14101368 -0.06794993
000220 ee eb 80 3c 2f 39 4a bc a0 e7 04 3e 45 89 b0 bd
       0.0157375 -0.012342735 0.12978983 -0.08619932
000230 ff e0 fb bd cb 09 14 be a7 11 3e be 31 eb d4 3d
       -0.12298774 -0.1445686 -0.18561421 0.10396422
000240 96 e8 a2 bc 88 d0 4d 3d 44 67 db 3d 30 f0 f8 3d
       -0.019886296 0.0502477 0.10713056 0.12155187
000250 e5 ed 29 bd 35 01 82 bc
       -0.04148664 -0.015869716

conv1.bias f4 [6]
000000 05 63 e8 3d 2d dd cc bd 53 6c 1d be 4a 66 3e be
       0.113470115 -0.100031234 -0.15373354 -0.18593708
000010 5b c0 18 bc 24 0c 13 3e
       -0.009323205 0.143601

conv2.weight f4 [6, 6, 5, 5]
000000 46 fc 25 3c db b5 a3 3d 9c 9a 86 bd e2 32 aa bc
       0.010130947 0.079936706 -0.06572458 -0.020776216
000010 55 7f e0 3b ad 1f 89 bc 1e 33 16 bd 4a 7f aa 3c
       0.0068511167 -0.016738737 -0.036669843 0.02081265
000020 f7 66 7e 3c 41 dc 25 3d 1c 40 47 3d 62 50 82 bd
       0.015527478 0.040493254 0.048645124 -0.06362988
000030 4a fc 45 3c 40 45 d4 bb 12 08 48 bd d1 58 8e bd
       0.012084076 -0.006477982 -0.04883582 -0.06950534
000040 43 a8 9a bd 84 25 a3 3c cb 3b 4c bd 1f d7 e3 bc
       -0.075516246 0.01991535 -0.04986171 -0.027812539
000050 81 8b 98 3d 29 9c 6e 3d 0d d8 64 bc 25 bf 27 bd
       0.07448483 0.058254395 -0.013967526 -0.040953774
000060 2f 8d 78 bd 0e 1b 9c 3d 4d 35 eb 3c 5f 11 24 bd
       -0.06068152 0.07622348 0.02871194 -0.04005563
000070 da b5 3d 3c 5d 92 d4 3b 9a 48 a6 3d 19 17 b8 3c
       0.011579001 0.0064871744 0.081193164 0.022471951
000080 0b d2 47 3c cb 32 37 bd 26 15 7e bd 52 38 9f 3d
       0.012196074 -0.044726174 -0.062031887 0.07774414
000090 ea 23 34 3d 4d f5 4c 3d 5e 7e 79 bd 7f df 96 3d
       0.043979563 0.050038625 -0.06091153 0.07366847
0000a0 aa 54 25 3d 17 b2 49 bc ae 3b 87 bd f6 28 92 bd
       0.040363945 -0.012310526 -0.0660318 -0.07136719
0000b0 37 4a 28 3d b5 73 8c bd a1 0b b6 bc 4d 36 81 bd
       0.0410864 -0.06858007 -0.022222342 -0.06309185
0000c0 75 b6 c1 3c 2b 0a 47 3d a7 a9 5e bd ff 8c 38 bc
       0.023646573 0.04859368 -0.05436101 -0.011264085
0000d0 8d ec 5b 3d ad 69 9e 3a 33 2c 5e 3c 04 46 8e 3d
       0.05369239 0.0012085937 0.013560343 0.06946948
0000e0 c2 e7 a2 3c ab 0d 99 bd 6a 75 8d 3d e7 7b bc 3c
       0.019885901 -0.0747331 0.069071606 0.0230083
0000f0 51 d7 ed bc 13 9e 8f 3d 37 c8 83 bd 88 9c 99 3c
       -0.029033335 0.07012572 -0.06434672 0.018751398
000100 26 15 8d 3d a1 80 77 3d f1 a3 22 3c c7 ac 1d 3c
       0.06888799 0.060425404 0.009926782 0.009623713
000110 af f9 fc bc 09 f7 53 3d f8 fb 02 bd bc 51 2b ba
       -0.030880777 0.051749263 -0.031978577 -0.00065353117
000120 59 68 0d bd bd b8 93 3d 0b a1 9b bd 76 57 fb ba
       -0.03452334 0.072129704 -0.07599076 -0.0019175846
000130 a6 70 e3 3c ad ff 9e bc 9a d9 9e bd 7d 1e 56 bd
       0.027763676 -0.019409025 -0.07756348 -0.05227517
000140 8f db 13 3d 9e 41 4e 3d d5 98 96 bc d1 2b 72 bd
       0.03609806 0.050355546 -0.018383423 -0.059123818
000150 1a ae 85 3d 19 0e 6e bd a9 c5 16 3c 10 8a 6a 3d
       0.06527348 -0.058118913 0.009202399 0.057260573
000160 81 bd 36 3d 8a 47 ff bc a3 df 0e 3d a2 e2 8f bd
       0.04461432 -0.031162042 0.034881245 -0.07025649
000170 5a f4 6a bd 70 f4 1f 3d e2 11 cd 3c 3b b4 db bc
       -0.057361938 0.039051473 0.025032941 -0.026819339
000180 56 c2 83 bd 6f f8 69 bd fd 23 a6 3d 57 04 91 bd
       -0.06433551 -0.05712169 0.08112333 -0.07080906
000190 ec a9 8b 3c 18 db 93 bd d2 05 d2 bc f6 6e 0a 3c
       0.017048799 -0.07219523 -0.025637541 0.008449307
0001a0 f6 b0 af bc 4f 3f 7d bb 91 20 f4 3c b8 fa 70 3d
       -0.021446686 -0.0038642471 0.029800685 0.058832854
0001b0 37 09 91 bd f5 91 46 bd ac e5 55 3d 10 f5 86 3c
       -0.07081836 -0.04847904 0.052220985 0.016474277
0001c0 80 6d 9c bc 7b 39 79 3d c6 22 c0 3c c2 98 40 bd
       -0.019095182 0.060845833 0.023454081 -0.04702068
0001d0 ca fe 8c bc 7d 16 81 bd 53 c7 6d ba 9b 0b de 3c
       -0.017211337 -0.063031174 -0.0009070534 0.027105143
0001e0 77 a8 28 bc 57 f2 89 bd 3c 5f 5f 3d e0 e3 15 bd
       -0.010294071 -0.06735676 0.054534182 -0.03659427
0001f0 71 6b a8 3c b3 fd 77 bc e2 e9 cd 3c 3c 00 24 bd
       0.020559045 -0.01513617 0.025135938 -0.040039286
000200 d4 67 03 bd b7 71 9e 3d 50 c7 da 37 bb 6a e8 bb
       -0.03208144 0.07736533 2.6080437e-05 -0.0070928014
000210 b5 af 90 3d f0 6e 85 3d 9a 5f 0e bb 7b 9a 5b 3d
       0.070647635 0.065153 -0.0021724463 0.05361412
000220 45 65 5c 3c b5 f6 3b 3d f5 dc 93 3d ed 15 8e bd
       0.013451879 0.045889575 0.072198786 -0.06937776
000230 21 9a b2 3c 07 8e a3 3d 46 0c 9e 3d e5 1c b5 bc
       0.02180201 0.07986074 0.07717185 -0.022108505
000240 f7 8d f7 bc 90 cd c2 3c c7 9d 4e 3b 6a fd 47 bd
       -0.030219061 0.02377966 0.0031527148 -0.04882566
000250 6d 9c 80 bd ea f2 ff 3c 68 41 ed bc ec f1 69 bd
       -0.06279836 0.03124376 -0.028961852 -0.05711548
000260 03 1a 37 bd df 92 df 3c f9 a0 c6 3c 0b 41 90 bd
       -0.04470254 0.027291713 0.02424668 -0.07043656
000270 bc bc d6 bb cc 3d 91 3d 58 e2 e4 bc 15 85 26 bd
       -0.0065532606 0.07091865 -0.02793996 -0.04065426
000280 be d9 9d bb 14 5c 9f 3d e3 a3 98 bb 9d 83 2c 3d
       -0.0048172167 0.077812344 -0.0046582087 0.042117704
000290 bd b3 08 3d 2a c5 7d bd 22 62 7f ba 49 40 a4 3b
       0.033374537 -0.06195561 -0.0009742101 0.005012546
0002a0 f3 c1 70 bc 1c a6 50 bd f6 d6 13 3d cc e1 8a 3d
       -0.014694679 -0.050939664 0.036093675 0.067813486
0002b0 27 31 59 3c 6d e1 0e 3d 2c 8c 72 3d ff b1 c8 bc
       0.013256348 0.03488295 0.05921571 -0.024498938
0002c0 c8 dc 25 bd cb d5 62 bc 58 74 29 bd d9 b2 d8 3c
       -0.040493757 -0.0138449175 -0.04137072 0.026452469
0002d0 7d 5f b1 3c 43 e9 6b bc f4 48 24 3d 64 74 a1 3c
       0.021651978 -0.014398876 0.040108636 0.01970882
0002e0 e4 46 ac 39 80 4f 83 3c b0 82 81 bd 29 3c b2 bc
       0.00032859214 0.01602912 -0.06323755 -0.021757202
0002f0 c2 bc 10 bd 1c f9 86 bd b7 4e e0 3c 5e 2a ba bc
       -0.035336263 -0.065904826 0.027381284 -0.02272528
000300 96 39 8f bd 29 14 96 bd 24 93 79 39 4d 25 85 bd
       -0.069934055 -0.07328064 0.00023801305 -0.06501255
000310 46 c5 a0 bd 93 d4 61 bd a1 5e 87 3d f2 87 8c bc
       -0.07850127 -0.055134367 0.06609846 -0.017154668
000320 3b 8c 8b bd 6e 57 ee bc 0c e6 80 bd f6 78 87 bc
       -0.06813856 -0.029094424 -0.06293878 -0.01653717
000330 3d 9b 6a bd 9b 09 e7 3c c8 ce 7c 3c 69 12 8b 3d
       -0.057276953 0.028202822 0.01543016 0.06790621
000340 3c 23 9c 3d 14 6f 27 3d 85 15 61 3d d0 74 32 3d
       0.07623908 0.040877417 0.054952163 0.043568432
000350 70 a1 74 3d c1 c2 a7 3c e5 76 9e bd 74 a6 8e bd
       0.05972427 0.020478608 -0.07737521 -0.06965342
000360 aa 06 7c 3c b9 42 82 bd fc 4b ef bc ae 76 9c bd
       0.015382448 -0.063603826 -0.029211037 -0.07639824
000370 a6 a5 7a 3d 2c d4 63 bb 9a 0b 0c bd d0 17 84 3d
       0.06119313 -0.0034763915 -0.03419075 0.064498544
000380 a1 3f 98 bd 89 d6 8a bc 51 07 95 3c 34 1d 68 3d
       -0.07434011 -0.016948001 0.018191965 0.056668475
000390 69 32 94 3d df d7 83 3d d9 db 6a 3c 20 07 95 bc
       0.072361775 0.064376585 0.014334642 -0.018191874
0003a0 10 f0 37 bc 08 11 57 bc 5d 7f 2b bd 8f ad 7f bd
       -0.011226669 -0.013126619 -0.04186951 -0.062421378
0003b0 16 4f df bc f5 24 13 3d 84 a7 9a bc 3b fc 67 bd
       -0.02725939 0.035923917 -0.018878706 -0.05663703
0003c0 d5 98 92 3c c2 34 37 bd ff 2c 94 3d 9e 37 d8 bb
       0.017895142 -0.04472805 0.07235145 -0.006598427
0003d0 d3 b9 60 3d c4 b1 97 bd 67 77 90 bc 40 09 89 3d
       0.054864716 -0.07406953 -0.01763506 0.066912174
0003e0 de 3d 15 bd cd 59 91 bd 5b 60 83 3d 75 8d 77 bd
       -0.036435954 -0.07097206 0.06414863 -0.06043764
0003f0 b1 b0 7c 3d bf ef e5 bc b3 d5 3f bc 28 37 95 3d
       0.061691944 -0.028068421 -0.011708665 0.07285911

conv2.bias f4 [6]
000000 6c 2c 1e bc fd 43 30 3d 68 a9 79 bd 46 78 be 3c
       -0.009654146 0.04303359 -0.060952574 0.02325071
000010 e0 3f a3 3c 3e 15 39 bd
       0.019927919 -0.045186274

fc1.weight f4 [50, 96]
000000 c2 fc ca bd ce 0f 22 bd b9 73 81 bd 06 13 d9 bc
       -0.09911491 -0.039565854 -0.063209005 -0.026498329
000010 38 eb 2f 3d 30 3d 94 bb 62 81 ca bb e0 f9 51 bd
       0.04294893 -0.0045238957 -0.0061799744 -0.05126369
000020 20 72 88 ba 81 21 7d 3d 0d 39 85 3d cb 15 c8 bd
       -0.0010409988 0.06179953 0.06505022 -0.09769782
000030 30 22 c1 3d a8 d4 a6 bd e5 c6 b5 bd d9 a0 ab bc
       0.09430349 -0.0814603 -0.08875827 -0.020950722
000040 f6 07 6a bd d4 9e a2 3d 23 8f ac 3d 29 9b ca 3d
       -0.0571365 0.0794045 0.08425739 0.09892876
000050 58 4a c9 bd b3 99 1e bd 0e d9 63 bd 4f 53 62 bd
       -0.09828633 -0.038720798 -0.05562692 -0.05525523
000060 bc e5 c0 bd aa 80 9a bd 73 f3 84 3c cc 06 71 bc
       -0.09418818 -0.07544072 0.016229367 -0.014711093
000070 23 fc de 3c 70 89 31 bd e9 38 cb bc 6e 80 b7 bd
       0.027219838 -0.04334396 -0.02480741 -0.08960043
000080 df 92 32 bd 80 94 39 3b f5 49 00 bd 90 67 2e 3d
       -0.0435971 0.0028317273 -0.03132053 0.042579234
000090 e3 99 28 bd e4 49 b3 3d 06 8b 9a 3d 57 50 3c bd
       -0.041162383 0.08754328 0.07546048 -0.045975056
0000a0 eb f4 6a bd 21 8a 9a 3d 72 1e 10 bd 16 ff 7c ba
       -0.05736248 0.07545877 -0.035185285 -0.0009651048
0000b0 6a fc a6 3d 21 68 96 bc 87 ae 88 3b 57 51 c3 3d
       0.08153613 -0.0183602 0.004171196 0.09536999
0000c0 04 ff d0 bd 82 f4 8d 3d 41 20 35 bd 42 f6 27 bd
       -0.1020489 0.06931402 -0.044220213 -0.041006334
0000d0 31 22 f5 3c 6d 68 94 bd 2a ff ab 3d 5b 1f d6 bc
       0.02992353 -0.0724648 0.08398278 -0.026137998
0000e0 ec 75 4a bd c0 e3 a6 3d c9 83 a8 3d 11 92 97 3d
       -0.049428865 0.081489086 0.08228261 0.07400907
0000f0 bc cc 0c bc 6e a6 8f 3d b8 cb 84 bd 39 a1 ce bb
       -0.008593734 0.07014166 -0.06484169 -0.0063058403
000100 4b 1e 70 bd f2 32 c5 3d 48 1f dc 3c b1 20 99 bc
       -0.05862264 0.09628858 0.026870385 -0.018692346
000110 fc f6 31 3d 75 49 cf bd 47 a3 6e bd f0 52 04 bd
       0.043448433 -0.10121433 -0.058261182 -0.032305658
000120 a4 e1 67 3d 7f 97 c0 3d 8e 76 ad bd 42 2f 8a 3d
       0.056611672 0.094038956 -0.08469878 0.06747295
000130 14 1d 25 3b a8 c8 a9 3d d6 92 3d 3c 6a ae b4 3d
       0.0025194334 0.08290225 0.011570653 0.08822329
000140 98 4e 03 3c 59 98 dd 3c 5f 38 9e 3d b8 00 a0 bd
       0.008014344 0.027050184 0.07725596 -0.07812637
000150 0d 70 89 bb b6 d8 9f bc dd 7b c2 bc 85 9e 3c 3c
       -0.0041942657 -0.019512516 -0.023740703 0.011512403
000160 0a d1 a7 bd 03 5b 0b bd 61 f4 52 3d 6b 8d 3e bd
       -0.08194168 -0.034022342 0.05150259 -0.046521585
000170 48 87 b5 3d 5b ea 7b 3d 29 c5 d3 bc 22 a9 66 bd
       0.088636935 0.061502796 -0.02585085 -0.05631364
000180 1f 88 cc 3d ae 87 8d 3d 50 b4 b9 3d f2 22 9f bc
       0.099869005 0.069106445 0.09067595 -0.019425843
000190 8e be 55 bb 9b 37 0e bd 06 e4 09 3d 71 5f ad 3d
       -0.00326148 -0.034721 0.033664726 0.0846547
0001a0 11 18 1c 3d 99 cc de bc 66 88 cf bd d6 e5 d7 bc
       0.03810889 -0.02719717 -0.10133438 -0.026354712
0001b0 2c 4b 3b bc 46 cc 84 bc 05 ed 4b 3d 6d a8 5a 3d
       -0.011431497 -0.016210686 0.049786586 0.05338328
0001c0 b5 a7 b3 3d 08 d8 45 bd 23 c8 5c bd 46 9f c2 3a
       0.08772222 -0.048301727 -0.053901803 0.0014848493
0001d0 0f f7 ae 3d d0 2c c1 3c 2c 2d a6 3d a1 7e 1c bc
       0.085432164 0.023580939 0.081140846 -0.009551675
0001e0 c2 f6 85 bd e5 ec 40 3d e1 7d b5 3d b9 3b 81 bd
       -0.06541206 0.04710092 0.088619 -0.06310219
0001f0 01 04 a4 bd 9c 96 c6 3d a3 ef 29 bd 90 b5 92 bd
       -0.08008576 0.09696695 -0.0414883 -0.071635365
000200 b2 a9 e5 bc 07 66 f9 3c b6 76 ad bd bb 71 18 bd
       -0.028035019 0.030444158 -0.08469908 -0.037217837
000210 b0 e0 ba bc 70 5f 5d bd de 47 bb bd 92 ba 1d bd
       -0.022812217 -0.054046094 -0.09144567 -0.038508005
000220 75 f3 8b bc 2f 3a a7 3c f0 29 5c bd 1c a0 e0 3c
       -0.017083863 0.020413486 -0.053750932 0.027420096
000230 d1 d8 4a bd 8c ea 44 bd b2 c5 98 bd 9f 6c a8 3d
       -0.04952318 -0.048075244 -0.074595824 0.08223843
000240 aa 3e 01 3d f9 3a 20 3d 76 5a b6 bc 8a 7d a3 3d
       0.0315539 0.03911874 -0.022259932 0.07982929
000250 f6 7f 04 39 b3 ab 68 bd c7 16 57 bd 35 92 fb bc
       0.0001263617 -0.05680437 -0.052511957 -0.030709365
000260 28 71 86 3c 04 c0 f1 3c 9e 85 94 3d 89 b0 1e bd
       0.016411379 0.029510505 0.07252048 -0.038742576
000270 04 17 cf 3d 30 9e 39 3d 5e 82 ca bc 88 9b 1e bd
       0.10111812 0.045316875 -0.024720367 -0.038722545
000280 e3 d2 5a 3d 0f f9 9d 3c d9 22 15 3d d8 db 59 3d
       0.053423773 0.0192838 0.036410186 0.053188175
000290 6f e1 35 bc f3 fa 86 bd 06 be ac bd ad 9d 3b 3d
       -0.011101111 -0.065908335 -0.084346816 0.04580467
0002a0 e1 dd eb 3c 89 52 5c 3b b0 b3 d5 3c 9d 83 c8 bb
       0.028792324 0.003361853 0.026086658 -0.006119205
0002b0 48 3e 31 3c 24 a5 d0 bd b9 12 a8 bc d2 9e 9c 3d
       0.010818072 -0.10187748 -0.02051674 0.0764748
0002c0 51 d3 bb bd 11 a6 6e bc f6 d1 85 bd f5 90 b1 3d
       -0.09171165 -0.0145659605 -0.065341875 0.086702265
0002d0 71 19 7d 3c 47 0b a1 3d 85 5b 3b 3d a8 50 60 3d
       0.01544796 0.07863479 0.045741577 0.05476442
0002e0 c1 50 b3 3c 06 18 a9 bd 19 a5 9f 3d 52 c3 b8 3d
       0.021889092 -0.08256535 0.07795162 0.090216294
0002f0 57 fe 93 bd 14 c8 69 bd af 29 c4 3b ed 8e a5 3c
       -0.07226246 -0.057075575 0.0059864144 0.020209754
000300 8e 97 53 3d 0e ff 8e bd bd f4 ab 3d 3c 7c b3 3d
       0.051658206 -0.069822416 0.083962895 0.0876393
000310 da 1f 4d bc 87 58 12 3b 12 0b a8 3d 54 68 d2 bc
       -0.012519801 0.0022330598 0.082052365 -0.025684513
000320 72 9c cb b8 8d fc 36 3d 28 0a 4c 3d 0b 77 cb bc
       -9.7089345e-05 0.044674445 0.049814373 -0.024837038
000330 9d 32 12 bd 99 41 2b bc 17 8a cb 3d a2 85 a2 bd
       -0.0356928 -0.010452651 0.09938448 -0.07935645
000340 22 49 bc bd 4e d9 24 3d 3d 6c 11 bd e4 66 9a 3d
       -0.091936365 0.0402463 -0.035503615 0.07539156
000350 8f 5c b5 bd 92 17 3c 3d 3a b1 0b bd 8b 1b 05 3d
       -0.08855545 0.045920916 -0.034104563 0.03249697
000360 56 63 71 3d 2b 7e e4 3b d5 4c 25 3d bb c0 8f 3d
       0.058932625 0.006973048 0.040356476 0.07019182
000370 88 f4 2a bc 86 dd 8c 3d bc 8a 5c 3d 86 3b 1f bc
       -0.010434277 0.0687819 0.053843245 -0.009718781
000380 fb 4f 53 3d 62 2c 63 3d 0c 6c 54 3d 78 27 11 bc
       0.051589947 0.05546225 0.051860854 -0.008859508
000390 8c 22 b5 bd 4b e5 b4 bd c9 c1 44 bc 4e 05 81 3d
       -0.0884448 -0.08832797 -0.012009093 0.0629984
0003a0 4d 2e 86 3d 8d 87 5b 3d b8 6e 10 3b 4b a8 a3 bd
       0.065518 0.05359607 0.002203865 -0.07991084
0003b0 cc 51 f0 bc f9 71 3b 3d 38 6b 8f 3d 2f 30 b4 bc
       -0.029335879 0.04576299 0.07002872 -0.021995632
0003c0 11 e9 ba bd 09 10 e6 3c 73 48 c2 bd b6 31 cf bc
       -0.09126485 0.028083818 -0.09486475 -0.025292259
0003d0 2d 0f d2 3b 4d 6b d0 bd 70 c4 9f bd 95 4b 6b bd
       0.0064105005 -0.10176716 -0.07801139 -0.057445128
0003e0 c0 47 ad 3d 72 df cd bd 7c 02 46 3d 3e 15 a9 3d
       0.08460951 -0.100523844 0.048342213 0.08256005
0003f0 46 86 2b bd 4d ec f8 bb 33 dd b4 3c 5a 0b 05 3d
       -0.0418761 -0.0075965286 0.022078132 0.03248153

fc1.bias f4 [50]
000000 2d 66 bb 3d 82 b3 08 bc 02 56 3e bd 9e 97 8d bc
       0.09150348 -0.008343579 -0.046468742 -0.01728421
000010 79 4f cf 3b 3d 48 9c 3c 19 94 47 3d f8 4c 0d bd
       0.0063266126 0.019077415 0.04872522 -0.03449723
000020 7c eb 34 3d e5 ba 4b bd 1e 32 b9 3d 24 ba 4f 3d
       0.044169888 -0.049738783 0.09042762 0.050714627
000030 ff 90 28 bd 60 80 09 3d 5f 00 3c bc e8 5f b2 bd
       -0.041153904 0.033569694 -0.011474698 -0.08709699
000040 95 0b 4a 3d ea 7c 8b 3d 0b b5 03 3d 9f 3a d1 39
       0.04932745 0.06810935 0.032155078 0.00039907263
000050 5f 86 a9 bd fd 28 87 3d f7 77 72 3c 0b c9 d6 3c
       -0.082775824 0.06599615 0.01479911 0.026218912
000060 6f 99 40 bb b0 22 6b 3d 00 63 96 bd 68 4f f7 3a
       -0.0029388329 0.057406127 -0.073431015 0.0018868269
000070 3a 1d 92 bd b9 3d 87 ba e3 c0 e0 3b 6e 56 83 3d
       -0.07134481 -0.0010318077 0.0068589314 0.064129695
000080 48 50 0a bc 08 63 5e 3d 98 52 de bb f8 1f b4 3d
       -0.008441992 0.054293662 -0.0067847483 0.0879516
000090 ab 3e c7 3d 25 0b 10 3c a1 2d 1b 3c ca 1d 80 bd
       0.0972875 0.00879172 0.009471328 -0.06255682
0000a0 4b 0d 87 bd 74 21 a5 3d 50 e4 cb bd 42 8a 0c 3d
       -0.06594332 0.08063021 -0.099556565 0.03431154
0000b0 37 65 5b 3d e6 dc e9 3b cf 43 0b bd 3a 08 b0 3d
       0.053563323 0.007136929 -0.034000214 0.08595319
0000c0 02 2a b0 bc 48 24 ce bc
       -0.021504406 -0.025163785

fc2.weight f4 [10, 50]
000000 41 c1 ae bd 73 80 be bc 82 4d e0 bd c1 59 ca 3d
       -0.08532954 -0.023254609 -0.109522834 0.098804004
000010 09 8d b1 bd 16 d8 04 be 22 ba c9 bd 2d 1c 9d 3d
       -0.086694784 -0.12973055 -0.09849955 0.0767139
000020 9f 61 00 3e a0 58 e0 bc b8 fb ef bd 4a 63 f7 ba
       0.1253724 -0.02738601 -0.117179334 -0.0018874195
000030 21 a2 cf bd 94 0a fa 3c 96 29 e9 bb 0e 90 98 3d
       -0.101383455 0.030522622 -0.007115553 0.07449351
000040 52 b9 30 bb 45 9d f5 3c 41 73 63 bd 74 58 b4 3c
       -0.0026965928 0.029982219 -0.055529837 0.022014834
000050 d0 14 34 bc 9a 36 dd 3c 54 65 e6 3c 27 cc 84 3b
       -0.01099129 0.027003575 0.028124489 0.004052657
000060 20 cc dc bd dd 28 32 3d 28 77 f8 bc 0b ab b2 3d
       -0.10781121 0.043496 -0.030330256 0.0872403
000070 22 73 c9 3d cf a4 3a bc b6 29 7d bc 6c cc f8 bb
       0.09836413 -0.0113918325 -0.015451839 -0.0075927284
000080 33 b7 0c be d1 b7 79 bd 67 63 1f 3d e8 b3 86 bd
       -0.1374176 -0.060966317 0.038913157 -0.06577283
000090 47 92 a5 3d 22 c4 e5 3d a6 5a 8d bd 74 9c 7b 3d
       0.08084541 0.1121905 -0.069020554 0.061428502
0000a0 62 0d 0f 3e 6a 3a 20 bd b2 d4 99 3d 6a c4 ee 3d
       0.13969949 -0.039118208 0.075112715 0.11658557
0000b0 ab d0 08 3d 05 22 34 bd ac 99 9b 3d be f3 84 bd
       0.033402126 -0.043977756 0.0759767 -0.06491803
0000c0 f8 be d0 3d e7 77 0f be 61 e3 a8 bd b8 1d d7 bc
       0.101926744 -0.14010583 -0.08246494 -0.026259288
0000d0 11 a7 55 bd e7 19 d2 ba d8 e3 95 3d 0a de d2 bd
       -0.05216128 -0.0016029448 0.07318848 -0.10296257
0000e0 89 0b 8d bd b2 6f 04 3e 81 c2 04 3e 22 3a ee bd
       -0.06886966 0.12933233 0.12964822 -0.11632182
0000f0 5e fe 56 3b 1e 10 65 3d 0a 19 86 3b 8f 23 08 be
       0.0032805423 0.055923574 0.0040923404 -0.13294815
000100 5c af c6 3d fc 7b a6 3d 11 19 03 3e 4a b5 5c bd
       0.09701416 0.08129117 0.12802531 -0.05388383
000110 ed 4a 27 3d 37 df 05 3e 64 0b 22 bd 12 e4 7e bd
       0.04084294 0.13073431 -0.039561644 -0.062229224
000120 24 c5 bf 3d c9 d3 3e bd ee 39 10 be c4 59 c7 3d
       0.093637735 -0.046588693 -0.14084598 0.09733918
000130 0c 9d 49 bd 51 12 22 3d 0c f3 29 bd 6e 78 b8 3d
       -0.049222037 0.03956825 -0.041491553 0.09007345
000140 80 02 03 be 9c e5 37 3d a0 50 af bd 53 e8 0a be
       -0.12793922 0.044896707 -0.085603 -0.13565187
000150 0b 09 17 bc 04 cb dc bd 33 d3 01 be 82 2b a6 3d
       -0.009218465 -0.1078091 -0.12678222 0.08113767
000160 aa d9 0d be 10 39 ee 3c f5 18 f1 bc 5c d5 d9 bd
       -0.13852564 0.029079944 -0.029430846 -0.10636398
000170 e5 e0 04 be 2a ae db 3d b1 09 fc bd cd 8c de 3d
       -0.12976415 0.107265785 -0.12306536 0.10866699
000180 45 ff 10 bd 4d bd 8f 3c 15 76 66 bd 3f 1b 84 bd
       -0.035399694 0.01754632 -0.056264956 -0.06450509
000190 09 6e ac 3d 85 0b e3 bd 70 13 00 be 88 31 ac 3d
       0.08419425 -0.110861816 -0.12507415 0.08407885
0001a0 05 ca c0 3d 71 07 8f 3d f0 76 04 3c 3c 8b 0b 3e
       0.09413532 0.06983841 0.008084998 0.13627332
0001b0 6c 4f 45 3d 20 0f 26 3c d9 20 17 bd 9d 38 04 3e
       0.048171446 0.010135442 -0.03689656 0.12912221
0001c0 c0 ae 3d 3d 69 aa 95 3d 16 24 bf 3c fa c6 de 3d
       0.046309233 0.07307894 0.023332637 0.108777955
0001d0 08 bd e4 bc 7e c2 cc bd 95 c0 f1 bd 35 c7 ac 3d
       -0.027922168 -0.09998034 -0.1180431 0.08436433
0001e0 a0 0c 8f 3b 1c 41 0b 3e b3 1d 8f bc 0d e5 02 3d
       0.0043655187 0.13599056 -0.017470216 0.03195672
0001f0 84 1f d4 3d ff 4b 1e bd 3f 0a fe bc 09 dc 61 3d
       0.10357574 -0.038646694 -0.031010745 0.055141483
000200 60 97 d8 3d d4 95 02 be 9d 99 9d 3d 73 5a 17 3c
       0.105757475 -0.12752467 0.07695315 0.009237873
000210 20 d8 5c 3d 2a 81 8a bc 63 82 a9 3d 79 52 d5 bd
       0.05391705 -0.016907293 0.082768224 -0.10416121
000220 64 41 03 be ba f6 e7 3d bc a1 af 3c b0 7d 3e bc
       -0.12817913 0.11326356 0.021439426 -0.011626646
000230 fe fe 02 3e 58 f8 cd bd 5a 81 0e be 4d 01 aa bd
       0.12792584 -0.100571334 -0.13916531 -0.08301029
000240 d1 e0 99 3d 76 dc b7 3d d7 af 95 3d ed 3b f7 3d
       0.075135835 0.089775965 0.073089294 0.12071977
000250 d7 06 fe bd f9 a7 88 bc 7f d1 fd 3c ef ea 88 bd
       -0.12403648 -0.016681658 0.030983685 -0.06685435
000260 93 05 b4 bd d9 8d b8 bd fb 5b 96 3c e8 d9 68 3d
       -0.08790126 -0.0901143 0.018354407 0.056848437
000270 be f8 45 3d 00 26 a7 bc 0c 07 0a 3d 50 ca 78 3d
       0.048332922 -0.020403862 0.033698127 0.060739815
000280 7f 7a 4a 3d bd 3d c1 bd ed e2 ca 3c 81 d4 8f bd
       0.049433228 -0.09435604 0.02476641 -0.07022954
000290 16 96 d9 bd a0 18 c8 3b 72 93 da 3d fe 98 e7 3d
       -0.1062433 0.006106451 0.10672654 0.11308478
0002a0 15 12 9f 3d dd b4 33 3a de 45 4b bd df f2 51 3a
       0.07767121 0.0006855259 -0.049627177 0.0008008908
0002b0 07 a6 f3 3d 27 a4 3b 3d 69 0d 8d 3d 2d 4b f3 3d
       0.118969016 0.045810845 0.068873234 0.11879573
0002c0 3d eb 5d bd 90 9f 64 bc c6 c1 83 3d 75 dc f8 3d
       -0.05417942 -0.013954058 0.06433444 0.12151424
0002d0 72 9b a2 bd 89 57 05 3e f7 81 e4 bd 33 a7 23 3d
       -0.07939805 0.13021673 -0.11157601 0.039954375
0002e0 a1 31 50 bc 1d 91 fc bd 4d 61 34 3d f9 07 f0 bd
       -0.012707145 -0.12332366 0.044038106 -0.11720271
0002f0 03 cd b6 b9 24 89 76 3d b5 10 3f bd b0 b2 80 3c
       -0.0003486649 0.06018938 -0.046646792 0.015710205
000300 38 aa 9e bd 58 ac e5 bd cc 29 f8 3d 0f 68 05 3d
       -0.077473104 -0.112145126 0.12117347 0.03256994
000310 41 43 33 bc b0 42 b6 3d 57 15 8f 3d 32 12 f0 bd
       -0.010941328 0.088994384 0.06986492 -0.117222205
000320 64 81 7f bd 3a e1 b7 3d 74 a5 05 be f7 1f e5 3c
       -0.062379256 0.089785054 -0.13051397 0.027969344
000330 26 91 5d 3d 18 2d d4 bd 62 4f 94 3d e7 2f 0c 3d
       0.054093502 -0.103601635 0.072417036 0.03422537
000340 c8 06 07 be 80 3d ef bd e6 6a f6 3d 62 c2 9b 3d
       -0.1318618 -0.11681652 0.12032108 0.07605435
000350 15 ad 2c 3d 3d 55 90 bd c8 bc f1 bd 4a be f3 bd
       0.04215725 -0.07047508 -0.11803585 -0.11901529
000360 bc 8c f7 3d f8 3d 0e 3e 97 9e 49 3d 85 cb 4a 3c
       0.1208739 0.13890827 0.04922351 0.012377624
000370 90 62 55 bd 44 32 21 3d 8e 94 f4 3c 4e 54 03 be
       -0.05209595 0.039354578 0.029855993 -0.12825128
000380 cb 2f 9d 3d 52 72 16 3d 9e ad 46 bc 20 8e 02 be
       0.076751314 0.036730118 -0.0121263545 -0.12749529
000390 91 74 e3 bd 0b cc e4 bd d2 87 00 3e 87 e6 9d 3d
       -0.11106218 -0.111717306 0.12551811 0.07709985
0003a0 81 19 de bd 0e 8e be 3d b7 a0 fa 3b 43 c5 10 be
       -0.10844708 0.093044385 0.0076485532 -0.1413775
0003b0 ba c9 bb 3d 19 11 11 bd b3 9a ae 3c 28 27 e8 3c
       0.09169336 -0.035416696 0.021314 0.028338984
0003c0 3a d1 bc bd 8e ca be 3d 6e 73 95 bd 08 7f 88 3b
       -0.09219594 0.09315978 -0.07297407 0.004165534
0003d0 9c b1 7b 3d c4 a2 66 3b 84 33 ab 3c 0b 23 da bd
       0.06144868 0.003519223 0.020898588 -0.10651215
0003e0 f6 a4 44 bc 75 0e 01 be f2 a4 8b 3b a9 05 d6 3d
       -0.01200222 -0.12603171 0.0042616064 0.10450298
0003f0 e9 a1 53 3d 34 bf 07 bd 44 22 eb bd bb 20 a9 3d
       0.05166808 -0.03314133 -0.11481145 0.08258196

fc2.bias f4 [10]
000000 01 5c a6 bd ab f1 61 bd fc f5 34 3c 94 18 7b 3d
       -0.08123017 -0.055162113 0.011044975 0.061302736
000010 21 75 58 bb e1 96 89 bd 9c 24 d9 bd e0 d7 85 bd
       -0.0033028799 -0.06718231 -0.10602686 -0.065353155
000020 cb b1 52 3d 25 d2 c4 bd
       0.051439088 -0.096103944

batch_norm_2d.weight f4 [6]
000000 00 00 80 3f 00 00 80 3f 00 00 80 3f 00 00 80 3f
       1.0 1.0 1.0 1.0
000010 00 00 80 3f 00 00 80 3f
       1.0 1.0

batch_norm_2d.bias f4 [6]
000000 00 00 00 00 00 00 00 00 00 00 00 00 00 00 00 00
       0.0 0.0 0.0 0.0
000010 00 00 00 00 00 00 00 00
       0.0 0.0

batch_norm_2d.running_mean f4 [6]
000000 00 00 00 00 00 00 00 00 00 00 00 00 00 00 00 00
       0.0 0.0 0.0 0.0
000010 00 00 00 00 00 00 00 00
       0.0 0.0

batch_norm_2d.running_var f4 [6]
000000 00 00 80 3f 00 00 80 3f 00 00 80 3f 00 00 80 3f
       1.0 1.0 1.0 1.0
000010 00 00 80 3f 00 00 80 3f
       1.0 1.0

batch_norm.weight f4 [50]
000000 00 00 80 3f 00 00 80 3f 00 00 80 3f 00 00 80 3f
       1.0 1.0 1.0 1.0
000010 00 00 80 3f 00 00 80 3f 00 00 80 3f 00 00 80 3f
       1.0 1.0 1.0 1.0
000020 00 00 80 3f 00 00 80 3f 00 00 80 3f 00 00 80 3f
       1.0 1.0 1.0 1.0
000030 00 00 80 3f 00 00 80 3f 00 00 80 3f 00 00 80 3f
       1.0 1.0 1.0 1.0
000040 00 00 80 3f 00 00 80 3f 00 00 80 3f 00 00 80 3f
       1.0 1.0 1.0 1.0
000050 00 00 80 3f 00 00 80 3f 00 00 80 3f 00 00 80 3f
       1.0 1.0 1.0 1.0
000060 00 00 80 3f 00 00 80 3f 00 00 80 3f 00 00 80 3f
       1.0 1.0 1.0 1.0
000070 00 00 80 3f 00 00 80 3f 00 00 80 3f 00 00 80 3f
       1.0 1.0 1.0 1.0
000080 00 00 80 3f 00 00 80 3f 00 00 80 3f 00 00 80 3f
       1.0 1.0 1.0 1.0
000090 00 00 80 3f 00 00 80 3f 00 00 80 3f 00 00 80 3f
       1.0 1.0 1.0 1.0
0000a0 00 00 80 3f 00 00 80 3f 00 00 80 3f 00 00 80 3f
       1.0 1.0 1.0 1.0
0000b0 00 00 80 3f 00 00 80 3f 00 00 80 3f 00 00 80 3f
       1.0 1.0 1.0 1.0
0000c0 00 00 80 3f 00 00 80 3f
       1.0 1.0

batch_norm.bias f4 [50]
000000 00 00 00 00 00 00 00 00 00 00 00 00 00 00 00 00
       0.0 0.0 0.0 0.0
000010 00 00 00 00 00 00 00 00 00 00 00 00 00 00 00 00
       0.0 0.0 0.0 0.0
000020 00 00 00 00 00 00 00 00 00 00 00 00 00 00 00 00
       0.0 0.0 0.0 0.0
000030 00 00 00 00 00 00 00 00 00 00 00 00 00 00 00 00
       0.0 0.0 0.0 0.0
000040 00 00 00 00 00 00 00 00 00 00 00 00 00 00 00 00
       0.0 0.0 0.0 0.0
000050 00 00 00 00 00 00 00 00 00 00 00 00 00 00 00 00
       0.0 0.0 0.0 0.0
000060 00 00 00 00 00 00 00 00 00 00 00 00 00 00 00 00
       0.0 0.0 0.0 0.0
000070 00 00 00 00 00 00 00 00 00 00 00 00 00 00 00 00
       0.0 0.0 0.0 0.0
000080 00 00 00 00 00 00 00 00 00 00 00 00 00 00 00 00
       0.0 0.0 0.0 0.0
000090 00 00 00 00 00 00 00 00 00 00 00 00 00 00 00 00
       0.0 0.0 0.0 0.0
0000a0 00 00 00 00 00 00 00 00 00 00 00 00 00 00 00 00
       0.0 0.0 0.0 0.0
0000b0 00 00 00 00 00 00 00 00 00 00 00 00 00 00 00 00
       0.0 0.0 0.0 0.0
0000c0 00 00 00 00 00 00 00 00
       0.0 0.0

batch_norm.running_mean f4 [50]
000000 00 00 00 00 00 00 00 00 00 00 00 00 00 00 00 00
       0.0 0.0 0.0 0.0
000010 00 00 00 00 00 00 00 00 00 00 00 00 00 00 00 00
       0.0 0.0 0.0 0.0
000020 00 00 00 00 00 00 00 00 00 00 00 00 00 00 00 00
       0.0 0.0 0.0 0.0
000030 00 00 00 00 00 00 00 00 00 00 00 00 00 00 00 00
       0.0 0.0 0.0 0.0
000040 00 00 00 00 00 00 00 00 00 00 00 00 00 00 00 00
       0.0 0.0 0.0 0.0
000050 00 00 00 00 00 00 00 00 00 00 00 00 00 00 00 00
       0.0 0.0 0.0 0.0
000060 00 00 00 00 00 00 00 00 00 00 00 00 00 00 00 00
       0.0 0.0 0.0 0.0
000070 00 00 00 00 00 00 00 00 00 00 00 00 00 00 00 00
       0.0 0.0 0.0 0.0
000080 00 00 00 00 00 00 00 00 00 00 00 00 00 00 00 00
       0.0 0.0 0.0 0.0
000090 00 00 00 00 00 00 00 00 00 00 00 00 00 00 00 00
       0.0 0.0 0.0 0.0
0000a0 00 00 00 00 00 00 00 00 00 00 00 00 00 00 00 00
       0.0 0.0 0.0 0.0
0000b0 00 00 00 00 00 00 00 00 00 00 00 00 00 00 00 00
       0.0 0.0 0.0 0.0
0000c0 00 00 00 00 00 00 00 00
       0.0 0.0

batch_norm.running_var f4 [50]
000000 00 00 80 3f 00 00 80 3f 00 00 80 3f 00 00 80 3f
       1.0 1.0 1.0 1.0
000010 00 00 80 3f 00 00 80 3f 00 00 80 3f 00 00 80 3f
       1.0 1.0 1.0 1.0
000020 00 00 80 3f 00 00 80 3f 00 00 80 3f 00 00 80 3f
       1.0 1.0 1.0 1.0
000030 00 00 80 3f 00 00 80 3f 00 00 80 3f 00 00 80 3f
       1.0 1.0 1.0 1.0
000040 00 00 80 3f 00 00 80 3f 00 00 80 3f 00 00 80 3f
       1.0 1.0 1.0 1.0
000050 00 00 80 3f 00 00 80 3f 00 00 80 3f 00 00 80 3f
       1.0 1.0 1.0 1.0
000060 00 00 80 3f 00 00 80 3f 00 00 80 3f 00 00 80 3f
       1.0 1.0 1.0 1.0
000070 00 00 80 3f 00 00 80 3f 00 00 80 3f 00 00 80 3f
       1.0 1.0 1.0 1.0
000080 00 00 80 3f 00 00 80 3f 00 00 80 3f 00 00 80 3f
       1.0 1.0 1.0 1.0
000090 00 00 80 3f 00 00 80 3f 00 00 80 3f 00 00 80 3f
       1.0 1.0 1.0 1.0
0000a0 00 00 80 3f 00 00 80 3f 00 00 80 3f 00 00 80 3f
       1.0 1.0 1.0 1.0
0000b0 00 00 80 3f 00 00 80 3f 00 00 80 3f 00 00 80 3f
       1.0 1.0 1.0 1.0
0000c0 00 00 80 3f 00 00 80 3f
       1.0 1.0
