checkpoints/all users/cnn2/19-12-2023_17-37-39/best_model.pth.tar (torch, 35962 bytes, 16 tensors)

conv1.weight f4 [6, 1, 5, 5]
00000000: 6762 bd3d 5fd1 61be d841 bcbe 4379 8abe
00000010: 4f2f 42bd 1af2 e53d 585c df3d a1e9 d1be
00000020: c98d 0fbe 4d38 4dbe 86e8 94bd fd46 b83b
00000030: 9f6a 023e 5c7a 023d 8089 e3bc b489 a2bd
00000040: 6cfc 43bd 44d2 8ebd df6c 8f3d 5837 f33d
00000050: bae9 99bc a840 48be 3568 913d bf88 c23d
00000060: aee3 f5bd 9ca2 c23e e689 9b3d ec4b e13b
00000070: a4d1 073c de96 cebe b461 713e 0aeb 5fbe
00000080: 18dc 07bd 8e65 053e 88e1 a83e 5138 033e
00000090: 9e34 cc3c 9659 54be 64c3 9dbe c5f9 7b3e
000000a0: 6477 e43d 9855 cb3d 9a36 3dbe 1f02 89be
000000b0: 3ff5 813e 6e51 b03e ee07 b8bd d96e 74be
000000c0: c60e 25bc 7ef3 3b3b ed6e e6bd 1574 ca3e
000000d0: 7acc 303d f6e4 1cbe 4708 70be a9ef 9abd
000000e0: 0e6e 853e 958b bebd 6b51 cb3d 1f8c 0cbd
000000f0: c6f0 ccbe ab07 563e 1311 953d 2603 853d
00000100: bebe 883d 5bd0 01bf 23e8 803d 7e6f 973e
00000110: 529d 233e 40ea 98bc fc8d 2fbf 609f a73e
00000120: 7e61 743e 114f 083d f031 a93d d76f 00bf
00000130: fd77 4abe 6b8f a6bd 6e65 e1bc 0bf7 ff3d
00000140: af1c cabe 3525 58bd ee88 883e 8d2c 94bd
00000150: c722 563e aeac ba3e b2ed 143e f006 d7bd
00000160: c9a5 f43c 4f4a 793e a3e9 25be c13c 09be
00000170: 5e7f b0bd b745 023f 2c2c 97be b0de 8d3d
00000180: 826d 873e f50a 883d cb47 84bd d835 77be
00000190: 7dd2 5fbc 480f ae39 3d24 823c 1da5 e9bd
000001a0: 2e97 2c3e d406 f5bd ce67 00be 5f9e 80bd
000001b0: 226e bb3c eb8f 7f3e 4def 64be 08fc b9be
000001c0: 3419 8fbd 10b8 af3d 30f6 19bd 609d 2ebd
000001d0: ef26 9cbe 2acf 5fbd 44e4 2d3c 54a2 013e
000001e0: 9d0f a4bd 3b24 c0be 3508 fabd 025d 78bc
000001f0: 81e6 0fbe 7956 4a3e 2c8c b73e 9428 3d3e
00000200: 6a45 df3c 78c6 68bd 85cd c13e 8902 b53e
00000210: 6486 9d3d 616a acbd 02a4 4ebe e955 553e
00000220: 2c6a adbc 8604 653e a8fc 203d 1df3 1bbe
00000230: 36ee 2dbe ab23 dbbd 6990 62be e434 76be
00000240: 1a75 cabd 613d 78be cd60 59be db9f 18be
00000250: 1af0 f1bd 3a90 40be
0.092472844 -0.22052525 -0.36768985 -0.2704564 -0.0474084 0.11227818 0.10906285 -0.40998557
-0.1401893 -0.20041008 -0.07270913 0.005623697 0.12735985 0.031854972 -0.027775526 -0.07936421
-0.04784815 -0.06973699 0.070031874 0.1187579 -0.018788207 -0.19555914 0.07099954 0.094987385
-0.12006317 0.38014686 0.075946614 0.0068755057 0.008289728 -0.40349478 0.23572427 -0.21867004
-0.033168882 0.13027021 0.32984567 0.12814452 0.024927434 -0.207373 -0.30813134 0.24606998
0.111555845 0.09928435 -0.1847786 -0.2675943 0.2538242 0.34437126 -0.089858875 -0.2387041
-0.010074323 0.0028679068 -0.11251626 0.3954169 0.043163754 -0.15321717 -0.23440658 -0.07565243
0.26060528 -0.09303967 0.099276386 -0.034313317 -0.40027446 0.20901363 0.07278647 0.06494741
0.06677006 -0.5070855 0.062942766 0.2957725 0.15977982 -0.018666387 -0.68576026 0.3273878
0.23865315 0.03327853 0.08261478 -0.50170654 -0.19772334 -0.081328236 -0.027514186 0.124982916
-0.3947501 -0.05276986 0.2666697 -0.0723506 0.20911704 0.3645987 0.14543799 -0.1049937
0.029864209 0.24344753 -0.16202407 -0.13402082 -0.08618043 0.50887626 -0.29525888 0.0692724
0.26450735 0.06642715 -0.06459006 -0.24141634 -0.013661024 0.00033199252 0.01588642 -0.11408446
0.16854545 -0.11964193 -0.12539598 -0.06280207 0.022879664 0.24957244 -0.22356911 -0.36325097
-0.06987229 0.08580029 -0.0375883 -0.042630553 -0.30498454 -0.054640926 0.010613505 0.1265958
-0.080107905 -0.37527642 -0.122085966 -0.015158894 -0.14052774 0.19759549 0.3584913 0.1847251
0.027254779 -0.0568299 0.3785211 0.35353497 0.076916486 -0.08418728 -0.20179752 0.20833553
-0.02116879 0.22365007 0.03930345 -0.15229459 -0.16985402 -0.107001625 -0.221254 -0.24043614
-0.098856166 -0.24242164 -0.21228333 -0.1490473 -0.11813374 -0.18805018

conv1.bias f4 [6]
00000000: 0b7f 2abf fcdd 8c3e 2f1e 0b3c 848c 15bd
00000010: ea51 7fbf 1975 5f3e
-0.666001 0.2751311 0.008491083 -0.03651096 -0.99734366 0.21822013

conv2.weight f4 [6, 6, 5, 5]
00000000: 09d5 993d 2c4d 773e 3cf6 f33c 4468 bdbd
00000010: b0ab 4fbd 41c3 f1bc a484 f73d abc3 d3bd
00000020: bab2 0abb 635a 563c 0a1e 2fbc a6ae 91bc
00000030: faec 76be 054b 7dbd 2540 77bd fa50 ea3d
00000040: 572c cbbd 5c7b 3fbe 50d9 d83c e2c7 273d
00000050: be38 3d3e 0ddc 89bd bc93 023d 4f65 0f3d
00000060: 74f5 493e 32d8 e93c c689 87be 5400 73be
00000070: f1d8 e1bd 0edf 3b3d 217c db3d adb4 653d
00000080: 780a 2ebe 768a 8dbd 283b 20bc 3ca0 503e
00000090: c7f1 043d 7e96 54bb ccc7 4fbd 342e a7bd
000000a0: 5414 083e cb5c 483d 9068 a33c cae8 b5bd
000000b0: cf1c debc 67ab 3a3e 40aa 1d3d 0e3f 833d
000000c0: f56e 9abd 1ea3 e6bd bbba eabd cf85 83be
000000d0: a419 8b3d 19d7 f1bd cf7e 88be 33c2 ea3b
000000e0: a8f4 4839 d3cd 81bd 02de 7dbd 1ab1 b1bd
000000f0: eca9 ca3d 68e3 48bc 8830 24be a5f4 d4bd
00000100: 2d0a 333d f088 373d fd52 7a3e 20a0 e3bd
00000110: 99fd 91be f23d 2dbd 5f36 f53e 1444 ce3e
00000120: 2439 8c3d 4bc9 e4bd 6168 d9bd 2930 53be
00000130: 724a d83d 1213 fb3c 139f 0ebe 9e58 bf3b
00000140: 1e03 6bbe 86b1 6e3d 6761 883d 143a b53d
00000150: 29a4 0d3e 7b08 9abd e2da 92bd 3331 76bd
00000160: 32d4 953d 8b9e 873d 5a12 27bd db70 6b3d
00000170: c7a2 c3bc 2867 bebd 3d02 26bd fffb 133d
00000180: dc38 013e 2fdc 993d 5efc ab3d 9a06 003e
00000190: 1c0d a3be ae1f 0dbd fb32 483e f026 b33d
000001a0: 6109 13bd 640d 52be 2f2c 94bc 5c3a ccbb
000001b0: 8006 7dbd 6eac 713c 90c9 cb3c c523 d63d
000001c0: 9488 0c3d 7545 b53d 4ad2 cc3d 9aae d03d
000001d0: 0132 963c 4bd3 c3bd 95c0 c13d bf87 41bd
000001e0: 7a63 223e c632 0dbe 70bb 0ebe 9968 c6bd
000001f0: 686b 89be e7c1 39bc 4f38 9abc d577 243d
00000200: 8326 e8bd 4816 3bbe 5263 003e a8dc 8e3d
00000210: 48ce 0a3e 01d7 17bd 6db7 61bd d1c8 9b3c
00000220: 384a 00bd 1b65 e53c b75c b43d fa90 bc3e
00000230: ea9e 19bd 05d6 3abe c26a 623c cf2b 003e
00000240: c474 253e 33b0 13be 83a2 a5bd 92dd 983d
00000250: c169 023d fdba ddbd 241d 973e 1c62 743e
00000260: bc47 ebbd bfdb a4bd c76c 9f3e 1fdb 89bd
00000270: a4dc 1a3d 6926 93bd 1557 01bd a636 d3bd
00000280: cd7b a3bd 4b61 04bd 54f2 16be c0a4 f93d
00000290: f0dc 973d 41a6 c2bd 777b cb3c 29a6 a93d
000002a0: 0f95 403e 48fd 983c 4a38 073d e30a 41bd
000002b0: 1076 343e b3cf 543e fd54 d73d 7151 dd3d
000002c0: cc3f 48be d40f 3abe cc15 39bd 579c 403d
000002d0: e66c 4ebc 5e17 813e 6b04 56bd 6553 13be
000002e0: 5efd 9cbd e8a3 a73a 606b e7ba 97fb b0bd
000002f0: b5a8 f5bd 72f1 95bd a673 d53c 438d b43d
00000300: 0ab8 103d 5537 51bc b802 d63c 3749 2fbd
00000310: e2cd d83c 035d 703d 7de8 d6bd 506f 0e3a
00000320: 9a63 d7bd 06a2 b3bd ac3f c33d 8849 7d3d
00000330: 7508 b63d a134 f0bd 8682 e83c c517 083d
00000340: 4cda dd3d 4a6e ec3d 8b70 46be 7f2a b03b
00000350: 0f7a 333d d8db 6dbc a0dd 343e fcfa d43c
00000360: 487e 0ebe 1526 d0bd 3709 1bbc 6a95 9b3d
00000370: 1547 27be 374e 88be 01b7 eabd f3e0 073e
00000380: 0eeb be3d 74d3 a9bb 9229 5e3e a32c c63e
00000390: 7517 b8bd 3767 95be 30ac 3cbd 802b ebbd
000003a0: 0834 ca3d 2b95 073e 59d1 a6bd b17e 193d
000003b0: 1753 283e 8183 f83d c904 1cbe 8cd2 74bd
000003c0: ef76 183e f365 383e e9b9 27bd 29e1 61be
000003d0: fca2 aabc 21ac 923d 84c6 8a3d 7325 1ebc
000003e0: a063 83bd e9ea a2bd 4ae4 96be 0c46 59bd
000003f0: 027b 80ba 0f09 bdbe 6d0f 04be 819a 68be
0.07511336 0.24150532 0.0297805 -0.09248403 -0.050700843 -0.02951205 0.12085846 -0.10340055
-0.0021163658 0.013083073 -0.010688314 -0.017783474 -0.24113837 -0.061839122 -0.060363907 0.11441226
-0.099205665 -0.18699402 0.02647081 0.040962107 0.18478677 -0.067314245 0.03187917 0.035008725
0.19722539 0.028545473 -0.264723 -0.23730594 -0.110277064 0.04586702 0.10717035 0.05608051
-0.16996181 -0.06911175 -0.009779729 0.20373625 0.03245714 -0.0032438333 -0.05072765 -0.081631094
0.13289005 0.04891662 0.01994732 -0.088822916 -0.027113346 0.18229447 0.03849244 0.06408511
-0.075406946 -0.11261581 -0.11461397 -0.25688025 0.06792 -0.11808605 -0.26659247 0.0071642636
0.00019164628 -0.06338086 -0.0619793 -0.086763576 0.09895691 -0.012261249 -0.16034138 -0.10398225
0.043710876 0.04480833 0.2444572 -0.11114526 -0.28513792 -0.042295404 0.47893044 0.40286314
0.06846836 -0.11171206 -0.10615612 -0.2062384 0.10561074 0.030648742 -0.1392787 0.0058394214
-0.22950408 0.05827477 0.06659203 0.08848968 0.13832153 -0.07521149 -0.07170655 -0.060105514
0.07315864 0.066220365 -0.040788986 0.057480674 -0.02388133 -0.09297019 -0.04052948 0.036128994
0.12619346 0.075127 0.083977446 0.12502518 -0.3184594 -0.03445404 0.19550698 0.08747661
-0.035897616 -0.2051292 -0.018087475 -0.006232543 -0.061773777 0.014750583 0.024876386 0.10456041
0.03430994 0.088511385 0.10001047 0.101895526 0.01833439 -0.09561785 0.0946056 -0.0472486
0.1585826 -0.137889 -0.13938689 -0.09687919 -0.26839757 -0.011337734 -0.018825678 0.040153343
-0.113354705 -0.18270218 0.12537888 0.069756806 0.13555253 -0.037070278 -0.05510657 0.019016655
-0.03132078 0.028002312 0.088067465 0.36829358 -0.037505068 -0.18245704 0.013819398 0.12516712
0.16157824 -0.14422683 -0.08087637 0.07464136 0.031839136 -0.10826681 0.2951442 0.23865551
-0.114882916 -0.08049726 0.31137678 -0.06731247 0.037808076 -0.071850605 -0.03157719 -0.10313158
-0.079825975 -0.03231935 -0.14740878 0.12189627 0.07415187 -0.09504367 0.024839146 0.08283646
0.18806861 0.018675461 0.033012666 -0.047129523 0.17623162 0.20782356 0.10514257 0.10806549
-0.19555587 -0.181701 -0.045186803 0.047024097 -0.012599206 0.2521314 -0.052250307 -0.14387281
-0.076655135 0.0012789937 -0.0017655902 -0.08641737 -0.11995069 -0.07321443 0.026056122 0.08816006
0.035331763 -0.01276954 0.026124343 -0.042794432 0.02646536 0.058682453 -0.10493562 0.0005433457
-0.10517044 -0.08771138 0.09533629 0.061837703 0.08888332 -0.11728788 0.02838255 0.033225793
0.108326524 0.115444735 -0.19378869 0.0053761597 0.043817576 -0.014517747 0.17662668 0.025998585
-0.1391536 -0.101635136 -0.009462646 0.07596858 -0.1633571 -0.26622173 -0.114606865 0.13269405
0.09322177 -0.005182678 0.21695545 0.3870593 -0.08988849 -0.2918031 -0.04606265 -0.11482906
0.098732054 0.13240497 -0.08145399 0.037474338 0.16437946 0.121344574 -0.152362 -0.059771106
0.1488912 0.1800764 -0.040948782 -0.22058548 -0.02082967 0.07161737 0.06776145 -0.009652483
-0.06415486 -0.07954962 -0.29471046 -0.053045318 -0.0009802284 -0.36920974 -0.1289651 -0.22715189

conv2.bias f4 [6]
00000000: d4d6 0e3c 88c9 25bd 507c 2a3e 0ea1 cfbc
00000010: 663e debd c8f3 f7bd
0.008718211 -0.0404754 0.16648984 -0.025345352 -0.10851745 -0.121070445

fc1.weight f4 [50, 96]
00000000: 1dc1 9abd 30b7 413d 973b ce3d 1100 97bd
00000010: 7f73 4abe dea3 fcbc 81a5 a53b 273d 213e
00000020: e5ab 8dbd abce 663d 7e48 a23c bc87 923d
00000030: 4e81 2dbc 1099 223e 0af8 36bc 1baa b63c
00000040: c19c af3d 3f2b 3abe 4d43 103e 0334 08be
00000050: 225b b93c 2522 693c f254 113e 30e4 563d
00000060: 2f3c 603d 4c4a 4bbd 943a 7a3d e653 2fbd
00000070: 9091 70bd 904b a5bd 72f8 763b 9820 48bd
00000080: 1177 ed3d 849d bd3d 6e73 203e d916 ef3d
00000090: 77ff 7a3d 6e6d d3bb d4da 31bd 83e4 953d
000000a0: 8023 fd3d 25bd cd3c c4cc acbd d041 1c3e
000000b0: 0e58 43bd 48c1 a4bd 2c4b 1fbd cf9a 543c
000000c0: 8de1 98bd 372b 18be 336d af3d 5fce 02be
000000d0: d36d 0b3d 886b 003c 6782 2cbd 54e6 f4bc
000000e0: 2739 743e 900e c9bd d6eb 4cbd 22bf 87bd
000000f0: 0db6 ff3d 69cb 563c 40d3 873c 4519 a3bc
00000100: 7276 d13d 8856 0f3e cccf 4fbe 080c 00be
00000110: fb6d 803d ec65 d33d 981c 3d3c 2ce0 a2bd
00000120: 01bf 23bd 6533 053e 2f13 193d e039 8c3c
00000130: 6e08 39be 90bd 9a3d 934b bb3d f2e0 c3bd
00000140: edaa 393d c528 1b3c 6382 86bc d073 9e3d
00000150: 0f54 d33d c4d7 6b3c fd9d 223e e79c 3ebd
00000160: 501f 4c3c d90f 4abd c1ba 003e 4851 803d
00000170: 8582 913b e72d 13be 1453 13bd 7f9b c93b
00000180: e60a 883c 4cd2 9fbd 0355 fdbb 96f2 09bd
00000190: d518 d43d 011d 0cbc 545f 7abd 3782 c63d
000001a0: 7519 fb3b 3d66 973d 429c 31bd 0f78 81bb
000001b0: baf3 b63d d382 f3bc b8e6 163d 43fe 90bd
000001c0: 5697 b4bd 3958 1cbd b3c1 74bd 200d b9bd
000001d0: 2a59 62bd 00d8 0e3c 8b8b 82bd bb65 463d
000001e0: d9e7 02bd a080 12bd 7f89 403e 9ea6 c83d
000001f0: 97f9 5d3d 3308 e83c eb7b d23d dd36 bc3c
00000200: 763b 3d3d 290d aa3d 8aa8 333d 1c5e 69bd
00000210: 0ce1 dbbd 3f70 8c3d d18a ddbb 49be 86bd
00000220: 00c3 fabd 3923 343d a69b a7bd 6465 cf3d
00000230: 71d1 833d 728a f13d c209 55bd 4a9a 4f3d
00000240: 75f9 2bbd 7f43 9bbd 7985 d23d da1b 96bd
00000250: 16a2 ac3d c702 493d 6f75 4a3a bfb6 75bc
00000260: 1c1e 943d c2af 933d 1a5f eebb 4bb9 d7bb
00000270: 7e50 e73c 6505 603d 2886 033e afa3 7e3b
00000280: b7ec e3bd 531b 32bd 5e83 18bd 1b4f 953c
00000290: 3bc2 f2bd b361 8a3d d27f b4bd 811a d73d
000002a0: 93c2 77bd e956 d53d 8a34 83bd 7fe6 d8bd
000002b0: 38c6 a93c 6c20 c13b bec7 943d 3d54 01ba
000002c0: b9c4 a4bd 6f2a 52bd 6c7c e3bc 998e a43d
000002d0: 0e98 643d b913 9eba aeec 823d 38c5 f8bb
000002e0: 3d7c b33d 9fda bdbd 3f0f 9e3d b65a 58bd
000002f0: fa40 fcbd 233b 77bd 5bf8 a5bd 6c6b 2c3d
00000300: 1852 393d d175 8d3c 8536 583c eb77 a23d
00000310: 4c1d f53b 0634 21bd 6e19 eb3c 519c 673d
00000320: aa95 c63b dcc8 3b3d d8cc 4dbd b3f0 193d
00000330: e12c 1b3c d6ec c43d cfd7 e83d 2a47 1dbe
00000340: 2b2b c7bd 8dfc b5bd a3b0 aabc b86f bc3d
00000350: b904 78bc 1845 cc3d 66c2 bbbb d0d2 1c3e
00000360: a408 6cbc 55e8 363d f8c3 42bc c9b8 803d
00000370: 5586 1cbd 84b5 cc3d ed24 d33d d432 90bd
00000380: 73fc 82bd 51b9 21bc 2666 9f3d 570d 023e
00000390: 0672 a5bd 10b0 8f3c d405 b23b 74ec cd3c
000003a0: e83e 4ebd e63f 2abe cce0 b53c edb5 6e3d
000003b0: 93bf e4bd 3cba dbbd a7d5 51bb 6deb f73d
000003c0: 3848 ad3d 0b4c 353c eb74 7fbd 60d7 99bd
000003d0: 454b cb3c c5a8 083e f00e 8d3d 7e29 fa3d
000003e0: c86b b0bd c2a8 febc 0124 b33d cdee 04bd
000003f0: f697 6dbd b28e ab3d d480 0abd 3489 babd
-0.07556365 0.04729384 0.100699596 -0.073730595 -0.19770621 -0.030839857 0.00505513 0.15745984
-0.06917552 0.056349438 0.019809958 0.071547955 -0.010589911 0.15878701 -0.011167536 0.02229791
0.0857482 -0.1818056 0.14088173 -0.13301091 0.022626463 0.014229332 0.1419256 0.05246371
0.054744896 -0.049631402 0.06109102 -0.04280462 -0.05873257 -0.08071053 0.0037684706 -0.04885921
0.11594976 0.09258559 0.15669033 0.1167428 0.061278787 -0.006452254 -0.04342158 0.07318976
0.12360287 0.025114605 -0.084374934 0.1525948 -0.047691397 -0.08044678 -0.03889005 0.012976362
-0.074648954 -0.14860235 0.0856575 -0.12774037 0.034040283 0.007838137 -0.04211655 -0.029894985
0.23849927 -0.09817231 -0.0500296 -0.066282526 0.12485895 0.01311002 0.016580224 -0.01990951
0.1022767 0.13997853 -0.20294112 -0.1250459 0.06270977 0.103221744 0.011542462 -0.07952914
-0.039977077 0.13007887 0.03737181 0.01711744 -0.18069622 0.075556874 0.09145274 -0.09564389
0.045329023 0.009470169 -0.016419595 0.07736933 0.10318767 0.014394704 0.1588058 -0.046536352
0.012458637 -0.04933152 0.12571241 0.06265503 0.004440608 -0.14372979 -0.0359679 0.00615257
0.01660676 -0.07803783 -0.0077310815 -0.033678614 0.10356299 -0.008551837 -0.06112607 0.09692805
0.007662947 0.07392547 -0.04336191 -0.0039510797 0.08933206 -0.029725468 0.036841124 -0.070797466
-0.088179275 -0.038170073 -0.05975504 -0.090357065 -0.055260815 0.008718491 -0.06374272 0.04843686
-0.03195939 -0.035767198 0.1880245 0.09797405 0.054193106 0.028324222 0.10277542 0.02297538
0.046199284 0.08303291 0.043861903 -0.056974515 -0.10736284 0.06857347 -0.006760933 -0.06579263
-0.122442245 0.043978903 -0.081839845 0.101267606 0.06436432 0.117939845 -0.05201126 0.05068425
-0.041985948 -0.07581233 0.10279364 -0.07329531 0.08429353 0.049074914 0.00077231874 -0.014997183
0.072323054 0.072112575 -0.0072745206 -0.006583368 0.028236624 0.054692645 0.12844145 0.0038854887
-0.11129134 -0.04348309 -0.037234657 0.018226197 -0.11853453 0.06756916 -0.08813442 0.10503102
-0.060488295 0.104169674 -0.064065054 -0.10590839 0.0207244 0.0058937576 0.0726466 -0.0004933512
-0.08045334 -0.05131 -0.02776929 0.08035011 0.055809073 -0.0012060321 0.06392799 -0.0075918697
0.08763931 -0.09270214 0.07717752 -0.052820884 -0.12317081 -0.06035913 -0.08104011 0.042094633
0.045244306 0.017268093 0.013196592 0.07933029 0.007480299 -0.039356254 0.02869865 0.05654556
0.006060322 0.04584585 -0.050244182 0.037583064 0.009471149 0.09615485 0.11369287 -0.15359178
-0.097250305 -0.08886061 -0.02083618 0.09200996 -0.015137845 0.09974116 -0.005729961 0.15314794
-0.014406357 0.044655163 -0.011887543 0.06285245 -0.038214047 0.09995559 0.103097774 -0.07040945
-0.06395807 -0.009870843 0.07783155 0.12700401 -0.08078389 0.017540008 0.0054328237 0.025137164
-0.05035296 -0.16625938 0.022201918 0.058278967 -0.111693524 -0.10728881 -0.0032018216 0.12105451
0.0846104 0.011065493 -0.06236736 -0.07511783 0.024816165 0.1334563 0.06887615 0.12214945
-0.08614308 -0.03108633 0.087471016 -0.0324543 -0.05800625 0.08376826 -0.033814266 -0.09108201

fc1.bias f4 [50]
00000000: 4b70 d33c 2aa1 e2bc 56d0 c43d a85d 28bd
00000010: 2d0e 8fbd a811 e73d 6997 e1bc ce7b 903d
00000020: 05f3 debb f36a 403d 9816 7f3d a280 be3c
00000030: 4579 3dbd 2f3f 2d3e 73cf 06be 76a3 383c
00000040: 8d15 aa3d 2cef e93b c088 863d 1352 4f3d
00000050: 4ad4 343d 59aa 1bbb f42a 05bd 81d5 8fbd
00000060: 0ab2 b2ba 2f5f 78bd 861c 8c3d 6831 bd3d
00000070: f57f 993d dd03 c93d 5cfe 80bd 345c f13c
00000080: 168d eabd 5cff f1bd 5cdc f43d ebd2 eb3c
00000090: 3c36 b03d 2e79 f33d 5b20 6c3d 3e1f d33c
000000a0: a8ad a83d 0184 753d 2717 223d 169f 60bc
000000b0: efc8 4fbd 52db 853c 52e4 123e 6732 7abd
000000c0: 6f34 443d 96ae f33c
0.025810381 -0.02766474 0.096100494 -0.041104943 -0.06985126 0.112826645 -0.027538018 0.07054864
-0.0068038725 0.046976995 0.062277406 0.023254696 -0.04625823 0.16918634 -0.13165073 0.011269441
0.08304892 0.007139107 0.06569052 0.05061538 0.044147767 -0.0023752658 -0.032511666 -0.070231445
-0.0013633382 -0.06063765 0.06841378 0.09237939 0.07495109 0.0981519 -0.06298515 0.029462911
-0.11452691 -0.11816284 0.11956093 0.028787097 0.086040944 0.118883476 0.057648044 0.025771733
0.08236247 0.05994034 0.03957286 -0.013709804 -0.050728735 0.016339932 0.1434491 -0.061083224
0.047901567 0.029746335

fc2.weight f4 [10, 50]
00000000: ddb7 0fbe a161 dfbd 5ce9 33be 4161 443d
00000010: ba5a a0bd c8a5 833e 41ad 2d3e 72ab b6bd
00000020: 3484 ee3c 0779 ecbd 4d06 a5be 0f88 d2bd
00000030: e9ec 59bc c074 9bbe de2b 7bbd d19d 21be
00000040: 2681 a7bc c8d9 2a3e 3266 78be 31b3 c7bc
00000050: 9547 86be b871 87be e12b c03d 28da 3b3b
00000060: 0bc1 753d 66be 693d 1c64 36be 7f35 f03d
00000070: d6d4 59be 112d d0bb c516 06bd 1087 acbe
00000080: edbb da3d d0d4 14be 0faf 49be 274f 9e3e
00000090: f2fa 87bd 1f86 dcbe a7df 48be 6369 eabc
000000a0: a58f 443e aa3b a23e 2d51 6a3e c870 3cbe
000000b0: bfb9 12be bf2b 67be c57d f3bd 9c27 19bd
000000c0: 721b 9f3e a7a2 543e 7094 fa3d 70f2 05be
000000d0: a3dc 093e 28c1 9e3e db20 173d f31a 0b3e
000000e0: f6a5 0bbe 3042 353e 69fe 6ebe fb60 59be
000000f0: bd71 ba3e 6f18 1cbe b3bd c4be 54ce c33d
00000100: 9038 52bd e3ea 43be abea e03e 8cbd ac3d
00000110: 3b8d 1ebe e5dd 173e d980 993e 063b 853e
00000120: 37c1 27be 0968 c13e 8c54 3dbe e5e6 e13c
00000130: 5ba8 45be b2c5 99be 3f29 8c3e bb88 e73d
00000140: 80e5 b3bc a5e8 9ebc e896 9fbd 5682 20be
00000150: 6c97 70be 2271 a8be 44ac e0bc 6a62 1fbe
00000160: a7d4 26bd c3cb 443c 0b53 ffbd eed9 8cbd
00000170: 0e70 45be 6367 0c3f 93dd bebe ba1c d8bd
00000180: 0241 8bbe c25d debd 9a3e 3abe 1e62 c53e
00000190: ea21 3e3e cea5 32bd e06a c73e 6ca3 f1bd
000001a0: b75a 013d 8043 95be dc95 4f3d 9eb8 abbe
000001b0: 3e32 cdbe 7a9f 12be d55b 8c3d 2391 33be
000001c0: a815 aabd d753 ac3e 199a 083e d1f3 dfbd
000001d0: 987b e9bd 3ee1 fcbd a226 7fbe 3bca 4f3c
000001e0: d942 3bbe 9f7b 5abe b6a5 573e 3d77 95be
000001f0: 25e1 933d a3fe d73d 3a7d b8be 7434 8ebd
00000200: 65f1 3cbe 9b5b 03be 37e0 1a3d 0cf2 98bd
00000210: eb0f 3ebd 2483 eabd 8873 bcbe ce82 2ebe
00000220: 67c4 a73d d1a1 753e 566e bdbd b8e7 8f3e
00000230: 6bcb 833e 6aca 9fbb e180 273e 427e 37bd
00000240: 9d41 3f3d a807 fbbd c454 b13e 393d d2bd
00000250: 57fa 3a3d 7af4 60be 8256 913e 6528 963d
00000260: b697 6bbe 376c cfbd 8847 7a3d bcf3 c73d
00000270: f49f 06be e0f7 0b3d 5386 00be 8ca4 10be
00000280: f767 813e 8d70 30be ef83 a13e 276d 2cbe
00000290: 2bb7 b63d b664 0ebe 2592 b8be 0902 083c
000002a0: 96ca 67be 78f3 bbbd 5dfd 8ebe f4cf f33d
000002b0: 700b 9cbe ff95 fcbd 5db9 ac3e 1966 553d
000002c0: c157 42bd d335 19be 6e7e 7cbd f426 543e
000002d0: 764f 163d f8ec ff3c a48b 83bd ca8a 3b3c
000002e0: adfb f7bc 1a15 ac3d 44f1 34be d3a1 27be
000002f0: 3ff8 58bc 5647 35be 3125 aabe 89d6 cbbe
00000300: 8725 10be df7b 803e 81dd 583e 0ee8 033e
00000310: 40da 0d3e e9b8 4e3e dfd4 803e 458a a33e
00000320: 7633 d2bd 7918 89ba b411 26bd 68d7 a0bd
00000330: 674f 1bbd 6feb b2be fb0e 8b3d aa9f d1be
00000340: cd92 9dbe 621f 0abe 99fb bd3e 0a99 633d
00000350: 68b1 c8bd e539 043e 0343 17bd d9ba 83be
00000360: 9dfc 8ebd 230b 733d df55 833e bb2c 55be
00000370: dde3 94be d4f2 4b3e 8d37 0d3e e3d3 06bf
00000380: 66dd 7fbe 141a 61bd 9f31 9fbc 4935 2c3e
00000390: 25b9 ec3c 48b8 373e 361f c13d db17 513d
000003a0: 237a 2dbd bc05 1cbd 4b51 453d f8ea 53be
000003b0: 6d4b c53e 6d05 59be 8096 2dbe b1c1 a03e
000003c0: 7469 63bd 535f 66be 8479 00be 1e2a 9cbe
000003d0: 9d07 fe3e 5403 8c3c ff07 ce3d 8b32 33be
000003e0: 9f7b 88bc 9bc8 2f3c c27e 79bd 843d 0dbd
000003f0: f97c ab3e a335 04be 8626 dcbd 5093 1bbe
-0.14034982 -0.10907293 -0.17569488 0.04794431 -0.07829805 0.2571242 0.16960622 -0.08919419
0.029115774 -0.11546522 -0.3223137 -0.10279857 -0.013301113 -0.3036251 -0.061321132 -0.15782858
-0.020447325 0.1668464 -0.24257734 -0.024377437 -0.26226488 -0.26453948 0.09383369 0.0028663967
0.059998553 0.057066344 -0.17811626 0.117289536 -0.21272597 -0.0063530286 -0.03273656 -0.33696795
0.10680375 -0.14534307 -0.19695686 0.30919763 -0.06639661 -0.43071076 -0.19616567 -0.028614705
0.19195421 0.31686145 0.22882529 -0.18402398 -0.14328669 -0.22575282 -0.11889223 -0.03739129
0.31075627 0.20765172 0.122353435 -0.13080764 0.13463072 0.31006742 0.036896568 0.13584499
-0.13637528 0.1770103 -0.23339237 -0.21228401 0.364149 -0.15243696 -0.3842598 0.09560838
-0.051323473 -0.19132571 0.43929037 0.08434591 -0.15483563 0.1483074 0.29981115 0.26021594
-0.163823 0.37774685 -0.18489283 0.02757592 -0.19302504 -0.30033642 0.27375218 0.11305376
-0.02196002 -0.019398043 -0.07792455 -0.15674719 -0.23495263 -0.32898813 -0.027425893 -0.15564886
-0.040730145 0.012011471 -0.12467011 -0.06877504 -0.19281027 0.54845256 -0.37278423 -0.10552354
-0.27198035 -0.10857727 -0.18187943 0.3855142 0.18567625 -0.043615155 0.38948727 -0.117987484
0.031580653 -0.2915306 0.050680026 -0.3353929 -0.40077394 -0.14318648 0.06853453 -0.17535834
-0.08304912 0.33657715 0.13340034 -0.10935176 -0.11400527 -0.12347649 -0.24917081 0.012682493
-0.18287219 -0.2133622 0.21059307 -0.29192534 0.07220677 0.10546615 -0.3603304 -0.069435984
-0.1845146 -0.12827913 0.037811484 -0.07468042 -0.0464019 -0.11450794 -0.36806893 -0.17042086
0.08191758 0.2398751 -0.092495605 0.28106475 0.25741133 -0.0048764246 0.16357757 -0.044798143
0.046693433 -0.1225732 0.34634984 -0.102655835 0.0456489 -0.2196826 0.28386313 0.073319234
-0.23007092 -0.10128062 0.061103374 0.097632855 -0.13146955 0.03417194 -0.1255124 -0.1412527
0.2527463 -0.17230435 0.3154597 -0.16838513 0.08921655 -0.13905606 -0.36049 0.0083012665
-0.22635874 -0.09177297 -0.27927676 0.11904898 -0.30477476 -0.12333297 0.3373517 0.05209932
-0.04744697 -0.14961939 -0.06164401 0.20717984 0.036696874 0.031240925 -0.06423119 0.011446664
-0.030271376 0.08402462 -0.1767016 -0.16370325 -0.01324278 -0.17702994 -0.332315 -0.39812115
-0.14076816 0.25094506 0.21178247 0.1288149 0.13852787 0.20187725 0.25162408 0.3194143
-0.10263722 -0.0010459564 -0.040544227 -0.078535855 -0.03791752 -0.34945247 0.06789967 -0.40942127
-0.30776063 -0.13488534 0.37106016 0.05556587 -0.097994626 0.1291271 -0.03692914 -0.2572849
-0.06981776 0.059336793 0.25651452 -0.20817845 -0.29080096 0.1991685 0.13790722 -0.52667063
-0.249868 -0.05495651 -0.01943284 0.16817202 0.028896878 0.17941391 0.09429781 0.05104814
-0.042352807 -0.038091406 0.04817323 -0.20695102 0.38534108 -0.21193476 -0.16951942 0.31397775
-0.05552049 -0.22497301 -0.12546355 -0.30500883 0.49615183 0.01709143 0.10060119 -0.1749975
-0.01666051 0.01072898 -0.0609119 -0.034482494 0.33493784 -0.12911086 -0.10749535 -0.15192914

fc2.bias f4 [10]
00000000: 488f 913c 894d 2dbe 2899 363e 7710 1dbd
00000010: 0035 a43d 6f08 843c 1108 d13e 0890 4ebd
00000020: c1d8 a93d 5d3b bfbd
0.017768517 -0.16924109 0.17831862 -0.03834578 0.080179214 0.016117303 0.40826467 -0.050430328
0.08293296 -0.093374945

batch_norm_2d.weight f4 [6]
00000000: 6f6f 853f d545 613f 8c02 823f 56ff 633f
00000010: 500b 993f 6111 793f
1.0424632 0.8799718 1.0157027 0.89061487 1.1956577 0.97292143

batch_norm_2d.bias f4 [6]
00000000: 481b 63bd c165 133c 2721 e23d 3a04 b3bc
00000010: c86a ce3d 6ad6 4d3e
-0.05544594 0.008996428 0.110414796 -0.021852601 0.10078961 0.20101324

batch_norm_2d.running_mean f4 [6]
00000000: 44c9 bc3e 11da e93e 85ed c63e c4bb 963e
00000010: 075a a83e 30f4 1c3f
0.36872303 0.45674184 0.38853088 0.2944013 0.32881185 0.613101

batch_norm_2d.running_var f4 [6]
00000000: 2fae 103e 3728 703e 89e4 d03e c7ae 323e
00000010: d6e0 143e 0d52 ee3e
0.14128946 0.23452841 0.40799358 0.17449485 0.14538893 0.46546975

batch_norm.weight f4 [50]
00000000: 2102 993f b4f8 7a3f 6953 903f 5892 893f
00000010: b9c6 7f3f 81a4 993f 3cc6 803f fd07 8e3f
00000020: adf7 a53f ace2 923f e445 9d3f dc3d 8e3f
00000030: f2d6 923f d100 903f d9fb 7f3f c868 9e3f
00000040: 595f 9d3f f993 893f 9455 9c3f 1c1e 8c3f
00000050: 4cd0 9b3f 3025 9a3f f120 9c3f 1de5 af3f
00000060: 3250 943f 6bf2 7f3f 38aa 983f 3001 8e3f
00000070: 366f 9e3f 97d0 923f 6782 7d3f 6cba 993f
00000080: 5322 803f 03ae 853f d872 963f 8648 913f
00000090: cb28 943f b107 aa3f 86ff 933f 2310 8e3f
000000a0: e943 a13f 188c 9e3f 7063 993f 5f0b 9f3f
000000b0: 3c19 9f3f e30b a03f dec3 943f e250 9e3f
000000c0: 33ea 953f 45b2 903f
1.1953775 0.9803574 1.1275455 1.0747786 0.999126 1.2003328 1.0060496 1.1096188
1.296621 1.1475425 1.2286954 1.1112628 1.1471846 1.1250249 0.99993664 1.2375727
1.2294723 1.0748283 1.2213616 1.0946689 1.2172942 1.2042599 1.2197553 1.3741795
1.1586974 0.99979275 1.1926947 1.1094112 1.2377689 1.1469907 0.99027103 1.2010016
1.0010475 1.0443729 1.1753798 1.1350257 1.1574949 1.3283597 1.1562355 1.1098675
1.259885 1.2386503 1.1983471 1.2425345 1.2429576 1.2503628 1.1622274 1.2368433
1.1712097 1.1304404

batch_norm.bias f4 [50]
00000000: 13b2 1cbe f981 963d b365 683d abd0 6ebd
00000010: 77d7 f2bc b698 e33c f30d 5d3c 20d8 19bd
00000020: 4f91 73bb f398 e63c 95c6 b0bd d783 a6bc
00000030: c0b5 723d e7d6 85bd 83a7 2b3d dda2 02bc
00000040: 04c3 7bbd 2cd2 e2bd ab94 48bd 0f60 97bb
00000050: 07e8 3bbd 1023 9abd b4b9 823c a11e f3bd
00000060: 12a6 acbb cfef 04bd 1562 ebbc 3fa6 8d3d
00000070: 05b6 15be bc8c 46bd 47b3 9b3c 520e d8bd
00000080: efc4 4b3d 6f28 5b3d bd72 8d3d b43b f53c
00000090: 59fc d33d 8029 24bb 1dee 88bd a66b 8c3d
000000a0: ecc0 47bd 1063 4e3d 611c f43d fb5f eabd
000000b0: 401a 823d 59d6 f7bd 8a0c cb3d dea2 84bd
000000c0: d975 c13d d4af c7bd
-0.15302305 0.07349009 0.056737613 -0.05830447 -0.029643757 0.02778278 0.013492095 -0.03755963
-0.0037165468 0.028149104 -0.086316265 -0.020326538 0.05925536 -0.0653513 0.0419078 -0.0079734
-0.06146528 -0.11075243 -0.048969906 -0.0046196054 -0.045875575 -0.07526219 0.01595769 -0.118710764
-0.0052688206 -0.03245526 -0.028733293 0.069164746 -0.14620216 -0.04847406 0.019006385 -0.105496064
0.049748357 0.053505357 0.0690665 0.029935695 0.10350866 -0.002504915 -0.066860415 0.0685647
-0.04876797 0.050387442 0.11919475 -0.11444088 0.06352663 -0.121014304 0.09914501 -0.06476377
0.09446306 -0.097503334

batch_norm.running_mean f4 [50]
00000000: 7131 a53f cdae 2c3f 9d58 8b3f 0400 0000
00000010: 0400 0000 fc47 ed3e 0400 0000 4d69 343f
00000020: fe3b 773f 2f12 0641 fc05 2e3f f959 3f3f
00000030: 6a2d 3a3f 5779 083f 0400 0000 577f f53e
00000040: b671 093f 81f8 3140 de2e ab3f 9e2a ca3e
00000050: 858d 153f 57ad 5c3f add9 823f beee 653f
00000060: 9538 2140 0400 0000 1a21 0d3f 80d9 763f
00000070: 7eb3 283f aa23 0940 6bb4 c13f 039f 433f
00000080: 0400 0000 0400 0000 881d bf3e 675c 8b3f
00000090: 61f5 e23e 0eea ac3f 0400 0000 1ad3 d93f
000000a0: 23ca 943f e9c6 223f 05c8 b73f 3640 293f
000000b0: db76 e43f 65b1 563f 21f3 ea3f 7824 1f3f
000000c0: 7c13 263f 07b8 4c40
1.2905713 0.67454225 1.0886418 6e-45 6e-45 0.46343982 6e-45 0.70473176
0.96575916 8.379439 0.6797788 0.7474666 0.72725546 0.5331015 6e-45 0.47948715
0.53689134 2.7807925 1.3373678 0.3948564 0.58419067 0.86201996 1.0222679 0.89817417
2.5190785 6e-45 0.55128634 0.9642563 0.65898883 2.1428018 1.5133184 0.7641451
6e-45 6e-45 0.37327218 1.0887574 0.44327834 1.3508928 6e-45 1.7017548
1.1624187 0.6358476 1.4357916 0.66113603 1.7848772 0.8386443 1.8355447 0.6216502
0.6487348 3.1987321

batch_norm.running_var f4 [50]
00000000: 5310 7b3f 30b6 893f fec2 953f 0400 0000
00000010: 0400 0000 20f0 183f 0400 0000 9e8f fb3e
00000020: 63ef ab3f f4a9 7441 6e38 723f 37ba 983f
00000030: 977e 363f 567e 043f 0400 0000 2ec0 093f
00000040: 1646 383f f7ef 6d3f fad8 d63f 4914 003f
00000050: 7bce 313f 888e 1d3f fe9a 933f 82d4 6f3f
00000060: e196 813f 0400 0000 a01e f93e bcbf 523f
00000070: eb0c 3a3f 287a af3f a9af ca3f 21d8 203f
00000080: 0400 0000 0400 0000 1cb9 bb3e 09a8 883f
00000090: dd1d 423f 61ea c93f 0400 0000 e8a3 933f
000000a0: 8363 813f ea2d 6a3f e749 7a3f 12de 473f
000000b0: feed 6d3f b401 783f 0fea 9d3f 5d08 783f
000000c0: b7ed 193f 1bfa 9c40
0.98071784 1.0758724 1.1700132 6e-45 6e-45 0.597414 6e-45 0.4913301
1.343243 15.291492 0.94617355 1.1931828 0.7128691 0.51755273 6e-45 0.5380887
0.7198194 0.9294428 1.6784966 0.5003095 0.6945569 0.6154561 1.1531675 0.93683636
1.012417 6e-45 0.48656178 0.82323813 0.7267596 1.3709154 1.5834857 0.62829787
6e-45 6e-45 0.36664665 1.067628 0.7582682 1.5774652 6e-45 1.1534395
1.0108494 0.9147631 0.97769016 0.7807323 0.9294127 0.968776 1.2337054 0.9688776
0.6012835 4.9055305
