checkpoints/BSFL brute/cnn3/21-12-2023_12-41-24/best_model.pth.tar (torch, 131478 bytes, 22 tensors)

conv1.weight f4 [16, 1, 5, 5]
-0.015159378 0.014665908 -0.16532989 -0.037684936 0.03639342 0.02124232 -0.06041132 -0.14281656
-0.100130185 0.043886375 -0.18929607 0.04499744 0.03609095 -0.047783043 0.05008355 -0.12931493
-0.019578947 -0.05157019 0.091990545 -0.107199214 0.06936795 -0.039850123 -0.036574446 0.008521205
-0.15140198 0.0150370905 0.049612455 -0.18906447 0.19448517 -0.18284346 -0.12760997 0.13050647
-0.060944777 -0.14833075 -0.18000515 -0.0710851 0.024910307 0.12204611 -0.10787932 0.14505504
0.06993787 -0.00019869738 -0.13685074 -0.17025413 0.049336005 0.17186625 -0.09794531 0.21300472
0.21237853 0.12761763 0.06784154 -0.15302822 -0.10795275 0.04735414 -0.05980639 -0.111097105
-0.020465579 0.013195543 0.18043119 0.046044935 0.030032732 0.10702859 0.11377418 0.13876975
0.04024006 -0.11275234 -0.18562232 -0.037459947 -0.21078302 0.107156575 0.12160085 -0.067884706
0.08015439 0.06092868 -0.1304549 0.10857663 -0.12568463 0.07354442 0.08101633 0.058050323
-0.19158958 -0.066415556 0.10973761 0.059219606 0.011911528 0.15254779 -0.16933355 -0.1321561
0.14421168 -0.008869038 -0.16822493 -0.18869722 -0.04784791 -0.05383626 0.15909542 0.06336631
-0.19257139 0.08799305 -0.11759812 0.1826683 -0.053230673 0.19120014 0.12142951 -0.13938133
-0.0731856 -0.14672479 0.18536037 -0.037682604 0.12703004 -0.15600486 -0.06466717 0.018536612
0.048142206 -0.124633946 0.19041887 0.093144424 0.081532955 0.12764792 -0.18159287 0.12377135
0.100865014 0.16473363 -0.15326022 0.15871097 -0.08771087 0.05544979 0.14129312 0.152646
-0.17253211 0.077610284 -0.025258787 0.16566494 0.06810792 -0.06842342 0.14530148 0.14605547
-0.14014271 -0.11407351 -0.024693893 -0.13252959 -0.059679467 -0.11267685 0.07613753 -0.1589972
-0.027729236 -0.06935914 -0.065322526 -0.0021047997 0.083162464 -0.14742546 0.14671448 0.014622485
-0.15882237 -0.16550411 0.18827257 -0.15994336 -0.17613725 0.17101206 -0.09093 0.16990024
-0.096635096 0.16881025 0.068607084 -0.15137264 -0.18253781 0.019740183 -0.16380525 -0.17205279
-0.104011744 0.09123879 -0.19380276 0.02175694 -0.05224114 -0.18964873 -0.067683436 -0.03416192
-0.005784302 -0.015977647 0.13268925 -0.090370595 0.16714288 -0.045389295 -0.16812168 -0.12548688
0.08981305 -0.18095012 -0.17515951 0.14403997 -0.13751246 -0.16188957 0.17500623 0.16495346
0.20435826 0.14613222 0.1861509 0.16568945 0.080119684 -0.17091824 0.014116383 -0.14911842
-0.01568741 -0.11411904 -0.13982117 0.08617639 0.11999714 0.06134973 -0.116311945 0.108952284
-0.04959834 0.15368871 0.10215638 0.05685228 0.012461006 -0.07828322 -0.14851665 -0.19916882
-0.15166385 -0.02962649 -0.06701254 0.051978406 -0.0941365 -0.082671046 -0.121284574 -0.08531754
-0.10738495 0.18601112 0.10235828 -0.13745293 -0.05206098 0.2279578 0.028760938 -0.20020686
-0.14476103 0.14904493 0.18661429 -0.13801277 -0.049443282 -0.043033976 0.12702018 -0.12289189
-0.19012433 0.1136513 0.15871137 -0.17043404 0.0107212085 0.025824323 -0.09855939 -0.13502625
0.02724104 0.0441688 0.1603682 0.18989299 0.05910898 -0.19213612 -0.035130955 0.18223189
00000000: 0a5f 78bc 4749 703c 3d4c 29be 855b 1abd
00000010: 4411 153d 6004 ae3c dc71 77bd 813e 12be
00000020: 0e11 cdbd 33c2 333d d4d6 41be 3c4f 383d
00000030: 1bd4 133d 27b8 43bd 6924 4d3d 226b 04be
00000040: 0764 a0bc 433b 53bd 8a65 bc3d 438b dbbd
00000050: c910 8e3d e239 23bd 16cf 15bd 869c 0b3c
00000060: 1f09 1bbe 215e 763c 6e36 4b3d 1e9a 41be
00000070: 1f27 473e 513b 3bbe 30ac 02be 7da3 053e
00000080: 3ba1 79bd 04e4 17be 4553 38be 1195 91bd
00000090: b310 cc3c 50f3 f93d d5ef dcbd 4f89 143e
000000a0: 963b 8f3d 6c59 50b9 9a22 0cbe 1957 2ebe
000000b0: 8d14 4a3d b5fd 2f3e 8d97 c8bd e91d 5a3e
000000c0: c279 593e 32ae 023e 81f0 8a3d 6eb3 1cbe
000000d0: 5516 ddbd 6af6 413d 8cf7 74bd e186 e3bd
000000e0: 6ea7 a7bc 1e32 583c f4c2 383e 9d99 3c3d
000000f0: 3407 f63c ce31 db3d 7002 e93d a819 0e3e
00000100: c3d2 243d b3ea e6bd c713 3ebe 9a6f 19bd
00000110: 81d7 57be e874 db3d de09 f93d 2307 8bbd
00000120: fc27 a43d 5a90 793d f895 05be 6d5d de3d
00000130: 79b3 00be 759e 963d e4eb a53d 2dc6 6d3d
00000140: 0f30 44be e104 88bd 1dbe e03d 4290 723d
00000150: 9228 433c 7d35 1c3e c665 2dbe ee53 07be
00000160: 3aac 133e 714f 11bc 2843 2cbe d839 41be
00000170: 2cfc 43bd 6983 5cbd e9e9 223e 32c6 813d
00000180: 6f31 45be b335 b43d 48d7 f0bd 660d 3b3e
00000190: 6808 5abd f8c9 433e 09b0 f83d fbb9 0ebe
000001a0: 55e2 95bd 063f 16be 1ccf 3d3e 1359 1abd
000001b0: 2a14 023e bdbf 1fbe 3970 84bd 18da 973c
000001c0: c330 453d 1540 ffbd 2afd 423e 81c2 be3d
000001d0: c0fa a63d 23b6 023e 7bf3 39be d57b fd3d
000001e0: 5192 ce3d efaf 283e 3ff0 1cbe 2185 223e
000001f0: c2a1 b3bd 521f 633d 25af 103e 3c4f 1c3e
00000200: 42ac 30be 24f2 9e3d 84eb cebc 12a4 293e
00000210: 2a7c 8b3d 9421 8cbd e9c9 143e 918f 153e
00000220: 9281 0fbe 5f9f e9bd d94a cabc d6b5 07be
00000230: 7572 74bd 1fc3 e6bd feed 9b3d 29d0 22be
00000240: 6c28 e3bc 2a0c 8ebd d1c7 85bd aef0 09bb
00000250: 1551 aa3d b3f6 16be 523c 163e 2693 6f3c
00000260: 55a2 22be e979 29be 86ca 403e 31c8 23be
00000270: 535d 34be c91d 2f3e 8239 babd 54fa 2d3e
00000280: 9fe8 c5bd 98dc 2c3e df81 8c3d 6e01 1bbe
00000290: 31eb 3abe 2ab6 a13c 90bc 27be 9b2e 30be
000002a0: 1c04 d5bd 67db ba3d 3b74 46be 9c3b b23c
000002b0: cefa 55bd 4733 42be 9d9d 8abd 5fed 0bbd
000002c0: 3e8a bdbb 8ee3 82bc b1df 073e 3814 b9bd
000002d0: 8127 2b3e 20ea 39bd 1728 2cbe a27f 00be
000002e0: e8ef b73d fd4a 39be 045d 33be 377f 133e
000002f0: 11d0 0cbe 61c6 25be d534 333e 8fe9 283e
00000300: 4b43 513e afa3 153e 579e 3e3e 7faa 293e
00000310: ca15 a43d 3105 2fbe 6748 673c 80b2 18be
00000320: e282 80bc 3eb7 e9bd 482d 0fbe 3f7d b03d
00000330: 0fc1 f53d db49 7b3d f534 eebd 6022 df3d
00000340: a127 4bbd 9360 1d3e 5d37 d13d f0dd 683d
00000350: 3f29 4c3c f452 a0bd c014 18be e9f2 4bbe
00000360: c54d 1bbe 41b3 f2bc df3d 89bd 4fe7 543d
00000370: a3ca c0bd 704f a9bd 0c64 f8bd f6ba aebd
00000380: a4ec dbbd b379 3e3e 38a1 d13d 76c0 0cbe
00000390: e53d 55bd c56d 693e 0f9c eb3c 0703 4dbe
000003a0: 3c3c 14be 3c9f 183e d117 3f3e 3853 0dbe
000003b0: 0a85 4abd 6544 30bd 9411 023e beae fbbd
000003c0: f4af 42be 03c2 e83d 3c85 223e 4386 2ebe
000003d0: 02a8 2f3c 888d d33c 81d9 c9bd 5244 0abe
000003e0: 9a28 df3c 58ea 343d 9037 243e 4f73 423e
000003f0: 421c 723d 55bf 44be 7ae5 0fbd ff9a 3a3e

conv1.bias f4 [16]
-0.15834995 -0.105185844 0.15984802 -0.19594733 0.124228 -0.13300245 -0.16099878 0.11573788
-0.056136332 -0.005030551 0.086666845 -0.09668658 0.13163657 0.15738556 -0.00534211 -0.01891336
00000000: 7d26 22be ad6b d7bd 33af 233e 6ba6 48be
00000010: 406b fe3d cb31 08be dddc 24be fb07 ed3d
00000020: 36ef 65bd 52d7 a4bb 637e b13d 9d03 c6bd
00000030: bdcb 063e ae29 213e de0c afbb 31f0 9abc

conv2.weight f4 [16, 16, 5, 5]
-0.04578849 0.0146756135 -0.016458955 -0.004862295 -0.021209057 -0.028919147 -0.0006651836 -0.012577141
-0.0038032192 -0.008973069 -0.020509627 -0.04009796 -0.021892913 -0.029703813 0.02561143 0.01972182
0.028025236 0.0047262097 -0.020294564 -0.035981398 0.013228592 0.01701142 -0.027020318 0.047156394
-0.040650792 0.01950658 -0.014228984 -0.005449554 0.015974298 -0.03428332 -0.0073855333 -0.03028606
0.015658986 0.024002306 -0.041657366 0.02586161 -0.042280167 0.040838037 -0.005843691 -0.0026845396
0.011180739 0.022421446 -0.013956803 0.034083143 -0.018436408 -0.028011717 -0.052493166 -0.025882281
0.05057956 -0.033888973 -0.038833547 -0.0020829588 -0.04634921 -0.01859167 -0.020266205 0.005246534
0.020979194 -0.01973323 -0.051045835 0.030701706 0.042977884 0.0027789131 -0.022960521 -0.005673539
-0.040670145 -0.021625267 0.03476475 -0.030024536 -0.021199947 0.019997446 0.045587037 -0.043322477
-0.013502177 -0.008847463 -0.03365686 0.023580225 -0.012865279 -0.036389075 -0.04069299 -0.010357627
0.020674815 -0.047558926 0.025700057 -0.035980694 0.039108556 0.037143584 -0.043827843 0.010386893
0.0155450385 0.036623888 0.028686952 -0.0151778 -0.0023150295 0.024240784 -0.03800331 0.023875285
-0.055924114 0.04083398 0.046769038 0.03622767 0.010127226 0.026237352 -0.032590013 0.041908156
0.03178763 0.015161789 -0.039176248 0.038188715 -0.038347725 0.033229236 0.0034794167 -0.059937935
-0.01983959 -0.04344797 0.043570384 0.028433502 0.0030541345 -0.013746929 0.0015750879 0.030870942
0.011606866 0.01733465 0.036114026 0.010284276 -0.03513243 0.0028750706 0.04157452 0.047200046
0.043642614 0.040383678 -0.021212611 0.051367063 -0.038679264 0.0043295324 -0.014192557 -0.005775486
-0.03640434 0.04612582 -0.023270946 0.0354427 0.030437032 -0.039785642 0.039906986 0.0124259135
0.010933217 0.03854101 0.03248713 0.03677745 0.0019635481 -0.00032799004 -0.046482764 0.009645675
0.023021668 -0.044572577 0.009721897 0.010177432 0.04194641 0.050334226 -0.0007394191 0.013567519
0.018999197 -0.025929814 0.002865508 -0.028920302 0.042236667 0.03543484 -0.028914956 0.02001538
0.033413216 -0.03842431 0.03798397 0.019711843 0.037617903 0.04217578 0.052761603 0.020611268
-0.0071491245 3.801461e-05 0.011888362 0.004464965 -0.029271102 0.0033802392 -0.035198368 -0.0040805386
-0.01308015 0.022202432 -0.019144494 0.009089003 -0.026573198 0.016665753 -0.039890736 0.008474484
0.0077230614 0.040781554 0.04209665 -0.037723448 0.021741355 0.031253595 -0.03704936 -0.037542
-0.0068366905 -0.03928338 0.034936756 -0.01404881 0.045732796 -0.029926965 0.047335908 -0.041743986
-0.031111358 0.022441033 0.0019382793 0.0050643124 0.02681622 0.005077496 0.020565575 -0.029836744
0.035180535 -0.0031118887 0.03013945 0.0050011138 -0.028073087 0.022447463 0.014619582 -0.01615314
-0.03787407 0.019521859 0.015069722 -0.01034455 0.005559635 0.013589096 -0.0059146495 -0.042305645
0.04760597 0.02912108 0.022574196 -0.031087535 0.020096486 -0.026682822 -0.03156047 -0.042576216
-0.013669218 -0.040898185 0.040671673 0.05140986 0.009613977 0.008458205 -0.02895606 0.003952789
-0.012070112 -0.04022249 -0.018646516 -0.0023613602 -0.033629313 -0.0130911 -0.040719304 -0.038044643
00000000: b68c 3bbd fc71 703c eed4 86bc e353 9fbb
00000010: 9ebe adbc d9e7 ecbc b75f 2eba 5a10 4ebc
00000020: 6e3f 79bb c703 13bc ce03 a8bc c23d 24bd
00000030: c458 b3bc 6955 f3bc 10cf d13c a78f a13c
00000040: 2e95 e53c 52de 9a3b c940 a6bc 3b61 13bd
00000050: bdbc 583c 895b 8b3c b759 ddbc 1027 413d
00000060: 7281 26bd 43cc 9f3c af20 69bc 2c92 b2bb
00000070: 88dc 823c ab6c 0cbd 5802 f2bb 791a f8bc
00000080: 4647 803c 7ca0 c43c eaa0 2abd badb d33c
00000090: f82d 2dbd c945 273d 6f7c bfbb 1aef 2fbb
000000a0: 6b2f 373c 2ead b73c 13ab 64bc c49a 0b3d
000000b0: f307 97bc d478 e5bc 1303 57bd 1407 d4bc
000000c0: 832c 4f3d 2acf 0abd ed0f 1fbd 4082 08bb
000000d0: abd8 3dbd 8f4d 98bc 5005 a6bc 1eeb ab3b
000000e0: 8fdc ab3c 95a7 a1bc 7015 51bd 2582 fb3c
000000f0: 9409 303d 6d1e 363b b417 bcbc 18e9 b9bb
00000100: bd95 26bd 7927 b1bc 7c65 0e3d 04f6 f5bc
00000110: 83ab adbc afd1 a33c 79b9 3a3d e972 31bd
00000120: 3c38 5dbc f3f4 10bc c7db 09bd 512b c13c
00000130: e4c8 52bc b60c 15bd b1ad 26bd 09b3 29bc
00000140: 3b5e a93c 26cd 42bd ed88 d23c 7e60 13bd
00000150: 4b30 203d df23 183d d384 33bd c92d 2a3c
00000160: 9eb0 7e3c ee02 163d e600 eb3c 4fac 78bc
00000170: c0b7 17bb 9c94 c63c 5ca9 1bbd 1a96 c33c
00000180: af10 65bd 8841 273d e490 3f3d 7763 143d
00000190: aaec 253c b7ef d63c 1b7d 05bd e3a7 2b3d
000001a0: bf33 023d 2769 783c 4677 20bd c56b 1c3d
000001b0: 8112 1dbd 611b 083d ed06 643b 7b81 75bd
000001c0: a386 a2bc 80f6 31bd dc76 323d 60ed e83c
000001d0: e027 483b cd3a 61bc 2e73 ce3a 0fe5 fc3c
000001e0: b92a 3e3c 6501 8e3c 4dec 133d 617f 283c
000001f0: 06e7 0fbd ae6b 3c3b 0b4a 2a3d d654 413d
00000200: 99c2 323d 5b69 253d 12c6 adbc 4566 523d
00000210: 266e 1ebd c0de 8d3b e687 68bc 4a40 bdbb
00000220: b81c 15bd 6eee 3c3d b6a2 bebc 5d2c 113d
00000230: 1557 f93c 45f6 22bd 8275 233d 0f96 4b3c
00000240: 3c21 333c 2edd 1d3d 3a11 053d f4a3 163d
00000250: dfae 003b 14f6 abb9 b664 3ebd e508 1e3c
00000260: f097 bc3c bc91 36bd 9748 1f3c 3ebf 263c
00000270: 00d0 2b3d 432b 4e3d 93d5 41ba 4d4a 5e3c
00000280: 34a4 9b3c c36a d4bc 3fcb 3b3b 45ea ecbc
00000290: 5b00 2d3d 1f24 113d 0fdf ecbc 4bf7 a33c
000002a0: 4cdc 083d cf62 1dbd 1495 1b3d bb7a a13c
000002b0: 3b15 1a3d 83c0 2c3d 8d1c 583d f6d8 a83c
000002c0: 3443 eabb e071 1f38 67c7 423c d74e 923b
000002d0: f3c9 efbc 0187 5d3b 2a2c 10bd 0ab6 85bb
000002e0: 204e 56bc e0e1 b53c ead4 9cbc 0bea 143c
000002f0: 09b0 d9bc 9e86 883c 7864 23bd 90d8 0a3c
00000300: bc11 fd3b 8f0a 273d 896d 2c3d e783 1abd
00000310: ed1a b23c c503 003d 12c1 17bd a4c5 19bd
00000320: 5106 e0bb 9ce7 20bd d819 0f3d fb2c 66bc
00000330: 5052 3b3d 6529 f5bc 4ce3 413d befb 2abd
00000340: 3fdd febc 42d6 b73c dc0d fe3a 88f2 a53b
00000350: b0ad db3c 2061 a63b 2379 a83c 306c f4bc
00000360: 7719 103d d4f0 4bbb 02e7 f63c 62e0 a33b
00000370: 88f9 e5bc bee3 b73c f986 6f3c 9753 84bc
00000380: d721 1bbd 4eec 9f3c ffe6 763c 307c 29bc
00000390: 992d b63b cda4 5e3c adcf c1bb af48 2dbd
000003a0: 7afe 423d 558f ee3c 85ed b83c 49ab febc
000003b0: 63a1 a43c ef95 dabc 8d45 01bd 6664 2ebd
000003c0: dbf4 5fbc db84 27bd 5797 263d 2593 523d
000003d0: f183 1d3c 4894 0a3c 4235 edbc 6686 813b
000003e0: b8c1 45bc 56c0 24bd 94c0 98bc 0dc1 1abb
000003f0: e4be 09bd 0e7c 56bc 49c9 26bd b3d4 1bbd

conv2.bias f4 [16]
-0.010822888 -0.0477524 0.046416998 -0.029622437 -0.03130297 0.026925832 0.046732977 -0.04394413
-0.0026315 -0.034984753 0.04573635 0.02147987 0.050826576 -0.0011527666 -0.03597381 -0.004475088
00000000: 7c52 31bc 0598 43bd c01f 3e3d c1aa f2bc
00000010: 8b37 00bd 9093 dc3c 146b 3f3d c3fe 33bd
00000020: 3e75 2cbb 2c4c 0fbd 0a56 3b3d 8df6 af3c
00000030: 872f 503d 6e18 97ba 4659 13bd c2a3 92bb

conv3.weight f4 [32, 16, 5, 5]
-0.00587984 -0.0206264 -0.017427197 -0.011633543 -0.0051380484 0.016553175 0.030724892 -0.019804105
0.008995449 -0.021993112 -0.032907344 0.018517451 -0.051315058 0.026525868 -0.0053891647 0.027427336
0.046545845 0.008829732 -0.006457678 -0.018147679 0.040054146 -0.00764547 0.017003968 -0.0019467492
0.03452733 0.030797584 -0.019884948 0.024160692 -0.03847414 -0.053977083 0.04697644 -0.02135821
-0.047677588 -0.008876328 -0.01842731 -0.03762006 -0.023171589 -0.0056033027 -0.028498484 -0.011316224
-0.018850064 -0.028841743 0.0026691344 0.03410564 0.017599365 0.022974074 0.020712491 -0.041443568
0.015099717 0.02001145 -0.0119367875 0.02280698 0.033931386 -0.042582534 0.024713688 -0.05241868
-0.017944366 0.0065622865 -0.041822165 -0.048565242 -0.03627634 0.05473491 -0.049777817 -0.040885042
0.0038889062 -0.035762742 -0.042296965 0.047776785 -0.0126688285 0.048902433 0.035213288 -0.02851588
0.032219086 0.02497209 -0.026009765 0.049085833 0.0123922415 -0.04946927 0.030614972 0.0032566013
-0.028079754 -0.037625097 0.019721048 -0.039894912 0.018983008 -0.03476908 0.037168454 -0.04406656
0.038616646 0.032627568 0.002311565 -0.014729913 0.015190367 -0.026882563 -0.012156731 -0.013145944
-0.017946806 -0.046902254 -0.011103547 -0.01984685 -0.027952356 -0.023756457 0.018578092 -0.03337848
-0.028619211 0.0008243721 0.03565935 -0.004454294 -0.052285157 0.0034066413 -0.021371983 -0.017326992
0.035225343 -0.039734673 -0.04983541 -0.046169918 0.0018977553 -0.025941404 -0.008704311 -0.010079638
-0.026122222 0.015052785 0.040091142 -0.049306776 0.0008240555 -0.035062708 -0.05140875 -0.043326043
-0.03757631 0.004063977 0.029576907 -0.001390415 0.026794804 0.011925211 0.03853776 -0.043889366
0.048007444 0.027854629 0.006736948 -0.0018668178 0.049578063 0.057296604 0.008584 -0.0043754196
0.04859435 -0.05158792 -0.03931114 0.026467968 -0.0419202 0.007814983 0.035970133 0.009439451
-0.020219805 -0.037461936 0.024547543 -0.023965087 0.010157507 -0.03319983 -0.008855519 0.026223548
-0.018749682 0.046765175 0.046739273 -0.020962423 0.04834041 0.023588724 0.018031482 0.034164805
0.0317063 0.03480155 -0.021932922 -0.0026262277 0.042617764 0.043364316 -0.030689023 -0.04138475
0.01916232 0.03234309 0.014039535 -0.053713776 0.00038643111 -0.017015262 0.020389441 0.017466782
0.0066354214 -0.0030090348 0.02174622 0.026154349 -0.02660725 0.041526344 0.04995226 0.0041236123
-0.020596296 -0.04694205 -0.0025756273 -0.030355664 -0.050770752 0.0059640314 -0.0031619116 -0.02207985
0.009846703 -0.014321871 0.031678617 -0.018702013 -0.05234172 -0.046305325 0.015949203 -0.029137375
-0.008154228 0.002088538 0.027985504 -0.0014460381 0.015533029 0.031383224 0.02268474 0.0017934088
0.03766758 0.04145405 0.043082815 0.0041048774 -0.04198818 -0.007976734 0.015092141 0.025186587
0.021165049 -0.00039847058 0.0005225255 0.012085485 -0.046059307 -0.048706893 -0.053290073 0.0108180065
0.010165449 0.036429536 0.03990964 -0.009340218 -0.023841975 0.023622695 -0.039829105 -0.037656467
-0.0290129 0.013070709 0.0031258997 0.019249452 0.010787415 -0.021615937 -0.024012813 -0.0054996805
-0.041049756 -0.014482785 0.00428966 -0.046838835 -0.024015393 0.03780832 -0.0436967 0.028230907
00000000: acab c0bb b2f8 a8bc 7bc3 8ebc 9e9a 3ebc
00000010: 135d a8bb 869a 873c c5b2 fb3c 383c a2bc
00000020: a661 133c e62a b4bc dac9 06bd e9b1 973c
00000030: bd2f 52bd c74c d93c 9797 b0bb 4baf e03c
00000040: dba6 3e3d 95aa 103c ee9a d3bb 71aa 94bc
00000050: d10f 243d da86 fabb e84b 8b3c 102a ffba
00000060: 886c 0d3d 374b fc3c c2e5 a2bc a5ec c53c
00000070: 0f97 1dbd 1317 5dbd 5e6a 403d 6af7 aebc
00000080: 9349 43bd 056e 11bc dff4 96bc 7e17 1abd
00000090: 58d2 bdbc e99b b7bb a775 e9bc af67 39bc
000000a0: 736b 9abc 8545 ecbc a5ec 2e3b 5bb2 0b3d
000000b0: 8b2c 903c 2034 bc3c 3ead a93c bbc0 29bd
000000c0: ce64 773c 0def a33c 8492 43bc b4d5 ba3c
000000d0: a3fb 0a3d 066b 2ebd 5c74 ca3c f8b4 56bd
000000e0: 1000 93bc 7308 d73b b84d 2bbd 59ec 46bd
000000f0: 8096 14bd b731 603d d3e3 4bbd 1377 27bd
00000100: 05dd 7e3b f47b 12bd 953f 2dbd 97b1 433d
00000110: eb90 4fbc eb4d 483d cf3b 103d 239a e9bc
00000120: 29f8 033d 4592 cc3c 6e12 d5bc 3a0e 493d
00000130: d408 4b3c 4aa0 4abd 40cc fa3c b46c 553b
00000140: 8307 e6bc c61c 1abd 098e a13c d968 23bd
00000150: 4182 9b3c 066a 0ebd f33d 183d 237f 34bd
00000160: 7d2c 1e3d 7ca4 053d a07d 173b bc55 71bc
00000170: 04e1 783c d238 dcbc 072d 47bc 1662 57bc
00000180: 2e05 93bc 941c 40bd a7eb 35bc dc95 a2bc
00000190: 57fc e4bc e79c c2bc 1531 983c dfb7 08bd
000001a0: d672 eabc ad1a 583a 8a0f 123d 54f5 91bb
000001b0: f628 56bd f541 5f3b 4c14 afbc 56f1 8dbc
000001c0: 7348 103d d3c0 22bd 3720 4cbd ab1c 3dbd
000001d0: 1abe f83a 1183 d4bc 879c 0ebc 1125 25bc
000001e0: 45fe d5bc f59f 763c 9c36 243d e7f5 49bd
000001f0: 6e05 583a ea9d 0fbd fb91 52bd a676 31bd
00000200: 9ee9 19bd 1c2b 853b 454b f23c 963e b6ba
00000210: c780 db3c f661 433c c5d9 1d3d 56c5 33bd
00000220: 74a3 443d 642f e43c 9ec1 dc3b 03b0 f4ba
00000230: 5e12 4b3d d8af 6a3d e8a3 0c3c ae5f 8fbb
00000240: df0a 473d db4d 53bd b804 21bd 5ad3 d83c
00000250: 84b4 2bbd 6a0a 003c 6b55 133d eda7 1a3c
00000260: 01a4 a5bc b071 19bd ee17 c93c 6e52 c4bc
00000270: ac6b 263c 8cfc 07bd bd16 11bc c4d2 d63c
00000280: ef98 99bc d78c 3f3d ae71 3f3d 63b9 abbc
00000290: 9800 463d 243d c13c c2b6 933c 65f0 0b3d
000002a0: 77de 013d 128c 0e3d acac b3bc ca1c 2cbb
000002b0: f78f 2e3d c89e 313d 8c67 fbbc 0e83 29bd
000002c0: 4cfa 9c3c 307a 043d 1406 663c fa02 5cbd
000002d0: e899 ca39 9763 8bbc c207 a73c 7f16 8f3c
000002e0: f36d d93b 3a33 45bb 2125 b23c a541 d63c
000002f0: 73f7 d9bc 8717 2a3d be9a 4c3d 5e1f 873b
00000300: 90b9 a8bc 4f46 40bd dbcb 28bb 71ac f8bc
00000310: fef4 4fbd ec6d c33b 1338 4fbb cde0 b4bc
00000320: 1154 213c 48a6 6abc 70c1 013d f734 99bc
00000330: 4564 56bd a7aa 3dbd e7a7 823c 81b1 eebc
00000340: 5099 05bc dadf 083b db41 e53c fd88 bdba
00000350: 3f7e 7e3c b28b 003d 59d5 b93c d010 eb3a
00000360: 5249 1a3d b9cb 293d 9b77 303d 3582 863b
00000370: ccfb 2bbd d9b0 02bc 0745 773c 1a54 ce3c
00000380: 5362 ad3c d1e9 d0b9 18fa 083a 3302 463c
00000390: afa8 3cbd e180 47bd b146 5abd 023e 313c
000003a0: fc8c 263c 2337 153d 4a78 233d b707 19bc
000003b0: 3f50 c3bc 6284 c13c d823 23bd ab3d 1abd
000003c0: 76ac edbc 8726 563c e5db 4c3b 07b1 9d3c
000003d0: b3bd 303c e813 b1bc 85b6 c4bc aa36 b4bb
000003e0: ca23 28bd 3449 6dbc 4790 8c3b 14da 3fbd
000003f0: eebb c4bc e6dc 1a3d 50fb 32bd 8144 e73c

conv3.bias f4 [32]
-0.016172651 -0.011585733 0.021593194 0.031412147 0.050320413 0.031454712 -0.04399168 -0.036130358
-0.021896608 0.034686472 -0.009441527 -0.0187196 0.033478893 -0.028494297 0.0026046857 0.0034048948
0.03199635 -0.033525486 -0.04769084 0.021321043 0.0029251073 -0.01552642 0.041702874 0.043105204
0.033116892 -0.046872824 0.045500558 0.048649292 -0.039180975 -0.0348119 -0.04718543 0.0007369793
00000000: 827c 84bc 16d2 3dbc 36e4 b03c 06aa 003d
00000010: c71c 4e3d a8d6 003d 9f30 34bd 6dfd 13bd
00000020: 8460 b3bc 6713 0e3d a2b0 1abc d959 99bc
00000030: 2a21 093d df6c e9bc 60b3 2a3b a824 5f3b
00000040: 9b0e 033d 0552 09bd 7857 43bd 78a9 ae3c
00000050: 28b3 3f3b 8762 7ebc a2d0 2a3d 158f 303d
00000060: 94a5 073d b8fd 3fbd cb5e 3a3d 7b44 473d
00000070: 3b7c 20bd ec96 0ebd 8245 41bd d831 413a

linear1.weight f4 [32, 288]
0.0016942165 0.074810535 0.032951403 0.054110717 0.015466516 -0.018224468 -0.015858907 -0.04823444
-0.055313542 0.011542975 0.0034642636 -0.025443012 -0.017167421 -0.0115019 -0.014237991 -0.034748685
0.0072883987 -0.0038881998 0.06244782 0.033804864 -0.038306985 -0.011360464 -0.010358346 -0.0050568217
-0.03963423 -0.032494087 0.02870545 0.014616148 0.059256323 -0.036742684 -0.010811787 0.055825684
-0.028714856 -0.0049823825 0.05638042 -0.054236047 0.043131884 -0.04525458 -0.0061505022 0.058373682
0.014501946 -0.03840934 -0.03749779 0.04725655 -0.0031617638 0.059680693 0.019901987 0.023685168
0.034371518 0.007362279 0.05057567 0.021421544 0.0018178151 -0.049988583 -0.039510388 0.041125882
-0.03994401 -0.05535985 -0.04777886 -0.027261473 -0.056577183 -0.04499621 0.05086595 -0.03072963
0.027082976 0.038309965 -0.040498592 -0.034443825 -0.017067775 -0.0536398 0.034147877 0.008602552
0.03936034 -0.0360313 0.045244347 0.0073721176 -0.028153962 -0.03896461 0.015191403 -0.018318538
-0.0064961263 0.022691606 0.03487814 -0.014059714 -0.00985565 -0.009675305 0.029564396 -0.02986873
-0.0037640496 0.0068547805 0.008965281 -0.053758074 0.0039880252 -0.05443059 -0.042002328 0.013364437
0.0067835185 -0.023967694 0.023643924 -0.033803266 0.007978941 -0.01716569 0.03882979 0.043030847
0.002762992 0.019336717 0.029294576 -0.044191 -0.050311297 -0.051153265 -0.005436639 -0.008715072
0.042783517 0.040562145 -0.041547455 -0.006817586 0.03927654 0.06313986 -0.042499255 0.0065079555
0.022367252 0.01697036 -0.03743081 0.02308354 0.011129762 -0.02225167 0.024889247 0.018788429
0.03759451 0.0031332232 -0.015705362 -0.035589226 0.024672838 -0.027012521 0.012912366 -0.008816697
0.008964599 0.03317413 -0.0500502 0.046255052 -0.054739896 -0.05106912 0.04915296 0.051790707
-0.017610297 0.026762722 0.047419697 -0.014248853 0.037304584 0.040242583 4.889471e-06 0.05391191
0.01615868 -0.050863046 -0.0397951 -0.017177293 -0.033391036 0.0423345 0.045545507 -0.013610075
0.05677382 -0.024360202 0.059406154 0.045710057 -0.02281936 -0.00089365256 -0.049312674 0.03000285
0.025899833 -0.030439444 -0.03201329 -0.038674768 0.03874126 -0.0365634 -0.015785007 0.043619897
-0.036589444 -0.02143929 -0.0019667926 0.02190594 0.055712044 -0.03900838 0.027628755 0.0111613935
-0.047688566 -0.021429293 -0.031340525 0.009509232 -0.02975695 0.01175488 -0.03101353 0.021530742
0.030303894 -0.016669994 -0.014845437 0.052874982 -0.057514347 0.036695547 0.009464942 0.024699448
-0.029106313 -0.012071375 -0.045570612 -0.014632899 -0.0049133277 -0.010075605 -0.028159888 0.041575626
-0.048108518 0.009722745 0.03876496 -0.0040610763 0.037914835 0.034532078 0.017381089 -0.016529966
-0.053778645 -0.017274998 0.0039920514 0.030705871 -0.046927128 0.052023903 0.013805753 0.015721928
0.020363634 0.041948322 -0.031353574 0.007421748 -0.031432815 0.01553333 -0.06282983 0.03679483
-0.0511938 -0.009574429 0.037975922 0.027243573 0.00237954 -0.030561067 -0.057028938 -0.0034746828
0.056194868 0.0358509 0.034589455 0.023106158 0.015760256 0.066842884 0.0239586 0.0083231535
0.040118128 -0.04759754 0.010197675 -0.05085949 -0.010495446 -0.046272095 0.023414116 0.032854598
00000000: 7910 de3a 4436 993d 0df8 063d 33a3 5d3d
00000010: 4567 7d3c 7b4b 95bc 8aea 81bc 7a91 45bd
00000020: 7490 62bd bf1e 3d3c b308 633b dd6d d0bc
00000030: b1a2 8cbc 7772 3cbc 7646 69bc a354 0ebd
00000040: 85d3 ee3b 2bd1 7ebb 49c9 7f3d f876 0a3d
00000050: c9e7 1cbd 3d21 3abc 0db6 29bc b2b3 a5bb
00000060: 8157 22bd 8518 05bd b127 eb3c 9178 6f3c
00000070: c2b6 723d 7f7f 16bd ec23 31bc 79a9 643d
00000080: 6b3b ebbc 4143 a3bb 28ef 663d 9e26 5ebd
00000090: 0fab 303d de5c 39bd 278a c9bb 3e19 6f3d
000000a0: 9299 6d3c 1d53 1dbd 4897 19bd 1690 413d
000000b0: 9835 4fbb be73 743d 7e09 a33c 6607 c23c
000000c0: 26c9 0c3d 463f f13b 6f28 4f3d 3c7c af3c
000000d0: c143 ee3a d4c0 4cbd a5d5 21bd 9d73 283d
000000e0: 559c 23bd 03c1 62bd c4b3 43bd 7453 dfbc
000000f0: 7abd 67bd f24d 38bd d058 503d b4bc fbbc
00000100: 1edd dd3c e9ea 1c3d dae1 25bd f814 0dbd
00000110: b8d1 8bbc 68b5 5bbd a5de 0b3d b8f1 0c3c
00000120: 4f38 213d 8e95 13bd 2352 393d ce91 f13b
00000130: 23a3 e6bc 5b99 1fbd 5de5 783c c210 96bc
00000140: 75dd d4bb bfe3 b93c 61dc 0e3d b75a 66bc
00000150: 9879 21bc 2c85 1ebc 0831 f23c 44af f4bc
00000160: 46ae 76bb 119e e03b 1de3 123c 6d31 5cbd
00000170: fbad 823b 9cf2 5ebd a20a 2cbd 83f6 5a3c
00000180: 4748 de3b e657 c4bc e7b0 c13c 4b75 0abd
00000190: 1bba 023c 109f 8cbc fc0b 1f3d 1d41 303d
000001a0: 5013 353b 0968 9e3c 2efb ef3c 9f01 35bd
000001b0: 3813 4ebd 1686 51bd d525 b2bb a9c9 0ebc
000001c0: c53d 2f3d 7e24 263d aa2d 2abd 0e66 dfbb
000001d0: 70e0 203d 794f 813d b313 2ebd b040 d53b
000001e0: 873b b73c 6d05 8b3c 0d51 19bd b119 bd3c
000001f0: 9b59 363c 2249 b6bc 89e4 cb3c 31ea 993c
00000200: b3fc 193d c356 4d3b 88a8 80bc 02c6 11bd
00000210: b11e ca3c 5d49 ddbc 638e 533c e873 10bc
00000220: 41e0 123c 99e1 073d 7001 4dbd f075 3d3d
00000230: f136 60bd db2d 51bd 9d54 493d 7e22 543d
00000240: 7843 90bc 7f3d db3c 283b 423d 0574 69bc
00000250: b1cc 183d 68d5 243d 3c10 a436 bcd2 5c3d
00000260: 355f 843c c555 50bd 3000 23bd 65b7 8cbc
00000270: 0ac5 08bd f166 2d3d ed8d 3a3d cbfc 5ebc
00000280: aa8b 683d 0c8f c7bc de53 733d 783a 3b3d
00000290: abef babc 0244 6aba 16fc 49bd 89c8 f53c
000002a0: e32b d43c 245c f9bc 5e20 03bd 6f69 1ebd
000002b0: 28af 1e3d 81c3 15bd 8f4f 81bc c7aa 323d
000002c0: d0de 15bd 73a1 afbc 4ee5 00bb 1674 b33c
000002d0: 5032 643d 40c7 1fbd b355 e23c 47de 363c
000002e0: 1655 43bd 7c8c afbc ec5e 00bd 9ccc 1b3c
000002f0: d9c4 f3bc 8a97 403c 1610 febc 3d61 b03c
00000300: df3f f83c 838f 88bc 473a 73bc 7093 583d
00000310: 2a94 6bbd 124e 163d d812 1b3c 7f56 ca3c
00000320: 5d70 eebc 04c7 45bc 40a8 3abd d4be 6fbc
00000330: fbff a0bb 2614 25bc 91af e6bc 344b 2a3d
00000340: 700d 45bd 264c 1f3c 02c8 1e3d c712 85bb
00000350: 964c 1b3d 8271 0d3d c962 8e3c da69 87bc
00000360: ff46 5cbd 4c84 8dbc c1cf 823b e18a fb3c
00000370: a936 40bd 0417 553d 8631 623c 46cb 803c
00000380: a3d1 a63c 01d2 2b3d 9b6c 00bd 2232 f33b
00000390: b2bf 00bd 827f 7e3c edac 80bd 2db6 163d
000003a0: 97b0 51bd 11de 1cbc a48c 1b3d ea2d df3c
000003b0: 0ef2 1b3b 345b fabc 2d97 69bd 81b7 63bb
000003c0: 972c 663d 65d8 123d acad 0d3d 2049 bd3c
000003d0: a71b 813c ece4 883d d344 c43c d65d 083c
000003e0: e852 243d a3f5 42bd 2614 273c 0a52 50bd
000003f0: 17f5 2bbc cf87 3dbd f6ce bf3c 8b92 063d

linear1.bias f4 [32]
0.0048783077 -0.047673807 -0.031240733 -0.045986973 0.057780314 0.05049525 0.053249434 0.04429206
-0.0494597 0.001716027 -0.009398173 0.046656545 -0.04506114 0.030609984 -0.008542072 -0.029786361
-0.012959114 0.037435 0.031214308 0.009743692 -0.04191671 0.0051461593 -0.048795145 -0.0069412254
0.040496916 -0.013423833 -0.004393863 0.0075282576 0.039240625 -0.024166774 0.044418868 -0.048260484
00000000: 36da 9f3b 9c45 43bd 91ec ffbc d65c 3cbd
00000010: 0dab 6c3d 1bd4 4e3d 141c 5a3d 976b 353d
00000020: 4196 4abd 50ec e03a cbfa 19bc ef1a 3f3d
00000030: 0892 38bd cac1 fa3c 0cf4 0bbc 8702 f4bc
00000040: 7752 54bc 7155 193d 26b5 ff3c 02a4 1f3c
00000050: dbb0 2bbd 1da1 a83b 6bdd 47bd 3873 e3bb
00000060: 18e0 253d a3ef 5bbc 65fa 8fbb 9aaf f63b
00000070: c7ba 203d 66f9 c5bc 8ff0 353d c9ac 45bd

linear2.weight f4 [10, 32]
-0.20788622 -0.28725478 -0.2873483 -0.04206856 0.2286534 0.1021419 0.10491977 -0.07857436
0.26567107 -0.021365074 -0.07624734 -0.04619117 -0.26094973 0.32889268 0.23510486 0.19069874
-0.17667145 0.11616006 0.2973696 0.022344546 -0.039099537 0.08017605 -0.007924884 -0.11067629
-0.13676079 0.32347012 -0.113193326 0.25406545 0.12676817 0.047265768 -0.22564155 0.028636059
0.17638096 0.05920875 0.058652718 -0.017540846 -0.069512874 0.062343795 0.03077381 0.029558804
-0.020184567 -0.3016652 -0.09116336 -0.18483615 0.10065245 0.18830934 0.23971611 -0.22818998
0.27462047 -0.2647009 -0.34403452 -0.07331775 -0.19570148 -0.07516191 0.071863286 0.30862683
-0.040164318 0.2019373 0.18213598 -0.2650111 0.27496514 -0.14469302 0.18069145 0.06845758
-0.06864639 -0.050410267 0.085424006 0.0049522743 0.14691651 -0.0014565605 0.040275183 0.28534782
0.07318574 -0.20849621 0.1826336 0.27654973 -0.022800246 0.16639943 0.049126428 -0.07994668
-0.2556492 0.17214093 0.06760999 -0.31007582 -0.12522241 0.050099056 -0.14833243 -0.10390623
-0.01959758 0.33203167 0.20085499 -0.23297785 0.116348915 0.19912447 0.3395384 0.2548103
-0.03559841 -0.058336925 -0.13559054 0.04601846 0.11799148 -0.17775245 -0.22323845 -0.109643474
-0.18566345 0.008188537 0.33322534 -0.084800154 -0.08740329 0.298224 -0.034475464 0.2834852
0.0091040665 -0.031741943 -0.21730681 -0.2958368 -0.18964066 -0.10419417 -0.09671598 -0.17079383
-0.01454179 -0.1383353 0.26747918 0.18640465 -0.18328752 -0.22470471 -0.049944825 -0.21343447
-0.19013655 -0.034322158 -0.11251368 -0.10777464 0.13848118 -0.19489941 -0.14914711 0.35942483
-0.11473746 0.20362894 -0.045192976 -0.24628049 -0.08923062 -0.1731684 -0.072475836 0.11059938
-0.04217948 0.021281496 -0.23091903 0.20221691 -0.10812105 -0.10451464 -0.1739405 -0.090700775
-0.14324017 0.018470356 -0.32598642 -0.23805149 -0.19015224 0.2524495 -0.20505282 -0.19961569
-0.030352565 0.2526998 -0.2968414 0.1652022 -0.15346448 -0.010610862 -0.02297673 -0.07156112
0.09610439 0.1003169 0.079569004 0.35066417 -0.20117445 -0.026068928 0.14843701 0.25447553
0.112347476 -0.019794513 0.06422129 0.081293575 0.34088942 -0.11452933 0.023348894 0.11408022
-0.0147990985 -0.16742557 0.14844352 0.22181061 -0.26920903 0.20346352 0.1725816 -0.044937447
-0.23197293 -0.34148052 -0.21569932 -0.15394917 -0.1445248 -0.04555004 0.36499268 -0.010743055
0.14201476 0.084953375 -0.053740297 0.108003825 -0.06319946 -0.16083743 -0.097527385 -0.28410104
0.123263165 -0.21127537 0.19520085 0.082196586 0.11387158 0.06291414 0.16719669 -0.13148372
-0.02113223 -0.097241044 0.15736204 -0.20241582 0.18932684 -0.18718939 0.25782216 -0.14262088
0.34639946 0.101364225 0.01284947 -0.0069506653 0.27564085 0.2993511 -0.21235523 0.2304834
-0.05425622 -0.19228424 0.011009869 -0.18390657 0.3788361 -0.07567256 0.21952783 0.22923462
-0.14202316 0.2312846 0.258304 0.20881991 -0.18917324 0.16790244 -0.015151196 -0.106193945
-0.09135601 -0.03519243 -0.10604456 0.174771 0.008058871 -0.04561271 0.08345663 0.12434387
00000000: 20e0 54be 0f13 93be 511f 93be 1550 2cbd
00000010: 1e24 6a3e c62f d13d 2de0 d63d 98eb a0bd
00000020: 0a06 883e cf05 afbc 9127 9cbd f432 3dbd
00000030: 349b 85be 9f64 a83e 54bf 703e 8846 433e
00000040: 5ce9 34be 53e5 ed3d d440 983e e90b b73c
00000050: d626 20bd 5733 a43d 5fd7 01bc 40aa e2bd
00000060: 050b 0cbe e09d a53e e7d1 e7bd de14 823e
00000070: 84cf 013e c099 413d 940e 67be 2b96 ea3c
00000080: 369d 343e e084 723d d53d 703d d2b1 8fbc
00000090: c45c 8ebd 355c 7f3d 5b19 fc3c 4e25 f23c
000000a0: 1b5a a5bc dc73 9abe dbb3 babd b045 3dbe
000000b0: df22 ce3d 2ad4 403e 2478 753e a2aa 69be
000000c0: 0e9b 8c3e e086 87be 4b25 b0be 9e27 96bd
000000d0: f865 48be 7dee 99bd 0f2d 933d 5604 9e3e
000000e0: 5783 24bd a7c8 4e3e db81 3a3e 89af 87be
000000f0: 3bc8 8c3e 682a 14be 2e07 393e 7d33 8c3d
00000100: 7b96 8cbd ff7a 4ebd c8f2 ae3d b046 a23b
00000110: 4871 163e 0fea beba 97f7 243d 1c19 923e
00000120: 68e2 953d 0880 55be 4d04 3b3e ed97 8d3e
00000130: 95c7 babc 9d64 2a3e cb38 493d 16bb a3bd
00000140: 74e4 82be b645 303e 1b77 8a3d 42c2 9ebe
00000150: 4e3a 00be ab34 4d3d 75e4 17be cacc d4bd
00000160: 1b8b a0bc 0e00 aa3e eeac 4d3e bf91 6ebe
00000170: 5748 ee3d 49e7 4b3e fad7 ad3e 7f76 823e
00000180: a3cf 11bd b3f2 6ebd 3fd8 0abe da7d 3c3d
00000190: 84a5 f13d bd04 36be 9f98 64be c28c e0bd
000001a0: 8f1e 3ebe 3729 063c 839c aa3e b4ab adbd
000001b0: 7f00 b3bd d1b0 983e 2536 0dbd f924 913e
000001c0: 3929 153c d703 02bd ad85 5ebe ec77 97be
000001d0: 2931 42be c163 d5bd 0713 c6bd 94e4 2ebe
000001e0: b040 6ebc c5a7 0dbe 08f3 883e dce0 3e3e
000001f0: b9af 3bbe fe18 66be f292 4cbd 918e 5abe
00000200: 28b3 42be 6495 0cbd 926d e6bd f3b8 dcbd
00000210: 03ce 0d3e b693 47be 05ba 18be 8806 b83e
00000220: 79fb eabd 1b84 503e 451c 39bd f430 7cbe
00000230: 8bbe b6bd 0f53 31be 366e 94bd ee81 e23d
00000240: 64c4 2cbd 8856 ae3c 0a76 6cbe f311 4f3e
00000250: 926e ddbd c60b d6bd 751d 32be 54c1 b9bd
00000260: 8dad 12be 254f 973c b1e7 a6be c5c3 73be
00000270: 45b7 42be 1041 813e 5ef9 51be 0e68 4cbe
00000280: f1a5 f8bc de61 813e 99fb 97be c42a 293e
00000290: cb25 1dbe 2ed9 2dbc b239 bcbc a38e 92bd
000002a0: 61d2 c43d f272 cd3d 13f5 a23d 418a b33e
000002b0: ad00 4ebe 818e d5bc dfff 173e 9e4a 823e
000002c0: 6f16 e63d 1a28 a2bc 7486 833d 3f7d a63d
000002d0: 0f89 ae3e 5a8e eabd 2e46 bf3c e4a2 e93d
000002e0: eb77 72bc 9c71 2bbe 9401 183e 5222 633e
000002f0: c4d5 89be be58 503e 3bb9 303e 5410 38bd
00000300: 508a 6dbe 89d6 aebe 48e0 5cbe daa4 1dbe
00000310: 4ffe 13be ae92 3abd 52e0 ba3e a303 30bc
00000320: 516c 113e 09fc ad3d c91e 5cbd 1c31 dd3d
00000330: b86e 81bd 91b2 24be 70bc c7bd b175 91be
00000340: 6671 fc3d 9258 58be bbe2 473e af56 a83d
00000350: 8135 e93d 21d9 803d 9c35 2b3e aba3 06be
00000360: 801d adbc 5026 c7bd 8423 213e 1846 4fbe
00000370: e5de 413e 93ae 3fbe 4401 843e 350b 12be
00000380: 455b b13e 0c98 cf3d 9586 523c 68c2 e3bb
00000390: cc20 8d3e 8c44 993e a673 59be d703 6c3e
000003a0: c53b 5ebd 29e6 44be bd62 343c 0152 3cbe
000003b0: cef6 c13e 37fa 9abd e7cb 603e 7bbc 6a3e
000003c0: 856e 11be dfd5 6c3e 6c40 843e e3d4 553e
000003d0: a1b6 41be 9eee 2b3e b93c 78bc 367c d9bd
000003e0: dc18 bbbd f025 10bd e42d d9bd 2bf7 323e
000003f0: 5b09 043c 65d4 3abd 4feb aa3d 00a8 fe3d

linear2.bias f4 [10]
0.014312769 0.07182102 0.14107916 -1.6891776e-05 -0.0146940285 -0.10334742 0.016091239 -0.06614001
0.09160371 -0.041839894
00000000: 1b80 6a3c e616 933d 0e77 103e d0b2 8db7
00000010: 39bf 70bc d0a7 d3bd c6d1 833c 6a74 87bd
00000020: ba9a bb3d 4f60 2bbd

batch_norm_2d_1.weight f4 [16]
0.9991855 1.0112212 0.9987644 1.0087427 0.998815 0.998912 1.0013183 0.9932747
1.0020092 0.9988612 0.99937016 1.0008341 0.99471396 0.9991552 0.9930739 1.0016284
00000000: 9fca 7f3f b26f 813f 06af 7f3f 7b1e 813f
00000010: 57b2 7f3f b2b8 7f3f 332b 803f 4047 7e3f
00000020: d641 803f 5eb5 7f3f b9d6 7f3f 551b 803f
00000030: 93a5 7e3f a3c8 7f3f 173a 7e3f 5c35 803f

batch_norm_2d_1.bias f4 [16]
-0.0049419096 -0.00015899474 -0.0018153508 -0.0027108304 5.360411e-05 -0.0020113497 -0.0049734544 0.0021656668
-0.0016040544 -0.0003094046 0.00056272757 -0.0024540983 0.0002671605 -0.00081001193 0.001266041 0.0011854216
00000000: beef a1bb d3b7 26b9 11f1 edba 30a8 31bb
00000010: fad4 6038 d9d0 03bb 5cf8 a2bb dced 0d3b
00000020: 223f d2ba 9537 a2b9 0284 133a f0d4 20bb
00000030: ad11 8c39 fb56 54ba 49f1 a53a 2660 9b3a

batch_norm_2d_1.running_mean f4 [16]
0.47902337 0.06999896 0.22297376 0.08673698 0.084274225 0.12553076 0.6215554 0.10089968
0.56513923 0.1587989 0.13152136 0.24533127 0.9196539 0.21672957 0.24747309 0.13126922
00000000: 8d42 f53e 9d5b 8f3d 3c53 643e 28a3 b13d
00000010: f797 ac3d 238b 003e 411e 1f3f 7ea4 ce3d
00000020: f7ac 103f 2e9c 223e 89ad 063e 1f38 7b3e
00000030: 706e 6b3f 5bee 5d3e 9669 7d3e 706b 063e

batch_norm_2d_1.running_var f4 [16]
0.086979836 0.033642724 0.03467044 0.0422199 0.04418631 0.041235954 0.15023491 0.05445372
0.11303803 0.04465647 0.07945117 0.05044941 0.24045002 0.02717228 0.047549363 0.013121399
00000000: 7c22 b23d f4cc 093d 9702 0e3d c6ee 2c3d
00000010: b4fc 343d 08e7 283d 2ed7 193e dd0a 5f3d
00000020: 7c80 e73d b4e9 363d 4cb7 a23d 0aa4 4e3d
00000030: 8838 763e 6798 de3c 1fc3 423d 23fb 563c

batch_norm_2d_2.weight f4 [16]
0.99761 0.99645025 1.0099237 0.99623805 0.99360687 1.0120244 1.0025665 1.0089102
1.0033001 0.9797824 0.9984115 1.0051022 1.0116231 0.99348253 0.99364525 0.99812305
00000000: 5e63 7f3f 5d17 7f3f 2e45 813f 7509 7f3f
00000010: 055d 7e3f 048a 813f 1954 803f f823 813f
00000020: 236c 803f 05d3 7a3f e597 7f3f 30a7 803f
00000030: de7c 813f df54 7e3f 895f 7e3f fe84 7f3f

batch_norm_2d_2.bias f4 [16]
0.00041208617 0.002327432 -0.005066133 -0.0015740326 -0.0026577844 -0.0026613004 0.0039596604 0.0004541496
0.0046595754 4.9076385e-05 0.0026019604 -0.003997027 0.00025274308 0.0032018211 0.003534797 -0.00083849014
00000000: 450d d839 d487 183b ce01 a6bb c54f ceba
00000010: 392e 2ebb 3669 2ebb 0ac0 813b ed1a ee39
00000020: 5aaf 983b 5ed7 4d38 a785 2a3b 7ef9 82bb
00000030: 9a82 8439 a5d5 513b 0ea8 673b 1fce 5bba

batch_norm_2d_2.running_mean f4 [16]
0.48221272 0.3969789 0.41689333 0.5926539 0.54297256 0.50817585 0.44769415 0.44850492
0.4346479 0.46688417 0.52624 0.5626792 0.46820602 0.59856397 0.49239486 0.73536056
00000000: 96e4 f63e d240 cb3e 0b73 d53e 2ab8 173f
00000010: 4000 0b3f d017 023f 2b38 e53e 70a2 e53e
00000020: 2b8a de3e 710b ef3e aab7 063f be0b 103f
00000030: b3b8 ef3e 7d3b 193f 2e1b fc3e 9740 3c3f

batch_norm_2d_2.running_var f4 [16]
0.35029897 0.1690804 0.23201974 0.43882385 0.45249906 0.3017122 0.2587828 0.23986068
0.34575742 0.35504186 0.3187689 0.38917297 0.23588778 0.49303338 0.33339185 0.58134866
00000000: 635a b33e 6a23 2d3e 9596 6d3e 85ad e03e
00000010: f5ad e73e 057a 9a3e 2e7f 843e 0a9e 753e
00000020: 1e07 b13e 0cc8 b53e ad35 a33e ae41 c73e
00000030: 918c 713e df6e fc3e 56b2 aa3e 44d3 143f

batch_norm_1d.weight f4 [32]
1.1001742 1.162326 1.1420228 0.9997725 1.081298 1.0910116 1.1090921 1.1241797
1.0431366 1.1079417 1.0818847 1.1312898 1.1286838 1.1101195 1.0615242 1.125886
1.1016525 1.1145724 1.1418005 1.1470456 1.108196 1.0000541 0.99907005 1.0429583
0.9990155 1.1176643 1.1131594 1.14329 1.1152438 1.1349472 1.1396595 1.112099
00000000: 82d2 8c3f 19c7 943f ce2d 923f 17f1 7f3f
00000010: f967 8a3f 45a6 8b3f bbf6 8d3f 1fe5 8f3f
00000020: 8085 853f 09d1 8d3f 337b 8a3f 1bce 903f
00000030: b678 903f 6518 8e3f 06e0 873f 081d 903f
00000040: f302 8d3f 4faa 8e3f 8526 923f 64d2 923f
00000050: 5ed9 8d3f c601 803f 0ec3 7f3f a87f 853f
00000060: 7bbf 7f3f a00f 8f3f 027c 8e3f 5457 923f
00000070: 4fc0 8e3f f345 913f 5de0 913f 4359 8e3f

batch_norm_1d.bias f4 [32]
0.0025115698 0.013726499 -0.00483093 0.001773407 -0.0058416785 0.005629154 -0.004936805 -0.003698557
-0.0020579542 0.007194958 -0.001602777 -0.00110058 0.0064436183 -0.010501433 0.0015301185 0.008067779
0.007352082 -0.0055429726 0.007197735 0.018917503 0.007427814 0.0039724396 0.0068228664 0.0002561781
0.006138384 -0.01163724 -0.009285823 0.008522286 -0.007982825 -0.0039548227 -0.008657779 -0.0048791603
00000000: 2699 243b 1ce5 603c c74c 9ebb aa71 e83a
00000010: 8d6b bfbb c474 b83b ecc4 a1bb 7d63 72bb
00000020: bede 06bb afc3 eb3b 4614 d2ba 5641 90ba
00000030: fd24 d33b 340e 2cbc 428e c83a b82e 043c
00000040: bce9 f03b d3a1 b5bb fada eb3b e1f8 9a3c
00000050: 0565 f33b 3d2b 823b 5a92 df3b a44f 8639
00000060: 7f24 c93b 1faa 3ebc 9123 18bc 0fa1 0b3c
00000070: 65ca 02bc 7597 81bb 5bd9 0dbc 5de1 9fbb

batch_norm_1d.running_mean f4 [32]
0.14289199 0.4606393 0.25557065 5.4662767e-18 0.3077934 0.52762884 0.4221251 0.2225144
0.27658233 0.39300498 0.13230355 0.44190833 0.20669445 0.32360676 0.37930062 0.38995564
0.29998642 0.34456694 0.538363 0.529513 0.09744017 9.350325e-17 8.3314775e-16 0.103847414
6.1981323e-12 0.19270031 0.54339904 0.39824542 0.34330627 0.21814597 0.33860725 0.3213667
00000000: 4752 123e ead8 eb3e 28da 823e 86ab c922
00000010: 1997 9d3e af12 073f c820 d83e d1da 633e
00000020: 339c 8d3e f337 c93e 957a 073e cf41 e23e
00000030: b6a7 533e c9af a53e b133 c23e 44a8 c73e
00000040: d297 993e 146b b03e 28d2 093f 2a8e 073f
00000050: b68e c73d 949a d724 7423 7026 f4ad d43d
00000060: d013 da2c 3b53 453e 331c 0b3f d3e6 cb3e
00000070: d7c5 af3e a861 5f3e ee5d ad3e 2d8a a43e

batch_norm_1d.running_var f4 [32]
0.043261334 0.09569599 0.056160025 6.635003e-14 0.07287197 0.13059287 0.15804149 0.068555005
0.15247415 0.10298267 0.053523134 0.0926999 0.060546346 0.0988653 0.09587435 0.10382589
0.06874989 0.051155895 0.13307522 0.120398074 0.030435108 6.635898e-14 6.649303e-14 0.060338937
1.1319388e-12 0.05701279 0.10760917 0.13781902 0.091269776 0.039763507 0.06832277 0.076062374
00000000: cc32 313d 42fc c33d 0e08 663d 3068 9529
00000010: e63d 953d 23ba 053e a1d5 213e 9166 8c3d
00000020: 2f22 1c3e 94e8 d23d 133b 5b3d 72d9 bd3d
00000030: 72ff 773d e479 ca3d c559 c43d aba2 d43d
00000040: becc 8c3d d888 513d df44 083e 4493 f63d
00000050: 0c53 f93c 596d 9529 9fba 9529 f625 773d
00000060: 654e 9f2b 3e86 693d 3262 dc3d 6e20 0d3e
00000070: a6eb ba3d 0fdf 223d cfec 8b3d 97c6 9b3d
