checkpoints/all users/cnn2/19-12-2023_17-18-27/best_model.pth.tar (torch, 31572 bytes, 8 tensors)

conv1.weight f4 [6, 1, 5, 5]
00000000: 17ad bebe 9fd6 063f 9a24 08be 34ec 9fbd
00000010: b8f0 b93d 9979 c7be 5e5c a53e fb73 3d3e
00000020: 73d9 36be e3c5 713c 3b33 d3be f250 7b3e
00000030: 3367 273e 6f3c e5bd c582 cf3d cf36 0dbf
00000040: 70ea 9d3e 4141 963e e8f6 853d 08b1 bcbd
00000050: eaeb 9cbe c1e0 383e c11d 343e c207 77bb
00000060: 4c8e 6ebd 298a 313e aa51 3a3d c2e4 a73a
00000070: ac0a 96bd 7621 e03d 1812 09bd 68ad bb3d
00000080: ea93 a9bd 1039 c83d 1e5b e9bd 7c5a 52be
00000090: 7397 cc3d c5cd 89be 06cf 9abd 7b44 8cbe
000000a0: 4f63 523e 1b62 ac3e d155 2d3e 957d 6a3e
000000b0: 70a4 65be 7a7b a53d 6f59 90bd 1cb6 3bbd
000000c0: 4e53 e1bc b51b 3cbe d2c1 74be 38d9 8cbe
000000d0: 7acd b6be 3f1f babe f65e 91be c003 38bd
000000e0: ee2b 28be 1570 c0be 8334 21bf 2f61 1abf
000000f0: b890 40be e9fd b9be 2b50 9ebe f2c6 17bf
00000100: 3433 c7be b800 9bbd e47e 8ebd 04f3 73be
00000110: 0fa2 03bd 6e99 4cbe b406 873e 90b4 3dbe
00000120: 7804 51be b521 96be b74e 273c f828 af3b
00000130: 5e6e c13e ade6 393e 1285 e93c 1576 86bd
00000140: abf8 313e f764 0f3d 6587 323e 333b 763d
00000150: e1d7 3abe 836e 483e bf12 8eba dd12 3e3c
00000160: 800e 6c3e d775 c9bd 61b2 b63e c293 b43e
00000170: 78f3 d73d 742c 9a3d 5b0c d7be ae26 963e
00000180: 4010 0a3e 5912 9b3e ea5d 8b3d 7eaa 90be
00000190: 1669 01be e8d5 ccbe 75e0 e1be 988b b5be
000001a0: bd8a 95be 7874 813e 0cf5 993d 2feb ddbd
000001b0: 6ad9 d6be 07fc cabe 6a2c 9d3e b8bd d2b9
000001c0: 8878 7ebe b9f6 16be 3f5a 8bbe e78a 0a3f
000001d0: a353 b03e 04ed 033c 6008 2abe a8f8 0abe
000001e0: e6f3 ed3e 606d 973e 884f 453e f1c3 743d
000001f0: 1bf1 483b 0a7f 863e cca1 b1be de7b 90be
00000200: adc9 e83e d277 c83c 5d2f ce3d 8d3e bfbd
00000210: dd1a 84be b4d6 8e3e 5982 e73d 89ba bd3e
00000220: 4c43 a7be f0c9 d2be ac34 df3e 0be6 803e
00000230: b95e 67be 780c 4bbe 8501 babe 4b4f b33e
00000240: b318 c63e 8220 2cbd 92f8 a9be 39b5 b7be
00000250: ff7d 7b3d 7647 873e
-0.37241432 0.52671236 -0.13295212 -0.07808724 0.090791166 -0.3895996 0.32297033 0.18501274
-0.17856388 0.0147566525 -0.41250023 0.24542597 0.16347961 -0.111931674 0.10132364 -0.55161756
0.30842924 0.2934666 0.06541234 -0.092134535 -0.30648738 0.18054487 0.17589475 -0.0037693833
-0.058241174 0.1733786 0.045488037 0.0012809264 -0.07326254 0.10943882 -0.03346452 0.09163934
-0.082801655 0.09776509 -0.11394332 -0.2054233 0.09989824 -0.26914802 -0.07559018 -0.27395996
0.20545696 0.336686 0.16927268 0.22899468 -0.22426009 0.08080192 -0.07048308 -0.04582797
-0.027505543 -0.18369944 -0.23902062 -0.27509475 -0.3570364 -0.36351964 -0.28392762 -0.04492545
-0.16423008 -0.37585512 -0.6297075 -0.6030454 -0.18805206 -0.3632653 -0.30920538 -0.5928794
-0.38906252 -0.075684965 -0.06957796 -0.23823172 -0.032136973 -0.19980404 0.26372302 -0.1852591
-0.20411861 -0.2932259 0.010211638 0.00534546 0.37779516 0.18154402 0.028505836 -0.06565491
0.17380016 0.035008397 0.17434461 0.06011505 -0.18246414 0.19573407 -0.0010839327 0.011601177
0.23052406 -0.09836929 0.35682967 0.3526898 0.10544485 0.0752801 -0.42001614 0.29326385
0.13482761 0.30287436 0.06805022 -0.28255075 -0.12637743 -0.40006948 -0.4411656 -0.35458064
-0.2920741 0.2528417 0.07517442 -0.10835873 -0.4196275 -0.39645407 0.30697948 -0.00040195673
-0.24850667 -0.14742555 -0.2721729 0.541182 0.3443881 0.008052114 -0.16604757 -0.13571417
0.46475142 0.29575634 0.1926862 0.059757177 0.0030661288 0.26268798 -0.34693754 -0.28219503
0.45466366 0.024471197 0.100676276 -0.093381025 -0.25801745 0.2789818 0.11304159 0.37056378
-0.3266853 -0.4116969 0.43594873 0.2517551 -0.22594728 -0.19828975 -0.36329284 0.35021433
0.3869072 -0.04202319 -0.33197457 -0.3588045 0.061399456 0.26421708

conv1.bias f4 [6]
00000000: 00bd 1c3a 2c06 d0ba 06f6 83be 53da 573e
00000010: bc23 a83c 2d37 4b3d
0.0005979091 -0.001587098 -0.25773638 0.21079378 0.020524852 0.049613167

conv2.weight f4 [6, 6, 5, 5]
00000000: 5136 91bd d180 c0bd 20a4 c1bd 996e c4bd
00000010: 25bb dd3d ed86 90bd fcfe a5bd 1cdf 02be
00000020: 35d2 8e3c d757 0bbd 72cb 84bd 2e13 0dbe
00000030: d191 98bd 70b4 85bd d024 87bd 1db0 28bd
00000040: 31ce b6bd 7130 8a3b c6b8 f43d 2767 e93c
00000050: efa8 e6bd f775 ccbd 0a98 7c3d 5cd9 a83d
00000060: 2373 943d 04ca e73c ce07 363d 682e 8dbc
00000070: a430 913d 25f0 343d 5a63 84bd 3833 673c
00000080: 852c d63b f594 573d 9681 923d 8088 aa3d
00000090: 9cee 90bc f0ab 8dbc f25c aebd 60c0 a23d
000000a0: 03d1 8cbc 8384 6c3d 2c88 cd3c 63d2 90bd
000000b0: 3690 41bb 0698 7e3d 73a9 11bd 9d66 3e3d
000000c0: a3d5 87bd f6a2 d63c 6073 b23d 0f31 ddbd
000000d0: 8557 eb3d 7317 ac3c b9c8 cbbc 619a c1bd
000000e0: a45e 88bd bba0 93bd 9ca7 2bbd 0392 4bbe
000000f0: dbe8 32bd 5e2d 803d 7f83 f4bd d51f b3bc
00000100: f964 f8bd 5270 cdbc 835a ba3c 57ef 41be
00000110: 3863 55be ac71 05be 5df4 a93e 2c15 b13e
00000120: 6c88 2fbd 8860 13bd 2422 f13b 7363 dd3b
00000130: eecd 2dbd ec4d 5dbc c9a0 083d 27bd ec3d
00000140: c024 0e3d 77fe df3b 0b44 173d fbcb c73d
00000150: 34a9 b43d bb25 153d 099d 163d c18d 553d
00000160: 6c62 fb3d d1fc 823d 1aa4 1d3d 98c1 a5bd
00000170: f86c 21bd c22c e43d 65b3 d33d 31df 893a
00000180: da31 19bd acfb 80bd de3c a63d 3952 fe3d
00000190: ac36 333d 88b7 22bb 5ab4 9a3c 6777 09be
000001a0: 08bf a7bc a270 cebc c16c aabc 3b77 983d
000001b0: 2b09 9cbc 975f be3c ca0d 5cbd e18a 12bd
000001c0: 1f50 79bc e536 d9bc 78b5 b3bc 4b7f 2abd
000001d0: 159c af3c c7aa 283d e3d9 683b 7142 5c3d
000001e0: c1a9 9b3d 42f1 933c d605 973d 8264 d8bd
000001f0: 0893 4d3d 5755 153c 14fd 6cbd 32f0 d7bd
00000200: 79dc d13d 9cc9 bfbd 4baa 6dbd 5357 23be
00000210: 7242 963d a6e8 d83c 9d78 e7bc 12a8 03be
00000220: 5be3 1d3d 539a b83d 67f1 19bd 3988 dbbd
00000230: 029f 02be 6f56 973d 557f 363e e8b6 403d
00000240: 758d 26bd f3f6 46be c139 44bd 2925 0b3e
00000250: f711 7ebc 4223 56bd 3e1e 8dbb c0ca b7bb
00000260: 3e49 843d 6ce7 0a3d 94a5 253d b5fa 1c3d
00000270: 1ecf 39bd ff9c ae3d 05ef 743e ba09 133e
00000280: 8eab cc3d 95a3 1bbc d90f 0a3e b8db 813e
00000290: 2d7f a03c f493 893d dd40 27be f486 d7bd
000002a0: fc71 8abc c59d 25bd 7228 1b3e fa9a 9ebd
000002b0: 0e18 82bd 6677 e9bd ab6a 54be 5112 0b3e
000002c0: f8c6 633d 9430 ae3b 5fc8 33be a94b e5bd
000002d0: 425d 313d 9a48 b23d 0283 833d b2fc 223d
000002e0: d31b abbd 114e d23b 4848 c6bb 1155 093d
000002f0: bc1d b63d 8098 f5bd ff37 a5bd 7e8b 9ebd
00000300: 92e0 b0bc d588 11be e131 efbc fd1a 2cbc
00000310: e270 9bbd cd94 4abd f9e8 0e3d e78c 09be
00000320: d57d 23bd ebca 943e ce06 203e 2b61 803e
00000330: af37 fbbd 790c 9d3d a038 913e 1843 083e
00000340: 8d7f 313e 90c8 cdbd fc67 9a3b 60ea fd3c
00000350: 66ad 323c f530 c33e 2a3a 403e f479 47bb
00000360: fee0 e4bd 10ba fabc e1f4 003d d8d4 dc3d
00000370: af5c 9dbe 2b48 8fbe 5309 83bd af53 183c
00000380: c626 10be b323 d73d 0cc5 a53c fab9 f1bc
00000390: 62ab bfbd 3b01 03be d0cc b93d c9c6 ac3d
000003a0: 39f4 5e3c 8557 c2bc 19ad d13d dcef 163e
000003b0: 2c09 643d 9c21 1dbd cb51 323d 1737 1dbd
000003c0: 1a68 a43d d3d6 9abd 2117 fdbd 64c5 033d
000003d0: 3245 c9bb 6f2f 3bbe ed08 56bc 4e43 77bd
000003e0: 3eb2 103d 4cca 9c3d 4578 bc3d a1f5 3e3e
000003f0: 5e48 163e 81fc 2dbd 81d5 adbe 10c5 4b3d
-0.07090438 -0.0939957 -0.094551325 -0.09591407 0.108267106 -0.07056985 -0.08105275 -0.12780422
0.017434219 -0.034019317 -0.064841166 -0.13776848 -0.07449687 -0.06528556 -0.06598818 -0.04118358
-0.08926047 0.0042172004 0.11949305 0.02849157 -0.1126269 -0.099834375 0.061668433 0.08244583
0.07248523 0.02829457 0.044441037 -0.017234042 0.070893556 0.044174332 -0.06464262 0.014111333
0.006536069 0.05263229 0.07153623 0.083268166 -0.017691903 -0.0172939 -0.08513822 0.07946849
-0.017189508 0.05774356 0.025089346 -0.07071378 -0.002953542 0.0621567 -0.03556199 0.04648458
-0.06632545 0.026200753 0.08713412 -0.10800373 0.114913024 0.021007275 -0.024875985 -0.094532736
-0.06658676 -0.07208391 -0.04190789 -0.19879918 -0.0436791 0.06258653 -0.119391434 -0.021865765
-0.12128634 -0.025077973 0.022748237 -0.18938957 -0.2083863 -0.13031644 0.33194247 0.34586465
-0.04285471 -0.03598073 0.007358806 0.00675624 -0.042432718 -0.013507348 0.03335646 0.115595154
0.034703016 0.0068357545 0.036930125 0.09755703 0.088213354 0.036412936 0.036770854 0.05213714
0.12274632 0.06395877 0.038486578 -0.08093566 -0.03941056 0.111413494 0.10336951 0.0010518787
-0.037401058 -0.062980026 0.08117078 0.124180265 0.04375331 -0.0024828631 0.018884826 -0.13424455
-0.020476833 -0.025200192 -0.020803811 0.074446164 -0.01904734 0.02323894 -0.053724088 -0.035776976
-0.015216856 -0.026515434 -0.021937117 -0.041625302 0.02143673 0.04117849 0.0035530261 0.0537743
0.07600737 0.018059377 0.0737416 -0.10566045 0.050189048 0.009114585 -0.05785854 -0.105438605
0.1024713 -0.09364626 -0.058023732 -0.1595128 0.07336892 0.026478123 -0.028255755 -0.12857082
0.0385469 0.0901381 -0.037583735 -0.10719342 -0.12755969 0.07389533 0.17822011 0.047049433
-0.040662248 -0.19430141 -0.04790664 0.13588394 -0.015507213 -0.05227972 -0.0043065837 -0.0056088865
0.06459282 0.033912107 0.04044111 0.03832503 -0.045363538 0.085260384 0.23919304 0.14359179
0.09993659 -0.00949945 0.13482608 0.25362945 0.019591892 0.06717673 -0.16333337 -0.10523787
-0.016900055 -0.040433664 0.15152147 -0.07744403 -0.06352244 -0.113997266 -0.20743816 0.13581206
0.055609673 0.0053158496 -0.17556904 -0.11196072 0.04330183 0.08705254 0.06421472 0.03979177
-0.083549164 0.0064179976 -0.006051097 0.03352839 0.0889239 -0.11991978 -0.08067321 -0.0774145
-0.021591458 -0.14212354 -0.029198589 -0.010504481 -0.0758989 -0.049458314 0.03489015 -0.13432656
-0.039914925 0.29061064 0.15627596 0.25074133 -0.1226648 0.076683946 0.28363514 0.13306844
0.17333813 -0.1004802 0.004712103 0.030995548 0.010905599 0.3812329 0.18772188 -0.003043768
-0.11175726 -0.0306063 0.031483535 0.10782784 -0.30734774 -0.27984747 -0.06398263 0.0092972955
-0.14077291 0.10504856 0.02023556 -0.029507626 -0.093588606 -0.12793438 0.09072268 0.08436353
0.013608032 -0.023723373 0.10238094 0.14739937 0.05567281 -0.03836213 0.043535035 -0.038382616
0.08027668 -0.07560506 -0.12357927 0.03217067 -0.006142282 -0.18279813 -0.0130636515 -0.06036692
0.035326235 0.076557726 0.09202627 0.18648387 0.14676043 -0.042477135 -0.33951953 0.04974848

conv2.bias f4 [6]
00000000: f165 25bd 3a44 39be bc94 0cbd ca0f 9ebc
00000010: d632 e93d 0b4e 173d
-0.040380422 -0.18092433 -0.03432153 -0.019294638 0.11386649 0.036939662

fc1.weight f4 [50, 96]
00000000: 82d0 d43b 60bb cabd 075a 09bd 007d a5bc
00000010: ab19 cdbc cdd3 c4bd a7c3 aabd c6ff 023d
00000020: bdec 56bd 9530 e7bc 3551 8e3d 8dc8 0e3e
00000030: 4eee 65bd b6ef a6bc 0513 c23d 6764 42bd
00000040: 8d01 4c3e 40ac f6bd 23e9 10be ba46 ed3d
00000050: b1c5 a8bd f767 6bbc 460c 60bd 48a1 5ebc
00000060: 4160 bcbd 7b85 603d 3abd 10bc 4dd8 84bc
00000070: 55ac 46bd 323b f23d be05 a03d 082c cdbd
00000080: fca7 03be 3b15 e9bd a069 4ebe 4211 bfbd
00000090: a5f8 ee3d f741 1bbe 8dd3 4abd e712 4d3d
000000a0: eba7 d1bd 7bec 59bd b4aa 9f3d f0d9 9b3d
000000b0: f377 92bd 63cd 8ebc 4159 3d3e 108b 793d
000000c0: c629 ba3d e45e babd e732 31bd 1270 1e3e
000000d0: 3c24 f13d aee6 733d 6ef2 0ebe 6ca8 fd3b
000000e0: b22f b1bc 165f 113e e4b8 2cbe e08f 9739
000000f0: e9f9 fa3d 6625 263e e872 1cbe 884a 5f3e
00000100: f1e0 173e 6cd3 a7bd ec8c cc3c fca0 1cbd
00000110: 29e6 3a3d 8847 ffbb a341 91bd 2fcc b53c
00000120: 6cde f6bb 57fe c3bc e1c1 6abd 1ac9 87bd
00000130: 9e08 03be 2d92 a33c cd8d d53d 94e1 b2bd
00000140: 3834 c3bd f409 503d 3c87 03bc 74c1 bf3c
00000150: 75e0 48bd 187f 843d d6d4 2e3d d549 353d
00000160: 49fa b8bb 7987 863c e1ad d63d eac8 b13d
00000170: c85f 80be c9b1 9e3d 61c2 dc3d 72b2 803d
00000180: 1f18 853d 0817 18bc 6320 0ebe fdea d33d
00000190: 627e 6fbd b98d 723a 6dc3 0cbd f388 01bd
000001a0: ea74 42bd 33f4 aabd 0520 8e3c 5695 86bc
000001b0: d5ed d23d 2da0 823d 6b3b 843d a1cd 2a3e
000001c0: 6019 103e 1b46 253e ed7e 72bc dc8a 5ebe
000001d0: f3f9 233e b07a 653e ec93 0ebe b615 7ebe
000001e0: 42e5 143e 43a1 033e 54eb 943d e4bc b6bd
000001f0: 595f 23bd f9a6 e43b 072e 44bc 5f96 5fbe
00000200: 221c 18be 53e6 c6bc 42b7 bb3d e83d c03d
00000210: d28d 07bd b8f7 cc3d 3cc9 683c 7d17 ef3d
00000220: 31c3 05bc 1de1 133e 255f 71bb 2716 fd3d
00000230: 854f 27be a408 603d 549f e53d ad47 f53d
00000240: f47e aabd 3c3f 47bd 5ba5 993c 2b1c 50be
00000250: c177 c33d e05d eb38 4680 82bd ff5d c3bd
00000260: a31d 82bd 46d4 0d3e 7de3 07be 08ab ec3b
00000270: fbfc 1c3d 4b91 713c f603 88bd d36d de3b
00000280: c6bf e33c 9496 e2bc d96f 593c da7c bdbc
00000290: 2c52 0abe afe3 71bd dfb5 75bd 8f90 b4bc
000002a0: 9020 31bc 77ac dd3c 01e0 a6bd 5b71 9dbd
000002b0: ddaa 8f3d e69a bb3a 4340 b03d ea82 023e
000002c0: 2ee8 f03b dcac 0d3d a40c db3d 42ff 173e
000002d0: 25ac 043e 3c42 d93d 4714 a03d 568d bebc
000002e0: 7ec2 e63d b434 8339 3d14 dc3c 6b9c 733d
000002f0: ff51 f4bd d2df b0bd 54d6 433d 794c 563e
00000300: 22b4 b3bd 99e6 a1bc a44a 703d fcd6 c53d
00000310: 82a9 83bd 09b2 4cbb 8ae9 5ebd 88da 19bc
00000320: 2c3c 8c3d f2e2 94bc 499b 2a3c 5766 783c
00000330: 5acb 13bd c712 be3d 201d b63c d731 af3d
00000340: ca95 a13a 02c0 a0bd 698d 803d 4812 b3bd
00000350: bae5 473c 3a5b 913d 09f6 cabc 6b2a 58bd
00000360: fd49 a3bb 6e9b 8c3d a1c4 9ebc 7bd0 9dbc
00000370: 569e 9abd e501 55bc 962e 16bd 3093 c33d
00000380: 0b95 9c3b 870f a93d 037c c9bd a8c6 b93c
00000390: 7b25 8ebd d531 983d 3fde 183d 46b7 9bbd
000003a0: 99a4 593c 2c00 a2bd 6ca5 e43c fe10 24bd
000003b0: 10ce 62bc f9c8 e9bc 1852 313c 90d2 47bd
000003c0: a624 33bd f34c 9dbc cd2d c63d f649 bcbd
000003d0: 9b0f 843b baf3 32bd 9aa0 87bd c1db 5b3d
000003e0: 061b d3bd 81d9 a93d 7403 db3d 14d2 093b
000003f0: 30e1 f3bc fa0b 123d 04d2 35bd add3 1a3d
0.0064945826 -0.0989902 -0.033533122 -0.020201206 -0.025036654 -0.0961071 -0.08338099 0.031982206
-0.052471865 -0.028221408 0.06949083 0.13943692 -0.05613547 -0.020377975 0.09476284 -0.047459032
0.19922467 -0.12044573 -0.14151435 0.11585756 -0.08240832 -0.014368049 -0.054699205 -0.013588257
-0.091980465 0.054814797 -0.008834178 -0.016216421 -0.048504192 0.11827697 0.07813595 -0.10018164
-0.1285705 -0.113810025 -0.2015748 -0.093294635 0.11668519 -0.15161882 -0.049518157 0.050066855
-0.10237106 -0.05320404 0.07796231 0.07609928 -0.07151785 -0.01743192 0.18491079 0.060923636
0.09089999 -0.0910013 -0.043261435 0.15472439 0.11774489 0.059546165 -0.13959667 0.0077410247
-0.021629188 0.14196429 -0.16867405 0.0002890816 0.12254698 0.16225204 -0.15278208 0.21805775
0.14831902 -0.081946224 0.02496954 -0.038239464 0.045629654 -0.0077905096 -0.07092597 0.022192089
-0.007533839 -0.02392499 -0.057313804 -0.06630154 -0.12796256 0.019967163 0.10427437 -0.08734432
-0.09531444 0.050790742 -0.008027848 0.023407675 -0.049042184 0.06469554 0.042683445 0.044259865
-0.0056450707 0.01642202 0.104823835 0.086808994 -0.25073075 0.077487536 0.10779262 0.06284036
0.06498741 -0.009282835 -0.13879542 0.10347555 -0.058470137 0.00092526857 -0.03436606 -0.031624746
-0.04747478 -0.083473586 0.017349252 -0.01642863 0.10299269 0.06378207 0.064566456 0.16680004
0.1407218 0.16140024 -0.014800769 -0.21732658 0.16013317 0.22410083 -0.13923615 -0.2481297
0.1454058 0.12854485 0.07271448 -0.08922747 -0.039885852 0.0069779125 -0.011973864 -0.21834706
-0.14854482 -0.024279749 0.09165813 0.09386808 -0.033094235 0.10008186 0.014208134 0.11674402
-0.008164213 0.14441343 -0.0036830392 0.12357741 -0.16338928 0.05469574 0.1121203 0.11976562
-0.08324996 -0.04864429 0.018755605 -0.20323245 0.095443256 0.00011223159 -0.063721225 -0.09539413
-0.06353309 0.13850507 -0.13270374 0.007222537 0.0383272 0.014744113 -0.066413805 0.0067879944
0.027801406 -0.027659692 0.013271295 -0.023130823 -0.13507909 -0.059055027 -0.0599879 -0.022041587
-0.010810986 0.027059777 -0.08148194 -0.076876365 0.070150115 0.0014313131 0.08606007 0.12745252
0.0073518967 0.03458868 0.106957704 0.14843467 0.12956293 0.10608336 0.078163676 -0.023260754
0.11267565 0.00025025534 0.02686512 0.059475344 -0.11929702 -0.0863644 0.04781182 0.2092761
-0.08774592 -0.019763278 0.058664933 0.09660146 -0.064288154 -0.0031234047 -0.05442194 -0.009390481
0.068474144 -0.018174622 0.010412999 0.0151611185 -0.036082603 0.09280925 0.022230685 0.08554428
0.0012327966 -0.078491226 0.06276972 -0.08743721 0.012200767 0.07097478 -0.024775522 -0.052774828
-0.0049831853 0.06865583 -0.01938087 -0.01926445 -0.075497314 -0.01300094 -0.03666552 0.09549558
0.0047785095 0.08254915 -0.098381065 0.022677734 -0.069407426 0.0743138 0.037321325 -0.07603316
0.013283872 -0.07910189 0.02791091 -0.040055268 -0.013843074 -0.028538214 0.010822795 -0.048784792
-0.043736123 -0.019201731 0.096767046 -0.091937944 0.0040301806 -0.043689467 -0.06622429 0.05367637
-0.10307889 0.08293439 0.10694018 0.0021029757 -0.029770464 0.035655953 -0.04438974 0.037799526

fc1.bias f4 [50]
00000000: af04 a53d 4447 c0bd 4c96 6cbd b5d4 993d
00000010: 16c4 643d 53a3 34bd 484a a8bd 55d1 79bd
00000020: e439 2f3d 85bd 223d 142e a53d 8c3f 033d
00000030: db0e 21bc 5eeb fbbc ce15 843d 3ee7 11b9
00000040: d34c 113e e69d 22bc d74e 65bd 1044 043d
00000050: 742b e3bc db48 c7bd 993c a93d 17af a0bd
00000060: fbcd 1c3c f0b3 ca3d a7ed 833d e371 553d
00000070: 33d9 a0bd d62d a33d ccbc c4bc 4c21 4a3d
00000080: c3b9 853d 1b1a 243c 2bdf 0b3c f5ea f4bd
00000090: 8e0f c8bd ec5f 303d f5d2 7f3c f6f9 37bd
000000a0: c8cf 87bd 5892 f23c 723c 893d 7efc cebd
000000b0: 81c3 bfbb 7f39 8a3d e7eb 333d ece3 183d
000000c0: 4b78 2abd 2a56 3abd
0.08057534 -0.09388593 -0.05776052 0.07511274 0.055851065 -0.04410107 -0.08217293 -0.06099065
0.04277982 0.03973152 0.08065429 0.032043025 -0.009830202 -0.03075188 0.064494714 -0.00013914422
0.14189462 -0.009925341 -0.05598339 0.032291472 -0.027730681 -0.09730693 0.08263511 -0.07845896
0.009570594 0.098976016 0.06441813 0.052110564 -0.078539275 0.07967727 -0.024015807 0.04934816
0.06529572 0.01001599 0.008537094 -0.11958877 -0.09768592 0.04306023 0.015614261 -0.044916116
-0.06631428 0.029610798 0.06700982 -0.10106753 -0.0058521633 0.06749248 0.043926146 0.03732674
-0.041618627 -0.04549233

fc2.weight f4 [10, 50]
00000000: d400 7fbe d434 323d 86d3 69bd 4e23 b53d
00000010: cc74 9c3d 1127 213e d627 fabd 4f97 5f3e
00000020: ef83 393e 4019 eab9 d2e4 9c3e 9dbe 293d
00000030: 8aac da3d 8670 363e 63f5 df3d ef0c efbc
00000040: de96 a13e 6eb0 393d dfa5 26bd 82b6 a73d
00000050: d75a 77be 91db 3abd 0580 733e cdb5 463c
00000060: f789 c93c 1708 30be 441d 843e 6eb5 a93e
00000070: 9769 6cbd 146d d4bd c603 703d 9a3e 003e
00000080: b486 1cbc 98ef 0c3c 4729 d63d 56cd a1bd
00000090: 4d07 1fbe 5f4f a4be 58c4 a9bc 2c8c ca3d
000000a0: bafb 81be e0cf cc3e abef 7e3d 1c8e 74bd
000000b0: 1fad febd 8bb0 77be 874f ce3d 19da 183e
000000c0: f39e 283e 1391 0b3d 0e4a 623d 39e2 41bd
000000d0: e077 aa3d 7185 8fbd 62b2 9a3d dc9c 98bd
000000e0: bc55 b4bd 9d5c 6ebe 1a31 13be f968 6b3d
000000f0: b618 4d3e 4bcc 4cbe 0d97 cb3e 914c 9bbd
00000100: 214c 763e 5026 b13c 8a32 bebd bee1 09bd
00000110: 0a4d e8bc 3c80 b33d e8e2 af3c 4bb2 103e
00000120: 8ad3 3e3e f2fd 94be 012e 083e b5e8 443d
00000130: 7171 b03c 10a0 a53a deaa 69bb 70dc 8abd
00000140: b9e5 eabd 54ac ea3d 8783 5c3c 21c8 023f
00000150: ad48 97be 51b9 a9bd 3637 b93d 5322 54be
00000160: c06f a8bd 3193 c3bb 68a7 59bd 013f bcbe
00000170: b8a6 803d c21e ba3d ada9 7b3e 9244 98be
00000180: 50ee adbd c3b5 7abe 0719 3c3e d972 043e
00000190: 3405 ae3e acf1 babe 19a2 423d 9172 1bbe
000001a0: 6864 523e ff56 2abe 5019 1bbe 9f87 04be
000001b0: f699 a53d a03e db3e 1da9 74bd 2832 c23e
000001c0: d376 6b3c 8865 853e 444c 81be d53e ccbd
000001d0: ee72 a0be 3401 bbbd faa9 823e 5cd5 d13c
000001e0: 9573 443d 1e95 e4bd 945b 273e d1c1 1f3e
000001f0: fd47 963d 20ae 083f a3ff 753e 3448 adbe
00000200: c4ed e1bd cd70 863d 937d 7cbd c83f 3bbd
00000210: d09b 4a3e 8f2f 553e f9bb 4c3e 1389 53bb
00000220: 8ed2 323d ae30 be3d 0924 67bd 2af8 a6bd
00000230: 8efe 2ebe 330b 9b3e ea15 86be e0cf acbe
00000240: 294d b8be 5d11 8abe 0536 f9bd d20c f23c
00000250: 7a2e 97bd 9706 5fbd f194 61be 560d 81be
00000260: 9ede 353e a34c 9fbd 25a6 85bd 5296 0cbe
00000270: cc90 15be e6c3 73be afcc 1b3c d28e 17be
00000280: b629 55be 4e9e 353e 713e ff3d 9bab 5dbe
00000290: da7b 7e3e 9f9f 70bd d962 b0bc fd58 2cbd
000002a0: 442c 6c3e 8032 cebd 7b2e 803e e89b 53bd
000002b0: 9aef 273d c4d4 71be df60 3cbe 7a53 993d
000002c0: 3c02 52be ea81 1d3e 17b7 24be a68e be3d
000002d0: 2152 2f3d 75c4 70bd 3b50 1dbe b156 16be
000002e0: 0759 87be ff79 7a3e 0ceb 2cbd 9806 c6be
000002f0: 790c 9dbe 36ab abbd 4796 233e 50da 883e
00000300: 3b99 76be af40 c7bc 931b 1f3e 4ad4 15be
00000310: 43b8 94be 8fbd 77be f033 ae3d 17c7 a93e
00000320: 3afe 143e 838d 253d 2d0d 343d dc82 c33c
00000330: 71ee 8bbe 7806 df3d 6f3a d13d 3730 a4bd
00000340: 9027 ccbd 3d39 713e b386 23be 7b91 d3be
00000350: 4072 273e 4277 19be 60b9 873e 6699 4ebd
00000360: 4a46 92bd 471b 45bb f177 21be 1344 713e
00000370: c76d 143e 28c6 963d 916a 323e 8c72 7ebd
00000380: c335 e63d 8c26 bf3e 2fc5 17bd 58e8 973c
00000390: 46c9 2abe f3b4 d1b9 bdb0 5c3e fda0 a5bd
000003a0: 5bd4 fb3c 73c8 cbbc 47bc a13e 2e44 e53d
000003b0: 6d54 5e3c 5217 9e3e fc51 5bbe 30b8 bebd
000003c0: 83b7 0fbf c819 2dbd 6ea8 0dbd 0c7b 933e
000003d0: df3a c5bd 096e 58bd 5f08 b3be 675c 2b3e
000003e0: ae26 01be 6cba e13d 8abe b4bd ec45 fd3e
000003f0: bd3e 80bd 99fd 13be 81e6 acbe dad4 0bbd
-0.2490266 0.043507412 -0.05708649 0.088446245 0.07639465 0.15737559 -0.12214629 0.21835063
0.18116735 -0.0004465077 0.30643326 0.04144155 0.106774405 0.17816362 0.10935476 -0.029180972
0.31560415 0.045334272 -0.04068553 0.081891075 -0.24155746 -0.04561955 0.23779304 0.012128306
0.02460192 -0.17190586 0.25803578 0.33146232 -0.057717886 -0.103723675 0.05859735 0.1252388
-0.0095536 0.0086020455 0.10457092 -0.07900493 -0.15530129 -0.32091805 -0.020723507 0.09890017
-0.25387365 0.40002346 0.062240284 -0.05970584 -0.12435364 -0.2418844 0.100737624 0.14926948
0.16466884 0.0340739 0.055246405 -0.047334883 0.083236456 -0.07007874 0.07553555 -0.074517936
-0.08805415 -0.23277517 -0.143742 0.057473157 0.20028958 -0.19999807 0.3976368 -0.07582963
0.24052478 0.021624714 -0.09286983 -0.03366255 -0.028357048 0.08764693 0.021470502 0.14130513
0.18635383 -0.29099995 0.13298799 0.04807349 0.021538468 0.0012636203 -0.0035654823 -0.06780326
-0.11469597 0.1145865 0.013459093 0.5108662 -0.29547635 -0.082872994 0.09043734 -0.20716219
-0.082244396 -0.0059684743 -0.053138167 -0.36766818 0.06281799 0.09087898 0.24576445 -0.29739815
-0.0849272 -0.24483399 0.18368922 0.12934436 0.33988345 -0.36512506 0.04751787 -0.15180422
0.20546114 -0.16634749 -0.15146375 -0.1294236 0.08086006 0.42821217 -0.05973159 0.3792889
0.014371592 0.26054025 -0.252535 -0.09972922 -0.31337684 -0.09131089 0.25520307 0.025614433
0.04796179 -0.11161254 0.16343528 0.15601279 0.073379494 0.53390694 0.24023299 -0.3384415
-0.11031678 0.06564484 -0.061643194 -0.045715123 0.19786 0.20818923 0.19993581 -0.0032277748
0.04365783 0.09286629 -0.05643085 -0.08152802 -0.17089292 0.30281982 -0.26188594 -0.33752346
-0.3599637 -0.26966372 -0.121685065 0.029547129 -0.073819116 -0.054449644 -0.22029473 -0.25205487
0.17760703 -0.07778289 -0.0652583 -0.13729218 -0.14606017 -0.23805198 0.00950925 -0.14800575
-0.20816693 0.1773617 0.12463082 -0.21647494 0.24851933 -0.058745977 -0.02153151 -0.042077053
0.23063761 -0.10068226 0.25035462 -0.051662356 0.040999986 -0.2361632 -0.18396328 0.07486625
-0.20508665 0.1538159 -0.16085468 0.09304552 0.042802934 -0.058781106 -0.15362637 -0.14681508
-0.2643511 0.244606 -0.042216346 -0.38676906 -0.30673578 -0.08382265 0.15975295 0.2672906
-0.2408189 -0.024322836 0.15537862 -0.14631763 -0.2904683 -0.24193405 0.08506 0.33159706
0.14550105 0.04041816 0.043957878 0.02386611 -0.27330354 0.10889906 0.102162234 -0.08017009
-0.099684834 0.23556991 -0.15969352 -0.4132193 0.16352177 -0.149869 0.26508617 -0.05043926
-0.07142313 -0.0030076073 -0.1576841 0.23561125 0.14495002 0.07362014 0.17423464 -0.06212096
0.11240723 0.37334096 -0.037053283 0.018543407 -0.16678342 -0.00039998404 0.21551795 -0.08087347
0.030740907 -0.024875855 0.31588957 0.11194645 0.013569933 0.30877167 -0.21417993 -0.09312475
-0.5613939 -0.042260915 -0.034584455 0.28804815 -0.096303694 -0.052839313 -0.34967324 0.16734467
-0.12612411 0.11021885 -0.08825405 0.4946741 -0.062619664 -0.14452209 -0.3376961 -0.034138538

fc2.bias f4 [10]
00000000: 40d9 d5bd 84e0 0fbe 5505 4f3d 2b06 42bd
00000010: 7945 09be e73a 65be fa5e aa3d b1cf 50be
00000020: 3815 b63d f133 61bd
-0.10441828 -0.1405049 0.050542194 -0.047369163 -0.13405408 -0.2238575 0.083188966 -0.20391728
0.08890766 -0.054981176
