checkpoints/BSFL brute/cnn2/18-12-2023_20-43-30/last_model.pth.tar (torch, 47700 bytes, 8 tensors)

conv1.weight f4 [6, 1, 5, 5]
-0.16199277 0.045543462 -0.08232859 -0.12139626 0.18679701 0.073061876 0.18817784 -0.07614121
-0.06343661 0.05499405 -0.03087966 -0.042563736 0.13263766 0.15907168 0.036649816 0.06460753
-0.16961455 0.052347876 0.07085885 -0.11248776 0.1279304 0.09260553 -0.06080368 -0.16090012
0.00010352649 -0.14145952 -0.30172256 -0.30879927 -0.15150481 0.007843738 -0.13711509 -0.3219016
-0.18254411 -0.38341323 0.020573938 -0.05331832 -0.39552405 -0.47483695 -0.23381868 -0.23026034
-0.32729986 -0.18726721 -0.23122092 -0.25486138 -0.032527357 -0.25676215 -0.2993819 -0.22412479
-0.23384455 -0.050542403 -0.2626462 -0.029212577 0.19099273 0.24679466 0.11683914 -0.014381829
-0.3371896 0.058526505 -0.0355613 0.14768924 -0.32561594 -0.28510693 0.113704935 0.13274366
0.0436588 -0.04958693 -0.26538855 0.27699792 0.028379316 0.20723407 -0.37307984 -0.20210797
0.25356087 0.24147137 0.17555098 -0.30974898 0.050934035 0.01189217 0.10410505 0.35082942
-0.36038584 -0.2994689 0.24118224 0.41562155 0.37549272 -0.063750036 -0.29856583 0.1299577
0.1003166 0.22082888 -0.22551507 -0.41930073 -0.050851658 0.3189873 -0.03630787 -0.41908243
-0.3928926 -0.14046164 0.33610487 0.10573386 0.23942629 -0.12213732 0.13789979 -0.12112813
-0.24372229 0.25236708 0.111999676 0.100675926 -0.048164234 -0.24066071 0.15205488 0.1484459
0.109542735 0.011294545 -0.1367721 0.119964175 0.14667776 0.07686043 -0.18559091 0.14363289
0.04781525 -0.13748059 0.20813748 0.13715161 0.13482544 0.14699319 -0.121164486 0.08831109
0.116301216 0.11288809 0.07071427 0.15676874 0.20137 0.07498892 0.18913113 -0.08129345
0.1790053 0.1561754 0.021391239 0.14887291 0.082313105 -0.043323558 0.12000818 -0.036286827
-0.061912607 0.22590657 -0.039107047 0.21500568 0.20508128 0.19175367
00000000: 6fe1 25be c88b 3a3d e49b a8bd 9a9e f8bd
00000010: b747 3f3e 77a1 953d b1b1 403e ecef 9bbd
00000020: 0eeb 81bd 7141 613d 57f7 fcbc 5057 2ebd
00000030: 2bd2 073e b0e3 223e 1e1e 163d f450 843d
00000040: 70af 2dbe ba6a 563d 721e 913d fc5f e6bd
00000050: 3000 033e f8a7 bd3d 480d 79bd 00c3 24be
00000060: 5c1c d938 c4da 10be 617b 9abe f01a 9ebe
00000070: 1424 1bbe 0683 003c e667 0cbe 49d0 a4be
00000080: d8ec 3abe bd4e c4be ad8a a83c 5064 5abd
00000090: 2182 cabe d41d f3be 2a6e 6fbe 5ec9 6bbe
000000a0: d993 a7be fac2 3fbe 2dc5 6cbe 317d 82be
000000b0: 683b 05bd 5476 83be 9648 99be f880 65be
000000c0: f274 6fbe 8d05 4fbd 9079 86be 374f efbc
000000d0: 9993 433e bdb7 7c3e 5c49 ef3d c3a1 6bbc
000000e0: 1ea4 acbe 7db9 6f3d baa8 11bd d93b 173e
000000f0: 22b7 a6be 89f9 91be 22de e83d f4ed 073e
00000100: 92d3 323d aa1b 4bbd 02e1 87be acd2 8d3e
00000110: bd7b e83c 2b35 543e 5204 bfbe 64f5 4ebe
00000120: bbd2 813e 4544 773e a3c3 333e 6b97 9ebe
00000130: 35a0 503d 60d7 423c 0735 d53d ea9f b33e
00000140: 7e84 b8be fd53 99be 7af8 763e 59cc d43e
00000150: 9540 c03e 618f 82bd 9fdd 98be a213 053e
00000160: ca72 cd3d f720 623e 6ced 66be 96ae d6be
00000170: d449 50bd 4e52 a33e 90b7 14bd f991 d6be
00000180: 3829 c9be 2dd5 0fbe f015 ac3e fe8a d83d
00000190: 2a2c 753e 2223 fabd 9a35 0d3e 0612 f8bd
000001a0: 5692 79be 4236 813e 1660 e53d 2e2f ce3d
000001b0: dc47 45bd c36f 76be 46b4 1b3e 3402 183e
000001c0: f157 e03d c10c 393c fc0d 0cbe c7af f53d
000001d0: b232 163e 0069 9d3d 8b0b 3ebe 8014 133e
000001e0: ecd9 433d b6c7 0cbe fe21 553e 7971 0c3e
000001f0: ae0f 0a3e 6285 163e 1625 f8bd 72dc b43d
00000200: 552f ee3d df31 e73d a5d2 903d fc87 203e
00000210: f033 4e3e ca93 993d 97ab 413e 2e7d a6bd
00000220: 2a4d 373e 72ec 1f3e ae3c af3c 2472 183e
00000230: c693 a83d 0b74 31bd d9c6 f53d 7fa1 14bd
00000240: 1398 7dbd 0d54 673e b62e 20bd 732a 5c3e
00000250: d400 523e 135b 443e

conv1.bias f4 [6]
0.19781648 -0.08334935 0.036647566 0.20540528 -0.06675611 0.09678773
00000000: 6790 4a3e 10b3 aabd c21b 163d c355 523e
00000010: 6db7 88bd a538 c63d

conv2.weight f4 [6, 6, 5, 5]
-0.054126356 -0.06548559 -0.017349113 0.024238233 0.06505989 0.049612798 0.020871382 0.035347648
-0.05144769 -0.048446473 0.047986567 0.02753207 0.029787645 0.04994128 -0.09976287 0.038741108
-0.05803908 -0.008677954 0.07398873 -0.046505403 -0.0713409 -0.08893375 0.06126917 0.088586025
-0.0014511674 -0.10759195 -0.067067966 -0.0537468 -0.13854405 -0.18230323 0.008555058 -0.09962447
-0.053226095 -0.03731418 -0.10034193 -0.06824174 -0.0987572 -0.10984563 -0.057006847 -0.093186
0.036222477 0.066046305 -0.009908687 0.13347335 -0.026445374 0.23979993 0.080366544 0.22540122
0.16321106 0.120282225 -0.003913151 0.06495147 0.03135032 0.11281831 0.16356161 -0.11176279
0.029762095 0.022334654 0.042455602 0.1623602 -0.11470116 0.0066277464 -0.101777285 0.030675165
0.23423807 -0.11963775 -0.021810373 -0.037154645 0.025184775 0.28288442 -0.09929757 -0.080202185
-0.109792344 0.12146764 0.26214072 -0.16199526 -0.032413375 -0.04184398 0.14071062 0.0054470752
-0.1115678 0.032280773 -0.11699945 0.089475214 0.18945824 -0.103201695 -0.024029776 -0.08467535
0.13954987 0.23517957 -0.028578267 0.07328157 0.058831457 0.21036534 0.37833878 0.0140919965
0.09058154 0.003323516 0.18445376 0.35632688 -0.029060135 0.019943671 0.05526126 0.053129137
0.11163274 -0.057909936 -0.07969797 0.027101483 -0.04923692 0.1270463 -0.046781853 0.025831098
0.011735657 -0.059691433 0.0701209 -0.012379232 -0.025187394 0.06063534 -0.045312006 -0.04063113
0.019558549 -0.095350854 -0.0541748 -0.06087492 0.046824083 0.048343353 -0.009975425 0.041512553
0.121483274 0.10803246 0.0039877943 0.038710758 -0.06778192 -0.035730936 0.07771851 0.023057181
-0.057940587 -0.049265303 0.029951898 0.06127114 0.033267546 0.032107808 -0.08826587 -0.12148243
-0.03548885 0.031973127 0.0077583 0.019410307 -0.025987482 -0.023608325 -0.06448094 0.06776028
-0.062382683 -0.056989476 0.037344016 -0.03464929 0.023240445 -0.032180503 -9.460657e-05 -0.017663125
-0.04539397 -0.098237514 -0.08040123 -0.032740857 -0.080262676 -0.09673069 -0.0027883663 -0.042221103
-0.10274145 0.012604731 0.0120060975 0.018795751 0.030567352 -0.06425239 0.04163747 -0.0218503
-0.16965155 -0.15676735 -0.06261706 -0.033166893 0.073255606 0.011219113 -0.035373773 0.094113484
0.05850032 0.15264256 0.046061907 0.029808786 0.19348541 0.0962025 0.0055599716 0.04774281
-0.0076226303 0.11657762 0.05690532 0.04603686 -0.015875008 0.0052571087 0.09368736 -0.07264339
0.010420233 0.11065336 0.01586262 0.0329149 -0.024705924 -0.0011598256 0.08853833 -0.12743422
-0.08191411 -0.057041984 0.025435554 -0.021434303 -0.10467294 -0.04979053 0.063367836 0.03974286
0.0314557 -0.08728585 -0.0358909 0.08042696 0.08686896 -0.01991939 -0.045540035 -0.023948776
-0.033814505 0.1327179 0.05964323 -0.09250513 0.062430326 0.024379263 0.07176586 0.11123712
-0.04424539 0.036496628 -0.025475247 0.120942876 0.03651569 -0.15510266 0.06972605 0.051865205
-0.036435746 0.01873011 -0.09271571 0.0921067 -0.0072369836 0.01934615 0.045637704 -0.1414438
-0.024680642 0.049934566 -0.030169768 -0.016242584 0.05400869 -0.055424407 -0.019153373 -0.024233587
00000000: 99b3 5dbd 4f1d 86bd ba1f 8ebc 428f c63c
00000010: 1f3e 853d ca36 4b3d 76fa aa3c b2c8 103d
00000020: d0ba 52bd cf6f 46bd 908d 443d f08a e13c
00000030: 3805 f43c 3a8f 4c3d 7a50 ccbd ffae 1e3d
00000040: 63ba 6dbd fa2d 0ebc 6787 973d 737c 3ebd
00000050: 2e1b 92bd e622 b6bd 62f5 7a3d 976c b53d
00000060: 1935 beba 2b59 dcbd ee5a 89bd 9b25 5cbd
00000070: 7ede 0dbe b3ad 3abe 842a 0c3c ea07 ccbd
00000080: 9b03 5abd c1d6 18bd 1280 cdbd 53c2 8bbd
00000090: 3741 cabd bff6 e0bd 0380 69bd 4dd8 bebd
000000a0: 055e 143d 4943 873d 0c58 22bc 3dad 083e
000000b0: f8a3 d8bc 1d8e 753e 3797 a43d 94cf 663e
000000c0: cd20 273e 8756 f63d e439 80bb 4705 853d
000000d0: 3169 003d 490d e73d b27c 273e e4e3 e4bd
000000e0: a3cf f33c 2af7 b63c ede5 2d3d c141 263e
000000f0: 71e8 eabd 912d d93b 9c70 d0bd 7c4a fb3c
00000100: 1bdc 6f3e a304 f5bd abab b2bc 782f 18bd
00000110: 4d50 ce3c 3ad6 903e 865c cbbd 0b41 a4bd
00000120: cfda e0bd 07c4 f83d 4f37 863e 16e2 25be
00000130: e3c3 04bd 9864 2bbd 7216 103e 617d b23b
00000140: a97d e4bd d838 043d 689d efbd c83e b73d
00000150: 5701 423e 695b d3bd 18da c4bc 456a adbd
00000160: 29e6 0e3e ead2 703e f81c eabc a614 963d
00000170: 41f9 703d 036a 573e 9fb5 c13e 1ee2 663c
00000180: d082 b93d 59cf 593b 72e1 3c3e 7a70 b63e
00000190: 850f eebc e960 a33c a259 623d f09d 593d
000001a0: b59f e43d f832 6dbd b038 a3bd ee03 de3c
000001b0: a7ac 49bd 6d18 023e 549e 3fbd bd9b d33c
000001c0: ea46 403c 017f 74bd 8c9b 8f3d 43d2 4abc
000001d0: cb55 cebc c35c 783d 1599 39bd d46c 26bd
000001e0: 4039 a03c 4f47 c3bd 65e6 5dbd fb57 79bd
000001f0: 9cca 3f3d ae03 463d f76f 23bc 1109 2a3d
00000200: 39cc f83d 1f40 dd3d 0bac 823b 2c8f 1e3d
00000210: 3fd1 8abd 9a5a 12bd e22a 9f3d 6ae2 bc3c
00000220: 1c53 6dbd 6aca 49bd af5d f53c 72f7 7a3d
00000230: 8d43 083d 7a83 033d bdc4 b4bd c8cb f8bd
00000240: c25c 11bd 41f6 023d 5639 fe3b 5d02 9f3c
00000250: b3e3 d4bc 3f66 c1bc 950e 84bd e7c5 8a3d
00000260: fc84 7fbd cc6d 69bd 0af6 183d 6aec 0dbd
00000270: bf62 be3c b4cf 03bd 8467 c6b8 42b2 90bc
00000280: 07ef 39bd c030 c9bd 66a9 a4bd 471b 06bd
00000290: c260 a4bd bd1a c6bd 06bd 36bb 09f0 2cbd
000002a0: 1c6a d2bd 1384 4e3c 39b5 443c 8cf9 993c
000002b0: 6268 fa3c c296 83bd 0d8c 2a3d 66ff b2bc
000002c0: 23b9 2dbe 9f87 20be 603d 80bd 02da 07bd
000002d0: 0907 963d 5fd0 373c 17e4 10bd 92be c03d
000002e0: 089e 6f3d 554e 1c3e 69ab 3c3d 8e31 f43c
000002f0: 0a21 463e d105 c53d 6c30 b63b f78d 433d
00000300: 42c7 f9bb 3fc0 ee3d 8e15 693d 2691 3c3d
00000310: 4e0c 82bc d343 ac3b 29df bf3d 0fc6 94bd
00000320: a0b9 2a3c 3b9e e23d 53f2 813c c6d1 063d
00000330: 1464 cabc 4a05 98ba 9553 b53d 1e7e 02be
00000340: 96c2 a7bd dba4 69bd 395e d03c fe96 afbc
00000350: c45e d6bd 28f1 4bbd ffc6 813d 69c9 223d
00000360: b1d7 003d ecc2 b2bd 5602 13bd e4b6 a43d
00000370: 5ae8 b13d fd2d a3bc 3088 3abd 3930 c4bc
00000380: 1481 0abd 34e7 073e 764c 743d 5473 bdbd
00000390: f1b6 7f3d 05b7 c73c fbf9 923d 4ad0 e33d
000003a0: a73a 35bd 7d7d 153d 77b1 d0bc e6b0 f73d
000003b0: 7a91 153d 3bd3 1ebe 88cc 8e3d 9c70 543d
000003c0: a63d 15bd e36f 993c bce1 bdbd 70a2 bc3d
000003d0: 3824 edbb d17b 9e3c 9aee 3a3d a5d6 10be
000003e0: 0f2f cabc 3088 4c3d 9726 f7bc 2b0f 85bc
000003f0: 3738 5d3d b404 63bd 89e7 9cbc 8485 c6bc

conv2.bias f4 [6]
0.047922026 -0.0074951635 0.16224532 -0.028687995 0.009281648 0.0070407307
00000000: e349 443d fd99 f5bb a323 263e 1603 ebbc
00000010: 0e12 183c eeb5 e63b

fc1.weight f4 [50, 96]
-0.101829834 -0.11116984 -0.004246458 0.00983087 0.02174618 -0.013429415 0.10981579 0.044498093
-0.092599265 -0.03465934 -0.046164494 -0.010712209 -0.0340883 0.00052171363 0.14493892 0.14412035
0.0026142378 0.09063713 0.098748825 0.06144477 0.020112257 0.08478136 0.0079921605 -0.026186798
0.08474542 0.03788864 -0.010682304 0.05602752 0.062077176 -0.06581694 0.0498378 -0.0038169087
0.0026164611 -0.026260488 -0.028336912 -0.03911429 0.07119318 0.019400436 -0.056427922 0.010039006
0.07294038 -0.06553098 0.014012789 -0.12060411 0.07238997 0.032414485 0.08855973 0.08719531
0.052805386 0.061471 0.10061763 -0.030736307 -0.047548592 0.050381597 -0.05169748 -0.014157549
-0.017224303 -0.08376447 -0.07452766 -0.07777628 -0.016585479 0.07347535 -0.06982845 -0.048941955
-0.038963526 0.030764094 0.0006843559 -0.11179652 -0.047773153 -0.026095232 0.06814243 -0.03191383
0.078479886 0.016371885 -0.115920186 -0.1216889 0.12582216 -0.04574193 0.0011260406 0.01778951
-0.03603827 0.09316096 0.10041408 0.07448743 -0.07139089 -0.023232898 0.03336952 0.017356463
-0.07355123 0.07072076 -0.0022804688 -0.0071248836 0.055706237 0.09833298 0.01498805 -0.10379445
0.035031427 -0.020125382 0.0017229049 0.027639445 -0.0089622 -0.065083295 -0.005267494 -0.16728379
0.085662626 0.08152835 -0.042075474 -0.049032442 -0.048280496 0.04964451 -0.105638966 0.011842512
-0.0726491 -0.08549151 -0.08002555 0.03840849 0.06635969 0.022277756 0.04581712 -0.03539035
-0.07409823 -0.034230977 0.050938953 0.09426586 -0.034550186 0.0044257534 -0.033477385 0.12568483
-0.040885787 0.0120624155 0.034031805 -0.058730282 -0.11734493 0.088196844 0.080769025 -0.06285352
-0.0440974 0.0009922568 0.060734253 -0.04830202 0.025548646 0.0073511703 0.008021674 -0.03035155
0.025852446 -0.101665415 -0.045592744 0.12884933 0.057711404 0.035935603 0.06321032 0.11513885
-0.027848044 0.080594495 -0.015575199 0.012592111 0.016859375 0.094466485 -0.010514137 0.08104197
-0.08213475 0.066151716 -0.011358449 0.0198998 0.03675494 -0.013534729 -0.08638199 -0.041005358
0.06978182 -0.011491284 -0.021600062 0.013335666 -0.021760052 -0.08325803 0.0759028 0.12969509
0.07271969 0.019525517 0.033592265 0.094485246 -0.06646723 -0.04702507 0.09529706 0.1483002
-0.09022554 0.07871911 -0.06967479 0.054504737 -0.06940145 0.09947064 0.022617443 0.091522604
0.10172693 -0.090969555 -0.009449056 0.14840491 0.0013555548 -0.05880443 -0.029947309 -0.041742425
-0.079757534 0.07951118 -0.04539012 -0.074711725 -0.059550524 0.11086367 -0.021890098 -0.05641406
-0.059233 0.0036786534 -0.09098771 -0.014190632 -0.12229647 0.060585126 0.13608576 0.1153599
-0.05000294 0.040768206 0.01824517 0.027708216 -0.09239162 0.04309154 -0.07741286 0.04986557
-0.05294445 -0.07786891 -0.07791063 -0.049468484 0.12986743 0.032464612 -0.08192071 -0.022195298
0.05532235 -0.06957271 -0.08046868 0.038842384 0.13366616 0.06157943 0.00081957655 -0.05386004
0.10476055 0.027816966 0.07057966 0.026320687 0.057490777 0.019668719 0.053986143 -0.02148729
-0.12486929 0.025078902 0.05705355 0.13034964 -0.0100016175 -0.0101577835 0.04255573 0.117415026
00000000: 298c d0bd 03ad e3bd df25 8bbb a811 213c
00000010: 0b25 b23c 0d07 5cbc 1ae7 e03d a243 363d
00000020: afa4 bdbd f4f6 0dbd fb16 3dbd 4382 2fbc
00000030: 2ca0 0bbd 9cc3 083a de6a 143e 4994 133e
00000040: a253 2b3b f69f b93d d33c ca3d 83ad 7b3d
00000050: 76c2 a43c daa1 ad3d 8df1 023c b285 d6bc
00000060: 028f ad3d 1e31 1b3d d504 2fbc 1d7d 653d
00000070: a344 7e3d 08cb 86bd b922 4c3d 1a25 7abb
00000080: ef78 2b3b 3c20 d7bc d022 e8bc 4e36 20bd
00000090: bbcd 913d aaed 9e3c f720 67bd a57a 243c
000000a0: c461 953d 1b35 86bd e695 653c 4aff f6bd
000000b0: 3141 943d 0dc5 043d ce5e b53d 7493 b23d
000000c0: 764a 583d 04c9 7b3d 9e10 ce3d b5ca fbbc
000000d0: 50c2 42bd ef5c 4e3d bdc0 53bd 10f5 67bc
000000e0: fb19 8dbc b58c abbd f5a1 98bd 2c49 9fbd
000000f0: 45de 87bc 3f7a 963d 3802 8fbd 5c77 48bd
00000100: 3898 1fbd fb04 fc3c 5966 333a 93f5 e4bd
00000110: c8ad 43bd abc5 d5bc 428e 8b3d 14b8 02bd
00000120: 10ba a03d 551e 863c 9067 edbd 0838 f9bd
00000130: 86d7 003e e45b 3bbd a797 933a 4ebb 913c
00000140: dd9c 13bd 2ccb be3d e6a5 cd3d de8c 983d
00000150: 6335 92bd eb52 bebc 7aae 083d 242f 8e3c
00000160: 07a2 96bd 0cd6 903d eb73 15bb db77 e9bb
00000170: 392c 643d cd62 c93d 7090 753c 2f92 d4bd
00000180: 1d7d 0f3d fcdd a4bc 18d3 e13a 1e6c e23c
00000190: 31d6 12bc 644a 85bd f19a acbb 714c 2bbe
000001a0: e36f af3d 56f8 a63d 5557 2cbd 3ed6 48bd
000001b0: c5c1 45bd 0b58 4b3d 3e59 d8bd 1807 423c
000001c0: 0dc9 94bd 2c16 afbd 70e4 a3bd 3952 1d3d
000001d0: 97e7 873d d77f b63c bbaa 3b3d 79f5 10bd
000001e0: d0c0 97bd c835 0cbd 5da5 503d 760e c13d
000001f0: 7f84 0dbd e905 913b 951f 09bd 86b3 003e
00000200: db77 27bd 70a1 453c ef64 0b3d 2a8f 70bd
00000210: 8a52 f0bd 8ca0 b43d 3b6a a53d 59b9 80bd
00000220: 7a9f 34bd 9d0e 823a 7bc4 783d 57d8 45bd
00000230: 654b d13c 16e2 f03b 576d 033c d0a3 f8bc
00000240: 82c8 d33c f535 d0bd 75bf 3abd 14f1 033e
00000250: cb62 6c3d 3631 133d 6a74 813d ebcd eb3d
00000260: 9521 e4bc ba0e a53d 1f2f 7fbc 244f 4e3c
00000270: ac1c 8a3c a577 c13d 7d43 2cbc 55f9 a53d
00000280: 4436 a8bd 8d7a 873d ca18 3abc e804 a33c
00000290: 598c 163d c5c0 5dbc 0ae9 b0bd 3cf5 27bd
000002a0: c5e9 8e3d f045 3cbc 9df2 b0bc d67d 5a3c
000002b0: 2342 b2bc 3083 aabd ed72 9b3d cace 043e
000002c0: 10ee 943d faf3 9f3c 0b98 093d 7b81 c13d
000002d0: f91f 88bd 5c9d 40bd 1b2b c33d 02dc 173e
000002e0: 2bc8 b8bd 7c37 a13d a8b1 8ebd 5c40 5f3d
000002f0: 5922 8ebd 43b7 cb3d 3748 b93c 3470 bb3d
00000300: 3556 d03d 3f4e babd 37d0 1abc 75f7 173e
00000310: dfac b13a eadc 70bd 0f54 f5bc 1bfa 2abd
00000320: eb57 a3bd c2d6 a23d feea 39bd 7602 99bd
00000330: 40eb 73bd 7e0c e33d dd52 b3bc 6e12 67bd
00000340: 4d9e 72bd 9015 713b c457 babd d37f 68bc
00000350: 9276 fabd 1c28 783d 115a 0b3e d041 ec3d
00000360: e2cf 4cbd 90fc 263d e576 953c 57fc e23c
00000370: d137 bdbd c180 303d a28a 9ebd d73f 4c3d
00000380: 48dc 58bd bc79 9fbd 9c8f 9fbd 779f 4abd
00000390: f8fb 043e 9df9 043d 0cc6 a7bd ead2 b5bc
000003a0: b099 623d 237c 8ebd c3cc a4bd 3119 1f3d
000003b0: c8df 083e b63a 7c3d dad8 563a 589c 5cbd
000003c0: b38c d63d 68e0 e33c 128c 903d 7b9e d73c
000003d0: 737b 6b3d 4b20 a13c 9320 5d3d 1d06 b0bc
000003e0: 78bb ffbd 4572 cd3c fcb0 693d 607a 053e
000003f0: d3dd 23bc d56c 26bc eb4e 2e3d 4a77 f03d

fc1.bias f4 [50]
-0.05372281 0.027202222 0.09825271 -0.04038499 0.1237216 -0.08612293 -0.039143488 0.08626053
0.036539223 -0.034836505 0.06919279 -0.07584205 0.07221187 0.0029474904 0.050956555 0.047181364
-0.013279268 -0.084822044 -0.0068901153 0.005218658 -0.0054737525 0.013288863 0.09729558 -0.003813215
0.08713013 0.058559593 -0.023166053 0.034953244 -0.055164114 -0.055192783 -0.05264356 0.027541092
0.063472256 0.022624893 0.1283378 0.089659296 0.031120403 -0.015165256 0.09464018 -0.09457608
0.022075694 -0.0010458804 0.049936183 -0.020716775 -0.09088564 0.03927549 0.046762817 -0.019693384
-0.02456091 -0.011313571
00000000: 730c 5cbd 32d7 de3c b838 c93d bb6a 25bd
00000010: c061 fd3d 3861 b0bd ec54 20bd 5ca9 b03d
00000020: 27aa 153d b9b0 0ebd f3b4 8d3d 1453 9bbd
00000030: d1e3 933d af2a 413b d2b7 503d 3f41 413d
00000040: 4991 59bc 2eb7 adbd 7ac6 e1bb 4701 ab3b
00000050: 2a5d b3bb 88b9 593c e842 c73d 22e7 79bb
00000060: 4871 b23d 2fdc 6f3d bcc6 bdbc 222b 0f3d
00000070: c4f3 61bd d411 62bd c6a0 57bd db9d e13c
00000080: befd 813d d757 b93c fc6a 033e 4b9f b73d
00000090: 37f0 fe3c b277 78bc b6d2 c13d 1bb1 c1bd
000000a0: 16d8 b43c ec15 89ba e289 4c3d 3ab6 a9bc
000000b0: 4022 babd 56df 203d 5e8a 3f3d 0554 a1bc
000000c0: f633 c9bc 8e5c 39bc

fc2.weight f4 [10, 50]
-0.0975232 -0.07654508 0.02182552 0.038714804 0.21221995 -0.22444755 -0.0037631097 0.10544125
-0.10683888 0.24545865 0.19105227 0.014808103 0.24165809 0.047069367 0.0040321546 0.022327453
-0.19375874 -0.12837633 -0.035990678 -0.017904606 -0.15938058 -0.12399603 -0.062230036 -0.0031189816
0.24773373 -0.034556083 -0.10187166 0.104709096 -0.014126428 0.081406444 0.056633666 -0.042055782
0.134414 0.10418065 -0.030293304 0.0063696858 0.13686089 0.11874233 0.0871562 0.058116715
0.024308635 -0.23041494 -0.14990485 -0.07021148 -0.0004076323 0.077836454 -0.022179497 -0.042565357
-0.03875426 -0.06927106 -0.25053018 0.010375962 -0.026883287 -0.18126233 -0.16284469 0.05476149
-0.029913515 -0.15170543 -0.073625796 0.16774932 -0.1708552 -0.10943686 0.033892352 0.08643639
0.20909564 -0.18759324 -0.15358539 0.14204234 0.27727026 -0.027711444 0.13641672 0.018653102
-0.05736122 0.116838366 0.084805794 0.0033832826 -0.037415188 0.10118861 0.09310894 0.0038482891
0.091996685 -0.15241235 0.12532063 -0.03304661 -0.2590432 -0.15096462 -0.061520398 0.08632292
0.11158885 -0.0754703 0.10967499 0.049717464 0.180582 0.09608777 0.014606395 0.18942511
-0.15095575 -0.0017742228 -0.009008644 0.13571118 0.1037146 -0.16064759 -0.19940443 0.065800846
0.11353191 -0.17055577 0.106908284 0.15453269 0.06005302 0.020763287 0.1586553 -0.0052044564
-0.03858288 -0.2583528 0.06308555 0.17282523 0.08073968 -0.020067682 -0.14462258 -0.0056666103
-0.12325034 0.11126523 -0.041569073 -0.16410606 0.10319281 0.018428976 -0.02164593 0.088121735
0.07668068 0.05786536 -0.040890526 -0.1867537 0.157727 -0.11892083 0.12401407 -0.03089006
-0.10993514 0.089938454 0.06327895 -0.07642718 0.1026734 0.09044171 -0.27593789 0.12261872
0.10465716 0.05587181 0.038385835 0.0263888 -0.069809325 0.1070084 -0.14604151 0.0047204955
-0.0706019 -0.21939003 0.12687972 0.017873738 -0.24937354 -0.08810389 -0.051082626 0.16140972
0.13119853 0.10725327 0.17325082 0.051806368 -0.03889524 0.06558981 0.011980382 -0.05891882
0.14557865 0.11385689 0.109444164 0.12510286 -0.13512783 0.13089275 -0.056364115 0.1324939
-0.22561057 -0.10336684 -0.14942293 0.016803598 -0.07898259 -0.027554965 0.1313016 0.17280406
0.07963264 -0.2621561 -0.09673048 0.09519874 0.10974134 -0.07298437 0.084610336 0.029651187
-0.092643544 0.12418256 -0.047174647 0.08261249 0.030276917 -0.13220017 0.054529205 0.004798977
0.108239785 0.08063933 -0.13648121 -0.15335502 0.0010163961 -0.10673703 -0.014482722 0.05963369
0.0118848495 -0.12312177 0.18431036 0.04929808 0.097468205 -0.060471233 0.2046555 0.13619672
0.16925673 -0.040653095 -0.087812334 -0.0044102003 -0.025025224 0.13151388 0.081697024 -0.059914272
0.035315175 -0.022012409 0.106466234 -0.11798884 -0.0382661 -0.13900903 -0.120165974 -0.16254812
0.1493399 -0.008519885 0.10326154 -0.055217583 0.15995781 0.00018164304 -0.11591657 0.069351174
-0.09827774 0.1553457 -0.13685754 -0.043876305 0.045707297 0.16657937 -0.11127196 0.027599169
0.06855134 -0.12597154 -0.017457947 0.03391944 0.18958224 0.12324531 -0.027146745 0.19342035
00000000: 3eba c7bd abc3 9cbd 6fcb b23c 6a93 1e3d
00000010: 3050 593e 94d5 65be 819e 76bb 95f1 d73d
00000020: 58ce dabd 8359 7b3e 35a3 433e b09d 723c
00000030: 3875 773e cfcb 403d 2a20 843b 10e8 b63c
00000040: b168 46be 1675 03be f66a 13bd aeac 92bc
00000050: aa34 23be a1f1 fdbd ece4 7ebd d467 4cbb
00000060: e9ad 7d3e ae8a 0dbd 17a2 d0bd b971 d63d
00000070: 8972 67bc 6cb8 a63d b4f8 673d af42 2cbd
00000080: d3a3 093e aa5c d53d aa29 f8bc ccb8 d03b
00000090: 4325 0c3e 2e2f f33d f37e b23d cb0b 6e3d
000000a0: e722 c73c e5f1 6bbe a880 19be 09cb 8fbd
000000b0: 7bb7 d5b9 b868 9f3d c7b1 b5bc 0359 2ebd
000000c0: c9bc 1ebd fcdd 8dbd 7e45 80be f0ff 293c
000000d0: 573a dcbc d59c 39be c2c0 26be 964d 603d
000000e0: 300d f5bc ab58 1bbe 1fc9 96bd 7ac6 2b3e
000000f0: aaf4 2ebe 6f20 e0bd b5d2 0a3d 9005 b13d
00000100: 2b1d 563e 7118 40be 7d45 1dbe 8c73 113e
00000110: 5ef6 8d3e 1c03 e3bc d3b0 0b3e 64ce 983c
00000120: 99f3 6abd f448 ef3d a9ae ad3d 10ba 5d3b
00000130: ab40 19bd f93b cf3d e6af be3d 9433 7c3b
00000140: c268 bc3d fc11 1cbe 0d54 003e e25b 07bd
00000150: 4fa1 84be 7896 1abe d0fc 7bbd 12ca b03d
00000160: b288 e43d 2c90 9abd 489d e03d 8aa4 4b3d
00000170: 7dea 383e aac9 c43d a94f 6f3c a8f8 413e
00000180: 2594 1abe 0a8d e8ba fe98 13bc dff7 0a3e
00000190: 5268 d43d cd80 24be ad30 4cbe 98c2 863d
000001a0: 6b83 e83d 2ca6 2ebe bbf2 da3d d13d 1e3e
000001b0: 28fa 753d c517 aa3c 8976 223e 258a aabb
000001c0: 1509 1ebd d146 84be ff32 813d 19f9 303e
000001d0: d85a a53d fb64 a4bc f117 14be f9ae b9bb
000001e0: ad6a fcbd 06df e33d 5544 2abd 6b0b 28be
000001f0: c156 d33d 5df8 963c ce52 b1bc 2b79 b43d
00000200: c30a 9d3d 3a04 6d3d d37c 27bd 5d3c 3fbe
00000210: 3083 213e c48c f3bd 17fb fd3d 270d fdbc
00000220: ad25 e1bd a731 b83d 6598 813d da85 9cbd
00000230: 6e46 d23d 8139 b93d bb47 8dbe 861f fb3d
00000240: 7e56 d63d d7d9 643d 773a 1d3d 532d d83c
00000250: 31f8 8ebd 3827 db3d e88b 15be 63ae 9a3b
00000260: bb97 90bd c8a7 60be c2ec 013e f26b 923c
00000270: c75b 7fbe d06f b4bd 043c 51bd 9748 253e
00000280: e858 063e 9aa7 db3d aa68 313e ea32 543d
00000290: 9d50 1fbd f353 863d 5d49 443c dc54 71bd
000002a0: 9212 153e cd2d e93d 4324 e03d f71a 003e
000002b0: f35e 0abe c008 063e 0fde 66bd 7bac 073e
000002c0: 7506 67be feb1 d3bd 5302 19be b3a7 893c
000002d0: a0c1 a1bd f3ba e1bc ed73 063e 8cf3 303e
000002e0: 7016 a33d 5339 86be a11a c6bd 8ff7 c23d
000002f0: 11c0 e03d d478 95bd 2f48 ad3d 0ce7 f23c
00000300: e6bb bdbd 6d53 fe3d 343a 41bd bd30 a93d
00000310: 4c07 f83c 7b5f 07be 045a 5f3d bd40 9d3b
00000320: d2ac dd3d 3c26 a53d bbc1 0bbe 1909 1dbe
00000330: 9838 853a f298 dabd f048 6dbc 7542 743d
00000340: acb8 423c 4427 fcbd dbbb 3c3e c9ec 493d
00000350: 699d c73d afb0 77bd 3691 513e 2777 0b3e
00000360: a351 2d3e dc83 26bd f4d6 b3bd 7183 90bb
00000370: b301 cdbc 93ab 063e c550 a73d ab68 75bd
00000380: a5a6 103d 5e53 b4bc f80a da3d 22a4 f1bd
00000390: eabc 1cbd 6258 0ebe 9419 f6bd 0473 26be
000003a0: 8fec 183e fd96 0bbc c97a d33d d52b 62bd
000003b0: fbcb 233e 6f77 3e39 ab65 edbd fd07 8e3d
000003c0: d745 c9bd f112 1f3e 6224 0cbe a4b7 33bd
000003d0: 9337 3b3d c893 2a3e 8ee2 e3bd a717 e23c
000003e0: a564 8c3d affe 00be f803 8fbc 1cef 0a3d
000003f0: d921 423e 0968 fc3d da62 debc fc0f 463e

fc2.bias f4 [10]
-0.010521213 -0.16367343 0.06864097 -0.085447975 -0.0408186 -0.12258894 0.20429367 -0.07600754
0.124936946 -0.09488138
00000000: 2a61 2cbc 029a 27be a393 8c3d 59ff aebd
00000010: 6831 27bd e90f fbbd 5c32 513e d7a9 9bbd
00000020: f1de ff3d 2b51 c2bd
