checkpoints/all users/cnn2/17-12-2023_13-14-30/last_model.pth.tar (torch, 33354 bytes, 8 tensors)

conv1.weight f4 [6, 1, 5, 5]
-0.14504384 -0.12612407 0.14515759 0.06169282 0.19826329 0.12094749 0.1875948 0.07173936
0.19570754 0.12594187 -0.0024387701 0.16349521 -0.13643433 0.13877797 0.10029939 -0.052476287
-0.13339806 0.08163729 -0.011709209 0.005688768 -0.15484424 0.10122996 0.05482348 0.17418516
-0.06829691 -0.10937733 -0.11865695 -0.12659213 -0.037757978 -0.05670803 -0.06778609 0.011414724
-0.07841765 0.1561098 0.022598002 -0.17740427 0.09450088 -0.09768675 0.04210967 -0.11748355
-0.0014907976 0.10965446 -0.16157305 0.14054506 -0.19339131 -0.18677591 0.12099607 -0.0032289822
-0.14269675 -0.010451397 0.017100114 0.07489318 -0.16080001 0.080486216 0.1140479 -0.026538158
0.02056483 -0.18821384 -0.032788955 0.16655736 -0.10254966 0.18504147 -0.10352428 -0.037205964
0.17873284 -0.012654948 0.006211956 -0.03370396 0.1251059 0.1378106 0.038391303 -0.17015453
-0.014238569 -0.05952246 -0.07904699 -0.13451144 -0.17542993 -0.08079862 0.09117457 0.0897514
-0.08258593 -0.027797582 -0.18791898 -0.07514753 -0.05405221 0.08985195 -0.17983171 0.124442935
0.008705605 0.08396488 -0.10773305 -0.03566146 -0.059346948 -0.18989272 -0.1683705 0.009366446
-0.034198772 -0.086936735 0.12417041 0.17938842 0.109085046 -0.19420199 -0.10548332 0.16611937
0.0107651055 -0.097858936 0.15976016 -0.19128889 0.049975775 -0.051656093 0.15504205 -0.109092236
-0.018014973 0.069914445 -0.1398932 0.116158344 0.1431454 -0.13325042 -0.057311215 0.1911199
0.08886897 -0.19378714 -0.08625184 -0.06533094 -0.07163646 -0.13721421 0.067195386 -0.022804245
-0.13903704 0.0939599 -0.0013631688 0.0022200425 -0.12955196 0.02241967 -0.13669385 0.03221544
-0.028152397 0.18294683 0.11450985 0.115827456 0.13159332 0.14974514 0.03102436 0.1957236
-0.03753317 -0.097117685 0.08736311 0.047372255 -0.10157133 -0.1398635
00000000: 5f86 14be ab26 01be 31a4 143e 9cb1 7c3d
00000010: 8805 4b3e 51b3 f73d da18 403e 16ec 923d
00000020: 8f67 483e e8f6 003e c6d3 1fbb 4a6b 273e
00000030: 71b5 0bbe d01b 0e3e c469 cd3d 60f1 56bd
00000040: 8099 08be 7431 a73d fbd7 3fbc d868 ba3b
00000050: 7d8f 1ebe a751 cf3d 968e 603d 985d 323e
00000060: 40df 8bbd 3901 e0bd 6a02 f3bd 5ea1 01be
00000070: 1ca8 1abd ae46 68bd 6fd3 8abd d304 3b3c
00000080: 6f99 a0bd 3fdb 1f3e 721f b93c 77a9 35be
00000090: ad89 c13d fe0f c8bd 307b 2c3d 379b f0bd
000000a0: de66 c3ba 8492 e03d 6873 25be 0beb 0f3e
000000b0: 5f08 46be 2f42 3fbe cacc f73d 559d 53bb
000000c0: 191f 12be 563c 2bbc 8a15 8c3c 9861 993d
000000d0: c2a8 24be f5d5 a43d f291 e93d 8d66 d9bc
000000e0: 9377 a83c 21bb 40be b64d 06bd 038e 2a3e
000000f0: 8e05 d2bd 837b 3d3e 8a04 d4bd 4865 18bd
00000100: be05 373e b356 4fbc aa8d cb3b 2a0d 0abd
00000110: c31b 003e 391e 0d3e 3340 1d3d fd3c 2ebe
00000120: e348 69bc d3cd 73bd 63e3 a1bd 5ebd 09be
00000130: e7a3 33be bf79 a5bd bcb9 ba3d 95cf b73d
00000140: d022 a9bd c1b7 e3bc d56d 40be f3e6 99bd
00000150: da65 5dbd 4d04 b83d ce25 38be f0db fe3d
00000160: f4a1 0e3c c7f5 ab3d 25a3 dcbd c011 12bd
00000170: c915 73bd 3d73 42be 5169 2cbe b975 193c
00000180: 0314 0cbd e30b b2bd 0e4d fe3d 99b1 373e
00000190: fb67 df3d e3dc 46be a407 d8bd 321b 2a3e
000001a0: 2060 303c 446a c8bd 2b98 233e 3ce1 43be
000001b0: 66b3 4c3d 5795 53bd 58c3 1e3e c06b dfbd
000001c0: 2394 93bc 4e2f 8f3d 2a40 0fbe 6de4 ed3d
000001d0: b594 123e cc72 08be 2abf 6abd efb4 433e
000001e0: ef00 b63d 2370 46be cea4 b0bd 3acc 85bd
000001f0: 23b6 92bd e281 0cbe bc9d 893d f8cf babc
00000200: ba5f 0ebe 0c6e c03d 5bac b2ba 227e 113b
00000210: 45a9 04be 75a9 b73c 79f9 0bbe 56f4 033d
00000220: db9f e6bc 6a56 3b3e 2484 ea3d f236 ed3d
00000230: 66c0 063e ca56 193e cc26 fe3c c46b 483e
00000240: 62bc 19bd a3e5 c6bd 6eeb b23d 6909 423d
00000250: a104 d0bd 6138 0fbe

conv1.bias f4 [6]
0.06560494 0.026848156 0.18881053 0.086742155 0.16817056 -0.102244005
00000000: e25b 863d aaf0 db3c 8c57 413e dfa5 b13d
00000010: e734 2c3e 4e65 d1bd

conv2.weight f4 [6, 6, 5, 5]
0.018040797 -0.06417262 -0.016783634 -0.041723214 -0.015408994 0.047987085 0.050767154 0.04453892
0.013915481 -0.0005276967 -0.029034577 -0.04469396 -0.013521311 -0.018345952 0.043043673 -0.067195244
-0.0016858556 0.06661214 -0.03551256 0.022410564 -0.025061827 0.041283116 -0.07597457 0.06102263
0.024019076 -0.037310872 0.047451477 -0.06553484 -0.07816177 0.04239759 -0.0032359262 -0.07737459
-0.013192167 0.007986714 -0.068151206 0.077899076 -0.074418515 0.025800774 -0.06759496 0.008732252
0.005870094 0.08096204 0.015562779 -0.02058153 0.025289148 0.052430652 -0.019751888 0.010789973
-0.034086317 0.049061965 -0.011211007 0.06790938 -0.044286184 0.053307816 -0.03264399 -0.03419456
0.0064896205 0.014740489 -0.0030235052 -0.012877778 0.061511822 -0.069683716 -0.079307646 -0.017239515
0.057007037 0.0750609 -0.07597147 -0.05553585 -0.044161756 0.058229093 -0.03283806 0.06589807
-0.026321664 0.07547472 0.05115556 -0.081322744 0.015342114 -0.052065272 -0.05519662 -0.022511562
0.079218104 -0.07269513 -0.054299124 0.0008942132 -0.005849386 -0.027946113 -0.03854829 -0.036606655
-0.07236402 0.013680046 -0.059695452 -0.03163534 0.030458381 0.04328666 0.05801816 0.05363942
-0.05338567 0.022097856 -0.03904858 -0.043025173 -0.035139497 0.021348722 0.05472267 0.04435962
-0.0294015 0.0047826045 -0.03486278 0.07466993 0.027844623 0.057699434 -0.057293274 -0.056443695
0.080563106 0.032712527 -0.03790649 0.063535705 -0.03175845 0.009941497 0.06900675 -0.028273657
0.05447442 -0.07519984 -0.0025671097 -0.042179756 0.03822662 0.022950519 0.027194768 -0.030951716
0.052501466 -0.015299021 0.08211692 -0.061949752 0.032087255 0.04478822 0.05060595 -0.07058965
-0.04390467 0.044500753 -0.08154282 -0.007914249 0.028605117 0.034797546 -0.021888457 -0.07037416
0.070971794 0.01503811 -0.0663881 0.0223132 -0.030477732 -0.05252774 -0.009250237 0.07433303
0.008667908 -0.041924607 -0.056035064 0.06519678 -0.041121542 -0.0010081305 -0.0608385 0.041167572
-0.04068839 -0.061546825 0.07255081 0.03748381 0.0024467062 -0.0703693 -0.00042568342 -0.03709828
-0.021036383 0.045538153 -0.013369387 0.015649555 0.06402383 -0.005954742 0.023256544 -0.008997042
0.019576252 -0.013842199 0.031420853 -0.020131946 -0.029628754 0.06953548 0.008125111 0.067615055
0.07322436 -0.005319615 0.06482633 0.033880875 0.071986936 0.080718294 0.014500739 0.025753377
-0.008794502 0.079039164 0.03301465 -0.05183901 -0.0050077685 -0.0029851976 0.046994664 0.03536248
0.011457219 0.00044113415 -0.06356135 0.07326706 -0.04417688 -0.010182324 -0.059312608 -0.03722538
-0.043794304 -0.04234639 -0.056554273 -0.05926372 0.018089829 -0.02045169 0.07012154 0.0663494
-0.045123618 -0.031210404 0.004285359 0.013989941 -0.021482263 0.059247527 0.015177834 0.0007142127
0.024372408 -0.03125394 0.05731917 -0.03740238 -0.026994595 -0.007279446 0.03878173 0.0043959995
0.018856999 -0.053918373 0.017202195 0.07279928 0.07236252 -0.05071744 -0.06939591 0.060693204
0.06307543 -0.04526243 -0.070848994 0.023256669 -0.00014875799 -0.051062066 0.07613849 -0.052078925
0.057384346 -0.016331954 -0.049064763 0.051575698 -0.003812107 -0.055562597 -0.045456726 0.010725854
00000000: 4bca 933c ef6c 83bd d57d 89bc f6e5 2abd
00000010: 0176 7cbc 1b8e 443d 38f1 4f3d 716e 363d
00000020: c2fd 633c 2055 0aba ecd9 edbc 0411 37bd
00000030: 7d88 5dbc 404a 96bc 904e 303d a99d 89bd
00000040: edf7 dcba f26b 883d 9e75 11bd 5c96 b73c
00000050: 764e cdbc 7c18 293d 8e98 9bbd def2 793d
00000060: a7c3 c43c 49d3 18bd 7b5c 423d 2137 86bd
00000070: 4713 a0bd 18a9 2d3d d511 54bb 9276 9ebd
00000080: f523 58bc b5da 023c dc92 8bbd 8d89 9f3d
00000090: bc68 98bd 255c d33c 3a6f 8abd b811 0f3c
000000a0: eb59 c03b 6dcf a53d 07fb 7e3c 999a a8bc
000000b0: 302b cf3c 86c1 563d b6ce a1bc 6dc8 303c
000000c0: 189e 0bbd 33f5 483d 5fae 37bc 1314 8b3d
000000d0: 6e65 35bd 4c59 5a3d b4b5 05bd 980f 0cbd
000000e0: e2a6 d43b 1882 713c 0026 46bb 51fd 52bc
000000f0: d2f3 7b3d 56b6 8ebd 0c6c a2bd e239 8dbc
00000100: 3680 693d 87b9 993d ee96 9bbd 8f79 63bd
00000110: f5e2 34bd a181 6e3d 3481 06bd 91f5 863d
00000120: 88a0 d7bc 7d92 9a3d 7e88 513d 8a8c a6bd
00000130: 7d5d 7b3c 6542 55bd da15 62bd 2b6a b8bc
00000140: 1a3d a23d 2fe1 94bd c268 5ebd a269 6a3a
00000150: 35ac bfbb 3fef e4bc d0e4 1dbd dcf0 15bd
00000160: 9633 94bd 4622 603c 3883 74bd 0f94 01bd
00000170: db83 f93c 5a4d 313d 73a4 6d3d 02b5 5b3d
00000180: efaa 5abd 9006 b53c 67f1 1fbd 2a3b 30bd
00000190: 6fee 0fbd 84e3 ae3c e124 603d 6fb2 353d
000001a0: 6adb f0bc 65b7 9c3b 46cc 0ebd 8cec 983d
000001b0: 681a e43c 3e56 6c3d 5aac 6abd 8131 67bd
000001c0: 45fe a43d 92fd 053d d643 1bbd 021f 823d
000001d0: 2615 02bd a9e1 223c 6953 8d3d 289e e7bc
000001e0: 9220 5f3d 6002 9abd f43c 28bb aec4 2cbd
000001f0: 8493 1c3d ba02 bc3c 90c7 de3c 748e fdbc
00000200: c70b 573d bfa8 7abc ea2c a83d 06bf 7dbd
00000210: ed6d 033d da73 373d 2f48 4f3d 4e91 90bd
00000220: 62d5 33bd 6c46 363d ecff a6bd c4aa 01bc
00000230: 4755 ea3c df87 0e3d 6c4f b3bc 5420 90bd
00000240: a959 913d 6862 763c 7cf6 87bd 2cca b63c
00000250: 70ac f9bc 5427 57bd 4e8e 17bc ea3b 983d
00000260: d703 0e3c 23b9 2bbd 0685 65bd e485 853d
00000270: 106f 28bd 3f23 84ba ca31 79bd 549f 283d
00000280: dfa8 26bd 8618 7cbd 8595 943d a088 193d
00000290: eb58 203b c81d 90bd 432e dfb9 5ef4 17bd
000002a0: 7e54 acbc 3786 3a3d 460b 5bbc 7f33 803c
000002b0: ed1e 833d ff1f c3bb 8284 be3c 5468 13bc
000002c0: 605e a03c 64ca 62bc 27b3 003d c0eb a4bc
000002d0: 00b8 f2bc 9e68 8e3d 301f 053c c379 8a3d
000002e0: a7f6 953d 2a50 aebb abc3 843d acc6 0a3d
000002f0: e36d 933d a24f a53d 8294 6d3c bff8 d23c
00000300: d116 10bc 49df a13d 5f3a 073d 2455 54bd
00000310: 3518 a4bb 4ea3 43bb 7a7d 403d 3fd8 103d
00000320: 0fb7 3b3c 0648 e739 742c 82bd 0a0d 963d
00000330: d1f2 34bd c3d3 26bc c7f1 72bd a479 18bd
00000340: a861 33bd 6973 2dbd 74a5 67bd 84be 72bd
00000350: 1f31 943c 4d8a a7bc e29b 8f3d 32e2 873d
00000360: 8bd3 38bd f6ac ffbc 326c 8c3b 1136 653c
00000370: 92fb afbc 89ad 723d 73ac 783c 013a 3b3a
00000380: a5a8 c73c 2204 00bd 82c7 6a3d 3d33 19bd
00000390: c523 ddbc 6b88 eebb 97d9 1e3d 510c 903b
000003a0: fe79 9a3c 83d9 5cbd 9eeb 8c3c ca17 953d
000003b0: cd32 943d 17bd 4fbd 711f 8ebd 7099 783d
000003c0: b12d 813d 1965 39bd 4719 91bd c584 be3c
000003d0: ebfb 1bb9 7526 51bd 7fee 9b3d b650 55bd
000003e0: d90b 6b3d 97ca 85bc 22f8 48bd 0a41 533d
000003f0: 8bd4 79bb 9b95 63bd d530 3abd 7ebb 2f3c

conv2.bias f4 [6]
-0.0021923617 -0.00080623606 0.07589879 0.023225645 -0.05750461 0.02031926
00000000: baad 0fbb 9659 53ba d370 9b3d b543 be3c
00000010: f489 6bbd 9474 a63c

fc1.weight f4 [50, 96]
-0.026693052 -0.00978014 -0.035115924 -0.039410416 0.023975732 -0.010444063 -0.0036056926 -0.06127191
-0.06731273 0.06295773 -0.04742638 -0.016008314 0.09569065 -0.06974208 -0.014712932 0.045606554
-0.043776676 0.07378915 0.0769757 -0.057899345 0.03639523 -0.063337 -0.05909371 0.09023445
0.016576555 -0.0107546905 -0.009126092 -0.023058372 -0.039372925 -0.09267163 -0.08214051 0.094315134
0.01567284 0.020659365 -0.059914675 0.004590854 -0.028371863 0.0041729873 -0.09550823 0.028697649
0.045490414 -0.098188475 -0.074464515 -0.072654605 0.026376959 0.050180756 0.0033207254 -0.05365109
-0.09336037 -0.026211986 -0.020297816 0.070254095 -0.090133734 0.044072833 -0.065225065 -0.058867823
0.07372455 0.038040496 -0.042023107 0.011515153 -0.008970561 -0.053255055 0.080369785 -0.04091659
0.04015685 0.046470184 -0.058753252 0.037351113 -0.07158381 -0.035514556 -0.0019510355 -0.03806921
-0.012285028 0.020293767 0.08785531 -0.009242523 -0.09943177 0.071615264 -0.0006384027 -0.05849968
0.0734733 -0.060513534 -0.031247929 -0.05401952 0.03862203 -0.0041540437 0.0120177455 -0.04596187
0.09242943 0.036529213 -0.06222015 0.0583109 0.012279264 -0.0885276 0.044850476 -0.073624305
-0.09353249 -0.04325561 -0.096249774 -0.0985361 0.002304527 -0.055313326 0.01913272 -0.07900401
-0.044816088 0.030712016 -0.056578327 -0.03433181 -0.010846705 -0.05637429 0.029215207 0.101256154
-0.025480336 0.10163213 0.069036126 -0.028067352 -0.0978896 -0.05654217 -0.030529823 0.055998642
0.046885625 -0.010868048 0.076218575 0.0807269 0.0931166 0.07350702 -0.016872333 0.0039436664
0.04524073 0.09876517 0.09373512 0.060852204 0.018219793 -0.06750859 -0.042897213 0.06486657
-0.009811525 -0.07697938 0.037120275 -0.00058502384 0.0483434 -0.030077897 0.09032218 0.03898775
0.07731824 0.055993147 0.083315775 -0.07127405 -0.020165315 0.03481365 0.087779246 -0.06295514
0.013287215 -0.0020665997 -0.087393835 -0.020852793 0.011190643 0.037472226 -0.08243764 -0.064824685
0.0045839865 0.08119494 0.08756906 0.07173341 0.01887399 0.06398724 0.0015078776 -0.04632097
-0.00885165 0.011851304 -0.09536026 -0.021473374 -0.07705727 0.005061634 0.04096893 0.09716454
-0.07308947 -0.05437055 0.0994273 0.060278088 0.09502287 0.069799475 -0.060573205 -0.03238498
-0.02065899 -0.086645246 0.089246586 0.0068094395 -0.07720808 -0.07305773 -0.021652201 0.0731204
0.0043244357 0.079375975 -0.01955005 0.03688688 0.023620898 -0.050866116 -0.003344633 -0.08312553
-0.08326684 -0.0725631 -0.068242736 -0.078866586 -0.021002654 0.10149963 -0.035074595 -0.0757743
-0.043572485 -0.085335016 0.019978348 -0.0014486881 -0.04141245 0.102235235 0.03875444 0.08386573
0.031416383 -0.09297531 0.08757611 -0.008702464 0.027380556 -0.06545183 0.10058145 -0.07225924
0.03834316 0.07132436 0.09937972 -0.07380113 -0.099766225 -0.05763773 -0.07380639 0.037038524
-0.007722265 -0.07059877 -0.10035144 -0.028528828 -0.0366783 -0.025453832 0.054073572 -0.05436648
0.042780474 0.013641709 0.028238567 0.058614284 0.034811348 -0.0795668 0.010358028 -0.0049083345
-0.09874592 -0.08064299 0.0014860678 -0.02212384 0.090230055 -0.028114485 -0.099963985 0.06329908
00000000: 63ab dabc e13c 20bc b7d5 0fbd d16c 21bd
00000010: c168 c43c 931d 2bbc 7c4d 6cbb 41f8 7abd
00000020: 42db 89bd fbef 803d 2a42 42bd de23 83bc
00000030: 76f9 c33d f0d4 8ebd 820e 71bc f0cd 3a3d
00000040: 2c4f 33bd c41e 973d 70a5 9d3d dd27 6dbd
00000050: 2a13 153d d4b6 81bd 3f0c 72bd d7cc b83d
00000060: 8ecb 873c 7134 30bc 9b85 15bc e9e4 bcbc
00000070: 8145 21bd a0ca bdbd 4939 a8bd 4b28 c13d
00000080: 5464 803c d43d a93c 1769 75bd e06e 963b
00000090: 1c6c e8bc 8ebd 883b d299 c3bd 5517 eb3c
000000a0: 2854 3a3d 0a17 c9bd da80 98bd f0cb 94bd
000000b0: 7e14 d83c 568a 4d3d 87a0 593b 3fc1 5bbd
000000c0: b933 bfbd 85ba d6bc 9b47 a6bc 61e1 8f3d
000000d0: 0998 b8bd b785 343d b894 85bd 631f 71bd
000000e0: e6fc 963d 5ad0 1b3d 6c20 2cbd 0daa 3c3c
000000f0: 43f9 12bc f921 5abd ea98 a43d 2798 27bd
00000100: 827b 243d 8557 3e3d 40a7 70bd 7bfd 183d
00000110: 889a 92bd b677 11bd e3b9 ffba 76ee 1bbd
00000120: 2447 49bc 1d3f a63c 7ced b33d f46d 17bc
00000130: e2a2 cbbd 06ab 923d 7b5a 27ba 5c9d 6fbd
00000140: 2b79 963d 0add 77bd a8fb ffbc 9243 5dbd
00000150: 2232 1e3d a51e 88bb 14e6 443c 8442 3cbd
00000160: a44b bd3d a89f 153d 8eda 7ebd 69d7 6e3d
00000170: f72e 493c f54d b5bd 22b5 373d 57c8 96bd
00000180: f68d bfbd cb2c 31bd 9a1e c5bd 4bcd c9bd
00000190: 8c07 173b 3a90 62bd 39bc 9c3c dbcc a1bd
000001a0: 1391 37bd c497 fb3c adbe 67bd 839f 0cbd
000001b0: 61b6 31bc bae8 66bd bb54 ef3c 635f cf3d
000001c0: 23bc d0bc 8224 d03d d062 8d3d 81ed e5bc
000001d0: 587a c8bd c398 67bd ae19 fabc d55e 653d
000001e0: 240b 403d e60f 32bc 7c18 9c3d 2554 a53d
000001f0: eab3 be3d d98a 963d d937 8abc df39 813b
00000200: 584e 393d 6545 ca3d 33f8 bf3d 2940 793d
00000210: ad41 953c f241 8abd fdb4 2fbd c4d8 843d
00000220: 85c0 20bc 5da7 9dbd 6e0b 183d 495c 19ba
00000230: bb03 463d ec65 f6bc d6fa b83d 9eb1 1f3d
00000240: 0759 9e3d 1259 653d 76a1 aa3d 21f8 91bd
00000250: bb31 a5bc c298 0e3d 9bc5 b33d a0ee 80bd
00000260: 9eb2 593c ca6f 07bb 8afb b2bd 7ad3 aabc
00000270: f558 373c 7a7c 193d 11d5 a8bd cec2 84bd
00000280: 4435 963b 8849 a63d 6857 b33d f7e8 923d
00000290: a09d 9a3c be0b 833d faa3 c53a 0fbb 3dbd
000002a0: 8306 11bc f92b 423c 3d4c c3bd eee8 afbc
000002b0: 34d0 9dbd 10dc a53b 09cf 273d 34fe c63d
000002c0: efaf 95bd a7b3 5ebd 8aa0 cb3d 28e6 763d
000002d0: 5a9b c23d 07f3 8e3d 9c1b 78bd 1da6 04bd
000002e0: 0b3d a9bc 1073 b1bd eac6 b63d b821 df3b
000002f0: 451f 9ebd 4b9f 95bd f55f b1bc 26c0 953d
00000300: ffb3 8d3b df8f a23d 6d27 a0bc b216 173d
00000310: 9d80 c13c fd58 50bd a131 5bbb b83d aabd
00000320: ce87 aabd f69b 94bd d9c2 8bbd ce84 a1bd
00000330: c20d acbc 0adf cf3d 61aa 0fbd 8e2f 9bbd
00000340: 1079 32bd 20c4 aebd a2a9 a33c e8e1 bdba
00000350: 1aa0 29bd b560 d13d fabc 1e3d ccc1 ab3d
00000360: 77ae 003d d769 bebd 1b5b b33d c894 0ebc
00000370: 304d e03c 9c0b 86bd a6fd cd3d a7fc 93bd
00000380: b80d 1d3d 8212 923d 9887 cb3d 0c25 97bd
00000390: 3c52 ccbd 8a15 6cbd ce27 97bd b5b5 173d
000003a0: 0e0b fdbb 1796 90bd 0e85 cdbd 4ab5 e9bc
000003b0: fc3b 16bd 8e84 d0bc 407c 5d3d 63af 5ebd
000003c0: 943a 2f3d 7a81 5f3c 9154 e73c 8815 703d
000003d0: 5896 0e3d ebf3 a2bd b8b4 293c 18d6 a0bb
000003e0: 4d3b cabd 2728 a5bd 29c8 c23a 0e3d b5bc
000003f0: 89ca b83d 5950 e6bc ebb9 ccbd f3a2 813d

fc1.bias f4 [50]
0.026254924 0.02632109 0.07253478 -0.00584622 0.029651681 -0.02442457 0.037383895 0.025997922
0.017425796 0.03785053 -0.030762402 -0.08393114 -0.033682372 0.0006743942 0.06353205 -0.03633262
-0.052736543 -0.06428566 0.073941775 0.08488027 0.02111698 -0.08073763 -0.041781258 -0.08821052
0.05241611 -0.08062378 0.07749688 0.06932772 -0.046304796 0.011093441 0.0057914597 0.07333431
-0.0070068305 0.043133687 -0.013351132 0.042724837 0.009795341 -0.08832406 -0.07067315 0.051876806
-0.048086926 -0.061835203 0.061295338 -0.07568297 0.06529151 0.077960595 -0.08407769 0.084467456
0.096474245 -0.05484814
00000000: 9114 d73c 549f d73c 1d8d 943d a691 bfbb
00000010: 15e8 f23c 0916 c8bc db1f 193d 98f9 d43c
00000020: 8bc0 8e3c 2809 1b3d 6f01 fcbc 17e4 abbd
00000030: 87f6 09bd d4c9 303a 171d 823d 83d1 14bd
00000040: 4602 58bd 33a8 83bd c96e 973d b5d5 ad3d
00000050: 84fd ac3c c559 a5bd d322 2bbd b8a7 b4bd
00000060: 46b2 563d 151e a5bd afb6 9e3d b1fb 8d3d
00000070: 19aa 3dbd 44c1 353c 49c6 bd3b 4c30 963d
00000080: 8e99 e5bb f3ac 303d b5be 5abc 3d00 2f3d
00000090: a37c 203c 3fe3 b4bd 16bd 90bd c67c 543d
000000a0: ccf6 44bd e946 7dbd d210 7b3d acff 9abd
000000b0: 8eb7 853d cea9 9f3d ed30 acbd 46fd ac3d
000000c0: 4a94 c53d 71a8 60bd

fc2.weight f4 [10, 50]
-0.0922828 -0.0455468 0.032720007 -0.14102864 -0.027297439 -0.04851001 0.06988725 -0.009137534
-0.05890085 -0.058257516 0.016478496 -0.07086833 -0.070246175 -0.0937368 0.00026368414 -0.12767074
0.100415684 0.004409693 0.049196456 0.032153912 -0.0116591 -0.0354319 0.12849653 -0.025341451
0.011020538 0.11229297 0.09007285 0.12792525 0.100468025 0.11579633 0.076577455 -0.06252112
0.14111422 0.11367753 0.07043022 0.07685882 -0.11760246 -0.047627334 -0.02464375 0.037613243
0.14179392 -0.07693037 -0.031290688 -0.14138304 0.097956754 0.060964953 -0.0642678 -0.1298938
-0.08577725 0.050151177 0.14055505 -0.10496643 -0.13622655 -0.093409345 0.10795917 -0.12925713
0.12610623 0.07296747 0.10161269 -0.0035242646 0.041160055 -0.035003904 0.05415169 0.0891468
0.04759444 0.0619724 -0.006519596 0.04921256 0.030639745 -0.03153254 -0.0035420076 -0.016485093
-0.09817092 0.0331061 0.006909719 0.030988116 0.0037245837 0.13207836 0.023519462 -0.043478638
-0.033719573 -0.027499907 0.114391826 -0.043245975 0.0062423814 -0.08310517 -0.12413867 -0.10539891
-0.04227312 -0.122219734 0.1208828 -0.027768362 0.05752661 -0.05390164 0.06569252 0.12600769
-0.030449145 0.13549073 -0.111059 0.0056615127 0.012137278 -0.05379264 0.04163353 -0.08208153
-0.02239661 0.13340352 -0.047447577 0.08871257 0.07931051 -0.010169674 -0.10612379 -0.04475658
-0.11318044 0.020933015 0.056908213 -0.09799794 -0.120986484 -0.0008769353 0.08633521 -0.115059175
-0.056776993 -0.015852125 -0.08288675 0.11466309 0.021197403 -0.035673283 0.12062498 -0.07003483
0.113806926 -0.0005793611 -0.05501201 0.09254742 0.067817785 -0.044926867 -0.109124266 0.06428372
-0.039646387 -0.01608563 0.110055044 0.015592792 -0.10968469 -0.052611787 0.10658357 0.076727405
-0.09201494 -0.009033378 -0.06432392 0.1218813 0.013557706 0.015149543 -0.010813693 0.049112916
-0.05931634 -0.11059324 0.1391621 0.014884833 0.035007894 0.018154275 0.050999727 -0.053226054
0.105194785 0.046747174 0.114875056 0.076995514 -0.0056762937 0.07414039 -0.12148504 -0.014752988
-0.088931605 -0.12501764 0.10007943 0.05287315 0.112262726 0.06750254 -0.0020243751 -0.07747801
0.0037912792 0.038417883 -0.044792313 -0.029822258 -0.11091319 -0.021511853 0.0053464626 -0.012393221
-0.099717125 0.11422765 -0.12867938 0.042628434 -0.07525153 -0.063725784 -0.047800843 -0.037067026
-0.05206252 -0.10626885 -0.12868388 0.02753003 0.030011833 0.0783432 0.07735285 0.009932793
-0.0653231 -0.14230368 0.055222966 -0.03536359 0.09610308 0.023389976 0.053709734 -0.10352158
0.01829864 -0.11357196 -0.13235559 0.006708581 -0.119886994 0.07886451 -0.1305945 0.0036785938
0.032618653 -0.016319185 -0.074907035 0.029311815 -0.118135214 -0.04197496 0.14097774 0.06685275
0.065795586 -0.0780543 0.0683453 -0.109772876 -0.12883419 0.066382155 -0.050018016 -0.07695986
-0.097452514 -0.013305444 0.01838347 -0.10325682 -0.050988123 -0.002819787 0.023495674 -0.056566976
-0.10876864 0.0505377 -0.03243611 -0.06852202 -0.090686314 -0.07867711 -0.09452677 -0.12664679
-0.049758032 -0.017791284 -0.072503686 0.021671511 -0.012291125 0.030000446 0.059163887 0.05298419
00000000: c4fe bcbd 488f 3abd 6a05 063d d069 10be
00000010: e19e dfbc 6fb2 46bd 0c21 8f3d 98b5 15bc
00000020: 0542 71bd 6f9f 6ebd e9fd 863c 6a23 91bd
00000030: 3add 8fbd 14f9 bfbd 163f 8a39 1ebc 02be
00000040: bda6 cd3d 307f 903b 3982 493d d2b3 033d
00000050: cf05 3fbc 0a21 11bd 9894 033e e098 cfbc
00000060: 7d8f 343c dbf9 e53d 1d78 b83d d6fe 023e
00000070: 2ec2 cd3d a026 ed3d a4d4 9c3d 130b 80bd
00000080: 3f80 103e c4cf e83d b83d 903d 2868 9d3d
00000090: 8fd9 f0bd e114 43bd b1e1 c9bc 5810 1a3d
000000a0: 6d32 113e ab8d 9dbd aa2a 00bd b7c6 10be
000000b0: 8d9d c83d 63b6 793d d69e 83bd e102 05be
000000c0: fcab afbd 526b 4d3d aaed 0f3e a4f8 d6bd
000000d0: f97e 0bbe 664d bfbd b319 dd3d fb5b 04be
000000e0: fe21 013e f86f 953d 501a d03d 59f7 66bb
000000f0: 7297 283d 4160 0fbd 2ace 5d3d 9992 b63d
00000100: 63f2 423d c5d6 7d3d 56a2 d5bb 1c93 493d
00000110: 3400 fb3c 4428 01bd 0721 68bb bf0b 87bc
00000120: d60d c9bd 439a 073d ed6a e23b cada fd3c
00000130: 2518 743b 8d3f 073e e3ab c03c a816 32bd
00000140: 891d 0abd 7c47 e1bc 4346 ea3d b122 31bd
00000150: e48c cc3b 0b33 aabd 6a3c febd 62db d7bd
00000160: 9426 2dbd 574e fabd 6791 f73d 7a7a e3bc
00000170: 06a1 6b3d f7c7 5cbd cd89 863d 2908 013e
00000180: 7c70 f9bc 15be 0a3e e772 e3bd 3684 b93b
00000190: 6fdb 463c ac55 5cbd ec87 2a3d 5c1a a8bd
000001a0: 1879 b7bc ef9a 083e 6458 42bd f0ae b53d
000001b0: 8c6d a23d b49e 26bc 6e57 d9bd ad52 37bd
000001c0: 26cb e7bd b77b ab3c 9618 693d 25b3 c8bd
000001d0: c3c7 f7bd 22e2 65ba 84d0 b03d 25a4 ebbd
000001e0: fe8e 68bd 51dc 81bc 87c0 a9bd 7bd4 ea3d
000001f0: 2da6 ad3c 261e 12bd 3b0a f73d 6c6e 8fbd
00000200: 9b13 e93d 44e0 17ba 4654 61bd 8089 bd3d
00000210: 0de4 8a3d 3c05 38bd 8b7c dfbd 2fa7 833d
00000220: 4064 22bd 03c6 83bc 8a64 e13d e978 7f3c
00000230: 5ea2 e0bd 757f 57bd 7d48 da3d 4223 9d3d
00000240: 5472 bcbd bc00 14bc 42bc 83bd e79c f93d
00000250: 2421 5e3c ca35 783c ea2b 31bc a02a 493d
00000260: b1f5 72bd b57e e2bd 8280 0e3e 84df 733c
00000270: 7064 0f3d 46b8 943c 17e5 503d 9003 5abd
00000280: 5d70 d73d f779 3f3d 9d43 eb3d d3af 9d3d
00000290: 3400 babb ebd6 973d 26cd f8bd 84b6 71bc
000002a0: c621 b6bd a004 00be 72f6 cc3d 8491 583d
000002b0: 00ea e53d c63e 8a3d 61ab 04bb caac 9ebd
000002c0: 1c77 783b 125c 1d3d 2578 37bd cf4d f4bc
000002d0: 7426 e3bd a039 b0bc 6131 af3b f00c 4bbc
000002e0: 7e38 ccbd 30f0 e93d 87c4 03be 279b 2e3d
000002f0: 791d 9abd aa82 82bd d1ca 43bd 98d3 17bd
00000300: 823f 55bd 7ca3 d9bd b5c5 03be a886 e13c
00000310: 60db f53c 6672 a03d 2c6b 9e3d 27bd 223c
00000320: 1ec8 85bd 0eb8 11be 7a31 623d 69d9 10bd
00000330: b1d1 c43d 569c bf3c bdfe 5b3d 1f03 d4bd
00000340: 08e7 953c 6a98 e8bd 3988 07be a8d3 db3b
00000350: 5087 f5bd b783 a13d 91ba 05be 9014 713b
00000360: 239b 053d d0af 85bc dc68 99bd 551f f03c
00000370: e0f0 f1bd f0ed 2bbd 785c 103e 18ea 883d
00000380: d6bf 863d efda 9fbd 9ff8 8b3d 9ad0 e0bd
00000390: 1ced 03be 5ef3 873d b1df 4cbd 229d 9dbd
000003a0: 2f95 c7bd 14ff 59bc ee98 963c 5078 d3bd
000003b0: ecd8 50bd 2dcc 38bb 007a c03c c6b2 67bd
000003c0: 18c2 debd 9f00 4f3d badb 04bd 4655 8cbd
000003d0: bfb9 b9bd 7721 a1bd 4097 c1bd b2af 01be
000003e0: 14cf 4bbd 07bf 91bc d07c 94bd 7488 b13c
000003f0: b760 49bc 7fc3 f53c d555 723d f305 593d

fc2.bias f4 [10]
-0.060276758 0.07521232 -0.06606607 0.045569457 0.019147754 -0.106327645 0.09983465 -0.021608924
0.066485904 0.108088754
00000000: c3e4 76bd eb08 9a3d a64d 87bd 0aa7 3a3d
00000010: c0db 9c3c 4fc2 d9bd 1c76 cc3d 3305 b1bc
00000020: c329 883d a35d dd3d
