checkpoints/all users/cnn2/17-12-2023_15-06-41/best_model.pth.tar (torch, 29594 bytes, 8 tensors)

conv1.weight f4 [6, 1, 5, 5]
00000000: d616 c93c 91c4 25be 0fb9 abbc a78e 43be
00000010: 5ca6 3bbe 2d9c 2fbe 19e9 04be ba1b d5bd
00000020: 4fab ea3d 1b59 143e 0c94 793c 61dd 7fbd
00000030: 3e86 4bba ba17 69bd ab22 a73d de97 9b3c
00000040: 5069 1a3d c2cb 4c3d 75e6 cbbd 66e0 5fbc
00000050: ffd4 f2bd 46fa 163e acc8 c4bd 1983 6f3d
00000060: 05fb 0abd c708 bcbd ddda cdbc 42d8 dbbd
00000070: 1cdc 313c 44ae cc3d c45c 563d 5c56 2cbe
00000080: 272a 9bbd 5248 1c3e 7d68 f83d a388 f23d
00000090: 0e73 c0bd 2776 a83c de6c 35be 07c9 1f3e
000000a0: faf6 e5bd ae62 3f3c 2456 eebd fe39 2b3e
000000b0: de27 22be c19d ed3d 809a 3abd a2ef 40be
000000c0: cd40 5bbd ef52 543d 7b76 14be 43e1 0c3e
000000d0: 3181 933d a902 b5bd 06fc 0cbe 71f6 473e
000000e0: 2805 10be 800e 893d 29a9 48be 8441 6d3d
000000f0: 68e9 623b 9be3 a63c 0dfd 3b3e 79af 98bd
00000100: 1d6d 65bc 091d bd3b 93dd 32bd e109 763d
00000110: 1567 38be ab3e d5bd 96fb 53bd 6d9f f33d
00000120: 92a7 2aba 97a8 173e 6b2e 683d 229a d43c
00000130: 7c60 6e3d 324b 32bd ccd3 1abe b67e 98bc
00000140: 5e2e 013e 8ea8 98bd f2db a43d bce8 f73d
00000150: 4a22 07be a8ee a03d 6cf2 fbbc ee33 363d
00000160: 6b5c d43d bcc6 e5bd 209c c83d 64dd e53b
00000170: 56f2 b43d b651 b83d 956d 233e 1e61 a4bd
00000180: 759e 38be 0ad7 ecbd ccc1 913d 8a87 9d3d
00000190: c2f4 933d 0475 11be c327 053e 528d 233e
000001a0: 1451 1fbd 4096 da3b a937 c83d 7d8d 1bbe
000001b0: 7045 11be 7035 abbd e433 f43d 0dab 07be
000001c0: c3b0 53bd 8384 513d b83a 95bd 2c67 3abe
000001d0: f04a 0d3e 1cf6 573d cbc1 12be fd74 8dbd
000001e0: bed9 3b3e f073 16be c581 5a3d f9d8 14be
000001f0: 6f6d 12be 839c 9abd 0e35 ddbd 8abe 70bd
00000200: 14ed 2d3d e32b 063c 586e 053e 028f f2bc
00000210: 324e 9c3c 4d42 8bbd cfab 163d 49ac 033d
00000220: f645 6e3d 5557 8abd bc5e 003e 82fa 08be
00000230: ac05 15be 9b17 da3d 3656 13be 3cd9 193e
00000240: 2425 a2bd 0566 b83d becc bebd a550 153e
00000250: 45aa 82bd cc6d 273e
0.024547022 -0.16188265 -0.020962266 -0.19097386 -0.1832518 -0.1714942 -0.12979545 -0.10405679
0.11458456 0.14487116 0.015233051 -0.062466983 -0.0007763839 -0.056907393 0.08160909 0.018993314
0.03769809 0.049999006 -0.099560656 -0.013664341 -0.11857032 0.14743909 -0.096085876 0.058474634
-0.033930797 -0.09181362 -0.025128776 -0.10734607 0.010855701 0.09994176 0.052334562 -0.16829818
-0.07576399 0.15261963 0.121293046 0.11842468 -0.09396945 0.020564152 -0.17717311 0.1560403
-0.11228748 0.011681242 -0.11637524 0.16721341 -0.1583552 0.11602355 -0.0455575 -0.18841413
-0.053528596 0.051836904 -0.14498322 0.13757806 0.07202376 -0.08838398 -0.13768014 0.19527604
-0.14064467 0.06692219 -0.1959578 0.05792381 0.0034623984 0.020372203 0.1835825 -0.07455344
-0.014003065 0.0057712835 -0.04366834 0.060068015 -0.18008073 -0.104123436 -0.051753603 0.118956424
-0.0006509955 0.14810406 0.056684893 0.025952403 0.058197483 -0.043528743 -0.15119857 -0.018615108
0.12615344 -0.07454024 0.08049764 0.121049374 -0.13196674 0.0785802 -0.030755244 0.044483118
0.1036919 -0.11219546 0.097954035 0.007014917 0.088352844 0.0899996 0.15959771 -0.08026336
-0.18029197 -0.11564453 0.07117042 0.07691868 0.07224418 -0.14204794 0.13003449 0.15971878
-0.03889568 0.006670743 0.09776241 -0.15190692 -0.14186645 -0.08359802 0.1192396 -0.13248844
-0.051682245 0.051151764 -0.0728659 -0.1820342 0.13798118 0.052724943 -0.14331739 -0.06907079
0.18344781 -0.14692664 0.053346414 -0.14535893 -0.14299558 -0.075493835 -0.10801135 -0.058775462
0.042462423 0.008189174 0.13030374 -0.029609207 0.019080255 -0.06799755 0.036784943 0.032146726
0.05817219 -0.067549385 0.12536138 -0.13376811 -0.14552945 0.10649034 -0.14388356 0.15024275
-0.0791724 0.09003834 -0.09316395 0.14581545 -0.063801326 0.16350478

conv1.bias f4 [6]
00000000: 3f5c dbbd 2d2a 1b3d 2c74 e63c 1daa b8bd
00000010: f9ee 263e a064 febd
-0.10710954 0.03788202 0.028131567 -0.090168215 0.16302098 -0.124215364

conv2.weight f4 [6, 6, 5, 5]
00000000: 3cea b43c 1cd9 8f3d 72e8 30bd dd49 32bc
00000010: 52b7 f13c b408 0e3d c9c3 7c3d 3cb7 503d
00000020: 62c5 93bd 0de0 96bd bec3 a5bb 3216 53bb
00000030: b837 903d 7b23 673c 647c 9e3a 6a0e f9bb
00000040: 06a5 7a3c 0f0c 453b 8f1d 433d 8226 713d
00000050: d39c 62bd 77d0 243c a589 a63d f68f 9b3c
00000060: c63c 0fbd cf87 853d cb91 e4bc 3055 92bd
00000070: f824 5dbd 40a7 633d 8aa4 7a3b a12c 5dbc
00000080: b84b 98bc d887 7d3d fcea 723c c280 36bd
00000090: 54c3 a6ba 1b8d b9bc d9c6 87bd 62c0 0dbc
000000a0: 6f96 e5bc e472 053d d881 a4bb 2fad 6abd
000000b0: 37ca 01bd 2008 443d f2cc 2ebd a679 9d3d
000000c0: 5b63 37bd 9204 203d 0a55 86bd 1254 783d
000000d0: 982c 39bd 0a08 a73d bd34 953d fab8 96bd
000000e0: a4c0 4ebd da9a 01bd 7c34 a7bd c2bf 063d
000000f0: ce5c 003d 10d9 80bd 4505 7c3c fa54 dfbc
00000100: 8aa3 993d 6ed6 b3bb a40b 9b3d 3942 1cbc
00000110: daa0 87bd 409c f1ba 945b f83b e17d 34bd
00000120: 0edc 6ebd 3791 ce3b 8c4f 473d 8935 363d
00000130: d2e1 393d 349e 8d3c 6ec6 273d 64b9 9cbd
00000140: 34cb 2bbd 49bb 423c 677f dd3c 22a3 23bd
00000150: 30fd 573d bb08 3c3d 4bbd 273d 1807 913d
00000160: d080 9ebd 5cb5 89bd 5719 a93c 842f f5bc
00000170: 8334 c9bc ec2e 813c 3dcc 013d e954 8cbd
00000180: c88c 403d d498 1dbc a195 75bb 2fe3 713d
00000190: 0114 5bbd 5258 573a d520 0abd 0aed 34bc
000001a0: f152 4bbd 1e51 a7bd 2523 8b3d b257 42bd
000001b0: e906 7c3d a0c7 7bbd 209d 69bd 7883 4e3d
000001c0: 7957 9b3d a9e8 91bd 79a0 a03c aa63 2c3d
000001d0: a3fc 48bd fceb a43d aa54 843d ab84 d4bc
000001e0: 5bb4 813d 4b6d 983c 3587 48bd 390b 24bd
000001f0: 83c7 853d 8915 3cbd e0e4 e73c 0a87 d1bc
00000200: 39a1 ab3c 935e a3bd 19d5 3f3c 6ae4 e33c
00000210: ec86 8d3d 5000 09bd 4afd 6f3d 2b07 a63c
00000220: e406 773d 29f6 6b3c ca78 013c 2690 313d
00000230: bd88 aebb 7a35 873d f180 1ebc 1267 413c
00000240: efde 143d 4f23 b53a 7241 aa3c 44f6 873b
00000250: 6948 33bd 4069 92bd f094 82bd 9aab 2c3d
00000260: bbd4 9b3d 1220 9a3d 57cb b83c dcd0 2dbc
00000270: 7b18 bdbb 6c9b 503d a036 e23a 455a 3cbd
00000280: 984b c63c d4dd b7bc 3d4b 283d fd72 7fbd
00000290: 0910 e6bc 44a1 5fbd 04f2 d3bc a67f 0fbd
000002a0: 1d28 bbba 1743 10bd 864d 463c 2757 133d
000002b0: eecd 4bba ad11 bd3c 4e37 f73c a05e 8e3d
000002c0: 9755 1fbc c263 0b3b 32ef 5d3d 3f66 833d
000002d0: f525 3fbd 6529 83bd c416 8b3d a6fa 01bd
000002e0: bd2c a43b 656e a03c 745c 153c 0281 303d
000002f0: 99aa 7bbd e50c 73bd dbce 933d c883 a43d
00000300: c9e5 90bd d8b9 13bd 7a30 e2bc 476c 0cbc
00000310: 164c bdbb 01f7 883d e555 0a3d aad3 19bb
00000320: 9c33 77bc b6cb aabc 7947 ce3b 658c 153b
00000330: 52cb b13c 2897 8abd e2e6 8bbd 0973 3c3d
00000340: 4d2d 28bd 39c5 4f3d c270 203d 3064 813d
00000350: 4a3c a5ba 34a3 723d 316b 793d 0dee e13c
00000360: a224 473c 7aaa 98bc 5e24 71bd a505 78bb
00000370: d224 b03b b88d 9cbd f1d1 12bd 78ce 60bc
00000380: adde 613d e893 a5bc 8fa7 923d 427f 213d
00000390: ab5d 0e3d 4875 fdbc c135 3f3c 1545 72bd
000003a0: 5f92 5d3c 2f81 a5bd ec25 933d 71c8 83bd
000003b0: 8949 5e3d e6e1 523d f0e5 863d c010 353c
000003c0: 1e5c 643d 3bc1 86bc 7cc3 fe3b dbdb 9abd
000003d0: 095e 6abd 4b03 1f3d 8165 0bbd 33ae 46bd
000003e0: 15cc 673b 10f8 22bd f651 6d3d 87f0 563d
000003f0: b5dc 8dbd f360 72bd 8d20 7c3d 4fd8 0fbd
0.022084348 0.07023832 -0.043190427 -0.010881868 0.02950636 0.03467627 0.061710153 0.050955996
-0.07215382 -0.07366953 -0.0050587347 -0.0032209274 0.070418775 0.01410758 0.0012091515 -0.0076005952
0.015298134 0.0030067002 0.04763561 0.058874615 -0.05532534 0.0100594675 0.08131722 0.018989544
-0.034970067 0.06520044 -0.02790155 -0.071451545 -0.053990334 0.055579424 0.0038245046 -0.01349941
-0.018590793 0.06189713 0.014826532 -0.044556387 -0.0012723007 -0.022650292 -0.06629724 -0.008651825
-0.028025834 0.03258027 -0.0050203614 -0.057294067 -0.031686988 0.04785931 -0.04267592 0.07689218
-0.044772487 0.03906686 -0.06559189 0.06062705 -0.045208544 0.0815583 0.0728545 -0.073595
-0.050476685 -0.03164182 -0.081643075 0.03289772 0.031338505 -0.062914014 0.015382116 -0.0272622
0.07501896 -0.0054882085 0.0757058 -0.009537273 -0.06622477 -0.0018433407 0.0075792763 -0.04406536
-0.05831533 0.006303932 0.048659846 0.04448465 0.045381375 0.017287351 0.04096072 -0.07652548
-0.041941836 0.011885473 0.02703829 -0.039950497 0.052731693 0.045906764 0.04095201 0.07081431
-0.07739413 -0.06724045 0.020641966 -0.029929884 -0.024561172 0.015769444 0.031688917 -0.06852133
0.04700926 -0.009618957 -0.003747322 0.05905455 -0.053485874 0.000821476 -0.033722717 -0.011042843
-0.049639646 -0.08169769 0.06793813 -0.047446914 0.061530028 -0.061469674 -0.05703461 0.050418347
0.075850435 -0.071244545 0.01960777 0.042087235 -0.04906906 0.08052823 0.06461461 -0.025942167
0.06333228 0.018606802 -0.04895707 -0.040049765 0.065321945 -0.045918975 0.028307378 -0.025577087
0.0209509 -0.07977023 0.011708521 0.027818877 0.069105 -0.033447564 0.058591165 0.02026709
0.060309306 0.014401951 0.0079023335 0.04335036 -0.005326359 0.06601997 -0.009674297 0.011804359
0.03634542 0.0013819727 0.02078316 0.00414923 -0.043770228 -0.07148981 -0.06376064 0.04215584
0.076089345 0.07525648 0.022557897 -0.010608878 -0.0057707406 0.05092947 0.0017258711 -0.045984525
0.024205968 -0.022444643 0.041087378 -0.06236552 -0.028083818 -0.054597154 -0.025872238 -0.035033844
-0.0014278922 -0.03522023 0.012103444 0.035971787 -0.00077745214 0.023079718 0.030177739 0.06951642
-0.009724996 0.0021269177 0.054183193 0.06415986 -0.046667058 -0.0640438 0.067914516 -0.031733178
0.005010216 0.01958389 0.009116281 0.04309178 -0.06144199 -0.05933847 0.07217189 0.08032948
-0.07075078 -0.036065906 -0.027611006 -0.008570737 -0.0057768924 0.06687737 0.03377332 -0.002347211
-0.015087988 -0.02084909 0.0062951413 0.0022819277 0.021703396 -0.06767112 -0.06831147 0.046008144
-0.041058827 0.050725196 0.039170034 0.063179374 -0.0012606469 0.059237674 0.06089324 0.027579332
0.01215473 -0.018635977 -0.058872573 -0.0037845161 0.005375483 -0.07644218 -0.035844747 -0.013721101
0.055144 -0.020212129 0.071608655 0.039428003 0.034757297 -0.030939713 0.011670531 -0.059147913
0.013523667 -0.080812804 0.071849674 -0.064347155 0.054269347 0.051484965 0.06586826 0.011051357
0.055751912 -0.016449561 0.0077747684 -0.07561465 -0.057218585 0.0388215 -0.03403235 -0.048505973
0.0035369445 -0.039787352 0.057939492 0.05247548 -0.06926862 -0.05917449 0.06155448 -0.035118397

conv2.bias f4 [6]
00000000: 7296 023d 018e 943d a929 02bd 4b94 5f3d
00000010: 4b1e e33b dee4 56bd
0.031881757 0.072536476 -0.03177801 0.054584783 0.0069311014 -0.05246436

fc1.weight f4 [50, 96]
00000000: e649 c23d 865e e23b a762 a4bd 8078 813c
00000010: c99a 8e3d f509 0d3d 885b 9abd 07be b83d
00000020: 2fb2 613c af03 a3bd 3728 963d e2bb 8b3b
00000030: 3803 873c 6171 b43d 07d1 ac3d 74e3 833d
00000040: 703f 323c df2d c0bd 8ea1 ad3c 82d9 7fbd
00000050: 5f28 7fbd 557a ebbc 23ba 13bd 547c c739
00000060: 570d 6cbd 9883 a3bc 71b4 66bd 90a3 7cbc
00000070: c517 74bd 7746 cbbd 8d66 a9bc 0683 063c
00000080: 121f a5bd bd69 8abc b171 b3bd 6ea8 aa3d
00000090: 8cfe 6f3d 83e6 4fbc d5ec 49bd 28e5 b93c
000000a0: 404c 9e3c 5b89 ae3d 35ec a1bd 451c 683d
000000b0: f61e 8cbc 1fa9 7dbd 0c51 803d 913c 42bd
000000c0: 0877 0c3d f4c1 c83d 1851 0ebc e666 35bd
000000d0: 0c85 f83c 8267 3a3d 38fb c6bd 08e8 533d
000000e0: 6015 7d3b 7809 cabd 81fc 46bc f2d9 0cbc
000000f0: 35d8 ac3d a703 943d 9581 983d 40d1 95bd
00000100: 5c6a cd3c e826 d03d 46b9 2cbd e8be 283d
00000110: 38bd 853d d998 2e3d 9ce2 583d 80eb ddbc
00000120: 2609 813d 7073 c2bb a16a adbd bac6 95bd
00000130: 64df 66bc 701f 063d d693 c0bd c829 c23d
00000140: cab7 3abd 9fd8 8b3d cfae 953c 2808 6d3d
00000150: 7056 7c3d 3e51 8cbd c4eb 263d fb50 513c
00000160: 5e08 963c 66c2 a63b 6e65 243c 0e19 aebc
00000170: 7f62 4bbd 9da3 14bc 2e77 ef3c c2e0 a83d
00000180: 769d 24bd 95af 7bbd 2ce7 41bc e967 b33d
00000190: f115 a03d b9e8 463d 4b97 57bd 9ee1 b23d
000001a0: 15ae 223c 94c9 78bd 8f42 733c 4e88 30bc
000001b0: 7796 23bd b31b 5b3c 4b8c 2a3d 71c5 a53d
000001c0: 5927 dc3c dcbf db3c 2c8e 493d 0e36 a53d
000001d0: 2e7f 423b 6d07 a5bc 8ef5 9d3d ebba ad3c
000001e0: 6687 af3d 2eff 92bd fe3f 823c 235e 653c
000001f0: 26aa af3c c9a4 2c3d 07a7 9ebd 2563 a13b
00000200: 6b50 693d 5238 c3bd d50e 9bbd 7950 a43c
00000210: 8f96 70bc 3f61 9c3d cc96 6f3d f950 5f3d
00000220: 7c11 2d3c 86e8 633d 15d0 babc 6db8 053b
00000230: 4740 8dbc 54ff 8bbd a40c 36bd 554a f1b9
00000240: 59c3 98bd 1484 913d 9c16 7dbd 6cc9 ae3c
00000250: 4a56 55bd 1d2c c83d 5dda 2a3d 2f39 96bd
00000260: 6c85 64bc 6505 cb3d 2941 063d 9187 c2bc
00000270: 0a71 853d b5d8 c53c 3f68 c13d 8023 be3d
00000280: d5db 6e3c 11f5 80bd b7e3 47bb a537 8f3d
00000290: 7ec9 5f3d e092 3c3d d37a 573d 3f45 a3bd
000002a0: 0ee5 87bb 7347 323d 8f6a 7d3d bf4e 63bc
000002b0: 3731 6c3d 500d c93d 11d6 b93d 0b3f 223d
000002c0: b6e2 423d 0ea7 73bc 2876 543d a6d7 313c
000002d0: f3bd 163d 6f12 b8bc 7431 c7bc 7a2d 153d
000002e0: a5d8 8cbd f8b2 4f3d 26d2 42bd a679 b5bd
000002f0: c6ba d4bc 60cf 44bc 77a2 c9bd ab1f 613d
00000300: e507 bbbc a0fd a1bc 8804 733d 7ec8 693b
00000310: 6d09 37bd 5b8e 913d 79c2 bebd 0339 03bd
00000320: edf0 a93d 6093 4c3d fd9f a63d 8e11 c13d
00000330: b88d f63a 268d e33c 0379 3d3d 3bca 33ba
00000340: abd8 5bbd 2b03 8bbd c6ef 9abd 8c0f 4e3d
00000350: a710 603d 0262 a43d 8b5b 5e3d 6d0c 333d
00000360: 794b 933d 1fec 08bd 0675 803d 98ff babc
00000370: 5aec b63c 8a8e bebd 8aa4 243c fe91 0c3d
00000380: 7ad4 d03d 6c44 f7bc a1ba 213d 8bf9 10bc
00000390: 494a 32bc 7dbd 02bd 1c24 acbd f9d4 5b3d
000003a0: 67ec 263d 907f cdbd b702 563d 4d69 95bd
000003b0: 2d02 40bd aaee 8abd 24ff 753d 4850 443d
000003c0: 4e72 8abc 70ca a5bd 9694 c0bd 1f52 06bc
000003d0: 743b bbbd 68ea 5d3c 66f9 55bb fa4d 8cbd
000003e0: a563 4b3d 4520 a2bd 009b 873d 957e 3d3c
000003f0: 033d bcbd 0667 423d f320 e0bc 2c29 62bd
0.09486751 0.0069082407 -0.08026629 0.01580453 0.06963117 0.034433324 -0.075369895 0.0902062
0.013775392 -0.07959687 0.07331889 0.0042643407 0.016481027 0.08810688 0.08438306 0.064398676
0.0108793825 -0.09383749 0.0211952 -0.06246329 -0.06229436 -0.028744856 -0.036066186 0.0003804887
-0.05762991 -0.01996021 -0.056324426 -0.015419856 -0.05959298 -0.099255495 -0.020678783 0.008209949
-0.08062567 -0.016896123 -0.08761919 0.08332907 0.058592364 -0.012689236 -0.049298126 0.022692278
0.019323468 0.08522292 -0.07906381 0.056667585 -0.017104607 -0.061928865 0.062654585 -0.047421042
0.034293205 0.098026186 -0.008686326 -0.044287585 0.03033688 0.04550887 -0.09715885 0.051734954
0.0038617477 -0.09865087 -0.012145163 -0.008596884 0.08439676 0.07227259 0.07446591 -0.07315302
0.02507513 0.10163671 -0.042168878 0.041197687 0.06530231 0.042626236 0.052950487 -0.027089834
0.06300573 -0.0059341714 -0.084676035 -0.07313295 -0.014091346 0.032744825 -0.094031975 0.094806254
-0.04558543 0.068284266 0.018271832 0.057869107 0.06160587 -0.06851433 0.040752187 0.012775655
0.018314537 0.005089092 0.010033948 -0.021252181 -0.04965448 -0.009072212 0.029231634 0.08245994
-0.04018923 -0.061446745 -0.011834901 0.08760054 0.07816685 0.048561785 -0.05263452 0.08734439
0.0099292 -0.060739115 0.014847412 -0.010774685 -0.039938416 0.013373303 0.0416377 0.080942996
0.026874231 0.026824884 0.04920785 0.08066951 0.0029677856 -0.020145142 0.077128515 0.021207293
0.08570747 -0.07177578 0.015899654 0.013999495 0.021443438 0.04214934 -0.07746702 0.004925149
0.05696146 -0.095322266 -0.07571188 0.020057904 -0.0146843335 0.07635736 0.05849342 0.05452058
0.010563251 0.055641674 -0.0228043 0.0020404116 -0.017242564 -0.06835809 -0.04444565 -0.00046022484
-0.074591346 0.0710527 -0.06178914 0.02133628 -0.052084245 0.09774039 0.041712154 -0.07335126
-0.013947826 0.09913138 0.032776985 -0.023746284 0.06515701 0.024151186 0.094437115 0.09284115
0.014578779 -0.06296743 -0.003050072 0.06993035 0.054635517 0.04603851 0.05260737 -0.07972192
-0.0041471785 0.04352517 0.0618692 -0.013873755 0.057664122 0.09816992 0.09074033 0.039610904
0.04757949 -0.014871372 0.051870495 0.010854637 0.036802243 -0.022469727 -0.024315573 0.036420323
-0.06877259 0.050707787 -0.047563694 -0.08861093 -0.025967967 -0.012012333 -0.09845441 0.05496184
-0.022830913 -0.019774258 0.059330493 0.0035672481 -0.044686724 0.0710723 -0.093144365 -0.032036792
0.08297906 0.049945235 0.08135984 0.094271764 0.0018810546 0.027777266 0.046257984 -0.0006858443
-0.053673428 -0.067877136 -0.075652644 0.050307795 0.05470338 0.08026506 0.05428652 0.043713022
0.0719213 -0.033428308 0.062723204 -0.022826955 0.022329498 -0.09304531 0.010048995 0.034318916
0.10196777 -0.030183993 0.039484624 -0.008848558 -0.010881969 -0.03191899 -0.08405325 0.053669903
0.040752795 -0.10034096 0.052248683 -0.07295475 -0.046877075 -0.06783803 0.060057774 0.047928125
-0.016900208 -0.080952525 -0.094033405 -0.00819829 -0.09142199 0.013544656 -0.0032649874 -0.0685081
0.049655575 -0.07916311 0.06621361 0.011565824 -0.091913246 0.047461532 -0.027359461 -0.055215046

fc1.bias f4 [50]
00000000: 2be1 8dbd 107a c7bd fde7 343d eb2d 3abd
00000010: f3d4 4fbd 50c0 bdbd 9001 9c3c ed87 babd
00000020: a63c a93d 2c99 ca3d 2c85 d2bb 517e a43d
00000030: 9320 063d dd2f 9ebd fc55 b03d f04e 88bd
00000040: 5d94 8d3d 4ec7 8c3b ac44 d83c 80eb a53c
00000050: 68a9 b33d bcd4 913d 4537 a7bd 4e8a ef3c
00000060: a95f ebbc dbc0 cf3b 04fe 2ebd 5935 243d
00000070: af42 623d 21e0 28bd 07aa 6c3b b937 513d
00000080: cc24 bc3d b798 1b3d e252 f6bc cf1c 943d
00000090: 89f4 6bbd 19ac 2b3d f3e2 3fbd 87c0 823d
000000a0: db7c 9f38 46e2 a7bc 8eee 833d 9ca9 f1bc
000000b0: 86fc a6bd 263c 0b3c db02 bfbd 95f8 c7bd
000000c0: f507 503d c651 78bd
-0.06927713 -0.097400784 0.044166554 -0.045453947 -0.050740194 -0.09265196 0.019043714 -0.09107957
0.08263521 0.098924965 -0.0064245667 0.080319054 0.03274591 -0.07723973 0.0861015 -0.06655681
0.06913064 0.00429622 0.026399933 0.020253897 0.08772546 0.07120654 -0.08164839 0.029240754
-0.028732138 0.006340129 -0.042722717 0.04008994 0.055239376 -0.04122937 0.0036112086 0.051078532
0.09186706 0.037987437 -0.030068818 0.07232057 -0.057606254 0.041912172 -0.046847295 0.06384378
7.604967e-05 -0.020493638 0.06441985 -0.029499821 -0.08153634 0.008498227 -0.093267165 -0.0976421
0.05078884 -0.06062486

fc2.weight f4 [10, 50]
00000000: 7a18 fe3d 88ab e73d 4c65 293c 6238 713d
00000010: f1ca 13bc 648c 84bc 8750 ab3d d3e5 a5bd
00000020: 95a5 d13d a345 e63d 48d2 89bd c632 76bd
00000030: 25bf 943d f857 05be f48f e83c 02b0 45bd
00000040: 7ee9 a03d d93f c0bc 67b4 3b3c 19c4 433d
00000050: 3667 eabd f62a ef3d c8ed 8a3d e353 f2bd
00000060: a04b 76bd 528e d13d 125d 94b9 92ee 76bc
00000070: 9214 41bc 038e 123d 4881 f5bd 93c9 bdbc
00000080: 196b 023e d2a9 043d d4e9 97bd dad0 893d
00000090: 6406 d7bd ba17 8fbd 9830 ec3d 9b7d e9bd
000000a0: 4be7 273d b07f 0f3e 8510 b7bd 1a47 af3d
000000b0: 02dc 5ebd b1c9 b83d a8eb 863d 0c0c ab3d
000000c0: 45bc cb3d 51b5 b93d 1f19 a3bd 8e6c 973d
000000d0: 29e5 98bd 7856 a1bc 55c5 0b3d d8ba 0c3e
000000e0: 48e8 693d b5c0 8e3d 96fc 01be f05d 053e
000000f0: af4b a43d 2b4c 373d 638a 31bd 8138 b4bd
00000100: 5e21 efbb 94eb 2f3d 3f66 543d 7b7c 55bc
00000110: 9d17 e03c b39d d03d 554c 433d 0f8c aebd
00000120: bd00 d93d ba95 cdbd 4c4a 80bd f945 c33d
00000130: 9f7d e0bd d2b5 e5bd 0036 113d 949a 0f3e
00000140: 050c 0a3e e133 863d 869a d03d e194 db3d
00000150: 9116 8ebd 078b 963d 8076 ac3a abb4 f03c
00000160: d617 99bd 5f6c c0bd 9452 063e 3c60 c3bd
00000170: 6fc5 4e3d 7033 d2bc 2d8d 663d 2977 cc3c
00000180: 6667 5f3d f323 c63d f21a 25bc e4e0 b9bd
00000190: 202d 4bbd f4e8 313c 3b3a 83bd 6097 12bd
000001a0: f806 8d3d 45fb d3bd 6caf d13d 887d 853d
000001b0: f47d 713c 9240 52bd 8d87 d83d c54c 8e3d
000001c0: 67b5 9c3d 0f08 2fbd 396a 893d e0c7 0cbc
000001d0: 3ee8 3abd 95a1 043e 66fd 7f3d 830a 0b3e
000001e0: 96c3 c13c b1f8 a23c bf67 d33d 981e 10be
000001f0: 9793 c03c 63ab 35bc 3512 bc3d 9d00 04be
00000200: 9785 873d 0e8d 6dbd 9100 a0bd 8528 debd
00000210: d250 a3bd 0565 883c 737e 0b3e afe8 36bd
00000220: 08c4 b3bd e668 b1bd 106a 3b39 c6f9 a83d
00000230: a097 e33d 5b0c d13d ef81 03be 1ed4 47bc
00000240: 6bdf 52bc 0185 663d aeb6 a2bd 24f5 e5bd
00000250: 0597 0abe d3f7 dbbd 8f33 febc 2da0 ad3d
00000260: 919a c83c a99c e03d 73da 8fbd aa08 f03d
00000270: f264 f5bd 9143 d4bd 63bd f33d 87b7 90bd
00000280: 7bff 9abc 78d8 063e 2130 6abd 7d83 8939
00000290: fa05 383d 91eb 05be 6bc7 0abe 8016 083e
000002a0: 6b8b b93d 79b6 8d3d a8e1 fb3d f5d0 80bd
000002b0: 5367 a23d 0550 b8bd b98d 6f3d 6778 09be
000002c0: 10e6 fb3d 8972 eebc adb1 cebd 240f 593d
000002d0: 588b a33c e14e be3b 60e2 a7bd 17d2 74bc
000002e0: ab85 ff3d 1bf4 673d c0b6 873c 6fdc b03c
000002f0: 0d57 31bd 5f3d a43d 8eba 0c3e b703 16bd
00000300: 2fd2 debd c5c7 d6bd 14a9 fe3d 8b59 0f3e
00000310: 5dc3 6a3d 72a2 f9bd a37a 8d3d a43b d1bd
00000320: 0ffa dc3d 6da6 74bd ba29 9ebd 186d e1bd
00000330: fdba b5bd f9e5 353d 91e5 c63d 1c23 d4bd
00000340: fb11 69bd fc61 9ebd 8ae6 ae3d 65f8 ecbc
00000350: 8822 edbd 1c88 0c3e 94ac ecbd a66a 9bbd
00000360: 0bdb fdbd d7f1 d43c b74e 8ebd 64b4 50ba
00000370: ec3f dfbd 35e5 c5bd 240c 0fbe 7874 b53d
00000380: d5fa 4abd 728d 07bc 36d5 d63c 2e78 d43c
00000390: ead4 92bd 6856 26bd eaab fcba 3452 8b3d
000003a0: 7a60 b5bd f20b a53d 712f 51bd c419 02be
000003b0: 7a1b e73d f45d 4f3d 2e80 c1bd ecad e3bc
000003c0: 5856 fc3d fd0a f9bc 7f9d 2dbd 9329 d7bd
000003d0: 610f 83bd 089d 09be 66cc d13c 81b4 653d
000003e0: 9b7d a9bd 5132 c8bd d5d1 9c3c e3d2 13bb
000003f0: 1e10 b53d 6f33 edbc cd4a 11bd 7df7 5ebd
0.12407012 0.11312014 0.010339092 0.05889166 -0.009020553 -0.016180225 0.08364969 -0.08100476
0.102366604 0.11243751 -0.06729561 -0.060107015 0.072630204 -0.13021839 0.028388955 -0.048263557
0.07857035 -0.023467945 0.0114565855 0.047794435 -0.11445467 0.11678116 0.067836344 -0.11832406
-0.060130715 0.102322236 -0.00028298103 -0.015071528 -0.0117846895 0.035779964 -0.11987549 -0.023167407
0.12736167 0.032388516 -0.07417646 0.067292884 -0.10499266 -0.06986947 0.11532706 -0.114009105
0.040992063 0.14013553 -0.08938698 0.085584834 -0.054409035 0.090228446 0.065879166 0.08351907
0.09948019 0.090677865 -0.07963776 0.07393752 -0.07465584 -0.019694552 0.034123737 0.1374315
0.057106286 0.0697035 -0.1269401 0.13024116 0.08022248 0.044750374 -0.043344866 -0.0879984
-0.007297679 0.042949274 0.051855322 -0.013030167 0.02735501 0.10186329 0.047680218 -0.08522808
0.10595844 -0.10038324 -0.06264171 0.095348306 -0.1096146 -0.1121632 0.03545189 0.1402381
0.13481148 0.06552864 0.10185723 0.10721756 -0.06937898 0.07350736 0.0013157874 0.029383024
-0.074752495 -0.0939567 0.13117439 -0.095398396 0.050481256 -0.025659293 0.05628698 0.024959164
0.054541968 0.096748255 -0.010077225 -0.090760976 -0.04960358 0.010858763 -0.06407591 -0.035788894
0.06886095 -0.1035066 0.10238537 0.06518084 0.014739502 -0.05133111 0.10572729 0.069482364
0.07651787 -0.042732295 0.067097135 -0.008592576 -0.04563164 0.12952264 0.06249752 0.13578229
0.023652833 0.019893976 0.10322522 -0.1407417 0.023507876 -0.011088225 0.0918316 -0.12890859
0.06617277 -0.05799585 -0.07812608 -0.10847572 -0.079743996 0.016649732 0.13622455 -0.044655498
-0.08777624 -0.08662586 0.00017873221 0.082507655 0.111129045 0.10207435 -0.12842534 -0.012196569
-0.01287065 0.056279186 -0.07945 -0.112283975 -0.13534172 -0.10740628 -0.031030444 0.08477817
0.024487766 0.109673806 -0.07024088 0.117204025 -0.119821444 -0.1036445 0.11901357 -0.07066255
-0.01892065 0.13168514 -0.057174806 0.00026228643 0.044927575 -0.13078143 -0.13552634 0.13289833
0.09059795 0.069195695 0.122989 -0.062898554 0.07929864 -0.089996375 0.058484767 -0.13424836
0.1229974 -0.029107349 -0.10092483 0.052992955 0.019963905 0.005807743 -0.081974745 -0.014942667
0.12476667 0.05662928 0.016566634 0.021589486 -0.04329591 0.08019518 0.1374304 -0.036624637
-0.10879933 -0.10487322 0.12434593 0.13999002 0.05731522 -0.12189187 0.06908157 -0.10216454
0.107898824 -0.05972903 -0.077228025 -0.11007136 -0.08873556 0.044408772 0.09711755 -0.10358259
-0.056901913 -0.07733533 0.085400656 -0.028927037 -0.11578852 0.13723797 -0.11556354 -0.07588701
-0.12395295 0.025994224 -0.069486074 -0.00079614506 -0.10900864 -0.096628584 -0.13969475 0.08860105
-0.04955562 -0.008273469 0.026224714 0.025936212 -0.071695164 -0.040609747 -0.0019277309 0.068027884
-0.08856292 0.08058919 -0.051070634 -0.12705141 0.112845376 0.05062671 -0.094482765 -0.027792893
0.12321156 -0.030400747 -0.042386528 -0.105059765 -0.06399418 -0.13438809 0.02561016 0.056080345
-0.082759105 -0.09775222 0.019143024 -0.0022556118 0.08840965 -0.02895519 -0.035471726 -0.054435242

fc2.bias f4 [10]
00000000: 7ad1 c53d 3333 f1bd 25c7 043e fffb 73bd
00000010: 37c1 023e f519 82bd 8c0c b7bc 603c 493d
00000020: e566 02be f3f5 e2bd
0.09659095 -0.117773436 0.12966593 -0.059566494 0.12769018 -0.06352607 -0.02234485 0.049129844
-0.12734564 -0.11082067
