checkpoints/fastest ones/cnn2/19-12-2023_13-03-59/last_model.pth.tar (torch, 55060 bytes, 8 tensors)

conv1.weight f4 [6, 1, 5, 5]
-0.07180881 0.0757662 -0.3333996 -0.43907738 -0.1660672 0.055746388 -0.20613496 -0.06446014
-0.5962128 -0.13564174 0.2137763 0.20594151 -0.23895787 -0.5980994 -0.25466082 -0.094670355
0.19405113 -0.22045362 -0.47372136 -0.23020066 0.19770098 -0.10069634 -0.3553005 -0.5466476
-0.24959828 -0.19888745 -0.30584106 -0.28472763 -0.33976203 -0.08952184 -0.122181594 -0.16100505
-0.3966089 -0.39346412 0.06556214 -0.1655567 -0.15125285 -0.27324498 -0.302022 0.19618845
-0.052933674 -0.3326063 -0.332389 -0.324847 0.24572198 0.108286895 -0.101169184 -0.10912831
0.046543863 -0.038778793 0.04354816 0.033818807 -0.17662385 -0.07292583 -0.14096123 0.1674104
-0.15852866 -0.19290973 -0.05618284 -0.14328596 -0.03398676 -0.22030327 -0.032405023 0.13800815
-0.14659052 0.02332568 0.046274755 -0.1362496 0.14037576 -0.026266163 0.16351828 -0.040822804
-0.19992444 -0.07344087 -0.0835253 -0.10883342 -0.13683641 -0.28162852 -0.46502158 -0.3124762
0.15239379 0.086070776 -0.23989725 -0.5547531 -0.0036790671 0.19726703 0.039711952 -0.2534193
-0.30840033 -0.187636 0.24635176 0.25529233 -0.23347108 -0.398692 -0.26146647 0.0407777
0.16306399 -0.20524627 -0.46496415 -0.008345069 -0.040936343 0.11471236 -0.079727225 0.1151925
-0.1937632 -0.09294156 -0.008559268 -0.23782766 -0.16972966 -0.15345374 0.1391974 0.12082954
-0.23143272 0.031368196 -0.10349851 -0.056504715 -0.19904917 -0.20830777 -0.25616983 -0.3990263
-0.12548742 0.06592337 -0.060795892 -0.06009878 -0.38377172 -0.20032416 -0.060138844 -0.2202925
-0.16053525 0.13816497 0.03373504 -0.041085497 0.050956145 -0.13018376 -0.008244326 -0.149994
-0.11829523 0.07474857 -0.05481142 -0.016312383 -0.026501155 -0.2877456 -0.057826947 0.013081887
0.17024192 -0.04901617 -0.23228085 0.109817855 -0.0630924 -0.089191355
00000000: 7f10 93bd 4f2b 9b3d 5ab3 aabe c0ce e0be
00000010: 850d 2abe 5356 643d 0b15 53be ae03 84bd
00000020: 67a1 18bf abe5 0abe 2de8 5a3e 55e2 523e
00000030: 5fb1 74be 0b1d 19bf e762 82be 88e2 c1bd
00000040: 57b5 463e 98be 61be 9b8b f2be b9b9 6bbe
00000050: 2072 4a3e e239 cebd f2e9 b5be 19f1 0bbf
00000060: b196 7fbe 27a9 4bbe 3397 9cbe d2c7 91be
00000070: 4af5 adbe 3a57 b7bd 583a fabd 82de 24be
00000080: 5210 cbbe 2174 c9be 7145 863d b287 29be
00000090: 07e2 1abe c4e6 8bbe a1a2 9abe a0e5 483e
000000a0: fbd0 58bd 5f4b aabe e42e aabe 5952 a6be
000000b0: 8b9e 7b3e 85c5 dd3d ca31 cfbd aa7e dfbd
000000c0: c7a4 3e3d 83d6 1ebd 8e5f 323d 9785 0a3d
000000d0: e2dc 34be 235a 95bd 2458 10be a26d 2b3e
000000e0: 5655 22be 218a 45be fa1f 66bd 8eb9 12be
000000f0: b335 0bbd 2e97 61be 21bb 04bd 0252 0d3e
00000100: d31b 16be 7f15 bf3c 998a 3d3d 0485 0bbe
00000110: aabe 0f3e 232c d7bc 5671 273e d035 27bd
00000120: feb8 4cbe 2b68 96bd 500f abbd 0ee4 debd
00000130: d81e 0cbe 9d31 90be 4f17 eebe e1fc 9fbe
00000140: 1e0d 1c3e e045 b03d a0a7 75be 4d04 0ebf
00000150: 811c 71bb 5e00 4a3e 00a9 223d 2dc0 81be
00000160: a6e6 9dbe a723 40be a343 7c3e adb5 823e
00000170: 0b13 6fbe 5c21 ccbe efde 85be 8406 273d
00000180: 3ffa 263e 142c 52be c80f eebe c2b9 08bc
00000190: deac 27bd 50ee ea3d 0748 a3bd 0cea eb3d
000001a0: dc69 46be 2558 bebd 2c3c 0cbc 1889 73be
000001b0: 9dcd 2dbe fa22 1dbe c389 0e3e 7a75 f73d
000001c0: b3fc 6cbe f07b 003d 07f7 d3bd 7d71 67bd
000001d0: 8cd3 4bbe a24e 55be b128 83be 2d4d ccbe
000001e0: c67f 00be d502 873d 1d05 79bd 232a 76bd
000001f0: ba7d c4be c721 4dbe 2654 76bd 5b94 61be
00000200: 5a63 24be 1e7b 0d3e c12d 0a3d 4449 28bd
00000210: 64b7 503d e44e 05be 3613 07bc 0798 19be
00000220: c544 f2bd c715 993d f181 60bd 8ca1 85bc
00000230: f318 d9bc 6453 93be f3db 6cbd 6955 563c
00000240: e653 2e3e 2ec5 48bd 08db 6dbe 2fe8 e03d
00000250: 9736 81bd f5a9 b6bd

conv1.bias f4 [6]
0.03132801 0.15559174 0.2970483 -0.08225727 0.3356971 -0.14870909
00000000: cd51 003d 7153 1f3e b716 983e 8076 a8bd
00000010: 7ee0 ab3e 3247 18be

conv2.weight f4 [6, 6, 5, 5]
-0.07849801 -0.0008645107 0.04592967 -0.11690635 -0.16395612 -0.06627725 0.030796587 0.051948234
-0.04035555 0.013730773 -0.024978084 -0.068460174 -0.07629368 0.052943043 -0.03985983 -3.6607118e-05
0.017219253 -0.029677527 0.007259871 0.13654868 -0.058754403 -0.05851736 -0.032322172 0.14840095
0.10831902 -0.10891646 0.0359668 -9.454877e-05 0.025892964 -0.10972417 -0.038609628 0.02929334
-0.070528194 0.008591369 -0.06718942 -0.024667336 -0.055898536 0.05314089 -0.060819954 0.025479518
0.012064638 -0.0089058615 -0.032086976 0.09184002 -0.00097107526 0.016475286 -0.070812434 -0.04640487
-0.025211846 0.08397654 -0.06993147 0.056766875 -0.014336197 -0.022068258 -0.023739934 0.039078463
-0.028790472 0.048024505 0.051011827 -0.06962075 -0.05630286 0.06351487 -0.070825234 -0.04729343
-0.04063672 0.050548874 -0.028274339 -0.030330544 -0.008243122 0.068460435 0.031551525 0.0046751713
0.03482819 0.02159318 0.0124497395 0.0038406416 0.0207898 0.027730629 -0.10651619 -0.16290967
0.01650574 0.015611236 0.03959006 -0.0624419 -0.119976595 0.020502208 -0.08105808 -0.016380033
-0.061468497 0.04299126 0.018248748 -0.098858394 -0.07880754 0.10058547 0.097262815 -0.022845464
0.045937505 -0.044449177 0.11612914 0.18734045 0.06643565 0.013851167 0.0017146985 -0.07429378
-0.1233779 0.04679975 0.010445895 0.037427884 0.03679197 -0.0804027 -0.0001394445 -0.06511788
-0.037916858 0.074215606 -0.02316594 -0.002213043 -0.08638483 0.09199715 0.105772674 0.023977337
-0.044594266 0.04229998 0.030145237 0.09435722 0.20309375 0.05264481 -0.03644981 0.046346977
-0.023360508 -0.08350008 -0.07623752 -0.067970924 -0.040111575 -0.046184205 0.060631018 -0.06607557
-0.03506148 -0.02102997 0.004532145 -0.075086586 -0.060540166 -0.018489322 -0.036322296 0.027581345
-0.034103617 -0.042233083 0.045951236 -0.04374774 0.030046085 0.051018704 0.041756023 0.116902426
-0.05957846 -0.015020155 -0.086398624 -0.012461066 0.14039053 0.20632145 0.029497257 -0.0109398225
-0.019739069 0.16970325 0.2862638 0.12576494 -0.02724478 -0.08244705 0.106937066 0.25068152
0.037132803 -0.028558223 -0.19580601 -0.10456005 0.051065527 -0.069636926 -0.034446824 -0.031142771
0.01575492 -0.037543397 -0.020629767 -0.19807477 -0.05308125 -0.004714588 0.17661034 -0.033318233
-0.15403678 -0.07942254 0.11668838 0.18077666 0.18609819 -0.10556346 0.02747563 -0.00040926912
0.11235483 0.23337483 -0.02008811 0.0055502336 -0.020267414 0.035780843 0.13135129 -0.007974881
-0.078232884 -0.017144065 -0.01842025 -0.10227263 -0.09408207 -0.054046616 -0.01047434 -0.0586046
-0.043253396 -0.061669867 0.057075385 -0.078789115 -0.03140994 -0.07338363 -0.00245273 -0.10237962
-0.04856724 0.038807802 0.0024196452 0.00086044474 0.0027629824 -0.06806345 -0.0748525 -0.08421289
-0.11719435 0.04240432 0.064133614 0.029256944 -0.1640979 -0.18483692 0.03451267 0.17650226
0.15859395 -0.057161555 -0.03583782 -0.060088526 0.26551145 0.22793768 0.09640379 -0.10917434
0.04051684 0.114690356 0.25309533 0.050672133 0.050892793 -0.012006092 0.008845506 0.20755626
0.024264414 -0.07852469 0.0061021657 0.0013024557 0.082611434 -0.13592425 -0.1044127 -0.0016118976
00000000: 91c3 a0bd 55a0 62ba c020 3c3d 996c efbd
00000010: 1de4 27be 5ebc 87bd 2049 fc3c acc7 543d
00000020: dc4b 25bd 09f7 603c d79e ccbc d934 8cbd
00000030: dc3f 9cbd ceda 583d 1044 23bd 988a 19b8
00000040: 640f 8d3c 491e f3bc 36e4 ed3b 6bd3 0b3e
00000050: 75a8 70bd e6af 6fbd 4164 04bd 6bf6 173e
00000060: 5dd6 dd3d 980f dfbd ec51 133d 7c48 c6b8
00000070: 7b1d d43c 11b7 e0bd 2125 1ebd 96f8 ef3c
00000080: 1671 90bd d0c2 0c3c 9b9a 89bd 2713 cabc
00000090: ddf5 64bd 43aa 593d 581e 79bd 6cba d03c
000000a0: c2aa 453c e4e9 11bc a26d 03bd 9f16 bc3d
000000b0: c28f 7eba 2ef7 863c 1c06 91bd 0813 3ebd
000000c0: 1389 cebc e4fb ab3d 3b38 8fbd 6284 683d
000000d0: 5ee2 6abc 7ec8 b4bc 407a c2bc bd10 203d
000000e0: ffd9 ebbc 58b5 443d c7f1 503d 5395 8ebd
000000f0: d49d 66bd 1614 823d d20c 91bd c1b6 41bd
00000100: b072 26bd 560c 4f3d 969f e7bc c377 f8bc
00000110: 290e 07bc fc34 8c3d 2c3c 013d 2e32 993b
00000120: 01a8 0e3d 2ee4 b03c fef9 4b3c 46b3 7b3b
00000130: 5f4f aa3c 582b e33c 2925 dabd cbd1 26be
00000140: 0c37 873c 45c6 7f3c 3029 223d 14c3 7fbd
00000150: 4ab6 f5bd 3ff4 a73c c701 a6bd 6b2f 86bc
00000160: 64c6 7bbd 9a17 303d 667e 953c 4576 cabd
00000170: d965 a1bd c1ff cd3d ba31 c73d 6926 bbbc
00000180: f728 3c3d 5710 36bd 1dd5 ed3d 2dd6 3f3e
00000190: 6a0f 883d 01f0 623c bcbf e03a 5627 98bd
000001a0: 8dad fcbd 18b1 3f3d 4225 2b3c fb4d 193d
000001b0: 2db3 163d 2caa a4bd d937 12b9 865c 85bd
000001c0: b54e 1bbd 5afe 973d 7fc6 bdbc b308 11bb
000001d0: 88ea b0bd 0069 bc3d 589f d83d 1f6c c43c
000001e0: 7aa8 36bd be42 2d3d 25f3 f63c 5c3e c13d
000001f0: cff7 4f3e 16a2 573d 654c 15bd 54d6 3d3d
00000200: 895e bfbc 1702 abbd 6b22 9cbd 5734 8bbd
00000210: 094c 24bd a62b 3dbd 3b58 783d a152 87bd
00000220: a09c 0fbd 0b47 acbc 6382 943b ffc6 99bd
00000230: f7f8 77bd eb76 97bc b0c6 14bd 46f2 e13c
00000240: 3cb0 0bbd 99fc 2cbd 5d37 3c3d d530 33bd
00000250: 3523 f63c fdf8 503d 5d08 2b3d 8a6a ef3d
00000260: 8b08 74bd 1917 76bc c3f1 b0bd 8029 4cbc
00000270: 89c2 0f3e ee45 533e 3ba4 f13c f13c 33bc
00000280: d4b3 a1bc b0c6 2d3e 2b91 923e 86c8 003e
00000290: 7230 dfbc 00da a8bd d201 db3d 5459 803e
000002a0: 9118 183d eff2 e9bc 5f81 48be 9423 d6bd
000002b0: 162a 513d ce9d 8ebd 1d18 0dbd 201f ffbc
000002c0: 7610 813c 1bc7 19bd c2ff a8bc 1dd4 4abe
000002d0: ba6b 59bd d57c 9abb 57d9 343e b378 08bd
000002e0: d1bb 1dbe 49a8 a2bd 51fa ee3d 841d 393e
000002f0: 8690 3e3e a831 d8bd 9314 e13c 2c93 d6b9
00000300: 4a1a e63d d0f9 6e3e d28f a4bc bcde b53b
00000310: d907 a6bc ef8e 123d f480 063e 13a9 02bc
00000320: 9038 a0bd b671 8cbc 10e6 96bc 5074 d1bd
00000330: 1aae c0bd fc5f 5dbd 919c 2bbc 610b 70bd
00000340: 792a 31bd 8b99 7cbd e1c7 693d 305c a1bd
00000350: b6a7 00bd 284a 96bd fbbd 20bb 68ac d1bd
00000360: 71ee 46bd eef4 1e3d e992 1e3b 788f 613a
00000370: 2713 353b da64 8bbd 444c 99bd cf77 acbd
00000380: 9703 f0bd 27b0 2d3d 7c58 833d 42ac ef3c
00000390: 4809 28be e445 3dbe 285d 0d3d 02bd 343e
000003a0: 7466 223e 3c22 6abd aeca 12bd 631f 76bd
000003b0: 1ef1 873e 7f68 693e 5a6f c53d cc96 dfbd
000003c0: fcf4 253d c7e2 ea3d b695 813e 958d 4f3d
000003d0: f674 503d 33b5 44bc beec 103c a189 543e
000003e0: 2ac6 c63c 8dd1 a0bd adf4 c73b 29b7 aa3a
000003f0: 2f30 a93d ba2f 0bbe 53d6 d5bd 4f46 d3ba

conv2.bias f4 [6]
0.17314196 -0.11864024 -0.0102617545 -0.15912671 -0.053800263 -0.07208244
00000000: 204c 313e a7f9 f2bd eb20 28bc 1df2 22be
00000010: aa5d 5cbd f59f 93bd

fc1.weight f4 [50, 96]
0.08745164 -0.0008768278 0.08762129 -0.09141217 -0.094772294 0.05811548 0.07095917 0.0076373997
0.014463698 -0.021452954 0.033268273 0.13090128 -0.031559657 -0.1001832 0.0017930513 -0.0042653964
0.009814795 0.07967175 0.16839145 0.1893387 0.025911957 0.014060677 0.054446373 0.09565865
-0.10299924 -0.014058825 -0.024543341 -0.082793385 -0.066184685 0.012693039 -0.05336146 0.028107582
-0.03654546 -0.04358226 0.07040149 0.04161181 -0.050456855 -0.057347056 0.033256564 -0.08210433
0.0022692787 0.03756245 -0.08447504 0.07397633 -0.037129562 -0.044718195 0.013940651 0.026143305
0.09157612 0.1131152 0.11393204 0.1573996 0.0439504 0.028287651 0.1615839 0.14247851
-0.038910914 0.010837983 -0.060048927 0.030252427 -0.067586124 -0.06844748 -0.019287724 -0.090175
-0.05149527 -0.07015247 -0.015235847 -0.031511165 -0.05239043 0.0118880775 0.04953037 -0.06937537
-0.04219016 -0.06945462 0.03980007 -0.042293068 -0.06425394 -0.11592218 -0.06421136 -0.041612584
-0.076418966 -0.037944578 0.06354287 0.013972714 -0.035597034 -0.012455667 -0.071844354 0.02835746
0.05591619 -0.056674995 -0.10373327 -0.034147788 -0.026175616 0.041365657 -0.07571395 0.07447625
-0.053764634 0.060972136 -0.07020905 -0.038321838 0.027933769 -0.10056109 0.030354239 -0.123968564
-0.018216155 0.057017554 -0.0006367257 -0.04453688 -0.06483048 0.11325421 0.022271072 -0.05755495
0.13443121 -0.09379094 0.046575017 -0.09284567 0.035394993 -0.09387854 0.03950003 -0.023085753
-0.029362993 0.029739313 0.01792983 -0.02480526 -0.006443754 -0.14005491 0.11921564 -0.028512008
-0.02687045 -0.03735126 0.022789855 0.025581332 0.038621586 -0.036056373 0.04287904 0.037959237
-0.1151341 0.005215743 -0.07902957 0.04594126 0.029381156 0.035916843 -0.105749 0.012055852
0.02443232 0.060372792 -0.061632007 0.00040659535 0.010326151 -0.037595496 -0.083745845 -0.03157843
0.05908536 0.039057337 0.09261121 -0.045389034 0.0490659 -0.02607603 -0.08334012 -0.013276313
-0.03451966 0.20339398 0.042282958 0.0037980056 -0.04894294 0.15583651 0.043952182 0.009449941
-0.025361054 0.12193424 -0.05646227 -0.002304026 -0.029607303 0.12285372 -0.059051502 0.12964435
-0.01894131 0.041405536 -0.07604169 -0.1340503 -0.1297021 0.023911977 -0.001046239 -0.14813668
0.025905604 0.066591345 -0.08088131 -0.108887084 0.0010009191 0.07900106 -0.04156271 -0.078863665
-0.07856521 0.0959708 -0.07522163 -0.10620698 0.10326868 0.01024004 0.023830546 0.07832605
0.035021927 -0.044394836 0.07635607 0.02537956 0.054904547 0.04411415 0.043635294 0.058036346
0.037277266 0.103457466 0.008435364 0.12202132 -0.06459377 0.11063639 -0.017228058 0.051464137
-0.084395654 -0.030894412 -0.101649806 0.07254539 -0.072321944 -0.13447171 -0.13045137 -0.045862447
0.12502778 0.12440374 0.019434715 -0.026808195 -0.0023987938 0.13311698 0.06755927 -0.010892386
-0.104264185 -0.09391467 -0.003905573 -0.044534907 -0.12995379 -0.024341077 0.030055797 -0.01890761
0.013130926 0.019619767 0.10631027 0.12909827 -0.05532448 0.01825086 -0.017043043 0.057178717
-0.037175506 -0.053308718 -0.03623516 -0.036506053 0.010397042 0.012479072 -0.07146731 -0.082834244
00000000: d819 b33d ebda 65ba ca72 b33d 4e36 bbbd
00000010: fa17 c2bd 7f0a 6e3d 0b53 913d 2743 fa3b
00000020: 25f9 6c3c 1bbe afbc 5044 083d fc0a 063e
00000030: b344 01bd d92c cdbd d104 eb3a bdc4 8bbb
00000040: 3cce 203c f12a a33d cf6e 2c3e 01e2 413e
00000050: 5045 d43c c15e 663c 2903 5f3d afe8 c33d
00000060: 44f1 d2bd fc56 66bc 1e0f c9bc 948f a9bd
00000070: d68b 87bd 77f6 4f3c 8c91 5abd df41 e63c
00000080: b1b0 15bd 5083 32bd a82e 903d 2571 2a3d
00000090: d9ab 4ebd bfe4 6abd 0938 083d 5126 a8bd
000000a0: 2eb8 143b 15db 193d 4001 adbd e780 973d
000000b0: 2b15 18bd 6d2a 37bd 5467 643c 7c2a d63c
000000c0: 438c bb3d f1a8 e73d 3455 e93d 5c2d 213e
000000d0: 5605 343d 81bb e73c 4076 253e e3e5 113e
000000e0: 0d61 1fbd cc91 313c ddf5 75bd f0d3 f73c
000000f0: 986a 8abd 312e 8cbd 4a01 9ebc acad b8bd
00000100: b4ec 52bd 19ac 8fbd c69f 79bc da11 01bd
00000110: 5997 56bd 36c6 423c 5be0 4a3d ad14 8ebd
00000120: 97cf 2cbd 393e 8ebd 6605 233d 7f3b 2dbd
00000130: 9297 83bd 9c68 edbd 3f81 83bd f571 2abd
00000140: 8c81 9cbd c66b 1bbd c422 823d cfed 643c
00000150: 32ce 11bd db12 4cbc 2223 93bd e74d e83c
00000160: 6008 653d 0a24 68bd 1c72 d4bd 8dde 0bbd
00000170: 3f6e d6bc 096f 293d ea0f 9bbd 0187 983d
00000180: 4e38 5cbd ebbd 793d c3c9 8fbd 5cf7 1cbd
00000190: 5cd5 e43c f9f2 cdbd 74a9 f83c 3be3 fdbd
000001a0: 0c3a 95bc 3d8b 693d f0e9 26ba 4e6c 36bd
000001b0: d8c5 84bd d3f1 e73d d371 b63c bdbe 6bbd
000001c0: 56a8 093e 7715 c0bd 72c5 3e3d df25 bebd
000001d0: 57fa 103d 6443 c0bd c9ca 213d 551e bdbc
000001e0: a98a f0bc dc9f f33c 94e1 923c 6734 cbbc
000001f0: 2026 d3bb 8e6a 0fbe 5427 f43d 0492 e9bc
00000200: 6b1f dcbc a3fd 18bd cab1 ba3c f18f d13c
00000210: ab31 1e3d d9af 13bd efa1 2f3d 257b 1b3d
00000220: 6dcb ebbd d3e8 aa3b 41da a1bd e72c 3c3d
00000230: c0b0 f03c 8a1d 133d ef92 d8bd e985 453c
00000240: 4a26 c83c 7649 773d d871 7cbd 4e2c d539
00000250: 042f 293c bcfd 19bd f182 abbd 6258 01bd
00000260: 7e03 723d 96fa 1f3d f2aa bd3d dae9 39bd
00000270: 53f9 483d 669d d5bc 3aae aabd e584 59bc
00000280: 7d64 0dbd 8346 503e e530 2d3d f6e7 783b
00000290: 6478 48bd 9b93 1f3e 3407 343d edd3 1a3c
000002a0: fcc1 cfbc a9b8 f93d fb44 67bd 24ff 16bb
000002b0: 048b f2bc bb9a fb3d fddf 71bd 7dc1 043e
000002c0: ce2a 9bbc da98 293d bfbb 9bbd 7b44 09be
000002d0: a1d0 04be 0de3 c33c f521 89ba 24b1 17be
000002e0: fd37 d43c 0b61 883d 1aa5 a5bd 3100 dfbd
000002f0: 4631 833a 4fcb a13d a93d 2abd 4683 a1bd
00000300: cce6 a0bd 578c c43d cc0d 9abd 0c83 d9bd
00000310: 887e d33d d7c5 273c 4738 c33c 6869 a03d
00000320: 2773 0f3d 5cd7 35bd 9260 9c3d cce8 cf3c
00000330: 97e3 603d 0ab1 343d ecba 323d 85b7 6d3d
00000340: 0cb0 183d 82e1 d33d 7b34 0a3c 50e6 f93d
00000350: bd49 84bd 5595 e23d db21 8dbc 0fcc 523d
00000360: a1d7 acbd 4716 fdbc c62d d0bd ad92 943d
00000370: 871d 94bd f4b2 09be 0b95 05be 43da 3bbd
00000380: 4807 003e 63c7 fe3d 8d35 9f3c dc9c dbbc
00000390: 1535 1dbb d14f 083e 845c 8a3d fa75 32bc
000003a0: 7688 d5bd 5656 c0bd a4f4 7fbb 3c6a 36bd
000003b0: 9b12 05be f066 c7bc 9337 f63c 22e4 9abc
000003c0: 1823 573c a2b9 a03c 33b9 d93d 5632 043e
000003d0: ec9b 62bd d482 953c da9d 8bbc 3b34 6a3d
000003e0: 5845 18bd 3e5a 5abd 526b 14bd 5f87 15bd
000003f0: 5b58 2a3c 0675 4c3c 745d 92bd 00a5 a9bd

fc1.bias f4 [50]
0.05586461 -0.107779875 0.07722716 0.027534358 0.00091234024 0.123187125 -0.05279933 0.11255956
-0.027356395 0.067410395 0.075958334 0.06777146 -0.08362164 -0.012193992 -0.065735936 0.08872569
0.11761975 0.024380304 0.073048554 -0.08556201 -0.0061595533 0.09909354 0.07216297 -0.017239483
-0.063041516 0.12097865 -0.025383571 -0.045566037 0.027275631 -0.089600556 0.110964246 -0.016401317
-0.017668502 -0.047005896 -0.016431088 0.10053655 0.050924826 -0.10119551 -0.047201447 0.03670734
0.051216487 0.022924516 0.054227304 -0.03481147 0.03900359 -0.013923555 -0.0532598 0.034965094
-0.08128919 0.08494579
00000000: 4ad2 643d b2bb dcbd 4629 9e3d bc8f e13c
00000010: 1e2a 6f3a 8849 fc3d 1c44 58bd a085 e63d
00000020: 851a e0bc 760e 8a3d 0b90 9b3d c3cb 8a3d
00000030: d341 abbd 4fc9 47bc 90a0 86bd d1b5 b53d
00000040: a0e2 f03d 34b9 c73c 7b9a 953d 233b afbd
00000050: 14d6 c9bb 8ef1 ca3d 2eca 933d d139 8dbc
00000060: e91b 81bd a8c3 f73d 35f1 cfbc 74a3 3abd
00000070: 2571 df3c 7f80 b7bd 3941 e33d 0e5c 86bc
00000080: 89bd 90bc 4189 40bd 7d9a 86bc 1be6 cd3d
00000090: 8d96 503d 973f cfbd 4e56 41bd 705a 163d
000000a0: 61c8 513d 32cc bb3c 731d 5e3d 7996 0ebd
000000b0: 3ac2 1f3d 9f1f 64bc f326 5abd 8f37 0f3d
000000c0: f27a a6bd 0ff8 ad3d

fc2.weight f4 [10, 50]
-0.014927883 -0.1738467 0.03006226 -0.09046372 0.14306909 0.048567865 -0.23393868 -0.055171106
-0.044478253 0.13176763 -0.18410578 0.08344359 0.16587585 -0.1592315 -0.09418365 0.02013583
0.09897918 -0.06508561 0.10168493 0.13825963 0.036277313 -0.11954639 0.18727782 -0.31575456
0.16624315 0.15577856 -0.11728027 -0.07721364 -0.19450836 0.11414444 0.076876774 -0.11309979
-0.12044099 0.040251844 -0.11640958 0.024153586 0.2967373 0.037825376 -0.09564436 -0.020027993
0.052176517 0.18482772 -0.1275795 0.10753305 -0.07531467 0.22304484 -0.07404897 0.025366003
0.046344057 0.11412144 -0.21104516 0.031357188 -0.23894465 -0.29899347 0.1437963 0.04378014
0.17064574 0.25331497 -0.09845556 -0.13306831 0.012390506 -0.11260821 -0.17471728 0.07180264
0.10929409 -0.027721075 0.04966977 -0.35159987 0.28395393 0.21852078 -0.0130507955 -0.22323824
-0.031212127 0.10906778 0.08695073 -0.20092726 0.01472071 -0.09587093 0.0048397905 0.11621098
0.10703048 -0.10493463 -0.04551751 0.06333497 0.17805976 0.031810664 -0.17332424 0.078820236
-0.04484303 -0.26375806 0.19971743 -0.12019824 -0.03054494 0.042840254 -0.066874444 0.02320409
-0.1641663 -0.32371208 -0.18653631 0.11191642 -0.095419884 -0.14504008 0.055046834 0.045801423
0.07336183 0.096197836 -0.20800939 0.22984189 0.1252427 0.16985153 0.05214883 -0.1211346
0.12326968 -0.18687223 0.1347508 -0.108669 -0.17450467 -0.041722674 -0.14130504 0.11247537
-0.16967982 0.021201145 0.2046112 0.044495516 -0.18891743 0.10618889 -0.14232181 -0.005642548
0.12050291 -0.20607433 0.044913694 -0.23499489 0.06257674 -0.08526212 0.03711473 -0.022660686
0.21929361 -0.25319567 -0.0941264 0.14681439 0.0702376 -0.13544773 0.0016215728 0.0050479444
0.052944675 -0.03366835 -0.19155681 0.058475465 0.19904678 0.10398897 -0.030446876 0.05674713
0.102088496 -0.017303525 0.16788304 0.09716911 -0.12633713 -0.14324681 -0.14211042 -0.24736902
-0.018077087 0.18054491 -0.04135836 0.15380672 0.035031475 0.021022815 0.09154866 0.0511797
0.13241097 -0.026776806 -0.14897977 -0.07870754 -0.12707645 -0.26747027 0.14661072 0.00044011854
-0.21970582 0.048703242 -0.20166023 0.09743689 0.08125885 -0.0053124754 0.19727692 0.04559158
0.15583998 0.04209357 -0.12090738 0.12006293 -0.046895795 -0.04470769 0.10817304 0.16225472
0.1147885 0.056541286 -0.09677719 -0.1278091 -0.16198571 0.19537407 -0.060523048 0.0872434
-0.2849072 0.22300474 -0.18858783 -0.093268454 0.031702075 0.10951239 -0.020589283 0.21477222
0.07656877 -0.19495746 0.027074594 0.12273011 0.04288684 -0.12520233 0.13567108 0.17469518
-0.04644628 -0.15775451 0.0063806823 -0.21501516 0.03774846 -0.07894746 -0.21144028 0.1059235
-0.20965333 0.0010308366 -0.084277764 0.013047898 0.1369032 -0.046799246 0.014177782 0.22526169
0.10347703 0.13476783 0.12785654 0.10811136 -0.23023327 -0.030113162 -0.16032797 0.14804107
-0.12927248 0.10125658 0.0958769 -0.01716155 0.038431272 -0.09764667 -0.1529131 -0.01292076
-0.2067049 0.09714587 0.10893723 -0.026400262 -0.24950443 0.21209866 0.08675133 -0.17793229
00000000: 1494 74bc df04 32be 2145 f63c 0b45 b9bd
00000010: b480 123e 19ef 463d 9f8d 6fbe 19fb 61bd
00000020: d42e 36bd 18ee 063e 3a86 3cbe 79e4 aa3d
00000030: 5cdb 293e 950d 23be 5ce3 c0bd e5f3 a43c
00000040: 99b5 ca3d 9b4b 85bd 3040 d03d ef93 0d3e
00000050: 8597 143d bdd4 f4bd c2c5 3f3e 95aa a1be
00000060: a53b 2a3e 6a84 1f3e a330 f0bd 2f22 9ebd
00000070: 332d 47be 8fc4 e93d 9271 9d3d dda0 e7bd
00000080: c4a9 f6bd 1edf 243d 2568 eebd bedd c53c
00000090: f4ed 973e c8ee 1a3d 31e1 c3bd bf11 a4bc
000000a0: 0bb7 553d 7a43 3d3e 33a4 02be 4a3a dc3d
000000b0: 943e 9abd de65 643e fda6 97bd 5dcc cf3c
000000c0: 44d3 3d3d 80b8 e93d 391c 58be 6570 003d
000000d0: e8ad 74be ac15 99be 563f 133e ce52 333d
000000e0: c2bd 2e3e 80b2 813e 12a3 c9bd 0f43 08be
000000f0: 8d01 4b3c 229f e6bd 16e9 32be 430d 933d
00000100: 94d5 df3d 4f17 e3bc 8772 4b3d e604 b4be
00000110: 6962 913e e9c3 5f3e 01d3 55bc 9198 64be
00000120: 93b0 ffbc ee5e df3d 3913 b23d e0bf 4dbe
00000130: 222f 713c fa57 c4bd 1b97 9e3b 0600 ee3d
00000140: cc32 db3d f8e7 d6bd 9270 3abd c4b5 813d
00000150: 4c55 363e e64b 023d e97b 31be 816c a13d
00000160: 53ad 37bd 4c0b 87be ba82 4c3e 7f2a f6bd
00000170: 6239 fabc 4379 2f3d 78f5 88bd 8116 be3c
00000180: 361b 28be 97bd a5be 6003 3fbe 7034 e53d
00000190: 806b c3bd 6385 14be ca78 613d 469a 3b3d
000001a0: ba3e 963d 5f03 c53d 6a00 55be ac5b 6b3e
000001b0: 9f3f 003e 8fed 2d3e 039a 553d 6b15 f8bd
000001c0: d074 fc3d 6f5b 3fbe 1dfc 093e da8d debd
000001d0: 5ab1 32be 65e5 2abd 45b2 10be 7d59 e63d
000001e0: 8cc0 2dbe 06ae ad3c 9985 513e ee40 363d
000001f0: 9273 41be 9079 d93d cfbc 11be 20e5 b8bb
00000200: 3bca f63d 2605 53be 6cf7 373d 80a2 70be
00000210: 3c28 803d e89d aebd 9d05 183d e7a2 b9bc
00000220: 818e 603e dda2 81be 58c5 c0bd 8356 163e
00000230: bbd8 8f3d cfb2 0abe f48a d43a 3a69 a53b
00000240: 84dc 583d d3e7 09bd 7827 44be f883 6f3d
00000250: ebd2 4b3e 2bf8 d43d ba6b f9bc ae6f 683d
00000260: c613 d13d 1fc0 8dbc 88e9 2b3e 9900 c73d
00000270: 855e 01be 4baf 12be 6585 11be 4e4e 7dbe
00000280: 6616 94bc c4e0 383e 6267 29bd 827f 1d3e
00000290: 2a7d 0f3d 0a38 ac3c dd7d bb3d cea1 513d
000002a0: be96 073e 085b dbbc 278e 18be 6b31 a1bd
000002b0: 5420 02be ddf1 88be 1f21 163e b6bf e639
000002c0: 90fa 60be 0d7d 473d 0580 4ebe fe8c c73d
000002d0: 0a6b a63d 4614 aebb f602 4a3e 3dbe 3a3d
000002e0: 8494 1f3e 4f6a 2c3d 4a9e f7bd 8ee3 f53d
000002f0: ce15 40bd 691f 37bd d489 dd3d 1a26 263e
00000300: 3c16 eb3d d697 673d 1f33 c6bd 64e0 02be
00000310: 95df 25be 2410 483e 04e7 77bd abac b23d
00000320: 5bdf 91be 5b5b 643e 2b1d 41be 8803 bfbd
00000330: 09da 013d 0848 e03d dbaa a8bc 40ed 5b3e
00000340: 16d0 9c3d eea2 47be 8acb dd3c ed59 fb3d
00000350: 1caa 2f3d 0a35 00be 5ced 0a3e 4be3 323e
00000360: 743e 3ebd 668a 21be 0b15 d13b ef2c 5cbe
00000370: 219e 1a3d 35af a1bd cd83 58be 6cee d83d
00000380: 5daf 56be 231d 873a d299 acbd dac6 553c
00000390: 5a30 0c3e 91b0 3fbd ee49 683c 00ab 663e
000003a0: c4eb d33d 9400 0a3e d3ec 023e 7d69 dd3d
000003b0: 45c2 6bbe e1af f6bc 042d 24be 1498 173e
000003c0: 0160 04be 9c5f cf3d 1c5b c43d 6196 8cbc
000003d0: 1c6a 1d3d fafa c7bd 4095 1cbe 98b1 53bc
000003e0: 73aa 53be 6af4 c63d 7c1a df3d 5d45 d8bc
000003f0: 177e 7fbe 6430 593e aeaa b13d e233 36be

fc2.bias f4 [10]
0.059982937 -0.18726182 0.23748356 -0.1785835 0.09330623 -0.18467505 0.06710425 -0.08417754
-0.15775818 -0.00413275
00000000: abb0 753d 90c1 3fbe e42e 733e 98de 36be
00000010: 5617 bf3d 751b 3dbe f46d 893d 4665 acbd
00000020: 5c8b 21be 056c 87bb
